results/run8/CarAgent/CarAgent-499980.onnx (onnx, 126338 bytes, 7 tensors)

network_body._body_endoder.seq_layers.0.weight f4 [128, 106]
0	0x3da2ceab	0.07949575
1	0xbdfdffd8	-0.12402314
2	0x3d1ed615	0.038778383
3	0x3e31f720	0.17379427
4	0xbc981f1d	-0.018569523
5	0x3d029ff8	0.03189084
6	0xbda90900	-0.0825367
7	0xbe3542ab	-0.17701213
8	0xbe4984ac	-0.19679517
9	0xbb85a418	-0.0040783994
10	0x3e456a90	0.19278932
11	0xbe2364ab	-0.1595637
12	0x3df78677	0.12086194
13	0xbd47a8e0	-0.048745036
14	0x3cbe85d0	0.023257166
15	0xbe0b339d	-0.13593908
16	0xbe1bedb3	-0.15227394
17	0xbe5209ed	-0.20511599
18	0xbd54d5a1	-0.051961545
19	0x3d974bcb	0.07387503
20	0x3ce88a16	0.028386157
21	0x3c9653a3	0.018350428
22	0x3db622e8	0.088933766
23	0x3de7c48e	0.11316787
24	0x3d4181f7	0.047243085
25	0xbe5c4e19	-0.21514167
26	0x3d85717f	0.06515788
27	0x3d83518e	0.0641204
28	0xbd33663c	-0.04379867
29	0xbd0dcb34	-0.034617618
30	0x3d097478	0.03355834
31	0x3d833f7e	0.064085945
32	0x3dc1f443	0.09470417
33	0x3c86b8da	0.016445566
34	0xbd71420e	-0.058900885
35	0x3d9f48b8	0.07777542
36	0xbd83e17a	-0.064394906
37	0x3ddb7b2c	0.107168525
38	0xbca76a30	-0.020436376
39	0x3cb768fe	0.022388931
40	0xbd8ff367	-0.07028847
41	0xbd2e78b2	-0.042595573
42	0xbd3738b3	-0.044731807
43	0xbdebab57	-0.1150729
44	0xbd9745b5	-0.073863424
45	0x3d7fea8b	0.062479537
46	0x3d28d031	0.04121417
47	0x3d57a898	0.052651018
48	0x3e0f6089	0.14001669
49	0xbdb476d8	-0.0881173
50	0xbdf97dbf	-0.12182187
51	0x3d459c0d	0.048244525
52	0xbd31d4eb	-0.043415945
53	0xbe2a5e68	-0.16637576
54	0xbdf0b8f3	-0.11754026
55	0xbd4851bf	-0.048906084
56	0xbe093d37	-0.13402258
57	0xbdd4c138	-0.10388416
58	0xbe031e26	-0.1280447
59	0xbd6eca3a	-0.058298327
60	0xbe831deb	-0.25608763
61	0xbd1b2917	-0.037880983
62	0xbd53ade6	-0.051679514
63	0xbceaf765	-0.02868242
64	0xbbb8ef9f	-0.0056437994
65	0x3da1b8ab	0.07896551
66	0x3b084a40	0.002079621
67	0x3d359d6f	0.044339593
68	0xbd929489	-0.07157237
69	0x3c722717	0.014779828
70	0x3e00e5e2	0.12587693
71	0x3d051eb3	0.03249998
72	0xbd655dc9	-0.055997644
73	0xbe087033	-0.1332405
74	0xbb2d0318	-0.002639955
75	0x3d7261b8	0.059175223
76	0x3d112905	0.03543951
77	0xbd3f4700	-0.04669857
78	0x3e39b4de	0.18135402
79	0xbdc28f88	-0.09500033
80	0xbdc518de	-0.09623884
81	0xbdbc6abd	-0.09200046
82	0x3e07aaf3	0.13248806
83	0xbc4a4adc	-0.012346949
84	0x3d44d2fb	0.04805277
85	0xbe10758e	-0.14107344
86	0x3d463439	0.048389647
87	0xbd7268fc	-0.059182152
88	0xbd9845f2	-0.07435216
89	0x3c9a9c38	0.018873319
90	0xbe04cd2c	-0.12968892
91	0x3d1d1961	0.03835428
92	0x3dff9d77	0.12481206
93	0x3e0a993f	0.13535021
94	0xbdb99ea8	-0.090634644
95	0x3bda2b35	0.0066579827
96	0xbd79d272	-0.060991712
97	0x3d620a00	0.055185318
98	0x3cbbb4f8	0.022913441
99	0x3e0c452e	0.13698265
100	0xbd48407c	-0.048889622
101	0x3e1d76c3	0.15377335
102	0x3da7522d	0.08169971
103	0xbd6df5a7	-0.0580956
104	0x3cf837f4	0.030300118
105	0xbcf700d7	-0.030151768
106	0x3dee1fcd	0.11627159
107	0xbe6fec8b	-0.23430078
108	0x3cbdee30	0.023184866
109	0xba937e69	-0.0011252883
110	0x3d9bebd0	0.07613337
111	0xbe1ae59a	-0.15126649
112	0x3b884b6c	0.0041593816
113	0xbe0c6bcd	-0.13712998
114	0x3d0dc4d8	0.034611553
115	0xbe5dc02b	-0.21655338
116	0x3c6bef31	0.014400289
117	0xbc80cd8a	-0.015723009
118	0x3d46afd8	0.04850754
119	0xbddb7725	-0.107160844
120	0xba2ee0eb	-0.00066710886
121	0x3cf11169	0.029427247
122	0x3d3c1782	0.045920856
123	0xbe1e941a	-0.15486184
124	0xbdf01aee	-0.117238864
125	0xbcedbe8c	-0.029021524
126	0x3e9e61d1	0.30934003
127	0xbe231387	-0.15925418
128	0xbe9d3b1f	-0.30709168
129	0xbe0d86dd	-0.13820978
130	0xbc9234a0	-0.01784736
131	0x3d2e96e1	0.042624358
132	0xbdb1715b	-0.08664199
133	0xbe6995c0	-0.22811031
134	0xbddb2c5b	-0.107018195
135	0xbd931263	-0.07181241
136	0x3b70b47d	0.0036728673
137	0xbe3e6636	-0.18593678
138	0xbd6c49ac	-0.057687446
139	0x3e2f3067	0.17108308
140	0x3d549a96	0.051905237
141	0x3d8098c0	0.06279135
142	0x3d7db7f6	0.061943017
143	0xbd44d67e	-0.04805612
144	0xbc90f123	-0.017693108
145	0xbbb41df6	-0.0054967357
146	0xbcd12de5	-0.02553458
147	0x3da6fd5f	0.081537955
148	0xbe3c78ad	-0.18405409
149	0xbe92cfc4	-0.28674138
150	0xbd0c17ae	-0.03420227
151	0xbd430cf9	-0.047619794
152	0xbe127d54	-0.14305621
153	0x3e1fe36e	0.15614101
154	0x3e3f849d	0.18702932
155	0x3d9528b4	0.07283154
156	0x3d974c62	0.07387616
157	0x3c8d02d2	0.017213259
158	0x3e698cd8	0.22807634
159	0x3dee6bee	0.1164168
160	0xbd076500	-0.033055305
161	0xbdb53813	-0.08848586
162	0x3d158b59	0.036509845
163	0x3e447032	0.19183424
164	0x3d95eeef	0.073209636
165	0xbd3dbab8	-0.046320647
166	0x3c923e86	0.01785208
167	0x3e1dde6f	0.15416883
168	0xbd727711	-0.05919558
169	0x3e5bb2a4	0.21454865
170	0xbd981922	-0.07426669
171	0x3d9959a4	0.07487801
172	0x3dec4c15	0.11537949
173	0x3cc97a7e	0.024594542
174	0xbda01e05	-0.07818226
175	0x3d06d0d2	0.03291399
176	0x3ddf0fe0	0.108917
177	0xbc542c6d	-0.012950045
178	0x3e0d1599	0.1377777
179	0x3d8d9e06	0.06914906
180	0x3e0b4090	0.13598847
181	0x3e26c3e7	0.16285668
182	0x3da8ff46	0.082518145
183	0xbda3ea1d	-0.08003638
184	0xbd057f03	-0.03259183
185	0xbd3e468f	-0.04645401
186	0x3c357bdd	0.011076895
187	0xbe9335e7	-0.28752062
188	0x3e2e1ff7	0.17004381
189	0xbc025c98	-0.007956646
190	0xbdc0af74	-0.09408465
191	0xbda0a3e7	-0.07843762
192	0x3ca45cfe	0.020063873
193	0x3d0ac61b	0.033880334
194	0xbd365432	-0.04451389
195	0xbd64f696	-0.055899225
196	0xbd1d5f8e	-0.038421206
197	0x3d9d90b4	0.076936156
198	0xbd231238	-0.039812297
199	0x3d852781	0.065016754
200	0x3d1d911e	0.038468473
201	0xbdae3bba	-0.08507486
202	0xbe3fccdf	-0.18730496
203	0xbcc0acd2	-0.023519907
204	0x3c99e370	0.018785208
205	0xbcb93580	-0.022608519
206	0x3e029555	0.12752278
207	0xbdbbb407	-0.09165197
208	0xbd0e84ae	-0.034794502
209	0xbcda7b63	-0.026670163
210	0xbd942638	-0.07233852
211	0x3e1f2539	0.15541543
212	0x3ddd16ab	0.10795339
213	0xbdc872b5	-0.09787504
214	0x3d43685e	0.047706954
215	0x3cdf8238	0.027283773
216	0x3c32750d	0.010892165
217	0xbdb535a6	-0.08848123
218	0xbe079fa4	-0.13244492
219	0x3dca29ac	0.098712295
220	0xbe2b264b	-0.16713826
221	0xbd7c8b78	-0.061656445
222	0xbe12e4cb	-0.1434509
223	0x3e0bd054	0.1365369
224	0xbddd1791	-0.107955106
225	0x3dac8593	0.08423915
226	0x3e38f9bb	0.18064015
227	0x3cffa63d	0.031207198
228	0xbe15b6dd	-0.14620538
229	0x3c83baff	0.016080378
230	0xbdfc89e4	-0.12330988
231	0x3e26f898	0.16305768
232	0xbc336348	-0.010948963
233	0x3c15d515	0.009145041
234	0xbd1b0421	-0.037845735
235	0x3d04d907	0.032433536
236	0x3cc9bc3e	0.024625894
237	0x3d3467aa	0.044044174
238	0xbd347f32	-0.044066615
239	0x3c581e53	0.013190824
240	0x3d9bfa38	0.07616085
241	0x3d3ed800	0.046592712
242	0x3ded090c	0.11573991
243	0x3da32d9d	0.079676844
244	0xbd038aac	-0.03211467
245	0xbda1784f	-0.07884275
246	0x3cf69866	0.030101966
247	0xbb16d7c3	-0.0023016788
248	0xbe11d96a	-0.14243093
249	0x3c4e5607	0.012593753
250	0xbd23ea3d	-0.04001831
251	0xbd3394ba	-0.04384301
252	0xb96740ac	-0.00022053969
253	0x3bd27969	0.0064231646
254	0x3e64ce4a	0.22344318
255	0xbd804d22	-0.06264712

network_body._body_endoder.seq_layers.0.bias f4 [128]
0	0xbc80c92d	-0.015720928
1	0x3b538dec	0.0032280637
2	0xbc551f54	-0.0130079575
3	0xbc243a87	-0.01002372
4	0x3d0a5d7e	0.033780567
5	0x3c902f95	0.017600814
6	0xbc8d75bb	-0.017268052
7	0x3959d796	0.00020775045
8	0xbb81775d	-0.003950997
9	0x3c9eaf69	0.019370751
10	0x3c71be3c	0.014754828
11	0x3cabe0c9	0.02098121
12	0x3ca1445d	0.019685918
13	0x3cb8cb40	0.022557855
14	0x3c4a4ddb	0.012347664
15	0x3c5e5667	0.013570405
16	0x3c4bea15	0.012445946
17	0x3be2915d	0.0069143013
18	0x3caaf1c5	0.020867238
19	0x3cd49ae3	0.025952762
20	0xbc6ae992	-0.014337914
21	0x3c518380	0.0127877
22	0x3cac5bd2	0.021039877
23	0x3b998f16	0.0046862466
24	0xbc953667	-0.018214418
25	0xbc905108	-0.017616764
26	0xbbc3931e	-0.0059684655
27	0x3c0d3c18	0.0086202845
28	0x3c8b3971	0.016995164
29	0x3cba1220	0.02271372
30	0x3bc7e4dd	0.0061002807
31	0x3b5efa25	0.003402361
32	0x3ca85fe6	0.02055354
33	0x3c8ac130	0.016937822
34	0x3c24b708	0.010053404
35	0x3c93dd82	0.01804996
36	0x3c195ffc	0.009361263
37	0x3c82a08b	0.015945693
38	0x3c6cb464	0.014447305
39	0x3ba96e39	0.0051706103
40	0x3c4d8cc4	0.012545768
41	0x3cd0d0eb	0.025490245
42	0x3d11351f	0.03545105
43	0x3cd5e9be	0.026112434
44	0xbc13ee53	-0.009028989
45	0x3c83edcf	0.016104607
46	0x3c72f9c9	0.014830061
47	0x3c617f52	0.013763266
48	0x3cbc9b56	0.023023289
49	0x3bdf82a4	0.0068209935
50	0x3a99aa5d	0.0011723746
51	0xb974d695	-0.00023349591
52	0x3caf7ab2	0.02142081
53	0x3c93fb36	0.018064123
54	0xbca92f33	-0.02065239
55	0x3cb96c32	0.0226346
56	0xb734bd79	-1.0772951e-05
57	0xbc7b72d3	-0.0153472
58	0x3b90dda9	0.004420955
59	0x3bf02dbd	0.007329671
60	0x3d0a40b6	0.03375312
61	0x3b22700f	0.002478603
62	0x3d07c9b7	0.033151355
63	0xbc9385df	-0.01800817
64	0xbcbaadd7	-0.022787971
65	0xbc411deb	-0.011786918
66	0x3c9ba588	0.01899983
67	0x3c0d5c84	0.0086280145
68	0x3affb334	0.0019508363
69	0x3b9af2a7	0.0047286334
70	0xbc871432	-0.016489122
71	0xbc23b902	-0.00999284
72	0x3c3e5853	0.011617738
73	0x3bd12252	0.006382265
74	0x3b8afdfb	0.0042417026
75	0x3c8d5330	0.017251581
76	0x3c354bd6	0.011065444
77	0x3cc55e0b	0.024092695
78	0xbb8b3a98	-0.0042489283
79	0xbc84ec39	-0.016225921
80	0x3c3ad11b	0.011402394
81	0x3c58539f	0.013203531
82	0xbc7e101e	-0.015506772
83	0x3c8d37af	0.017238466
84	0x39d94c9c	0.00041446544
85	0x3d17c273	0.037050676
86	0x3c07e84a	0.008295128
87	0x3cabbf8f	0.020965366
88	0x3c776b0e	0.015101207
89	0xbc7d80f4	-0.015472639
90	0x3cad01f8	0.021119103
91	0xba13ca79	-0.0005637776
92	0xbb5bc12b	-0.0033531885
93	0x3c0ce8df	0.008600443
94	0xbbacb7b5	-0.005270923
95	0x3b77810a	0.0037766122
96	0x3c934a9a	0.017979909
97	0x3c693cc1	0.014235676
98	0x3b98a658	0.0046585016
99	0x3c7af481	0.015317083
100	0xbd15c3c5	-0.036563653
101	0xbbbca36f	-0.0057567875
102	0x3bb238d1	0.005438902
103	0xbc7aa13a	-0.0152972285
104	0x3b40b06a	0.0029402026
105	0xbc5369ed	-0.012903673
106	0x3c528e29	0.012851276
107	0xbc8bf0b5	-0.017082551
108	0x3c8f42ee	0.01748797
109	0x3c80141f	0.015634594
110	0x3c95184b	0.01820006
111	0x3c1ec83b	0.009691293
112	0x3c8d6b21	0.017262997
113	0xbc16db9a	-0.0092076305
114	0x3cb4d462	0.022073928
115	0xbb7ef7b3	-0.0038904964
116	0x3c671826	0.0141048785
117	0xbc5451a4	-0.012958918
118	0xba4d4b5b	-0.0007831358
119	0xbb59dace	-0.003324199
120	0x3c2ece51	0.010669307
121	0xbc54fb17	-0.012999318
122	0x3ce82402	0.028337482
123	0x3b5363aa	0.003225545
124	0x3c6abc6d	0.014327151
125	0xbbdda2a2	-0.006763772
126	0xbb843961	-0.0040351604
127	0xbb3d6fa7	-0.0028905661

network_body._body_endoder.seq_layers.2.weight f4 [128, 128]
0	0x3cc3d6d5	0.02390615
1	0xbd26bc65	-0.04070701
2	0x3c993a4a	0.018704552
3	0x3d9a3a98	0.07530707
4	0xbcab4a5d	-0.020909483
5	0x3d4cf2e3	0.050036322
6	0x3cb72939	0.022358524
7	0xbcb28273	-0.021790719
8	0x3cb0e798	0.021594808
9	0x3dc53896	0.096299335
10	0x3dcb80f3	0.099367045
11	0xbd58cd5a	-0.052930214
12	0xbd84494c	-0.06459293
13	0x3dfe0d1a	0.12404843
14	0x3e0af3a2	0.13569501
15	0xbc68e856	-0.014215549
16	0x3d6434b9	0.055714343
17	0xbd24576d	-0.04012244
18	0xbe36adc8	-0.1783973
19	0xbbafe468	-0.0053678043
20	0x3ced6e99	0.028983401
21	0x3d8ab7ff	0.06773376
22	0xbdc537fb	-0.09629818
23	0x3daf94ac	0.08573279
24	0xbd6ade04	-0.057340637
25	0xbdb6d98a	-0.08928211
26	0x3ca18d48	0.019720688
27	0x3badca07	0.0053036246
28	0x3e5076ff	0.20357893
29	0xbcd76264	-0.026292033
30	0x3ca03506	0.019556534
31	0xbd8d7e43	-0.06908848
32	0x3e472582	0.19447902
33	0xbe0f5614	-0.1399768
34	0xbdb68d24	-0.08913639
35	0x3e0b8172	0.13623598
36	0x3db6ef4d	0.08932362
37	0x3da3a8d8	0.07991189
38	0xbd0cee77	-0.034407105
39	0xbe1fabe9	-0.15592922
40	0xbdf06b30	-0.117391944
41	0x3d974b6d	0.07387433
42	0xbc006abf	-0.00783795
43	0xbd3162b5	-0.043307025
44	0xbd8d22a7	-0.06891375
45	0x3d9cff89	0.07665927
46	0x3dffc906	0.12489514
47	0xbba9cb0a	-0.005181675
48	0xbd5c285e	-0.053749435
49	0xbcc228b1	-0.023701044
50	0x3e11815c	0.14209503
51	0x3d86b4b4	0.06577435
52	0x3d15ada3	0.036542546
53	0x3df6637d	0.12030695
54	0x3bb87ec8	0.005630348
55	0xbe0b10b3	-0.13580589
56	0x3d896cc4	0.067101985
57	0xbd6b16a6	-0.057394646
58	0x3dbbfa53	0.09178605
59	0x3d9e329a	0.07724495
60	0x3c4f9212	0.012669103
61	0x3d211bf3	0.039333295
62	0xbd8c6217	-0.06854647
63	0x3c3ee935	0.011652281
64	0xbe04f759	-0.1298498
65	0xbe0a53b4	-0.13508493
66	0x3e16e6d4	0.14736491
67	0x3d8ba450	0.068184495
68	0x3d81310f	0.06308185
69	0xbcca1ce1	-0.024671974
70	0xbc50aac5	-0.012736027
71	0xbd652434	-0.05594273
72	0x3e26bac3	0.16282181
73	0xbd466770	-0.04843849
74	0xbc2bc726	-0.010484492
75	0xbc174a1e	-0.0092339795
76	0x3e020b62	0.12699655
77	0x3d275449	0.040851865
78	0xbcfd659c	-0.03093224
79	0x3da861a0	0.082217455
80	0x3de49814	0.11161819
81	0x3e2fc47b	0.17164795
82	0xbd05c5c4	-0.032659307
83	0x3bd92cbe	0.006627648
84	0xbd10ecae	-0.035381965
85	0xbd3cd846	-0.046104692
86	0xbddb54c6	-0.107095286
87	0xbd5ba1fe	-0.053621285
88	0xbd16e996	-0.03684386
89	0xbd6fbf41	-0.058532003
90	0x3d2cafcb	0.042159837
91	0xbdabf6eb	-0.08396705
92	0x3c475510	0.012166277
93	0xbdcc866e	-0.09986578
94	0xbe84cf2b	-0.25939307
95	0xbd4ceb74	-0.050029233
96	0x3d022876	0.031776868
97	0xbd579a4d	-0.052637387
98	0x3c9e7d17	0.019346757
99	0xbd28927d	-0.041155327
100	0xbbcb7d6d	-0.0062100203
101	0xbe0756d2	-0.13216713
102	0x3da4e2fe	0.08051108
103	0xbd8ffb56	-0.070303604
104	0xbd8d724e	-0.069065675
105	0xbd34827b	-0.04406975
106	0xbc6e9e3a	-0.014564091
107	0xbe0e4702	-0.13894275
108	0xbe738e30	-0.23784709
109	0x3d3e2e25	0.046430726
110	0x3e21740f	0.15766929
111	0x3e2330fe	0.15936658
112	0x3dd9bafa	0.10631366
113	0xbdc7cc96	-0.097558185
114	0xbe1f6bc3	-0.15568452
115	0xbe2757b6	-0.16342053
116	0x3db8ad1c	0.09017393
117	0xbc9b54a2	-0.018961255
118	0x3e0e9348	0.13923371
119	0x3daa3f9c	0.08312914
120	0xbd567f2f	-0.052367385
121	0xbd592ccc	-0.053021237
122	0xbb26cc71	-0.0025451446
123	0xbdbab217	-0.09115999
124	0x3cba23ee	0.02272221
125	0xbcde339f	-0.027124224
126	0xbd46fe91	-0.048582617
127	0xbd5f0bf9	-0.054454777
128	0xbe23f8b1	-0.16012837
129	0x3c6ff7c5	0.014646475
130	0xbdb2b7f0	-0.087264895
131	0x3c9df185	0.019280205
132	0xbd838dce	-0.064235315
133	0x3ca62cc2	0.020285014
134	0x3c635317	0.013874791
135	0xbdbfccff	-0.09365272
136	0x3e0fd8fc	0.14047617
137	0xbcd7eda9	-0.026358442
138	0xbd0169a6	-0.031594895
139	0xbbd57d77	-0.0065152007
140	0x3d7f6c14	0.06235893
141	0x3df713e9	0.120643444
142	0xbd5cfa12	-0.053949423
143	0xbc96dfe3	-0.018417304
144	0xbe076a5f	-0.13224171
145	0xbd8df87b	-0.069321595
146	0x3d7fd768	0.062461287
147	0x3e312cad	0.17302199
148	0xbc805955	-0.015667597
149	0x3d39b79e	0.045341127
150	0xbd1c075a	-0.03809295
151	0xbdcd0b3f	-0.10011911
152	0xba90f87f	-0.0011060386
153	0xbd88b1c1	-0.06674529
154	0x3d041945	0.03225066
155	0xbd91e3c4	-0.07123521
156	0xbc44c961	-0.012010903
157	0xbe2d1463	-0.16902308
158	0xbe120f8c	-0.14263743
159	0xbd7d473a	-0.061835505
160	0xbd762a24	-0.060098782
161	0x3dda7637	0.10667079
162	0x3e278ea5	0.16363008
163	0x3d8294a3	0.063760065
164	0x3cf4222d	0.029801453
165	0xbdf6fa43	-0.120594524
166	0x3bc27285	0.005934062
167	0xbd5bc71f	-0.053656694
168	0x3d187690	0.037222445
169	0x3e39d5ad	0.18147917
170	0x3ded2f8b	0.11581334
171	0x3d936d89	0.071986265
172	0xbdf60e44	-0.1201444
173	0x3d18519d	0.037187207
174	0x3c4c197f	0.012457251
175	0xb9be84bd	-0.00036338522
176	0xbe0578f5	-0.13034423
177	0x3d2b711f	0.041855928
178	0x3e0be6e4	0.13662297
179	0x3d82b893	0.06382861
180	0xbd949239	-0.07254452
181	0xbd6ce7ec	-0.057838365
182	0xbd1977fe	-0.03746795
183	0xbda972c8	-0.08273846
184	0xbde9d0f6	-0.11416809
185	0x3d7512bb	0.059832316
186	0x3ba3d5aa	0.004999836
187	0xbcdb1c8c	-0.02674701
188	0x3ca9acd0	0.020712286
189	0xbc214e46	-0.009845322
190	0x3e1d5bcb	0.15367047
191	0x3e20c588	0.15700352
192	0x3dccc5bb	0.099986516
193	0x3d81d016	0.06338517
194	0xbe1aa3e4	-0.15101582
195	0xbdf84f6e	-0.12124525
196	0x3c914edb	0.017737797
197	0xbbdc75e1	-0.0067279194
198	0x3cfb679c	0.030689053
199	0xbdfd2e0b	-0.123622976
200	0xbcddc538	-0.02707158
201	0xbde99ca7	-0.11406832
202	0x3e161a44	0.14658457
203	0xbe0622bd	-0.13099189
204	0x3de422d6	0.11139457
205	0xbcdc612b	-0.026901802
206	0xbe4a95fc	-0.19783777
207	0x3cfc6082	0.030807737
208	0x3d3497bd	0.04409002
209	0x3dad9ba2	0.0847695
210	0xbd8833f8	-0.06650537
211	0x3e9948bc	0.29938304
212	0xba9ae57a	-0.0011817657
213	0xbdc22ac1	-0.09480811
214	0xbbfe1867	-0.007754374
215	0xbdc38a83	-0.095479034
216	0xbe3b5780	-0.18295097
217	0x3dc5dd02	0.096612945
218	0xbd9cea1a	-0.07661839
219	0x3d1d1cc8	0.038357526
220	0x3d54e722	0.051978238
221	0x3e2250a6	0.15851077
222	0xbddb2cf6	-0.10701935
223	0xbd10ecb0	-0.035381973
224	0x3cbda312	0.023149047
225	0x3d7c8108	0.06164649
226	0x3ceaf3a9	0.02868064
227	0xbdf9aca6	-0.12191133
228	0x3d37ef87	0.044906165
229	0x3c2b2459	0.010445678
230	0xbe297d85	-0.16551788
231	0xbd95f452	-0.07321991
232	0x3e46beee	0.19408771
233	0xbe0c1e60	-0.13683462
234	0xbb820911	-0.003968366
235	0xbdbe0ffb	-0.09280392
236	0x3d712a56	0.058878265
237	0xbe36f3e7	-0.17866479
238	0x3e24236c	0.16029137
239	0xbcb578e0	-0.022152364
240	0xbde1c2a5	-0.110234536
241	0xbbdaef37	-0.0066813487
242	0xbcb3e90d	-0.021961713
243	0xbd9cdbd2	-0.07659115
244	0xbda0a508	-0.07843977
245	0x3d4a3a31	0.049371902
246	0x3e109a8a	0.14121452
247	0xbd47459f	-0.04865038
248	0x3e1724c3	0.14760117
249	0x3d5bc7ef	0.05365747
250	0xbdd43994	-0.10362545
251	0x3dcc0fd5	0.09963957
252	0x3caa6349	0.020799296
253	0xbb82314c	-0.003973162
254	0x3dab80a5	0.08374146
255	0x3e02061b	0.12697642

network_body._body_endoder.seq_layers.2.bias f4 [128]
0	0x3c71b9e4	0.014753792
1	0x3cb3ac9f	0.021932898
2	0x3cad173c	0.021129243
3	0x3cee71c1	0.029106976
4	0x3c7888bc	0.015169319
5	0xbb030318	-0.0019990858
6	0xbaf91f58	-0.0019006534
7	0xbc90311e	-0.017601546
8	0x3ca66892	0.020313535
9	0xbc142e22	-0.009044202
10	0x3be12b0d	0.006871587
11	0x3ca23e2c	0.019805036
12	0x3b8fb974	0.0043861214
13	0x3c6a18db	0.014288153
14	0x3cb2aac5	0.021809945
15	0x3c8347c8	0.016025439
16	0xbc3c423d	-0.011490402
17	0x3caa79a7	0.020809961
18	0x3b8fab8e	0.0043844646
19	0x3c9e1f69	0.019302087
20	0x3c9d38f4	0.019192196
21	0x3ba2293d	0.0049487636
22	0x3b485380	0.0030567348
23	0xbb8d18fa	-0.004305956
24	0xbb8fbe14	-0.0043866728
25	0xbbdf0c41	-0.0068068807
26	0xbc0bff34	-0.008544732
27	0x3c0e56e2	0.008687707
28	0x3cb70839	0.022342788
29	0x3b180acb	0.0023199792
30	0x3c3e4b1a	0.011614585
31	0xbc207e22	-0.009795697
32	0x3ca6f139	0.020378696
33	0xbc0feae4	-0.00878403
34	0xbbc2b3b8	-0.0059418343
35	0x3c9739b1	0.018460127
36	0xbc36a7f8	-0.011148445
37	0x3ca32f95	0.01992015
38	0x3c9812bc	0.01856362
39	0xbbd24a22	-0.0064175287
40	0x3ba787a1	0.005112604
41	0x3c452db1	0.012034819
42	0x3cd345be	0.025790092
43	0x3b797095	0.003806149
44	0x3a4262c1	0.0007415228
45	0xba997ad3	-0.0011709578
46	0x3c91cfbe	0.017799255
47	0xbc55f294	-0.013058323
48	0xbb981bef	-0.004642002
49	0xbbec159b	-0.007204724
50	0x3c2d0a61	0.010561557
51	0x3ba9791c	0.005171908
52	0xbc162e21	-0.009166271
53	0xbc8da7ff	-0.01729202
54	0x3cc1eb60	0.023671806
55	0xbbed5b77	-0.0072435695
56	0xbbf1e368	-0.0073818453
57	0x3c73876e	0.014863832
58	0x3c281f43	0.01026136
59	0x3c8ffb62	0.017575923
60	0xbbd6ec3d	-0.0065589235
61	0x3c9ba557	0.018999739
62	0xbc818da6	-0.015814614
63	0x3bf3f55b	0.00744502
64	0x3c86ade2	0.016440336
65	0xbb3de0b6	-0.002897305
66	0xbc19f8ae	-0.009397669
67	0xbbd5aace	-0.0065206056
68	0x3c96bb88	0.018399969
69	0x3c2452d4	0.010029513
70	0x3c4afc80	0.012389302
71	0x3cb3c042	0.021942262
72	0xbbad232b	-0.0052837334
73	0x3c57afa4	0.013164435
74	0x3b827882	0.003981651
75	0x3ca5f946	0.020260464
76	0x3c731c71	0.014838324
77	0xbc17c139	-0.009262376
78	0xbc013720	-0.007886678
79	0x3ca3f6d6	0.020015161
80	0xbb05d9a1	-0.0020423906
81	0xbc68b1e7	-0.0142025715
82	0xbbe4d493	-0.0069833486
83	0x3ca9fbf3	0.020750022
84	0x3c9ab90c	0.018887065
85	0x3c4cf853	0.012510377
86	0xbc080f0f	-0.0083043715
87	0x3c7b3eb5	0.015334775
88	0x3c685fee	0.014183028
89	0x3acf1473	0.0015798941
90	0x3ce86041	0.02836621
91	0x3b9487ce	0.0045327907
92	0x3b218aca	0.0024649375
93	0xbbcb7184	-0.0062086005
94	0xbc9828ee	-0.018574204
95	0x3bfcad01	0.0077110534
96	0xba50372c	-0.00079427916
97	0xbc4a89cd	-0.012361956
98	0x3c686b79	0.01418578
99	0xbb0a3e82	-0.0021094386
100	0x3c6e8564	0.01455817
101	0x3caf069c	0.021365456
102	0xba2ae88f	-0.0006519639
103	0xbbe9294c	-0.0071155187
104	0xbaef11b3	-0.0018239528
105	0x3caa2926	0.020771574
106	0xbc27ed82	-0.010249497
107	0xbbc351f3	-0.005960697
108	0x3c493351	0.012280301
109	0x3c8a63b0	0.016893238
110	0x3b7bc5c9	0.003841745
111	0xbb9c9478	-0.004778441
112	0xbc347123	-0.011013302
113	0xbb9a7577	-0.00471371
114	0xbc22fce9	-0.009947994
115	0x3c9ca81b	0.019123128
116	0x3a8999af	0.0010498072
117	0x3ca1abed	0.0197353
118	0x3cf1fc5e	0.029539283
119	0x3bec4194	0.007209966
120	0xbb312863	-0.002703213
121	0x3c9cfee8	0.019164518
122	0xbc1503d6	-0.009095153
123	0x3c53b1a4	0.012920771
124	0x3ba841a5	0.0051347786
125	0x3c58c285	0.013229971
126	0xbb7e854a	-0.003883677
127	0xbc4af558	-0.012387596

action_model._continuous_distribution.log_sigma f4 [1, 2]
0	0xbd47e838	-0.048805445
1	0xbd06a41c	-0.03287135

action_model._continuous_distribution.mu.weight f4 [2, 128]
0	0x3d30c5ba	0.043157317
1	0x3cc77b5f	0.02435082
2	0x3a1b7306	0.00059299206
3	0xbc854dc3	-0.016272431
4	0x3cc7ba52	0.024380837
5	0xbc83bdb3	-0.016081667
6	0xbd11a3f7	-0.03555676
7	0xbce5f6cc	-0.028071783
8	0x3d2bb1b8	0.041917533
9	0xbd480240	-0.04883027
10	0x3bbe27ab	0.0058030686
11	0x3d0368ce	0.03208237
12	0xbccc90ae	-0.024971332
13	0x3cfe39c2	0.0310334
14	0x3cde8407	0.027162565
15	0x3ce53a80	0.027981997
16	0xbc8395af	-0.016062586
17	0x3d85a38f	0.06525337
18	0xbd09f208	-0.033678085
19	0x3c3786cd	0.011201573
20	0x3d46bcb1	0.048519794
21	0xbcecd2d0	-0.028909117
22	0xbc1face5	-0.009745811
23	0xbd0ac8a1	-0.03388274
24	0xbd24b347	-0.040210035
25	0x3c45c70e	0.012071384
26	0xbbdbca26	-0.0067074476
27	0x3d3b89e7	0.04578581
28	0xbb4f624e	-0.0031644288
29	0xbbe005bd	-0.0068366216
30	0xbb380243	-0.002807752
31	0xbcbee109	-0.023300664
32	0x3c58a9da	0.0132240895
33	0x3bb236dc	0.0054386687
34	0xbd24fc82	-0.040279873
35	0x3d1856b2	0.037192054
36	0xbd4c5894	-0.049889162
37	0x3c506a4d	0.012720657
38	0x3ce4a430	0.027910322
39	0xb8953ef0	-7.116597e-05
40	0xbcd6c2e7	-0.026215984
41	0xbbef1c2b	-0.007297059
42	0x3d2ae0f1	0.041718427
43	0xbc00741f	-0.007840185
44	0xbd562297	-0.05227908
45	0xbcb1b1cf	-0.021691231
46	0x3ccd02de	0.025025781
47	0xbb00a09b	-0.0019626978
48	0xbcc7b5b6	-0.024378639
49	0xbd2d894c	-0.042367265
50	0x3d07fc92	0.033199854
51	0x3bd39874	0.006457383
52	0xbcb2734a	-0.02178349
53	0xbc3777b0	-0.011197969
54	0x3d352b17	0.044230547
55	0xbd8e419c	-0.06946108
56	0xbd2e89a8	-0.042611748
57	0x3d30f1ed	0.04319947
58	0x3cb3c712	0.02194551
59	0x3bb15009	0.0054111523
60	0xbd2a5d72	-0.041593023
61	0x3d572ce8	0.05253306
62	0x3b501c29	0.0031755066
63	0x3aa7b081	0.0012793691
64	0x3c9f0c94	0.019415177
65	0xbb9ef1ff	-0.0048506255
66	0xbc8990bc	-0.016792648
67	0xbc9163a5	-0.01774771
68	0x3d29ea0d	0.041482974
69	0x3c908e43	0.01764596
70	0xbcfc988c	-0.030834459
71	0x3d3096b5	0.043112475
72	0xbd1965b7	-0.03745052
73	0x3cc25f41	0.023727061
74	0xbce095e6	-0.027415227
75	0x3d0dd656	0.034628235
76	0x3d1d9f15	0.03848179
77	0xbd2e03a1	-0.04248393
78	0xbd2e18e6	-0.042504214
79	0x3d000303	0.031252872
80	0xbcb51351	-0.022103937
81	0xbd1e45f3	-0.038640928
82	0xbd43e302	-0.047823913
83	0x3d55fef8	0.05224511
84	0x3d885aed	0.06657968
85	0x3bdf7c04	0.0068202037
86	0xbcca316b	-0.024681767
87	0x3cfcf25b	0.030877283
88	0x3cc1a4f4	0.023638226
89	0xbcc67377	-0.02422498
90	0x3d54fb19	0.051997278
91	0xbbfa5a46	-0.007640156
92	0xbbd1b118	-0.006399285
93	0xbcb9120c	-0.022591613
94	0xbc0a26f0	-0.008432135
95	0xbc9b084a	-0.018924851
96	0xbd39bfee	-0.045349054
97	0xbd469c72	-0.04848904
98	0x3d1fa2fe	0.0389738
99	0xbd1b2c84	-0.03788425
100	0x3c98b4f8	0.01864098
101	0x3d48cdd3	0.049024414
102	0x3b1af9a8	0.0023647342
103	0xbccacf3f	-0.024757026
104	0xbd1a30ed	-0.037644316
105	0x3d2987d3	0.041389298
106	0xbd52c7a3	-0.05145992
107	0xbd6ce65b	-0.05783687
108	0x3d316f36	0.04331895
109	0x3d38920e	0.045061164
110	0x3ce7bd8f	0.02828863
111	0x3a8e85df	0.0010873637
112	0xbc8d284b	-0.017231127
113	0xbd11dd46	-0.035611413
114	0xbc5939d2	-0.013258414
115	0xbbebe2e7	-0.0071986797
116	0x3cad4fb6	0.021156173
117	0x3ce932c3	0.028466588
118	0x3cc51eba	0.024062503
119	0x3c7a402b	0.015274088
120	0xbd001401	-0.031269077
121	0x3d21bfe7	0.039489653
122	0x3b62e7ee	0.0034623104
123	0x3c8476d2	0.01616994
124	0xbcce311d	-0.025169903
125	0xbbc4d51f	-0.0060068513
126	0xbb7d111f	-0.0038614941
127	0xbd4c47ed	-0.04987328
128	0x3c6731f3	0.01411103
129	0xbcd0d69e	-0.025492962
130	0x3c2c817b	0.010528917
131	0xbd959748	-0.07304245
132	0x3bf0bbec	0.007346621
133	0x3d5c7fdb	0.05383287
134	0xbd6140ba	-0.05499337
135	0x3cadf224	0.021233626
136	0xbbab5739	-0.0052289036
137	0xbcacfd11	-0.021116765
138	0xbd17e3d7	-0.03708252
139	0xbc18299b	-0.009287263
140	0xbcf1b4c3	-0.02950514
141	0xbc23304f	-0.009960248
142	0xbc8a6cd4	-0.016897596
143	0xbce0fcbb	-0.027464261
144	0x3d83dc07	0.06438451
145	0x3d1574db	0.036488395
146	0xbd28f43c	-0.041248545
147	0xbd0d3395	-0.03447302
148	0xbca265db	-0.01982396
149	0xbc1100e8	-0.008850314
150	0xbd0d9c97	-0.034573164
151	0x3c89e164	0.016831107
152	0xbd026fd2	-0.03184492
153	0x3d2dd062	0.042435057
154	0x3ca46513	0.020067727
155	0x3d3154a8	0.043293625
156	0xbd6b176f	-0.057395395
157	0x3d05f579	0.032704804
158	0x3cc24646	0.02371515
159	0xba661117	-0.00087763503
160	0xbd00a20c	-0.03140454
161	0x3daa8fd9	0.08328218
162	0xbbc90688	-0.006134812
163	0xbbf98e77	-0.00761586
164	0xba61a9d4	-0.0008608375
165	0x3c27cbf3	0.010241496
166	0xbcf0f30f	-0.029412774
167	0x3d375586	0.044759296
168	0xbccfab6b	-0.025350293
169	0xbcce8622	-0.025210444
170	0xbcdd4dbb	-0.027014604
171	0x3cf12762	0.029437725
172	0xbd21571c	-0.039389715
173	0x3c2474c7	0.0100376075
174	0xbd14d01d	-0.036331285
175	0x3c7f598d	0.015585315
176	0xbc95a058	-0.018264934
177	0xbc3c51db	-0.011494125
178	0x3cf673fa	0.030084599
179	0xbce3fd2d	-0.027830685
180	0x3b089080	0.0020838082
181	0x3c8cdc4c	0.01719489
182	0xbb8479ec	-0.0040428545
183	0x3b12c2a6	0.0022393852
184	0xbc9f0050	-0.019409329
185	0x3ca01183	0.0195396
186	0x3d1148f7	0.035469975
187	0xbd88c117	-0.06677454
188	0xbc249029	-0.010044136
189	0x396dd849	0.00022682654
190	0x3c74ffec	0.014953595
191	0xbd01063b	-0.031500082
192	0xbd0df807	-0.034660365
193	0x3d179eca	0.037016667
194	0x3bcca28c	0.006244963
195	0xbcf8a6ce	-0.030352976
196	0xbc76e8a5	-0.015070115
197	0xbcf30ade	-0.029668268
198	0xbc6a7ce1	-0.014312
199	0xbbbc7114	-0.0057507847
200	0xbd1355f2	-0.035970636
201	0x3cba62bc	0.022752158
202	0xbd60d63b	-0.054891806
203	0xbc6e6dd3	-0.014552551
204	0x3bf2a4b1	0.0074048867
205	0x3cbe0b71	0.023198815
206	0x3c0bb942	0.008528056
207	0xbd300923	-0.042977463
208	0xbbc9348f	-0.0061402987
209	0x3bf7e3c8	0.0075649954
210	0xbc920d44	-0.017828591
211	0x3b27d595	0.0025609483
212	0x3bdbcb4d	0.006707585
213	0xbc9190a6	-0.017769169
214	0xbbbd907a	-0.005785045
215	0x3c1b42fd	0.0094764205
216	0xbc2aceb3	-0.0104252575
217	0xbd4f5cb9	-0.050625537
218	0x3cce7f55	0.025207201
219	0xbc8217ae	-0.015880432
220	0x3cd39518	0.02582793
221	0x3c1c7497	0.009549282
222	0x3cb3ba5c	0.021939449
223	0x3d4ff941	0.050774816
224	0xbae67998	-0.0017583845
225	0x3b2554f7	0.0025227645
226	0x3c98baa3	0.018643683
227	0x3be19646	0.006884369
228	0xbd60f65d	-0.05492245
229	0x3d139192	0.0360275
230	0xbcdffff5	-0.02734373
231	0x3ce50cc1	0.027960183
232	0x3a85f2aa	0.0010219414
233	0x3c905bc4	0.017621882
234	0x3c5bab1c	0.013407495
235	0xbcd17085	-0.025566349
236	0x3d60ded3	0.0549
237	0x3c98bc4c	0.018644474
238	0x3d33a55f	0.043858882
239	0x3d9809dc	0.074237555
240	0x3c5c1c6f	0.0134345135
241	0xbbe9d0cc	-0.007135486
242	0x3d66bdf2	0.05633349
243	0x3cacb25b	0.02108114
244	0x3ceb69f7	0.028737051
245	0x3c99f34c	0.01879277
246	0xbb3e2794	-0.002901529
247	0x3c66d5bf	0.014089047
248	0x3c4772f3	0.012173402
249	0xbd0c81df	-0.034303542
250	0x3d2004fc	0.039067253
251	0xbcdee1a4	-0.027207203
252	0x3c85046e	0.016237464
253	0xbcda18b0	-0.0266231
254	0xbb226d8e	-0.0024784538
255	0x3cc99b1d	0.024610097

action_model._continuous_distribution.mu.bias f4 [2]
0	0x3c84fc22	0.016233508
1	0xbc11f158	-0.0089076385
