results/run8/CarAgent/CarAgent-499980.pt (torch, 749917 bytes, 36 tensors)

network_body._body_endoder.seq_layers.0.weight f4 [128, 106]
0.07949575 -0.12402314 0.038778383 0.17379427 -0.018569523 0.03189084 -0.0825367 -0.17701213
-0.19679517 -0.0040783994 0.19278932 -0.1595637 0.12086194 -0.048745036 0.023257166 -0.13593908
-0.15227394 -0.20511599 -0.051961545 0.07387503 0.028386157 0.018350428 0.088933766 0.11316787
0.047243085 -0.21514167 0.06515788 0.0641204 -0.04379867 -0.034617618 0.03355834 0.064085945
0.09470417 0.016445566 -0.058900885 0.07777542 -0.064394906 0.107168525 -0.020436376 0.022388931
-0.07028847 -0.042595573 -0.044731807 -0.1150729 -0.073863424 0.062479537 0.04121417 0.052651018
0.14001669 -0.0881173 -0.12182187 0.048244525 -0.043415945 -0.16637576 -0.11754026 -0.048906084
-0.13402258 -0.10388416 -0.1280447 -0.058298327 -0.25608763 -0.037880983 -0.051679514 -0.02868242
-0.0056437994 0.07896551 0.002079621 0.044339593 -0.07157237 0.014779828 0.12587693 0.03249998
-0.055997644 -0.1332405 -0.002639955 0.059175223 0.03543951 -0.04669857 0.18135402 -0.09500033
-0.09623884 -0.09200046 0.13248806 -0.012346949 0.04805277 -0.14107344 0.048389647 -0.059182152
-0.07435216 0.018873319 -0.12968892 0.03835428 0.12481206 0.13535021 -0.090634644 0.0066579827
-0.060991712 0.055185318 0.022913441 0.13698265 -0.048889622 0.15377335 0.08169971 -0.0580956
0.030300118 -0.030151768 0.11627159 -0.23430078 0.023184866 -0.0011252883 0.07613337 -0.15126649
0.0041593816 -0.13712998 0.034611553 -0.21655338 0.014400289 -0.015723009 0.04850754 -0.107160844
-0.00066710886 0.029427247 0.045920856 -0.15486184 -0.117238864 -0.029021524 0.30934003 -0.15925418
-0.30709168 -0.13820978 -0.01784736 0.042624358 -0.08664199 -0.22811031 -0.107018195 -0.07181241
0.0036728673 -0.18593678 -0.057687446 0.17108308 0.051905237 0.06279135 0.061943017 -0.04805612
-0.017693108 -0.0054967357 -0.02553458 0.081537955 -0.18405409 -0.28674138 -0.03420227 -0.047619794
-0.14305621 0.15614101 0.18702932 0.07283154 0.07387616 0.017213259 0.22807634 0.1164168
-0.033055305 -0.08848586 0.036509845 0.19183424 0.073209636 -0.046320647 0.01785208 0.15416883
-0.05919558 0.21454865 -0.07426669 0.07487801 0.11537949 0.024594542 -0.07818226 0.03291399
0.108917 -0.012950045 0.1377777 0.06914906 0.13598847 0.16285668 0.082518145 -0.08003638
-0.03259183 -0.04645401 0.011076895 -0.28752062 0.17004381 -0.007956646 -0.09408465 -0.07843762
0.020063873 0.033880334 -0.04451389 -0.055899225 -0.038421206 0.076936156 -0.039812297 0.065016754
0.038468473 -0.08507486 -0.18730496 -0.023519907 0.018785208 -0.022608519 0.12752278 -0.09165197
-0.034794502 -0.026670163 -0.07233852 0.15541543 0.10795339 -0.09787504 0.047706954 0.027283773
0.010892165 -0.08848123 -0.13244492 0.098712295 -0.16713826 -0.061656445 -0.1434509 0.1365369
-0.107955106 0.08423915 0.18064015 0.031207198 -0.14620538 0.016080378 -0.12330988 0.16305768
-0.010948963 0.009145041 -0.037845735 0.032433536 0.024625894 0.044044174 -0.044066615 0.013190824
0.07616085 0.046592712 0.11573991 0.079676844 -0.03211467 -0.07884275 0.030101966 -0.0023016788
-0.14243093 0.012593753 -0.04001831 -0.04384301 -0.00022053969 0.0064231646 0.22344318 -0.06264712
00000000: abce a23d d8ff fdbd 15d6 1e3d 20f7 313e
00000010: 1d1f 98bc f89f 023d 0009 a9bd ab42 35be
00000020: ac84 49be 18a4 85bb 906a 453e ab64 23be
00000030: 7786 f73d e0a8 47bd d085 be3c 9d33 0bbe
00000040: b3ed 1bbe ed09 52be a1d5 54bd cb4b 973d
00000050: 168a e83c a353 963c e822 b63d 8ec4 e73d
00000060: f781 413d 194e 5cbe 7f71 853d 8e51 833d
00000070: 3c66 33bd 34cb 0dbd 7874 093d 7e3f 833d
00000080: 43f4 c13d dab8 863c 0e42 71bd b848 9f3d
00000090: 7ae1 83bd 2c7b db3d 306a a7bc fe68 b73c
000000a0: 67f3 8fbd b278 2ebd b338 37bd 57ab ebbd
000000b0: b545 97bd 8bea 7f3d 31d0 283d 98a8 573d
000000c0: 8960 0f3e d876 b4bd bf7d f9bd 0d9c 453d
000000d0: ebd4 31bd 685e 2abe f3b8 f0bd bf51 48bd
000000e0: 373d 09be 38c1 d4bd 261e 03be 3aca 6ebd
000000f0: eb1d 83be 1729 1bbd e6ad 53bd 65f7 eabc
00000100: 9fef b8bb abb8 a13d 404a 083b 6f9d 353d
00000110: 8994 92bd 1727 723c e2e5 003e b31e 053d
00000120: c95d 65bd 3370 08be 1803 2dbb b861 723d
00000130: 0529 113d 0047 3fbd deb4 393e 888f c2bd
00000140: de18 c5bd bd6a bcbd f3aa 073e dc4a 4abc
00000150: fbd2 443d 8e75 10be 3934 463d fc68 72bd
00000160: f245 98bd 389c 9a3c 2ccd 04be 6119 1d3d
00000170: 779d ff3d 3f99 0a3e a89e b9bd 352b da3b
00000180: 72d2 79bd 000a 623d f8b4 bb3c 2e45 0c3e
00000190: 7c40 48bd c376 1d3e 2d52 a73d a7f5 6dbd
000001a0: f437 f83c d700 f7bc cd1f ee3d 8bec 6fbe
000001b0: 30ee bd3c 697e 93ba d0eb 9b3d 9ae5 1abe
000001c0: 6c4b 883b cd6b 0cbe d8c4 0d3d 2bc0 5dbe
000001d0: 31ef 6b3c 8acd 80bc d8af 463d 2577 dbbd
000001e0: ebe0 2eba 6911 f13c 8217 3c3d 1a94 1ebe
000001f0: ee1a f0bd 8cbe edbc d161 9e3e 8713 23be
00000200: 1f3b 9dbe dd86 0dbe a034 92bc e196 2e3d
00000210: 5b71 b1bd c095 69be 5b2c dbbd 6312 93bd
00000220: 7db4 703b 3666 3ebe ac49 6cbd 6730 2f3e
00000230: 969a 543d c098 803d f6b7 7d3d 7ed6 44bd
00000240: 23f1 90bc f61d b4bb e52d d1bc 5ffd a63d
00000250: ad78 3cbe c4cf 92be ae17 0cbd f90c 43bd
00000260: 547d 12be 6ee3 1f3e 9d84 3f3e b428 953d
00000270: 624c 973d d202 8d3c d88c 693e ee6b ee3d
00000280: 0065 07bd 1338 b5bd 598b 153d 3270 443e
00000290: efee 953d b8ba 3dbd 863e 923c 6fde 1d3e
000002a0: 1177 72bd a4b2 5b3e 2219 98bd a459 993d
000002b0: 154c ec3d 7e7a c93c 051e a0bd d2d0 063d
000002c0: e00f df3d 6d2c 54bc 9915 0d3e 069e 8d3d
000002d0: 9040 0b3e e7c3 263e 46ff a83d 1dea a3bd
000002e0: 037f 05bd 8f46 3ebd dd7b 353c e735 93be
000002f0: f71f 2e3e 985c 02bc 74af c0bd e7a3 a0bd
00000300: fe5c a43c 1bc6 0a3d 3254 36bd 96f6 64bd
00000310: 8e5f 1dbd b490 9d3d 3812 23bd 8127 853d
00000320: 1e91 1d3d ba3b aebd dfcc 3fbe d2ac c0bc
00000330: 70e3 993c 8035 b9bc 5595 023e 07b4 bbbd
00000340: ae84 0ebd 637b dabc 3826 94bd 3925 1f3e
00000350: ab16 dd3d b572 c8bd 5e68 433d 3882 df3c
00000360: 0d75 323c a635 b5bd a49f 07be ac29 ca3d
00000370: 4b26 2bbe 788b 7cbd cbe4 12be 54d0 0b3e
00000380: 9117 ddbd 9385 ac3d bbf9 383e 3da6 ff3c
00000390: ddb6 15be ffba 833c e489 fcbd 98f8 263e
000003a0: 4863 33bc 15d5 153c 2104 1bbd 07d9 043d
000003b0: 3ebc c93c aa67 343d 327f 34bd 531e 583c
000003c0: 38fa 9b3d 00d8 3e3d 0c09 ed3d 9d2d a33d
000003d0: ac8a 03bd 4f78 a1bd 6698 f63c c3d7 16bb
000003e0: 6ad9 11be 0756 4e3c 3dea 23bd ba94 33bd
000003f0: ac40 67b9 6979 d23b 4ace 643e 224d 80bd

network_body._body_endoder.seq_layers.0.bias f4 [128]
-0.015720928 0.0032280637 -0.0130079575 -0.01002372 0.033780567 0.017600814 -0.017268052 0.00020775045
-0.003950997 0.019370751 0.014754828 0.02098121 0.019685918 0.022557855 0.012347664 0.013570405
0.012445946 0.0069143013 0.020867238 0.025952762 -0.014337914 0.0127877 0.021039877 0.0046862466
-0.018214418 -0.017616764 -0.0059684655 0.0086202845 0.016995164 0.02271372 0.0061002807 0.003402361
0.02055354 0.016937822 0.010053404 0.01804996 0.009361263 0.015945693 0.014447305 0.0051706103
0.012545768 0.025490245 0.03545105 0.026112434 -0.009028989 0.016104607 0.014830061 0.013763266
0.023023289 0.0068209935 0.0011723746 -0.00023349591 0.02142081 0.018064123 -0.02065239 0.0226346
-1.0772951e-05 -0.0153472 0.004420955 0.007329671 0.03375312 0.002478603 0.033151355 -0.01800817
-0.022787971 -0.011786918 0.01899983 0.0086280145 0.0019508363 0.0047286334 -0.016489122 -0.00999284
0.011617738 0.006382265 0.0042417026 0.017251581 0.011065444 0.024092695 -0.0042489283 -0.016225921
0.011402394 0.013203531 -0.015506772 0.017238466 0.00041446544 0.037050676 0.008295128 0.020965366
0.015101207 -0.015472639 0.021119103 -0.0005637776 -0.0033531885 0.008600443 -0.005270923 0.0037766122
0.017979909 0.014235676 0.0046585016 0.015317083 -0.036563653 -0.0057567875 0.005438902 -0.0152972285
0.0029402026 -0.012903673 0.012851276 -0.017082551 0.01748797 0.015634594 0.01820006 0.009691293
0.017262997 -0.0092076305 0.022073928 -0.0038904964 0.0141048785 -0.012958918 -0.0007831358 -0.003324199
0.010669307 -0.012999318 0.028337482 0.003225545 0.014327151 -0.006763772 -0.0040351604 -0.0028905661
00000000: 2dc9 80bc ec8d 533b 541f 55bc 873a 24bc
00000010: 7e5d 0a3d 952f 903c bb75 8dbc 96d7 5939
00000020: 5d77 81bb 69af 9e3c 3cbe 713c c9e0 ab3c
00000030: 5d44 a13c 40cb b83c db4d 4a3c 6756 5e3c
00000040: 15ea 4b3c 5d91 e23b c5f1 aa3c e39a d43c
00000050: 92e9 6abc 8083 513c d25b ac3c 168f 993b
00000060: 6736 95bc 0851 90bc 1e93 c3bb 183c 0d3c
00000070: 7139 8b3c 2012 ba3c dde4 c73b 25fa 5e3b
00000080: e65f a83c 30c1 8a3c 08b7 243c 82dd 933c
00000090: fc5f 193c 8ba0 823c 64b4 6c3c 396e a93b
000000a0: c48c 4d3c ebd0 d03c 1f35 113d bee9 d53c
000000b0: 53ee 13bc cfed 833c c9f9 723c 527f 613c
000000c0: 569b bc3c a482 df3b 5daa 993a 95d6 74b9
000000d0: b27a af3c 36fb 933c 332f a9bc 326c b93c
000000e0: 79bd 34b7 d372 7bbc a9dd 903b bd2d f03b
000000f0: b640 0a3d 0f70 223b b7c9 073d df85 93bc
00000100: d7ad babc eb1d 41bc 88a5 9b3c 845c 0d3c
00000110: 34b3 ff3a a7f2 9a3b 3214 87bc 02b9 23bc
00000120: 5358 3e3c 5222 d13b fbfd 8a3b 3053 8d3c
00000130: d64b 353c 0b5e c53c 983a 8bbb 39ec 84bc
00000140: 1bd1 3a3c 9f53 583c 1e10 7ebc af37 8d3c
00000150: 9c4c d939 73c2 173d 4ae8 073c 8fbf ab3c
00000160: 0e6b 773c f480 7dbc f801 ad3c 79ca 13ba
00000170: 2bc1 5bbb dfe8 0c3c b5b7 acbb 0a81 773b
00000180: 9a4a 933c c13c 693c 58a6 983b 81f4 7a3c
00000190: c5c3 15bd 6fa3 bcbb d138 b23b 3aa1 7abc
000001a0: 6ab0 403b ed69 53bc 298e 523c b5f0 8bbc
000001b0: ee42 8f3c 1f14 803c 4b18 953c 3bc8 1e3c
000001c0: 216b 8d3c 9adb 16bc 62d4 b43c b3f7 7ebb
000001d0: 2618 673c a451 54bc 5b4b 4dba ceda 59bb
000001e0: 51ce 2e3c 17fb 54bc 0224 e83c aa63 533b
000001f0: 6dbc 6a3c a2a2 ddbb 6139 84bb a76f 3dbb

network_body._body_endoder.seq_layers.2.weight f4 [128, 128]
0.02390615 -0.04070701 0.018704552 0.07530707 -0.020909483 0.050036322 0.022358524 -0.021790719
0.021594808 0.096299335 0.099367045 -0.052930214 -0.06459293 0.12404843 0.13569501 -0.014215549
0.055714343 -0.04012244 -0.1783973 -0.0053678043 0.028983401 0.06773376 -0.09629818 0.08573279
-0.057340637 -0.08928211 0.019720688 0.0053036246 0.20357893 -0.026292033 0.019556534 -0.06908848
0.19447902 -0.1399768 -0.08913639 0.13623598 0.08932362 0.07991189 -0.034407105 -0.15592922
-0.117391944 0.07387433 -0.00783795 -0.043307025 -0.06891375 0.07665927 0.12489514 -0.005181675
-0.053749435 -0.023701044 0.14209503 0.06577435 0.036542546 0.12030695 0.005630348 -0.13580589
0.067101985 -0.057394646 0.09178605 0.07724495 0.012669103 0.039333295 -0.06854647 0.011652281
-0.1298498 -0.13508493 0.14736491 0.068184495 0.06308185 -0.024671974 -0.012736027 -0.05594273
0.16282181 -0.04843849 -0.010484492 -0.0092339795 0.12699655 0.040851865 -0.03093224 0.082217455
0.11161819 0.17164795 -0.032659307 0.006627648 -0.035381965 -0.046104692 -0.107095286 -0.053621285
-0.03684386 -0.058532003 0.042159837 -0.08396705 0.012166277 -0.09986578 -0.25939307 -0.050029233
0.031776868 -0.052637387 0.019346757 -0.041155327 -0.0062100203 -0.13216713 0.08051108 -0.070303604
-0.069065675 -0.04406975 -0.014564091 -0.13894275 -0.23784709 0.046430726 0.15766929 0.15936658
0.10631366 -0.097558185 -0.15568452 -0.16342053 0.09017393 -0.018961255 0.13923371 0.08312914
-0.052367385 -0.053021237 -0.0025451446 -0.09115999 0.02272221 -0.027124224 -0.048582617 -0.054454777
-0.16012837 0.014646475 -0.087264895 0.019280205 -0.064235315 0.020285014 0.013874791 -0.09365272
0.14047617 -0.026358442 -0.031594895 -0.0065152007 0.06235893 0.120643444 -0.053949423 -0.018417304
-0.13224171 -0.069321595 0.062461287 0.17302199 -0.015667597 0.045341127 -0.03809295 -0.10011911
-0.0011060386 -0.06674529 0.03225066 -0.07123521 -0.012010903 -0.16902308 -0.14263743 -0.061835505
-0.060098782 0.10667079 0.16363008 0.063760065 0.029801453 -0.120594524 0.005934062 -0.053656694
0.037222445 0.18147917 0.11581334 0.071986265 -0.1201444 0.037187207 0.012457251 -0.00036338522
-0.13034423 0.041855928 0.13662297 0.06382861 -0.07254452 -0.057838365 -0.03746795 -0.08273846
-0.11416809 0.059832316 0.004999836 -0.02674701 0.020712286 -0.009845322 0.15367047 0.15700352
0.099986516 0.06338517 -0.15101582 -0.12124525 0.017737797 -0.0067279194 0.030689053 -0.123622976
-0.02707158 -0.11406832 0.14658457 -0.13099189 0.11139457 -0.026901802 -0.19783777 0.030807737
0.04409002 0.0847695 -0.06650537 0.29938304 -0.0011817657 -0.09480811 -0.007754374 -0.095479034
-0.18295097 0.096612945 -0.07661839 0.038357526 0.051978238 0.15851077 -0.10701935 -0.035381973
0.023149047 0.06164649 0.02868064 -0.12191133 0.044906165 0.010445678 -0.16551788 -0.07321991
0.19408771 -0.13683462 -0.003968366 -0.09280392 0.058878265 -0.17866479 0.16029137 -0.022152364
-0.110234536 -0.0066813487 -0.021961713 -0.07659115 -0.07843977 0.049371902 0.14121452 -0.04865038
0.14760117 0.05365747 -0.10362545 0.09963957 0.020799296 -0.003973162 0.08374146 0.12697642
00000000: d5d6 c33c 65bc 26bd 4a3a 993c 983a 9a3d
00000010: 5d4a abbc e3f2 4c3d 3929 b73c 7382 b2bc
00000020: 98e7 b03c 9638 c53d f380 cb3d 5acd 58bd
00000030: 4c49 84bd 1a0d fe3d a2f3 0a3e 56e8 68bc
00000040: b934 643d 6d57 24bd c8ad 36be 68e4 afbb
00000050: 996e ed3c ffb7 8a3d fb37 c5bd ac94 af3d
00000060: 04de 6abd 8ad9 b6bd 488d a13c 07ca ad3b
00000070: ff76 503e 6462 d7bc 0635 a03c 437e 8dbd
00000080: 8225 473e 1456 0fbe 248d b6bd 7281 0b3e
00000090: 4def b63d d8a8 a33d 77ee 0cbd e9ab 1fbe
000000a0: 306b f0bd 6d4b 973d bf6a 00bc b562 31bd
000000b0: a722 8dbd 89ff 9c3d 06c9 ff3d 0acb a9bb
000000c0: 5e28 5cbd b128 c2bc 5c81 113e b4b4 863d
000000d0: a3ad 153d 7d63 f63d c87e b83b b310 0bbe
000000e0: c46c 893d a616 6bbd 53fa bb3d 9a32 9e3d
000000f0: 1292 4f3c f31b 213d 1762 8cbd 35e9 3e3c
00000100: 59f7 04be b453 0abe d4e6 163e 50a4 8b3d
00000110: 0f31 813d e11c cabc c5aa 50bc 3424 65bd
00000120: c3ba 263e 7067 46bd 26c7 2bbc 1e4a 17bc
00000130: 620b 023e 4954 273d 9c65 fdbc a061 a83d
00000140: 1498 e43d 7bc4 2f3e c4c5 05bd be2c d93b
00000150: aeec 10bd 46d8 3cbd c654 dbbd fea1 5bbd
00000160: 96e9 16bd 41bf 6fbd cbaf 2c3d ebf6 abbd
00000170: 1055 473c 6e86 ccbd 2bcf 84be 74eb 4cbd
00000180: 7628 023d 4d9a 57bd 177d 9e3c 7d92 28bd
00000190: 6d7d cbbb d256 07be fee2 a43d 56fb 8fbd
000001a0: 4e72 8dbd 7b82 34bd 3a9e 6ebc 0247 0ebe
000001b0: 308e 73be 252e 3e3d 0f74 213e fe30 233e
000001c0: faba d93d 96cc c7bd c36b 1fbe b657 27be
000001d0: 1cad b83d a254 9bbc 4893 0e3e 9c3f aa3d
000001e0: 2f7f 56bd cc2c 59bd 71cc 26bb 17b2 babd
000001f0: ee23 ba3c 9f33 debc 91fe 46bd f90b 5fbd
00000200: b1f8 23be c5f7 6f3c f0b7 b2bd 85f1 9d3c
00000210: ce8d 83bd c22c a63c 1753 633c ffcc bfbd
00000220: fcd8 0f3e a9ed d7bc a669 01bd 777d d5bb
00000230: 146c 7f3d e913 f73d 12fa 5cbd e3df 96bc
00000240: 5f6a 07be 7bf8 8dbd 68d7 7f3d ad2c 313e
00000250: 5559 80bc 9eb7 393d 5a07 1cbd 3f0b cdbd
00000260: 7ff8 90ba c1b1 88bd 4519 043d c4e3 91bd
00000270: 61c9 44bc 6314 2dbe 8c0f 12be 3a47 7dbd
00000280: 242a 76bd 3776 da3d a58e 273e a394 823d
00000290: 2d22 f43c 43fa f6bd 8572 c23b 1fc7 5bbd
000002a0: 9076 183d add5 393e 8b2f ed3d 896d 933d
000002b0: 440e f6bd 9d51 183d 7f19 4c3c bd84 beb9
000002c0: f578 05be 1f71 2b3d e4e6 0b3e 93b8 823d
000002d0: 3992 94bd ece7 6cbd fe77 19bd c872 a9bd
000002e0: f6d0 e9bd bb12 753d aad5 a33b 8c1c dbbc
000002f0: d0ac a93c 464e 21bc cb5b 1d3e 88c5 203e
00000300: bbc5 cc3d 16d0 813d e4a3 1abe 6e4f f8bd
00000310: db4e 913c e175 dcbb 9c67 fb3c 0b2e fdbd
00000320: 38c5 ddbc a79c e9bd 441a 163e bd22 06be
00000330: d622 e43d 2b61 dcbc fc95 4abe 8260 fc3c
00000340: bd97 343d a29b ad3d f833 88bd bc48 993e
00000350: 7ae5 9aba c12a c2bd 6718 febb 838a c3bd
00000360: 8057 3bbe 02dd c53d 1aea 9cbd c81c 1d3d
00000370: 22e7 543d a650 223e f62c dbbd b0ec 10bd
00000380: 12a3 bd3c 0881 7c3d a9f3 ea3c a6ac f9bd
00000390: 87ef 373d 5924 2b3c 857d 29be 52f4 95bd
000003a0: eebe 463e 601e 0cbe 1109 82bb fb0f bebd
000003b0: 562a 713d e7f3 36be 6c23 243e e078 b5bc
000003c0: a5c2 e1bd 37ef dabb 0de9 b3bc d2db 9cbd
000003d0: 08a5 a0bd 313a 4a3d 8a9a 103e 9f45 47bd
000003e0: c324 173e efc7 5b3d 9439 d4bd d50f cc3d
000003f0: 4963 aa3c 4c31 82bb a580 ab3d 1b06 023e

network_body._body_endoder.seq_layers.2.bias f4 [128]
0.014753792 0.021932898 0.021129243 0.029106976 0.015169319 -0.0019990858 -0.0019006534 -0.017601546
0.020313535 -0.009044202 0.006871587 0.019805036 0.0043861214 0.014288153 0.021809945 0.016025439
-0.011490402 0.020809961 0.0043844646 0.019302087 0.019192196 0.0049487636 0.0030567348 -0.004305956
-0.0043866728 -0.0068068807 -0.008544732 0.008687707 0.022342788 0.0023199792 0.011614585 -0.009795697
0.020378696 -0.00878403 -0.0059418343 0.018460127 -0.011148445 0.01992015 0.01856362 -0.0064175287
0.005112604 0.012034819 0.025790092 0.003806149 0.0007415228 -0.0011709578 0.017799255 -0.013058323
-0.004642002 -0.007204724 0.010561557 0.005171908 -0.009166271 -0.01729202 0.023671806 -0.0072435695
-0.0073818453 0.014863832 0.01026136 0.017575923 -0.0065589235 0.018999739 -0.015814614 0.00744502
0.016440336 -0.002897305 -0.009397669 -0.0065206056 0.018399969 0.010029513 0.012389302 0.021942262
-0.0052837334 0.013164435 0.003981651 0.020260464 0.014838324 -0.009262376 -0.007886678 0.020015161
-0.0020423906 -0.0142025715 -0.0069833486 0.020750022 0.018887065 0.012510377 -0.0083043715 0.015334775
0.014183028 0.0015798941 0.02836621 0.0045327907 0.0024649375 -0.0062086005 -0.018574204 0.0077110534
-0.00079427916 -0.012361956 0.01418578 -0.0021094386 0.01455817 0.021365456 -0.0006519639 -0.0071155187
-0.0018239528 0.020771574 -0.010249497 -0.005960697 0.012280301 0.016893238 0.003841745 -0.004778441
-0.011013302 -0.00471371 -0.009947994 0.019123128 0.0010498072 0.0197353 0.029539283 0.007209966
-0.002703213 0.019164518 -0.009095153 0.012920771 0.0051347786 0.013229971 -0.003883677 -0.012387596
00000000: e4b9 713c 9fac b33c 3c17 ad3c c171 ee3c
00000010: bc88 783c 1803 03bb 581f f9ba 1e31 90bc
00000020: 9268 a63c 222e 14bc 0d2b e13b 2c3e a23c
00000030: 74b9 8f3b db18 6a3c c5aa b23c c847 833c
00000040: 3d42 3cbc a779 aa3c 8eab 8f3b 691f 9e3c
00000050: f438 9d3c 3d29 a23b 8053 483b fa18 8dbb
00000060: 14be 8fbb 410c dfbb 34ff 0bbc e256 0e3c
00000070: 3908 b73c cb0a 183b 1a4b 3e3c 227e 20bc
00000080: 39f1 a63c e4ea 0fbc b8b3 c2bb b139 973c
00000090: f8a7 36bc 952f a33c bc12 983c 224a d2bb
000000a0: a187 a73b b12d 453c be45 d33c 9570 793b
000000b0: c162 423a d37a 99ba becf 913c 94f2 55bc
000000c0: ef1b 98bb 9b15 ecbb 610a 2d3c 1c79 a93b
000000d0: 212e 16bc ffa7 8dbc 60eb c13c 775b edbb
000000e0: 68e3 f1bb 6e87 733c 431f 283c 62fb 8f3c
000000f0: 3dec d6bb 57a5 9b3c a68d 81bc 5bf5 f33b
00000100: e2ad 863c b6e0 3dbb aef8 19bc ceaa d5bb
00000110: 88bb 963c d452 243c 80fc 4a3c 42c0 b33c
00000120: 2b23 adbb a4af 573c 8278 823b 46f9 a53c
00000130: 711c 733c 39c1 17bc 2037 01bc d6f6 a33c
00000140: a1d9 05bb e7b1 68bc 93d4 e4bb f3fb a93c
00000150: 0cb9 9a3c 53f8 4c3c 0f0f 08bc b53e 7b3c
00000160: ee5f 683c 7314 cf3a 4160 e83c ce87 943b
00000170: ca8a 213b 8471 cbbb ee28 98bc 01ad fc3b
00000180: 2c37 50ba cd89 4abc 796b 683c 823e 0abb
00000190: 6485 6e3c 9c06 af3c 8fe8 2aba 4c29 e9bb
000001a0: b311 efba 2629 aa3c 82ed 27bc f351 c3bb
000001b0: 5133 493c b063 8a3c c9c5 7b3b 7894 9cbb
000001c0: 2371 34bc 7775 9abb e9fc 22bc 1ba8 9c3c
000001d0: af99 893a edab a13c 5efc f13c 9441 ec3b
000001e0: 6328 31bb e8fe 9c3c d603 15bc a4b1 533c
000001f0: a541 a83b 85c2 583c 4a85 7ebb 58f5 4abc

action_model._continuous_distribution.log_sigma f4 [1, 2]
-0.048805445 -0.03287135
00000000: 38e8 47bd 1ca4 06bd

action_model._continuous_distribution.mu.weight f4 [2, 128]
0.043157317 0.02435082 0.00059299206 -0.016272431 0.024380837 -0.016081667 -0.03555676 -0.028071783
0.041917533 -0.04883027 0.0058030686 0.03208237 -0.024971332 0.0310334 0.027162565 0.027981997
-0.016062586 0.06525337 -0.033678085 0.011201573 0.048519794 -0.028909117 -0.009745811 -0.03388274
-0.040210035 0.012071384 -0.0067074476 0.04578581 -0.0031644288 -0.0068366216 -0.002807752 -0.023300664
0.0132240895 0.0054386687 -0.040279873 0.037192054 -0.049889162 0.012720657 0.027910322 -7.116597e-05
-0.026215984 -0.007297059 0.041718427 -0.007840185 -0.05227908 -0.021691231 0.025025781 -0.0019626978
-0.024378639 -0.042367265 0.033199854 0.006457383 -0.02178349 -0.011197969 0.044230547 -0.06946108
-0.042611748 0.04319947 0.02194551 0.0054111523 -0.041593023 0.05253306 0.0031755066 0.0012793691
0.019415177 -0.0048506255 -0.016792648 -0.01774771 0.041482974 0.01764596 -0.030834459 0.043112475
-0.03745052 0.023727061 -0.027415227 0.034628235 0.03848179 -0.04248393 -0.042504214 0.031252872
-0.022103937 -0.038640928 -0.047823913 0.05224511 0.06657968 0.0068202037 -0.024681767 0.030877283
0.023638226 -0.02422498 0.051997278 -0.007640156 -0.006399285 -0.022591613 -0.008432135 -0.018924851
-0.045349054 -0.04848904 0.0389738 -0.03788425 0.01864098 0.049024414 0.0023647342 -0.024757026
-0.037644316 0.041389298 -0.05145992 -0.05783687 0.04331895 0.045061164 0.02828863 0.0010873637
-0.017231127 -0.035611413 -0.013258414 -0.0071986797 0.021156173 0.028466588 0.024062503 0.015274088
-0.031269077 0.039489653 0.0034623104 0.01616994 -0.025169903 -0.0060068513 -0.0038614941 -0.04987328
0.01411103 -0.025492962 0.010528917 -0.07304245 0.007346621 0.05383287 -0.05499337 0.021233626
-0.0052289036 -0.021116765 -0.03708252 -0.009287263 -0.02950514 -0.009960248 -0.016897596 -0.027464261
0.06438451 0.036488395 -0.041248545 -0.03447302 -0.01982396 -0.008850314 -0.034573164 0.016831107
-0.03184492 0.042435057 0.020067727 0.043293625 -0.057395395 0.032704804 0.02371515 -0.00087763503
-0.03140454 0.08328218 -0.006134812 -0.00761586 -0.0008608375 0.010241496 -0.029412774 0.044759296
-0.025350293 -0.025210444 -0.027014604 0.029437725 -0.039389715 0.0100376075 -0.036331285 0.015585315
-0.018264934 -0.011494125 0.030084599 -0.027830685 0.0020838082 0.01719489 -0.0040428545 0.0022393852
-0.019409329 0.0195396 0.035469975 -0.06677454 -0.010044136 0.00022682654 0.014953595 -0.031500082
-0.034660365 0.037016667 0.006244963 -0.030352976 -0.015070115 -0.029668268 -0.014312 -0.0057507847
-0.035970636 0.022752158 -0.054891806 -0.014552551 0.0074048867 0.023198815 0.008528056 -0.042977463
-0.0061402987 0.0075649954 -0.017828591 0.0025609483 0.006707585 -0.017769169 -0.005785045 0.0094764205
-0.0104252575 -0.050625537 0.025207201 -0.015880432 0.02582793 0.009549282 0.021939449 0.050774816
-0.0017583845 0.0025227645 0.018643683 0.006884369 -0.05492245 0.0360275 -0.02734373 0.027960183
0.0010219414 0.017621882 0.013407495 -0.025566349 0.0549 0.018644474 0.043858882 0.074237555
0.0134345135 -0.007135486 0.05633349 0.02108114 0.028737051 0.01879277 -0.002901529 0.014089047
0.012173402 -0.034303542 0.039067253 -0.027207203 0.016237464 -0.0266231 -0.0024784538 0.024610097
00000000: bac5 303d 5f7b c73c 0673 1b3a c34d 85bc
00000010: 52ba c73c b3bd 83bc f7a3 11bd ccf6 e5bc
00000020: b8b1 2b3d 4002 48bd ab27 be3b ce68 033d
00000030: ae90 ccbc c239 fe3c 0784 de3c 803a e53c
00000040: af95 83bc 8fa3 853d 08f2 09bd cd86 373c
00000050: b1bc 463d d0d2 ecbc e5ac 1fbc a1c8 0abd
00000060: 47b3 24bd 0ec7 453c 26ca dbbb e789 3b3d
00000070: 4e62 4fbb bd05 e0bb 4302 38bb 09e1 bebc
00000080: daa9 583c dc36 b23b 82fc 24bd b256 183d
00000090: 9458 4cbd 4d6a 503c 30a4 e43c f03e 95b8
000000a0: e7c2 d6bc 2b1c efbb f1e0 2a3d 1f74 00bc
000000b0: 9722 56bd cfb1 b1bc de02 cd3c 9ba0 00bb
000000c0: b6b5 c7bc 4c89 2dbd 92fc 073d 7498 d33b
000000d0: 4a73 b2bc b077 37bc 172b 353d 9c41 8ebd
000000e0: a889 2ebd edf1 303d 12c7 b33c 0950 b13b
000000f0: 725d 2abd e82c 573d 291c 503b 81b0 a73a
00000100: 940c 9f3c fff1 9ebb bc90 89bc a563 91bc
00000110: 0dea 293d 438e 903c 8c98 fcbc b596 303d
00000120: b765 19bd 415f c23c e695 e0bc 56d6 0d3d
00000130: 159f 1d3d a103 2ebd e618 2ebd 0303 003d
00000140: 5113 b5bc f345 1ebd 02e3 43bd f8fe 553d
00000150: ed5a 883d 047c df3b 6b31 cabc 5bf2 fc3c
00000160: f4a4 c13c 7773 c6bc 19fb 543d 465a fabb
00000170: 18b1 d1bb 0c12 b9bc f026 0abc 4a08 9bbc
00000180: eebf 39bd 729c 46bd fea2 1f3d 842c 1bbd
00000190: f8b4 983c d3cd 483d a8f9 1a3b 3fcf cabc
000001a0: ed30 1abd d387 293d a3c7 52bd 5be6 6cbd
000001b0: 366f 313d 0e92 383d 8fbd e73c df85 8e3a
000001c0: 4b28 8dbc 46dd 11bd d239 59bc e7e2 ebbb
000001d0: b64f ad3c c332 e93c ba1e c53c 2b40 7a3c
000001e0: 0114 00bd e7bf 213d eee7 623b d276 843c
000001f0: 1d31 cebc 1fd5 c4bb 1f11 7dbb ed47 4cbd
00000200: f331 673c 9ed6 d0bc 7b81 2c3c 4897 95bd
00000210: ecbb f03b db7f 5c3d ba40 61bd 24f2 ad3c
00000220: 3957 abbb 11fd acbc d7e3 17bd 9b29 18bc
00000230: c3b4 f1bc 4f30 23bc d46c 8abc bbfc e0bc
00000240: 07dc 833d db74 153d 3cf4 28bd 9533 0dbd
00000250: db65 a2bc e800 11bc 979c 0dbd 64e1 893c
00000260: d26f 02bd 62d0 2d3d 1365 a43c a854 313d
00000270: 6f17 6bbd 79f5 053d 4646 c23c 1711 66ba
00000280: 0ca2 00bd d98f aa3d 8806 c9bb 778e f9bb
00000290: d4a9 61ba f3cb 273c 0ff3 f0bc 8655 373d
000002a0: 6bab cfbc 2286 cebc bb4d ddbc 6227 f13c
000002b0: 1c57 21bd c774 243c 1dd0 14bd 8d59 7f3c
000002c0: 58a0 95bc db51 3cbc fa73 f63c 2dfd e3bc
000002d0: 8090 083b 4cdc 8c3c ec79 84bb a6c2 123b
000002e0: 5000 9fbc 8311 a03c f748 113d 17c1 88bd
000002f0: 2990 24bc 49d8 6d39 ecff 743c 3b06 01bd
00000300: 07f8 0dbd ca9e 173d 8ca2 cc3b cea6 f8bc
00000310: a5e8 76bc de0a f3bc e17c 6abc 1471 bcbb
00000320: f255 13bd bc62 ba3c 3bd6 60bd d36d 6ebc
00000330: b1a4 f23b 710b be3c 42b9 0b3c 2309 30bd
00000340: 8f34 c9bb c8e3 f73b 440d 92bc 95d5 273b
00000350: 4dcb db3b a690 91bc 7a90 bdbb fd42 1b3c
00000360: b3ce 2abc b95c 4fbd 557f ce3c ae17 82bc
00000370: 1895 d33c 9774 1c3c 5cba b33c 41f9 4f3d
00000380: 9879 e6ba f754 253b a3ba 983c 4696 e13b
00000390: 5df6 60bd 9291 133d f5ff dfbc c10c e53c
000003a0: aaf2 853a c45b 903c 1cab 5b3c 8570 d1bc
000003b0: d3de 603d 4cbc 983c 5fa5 333d dc09 983d
000003c0: 6f1c 5c3c ccd0 e9bb f2bd 663d 5bb2 ac3c
000003d0: f769 eb3c 4cf3 993c 9427 3ebb bfd5 663c
000003e0: f372 473c df81 0cbd fc04 203d a4e1 debc
000003f0: 6e04 853c b018 dabc 8e6d 22bb 1d9b c93c

action_model._continuous_distribution.mu.bias f4 [2]
0.016233508 -0.0089076385
00000000: 22fc 843c 58f1 11bc

exp_avg f4 [128, 106]
3.572964e-05 0.0006747129 2.4921196e-06 9.701619e-05 5.605968e-05 0.000654689 2.7437864e-06 9.565524e-05
5.7357174e-06 0.0007065672 7.0713116e-07 9.4770025e-05 3.227017e-05 0.00067677256 3.0059364e-06 9.76781e-05
-2.2985749e-05 0.0007354287 7.650785e-07 9.309936e-05 7.059288e-05 0.000638603 2.8740897e-06 0.00010257148
1.5495476e-05 0.0006979022 -1.6655451e-07 9.497151e-05 9.392889e-05 0.00061622163 2.5903578e-06 0.00010713673
-2.456069e-05 0.0007376367 1.5498287e-07 9.66358e-05 0.00012031555 0.0005903154 1.5689035e-06 0.00010895827
5.392286e-06 0.0007081629 -2.9330738e-07 9.881707e-05 0.00020140396 0.0005084544 2.6199511e-06 0.00011036616
4.8772225e-05 0.0006647497 -4.4883777e-07 0.00010368054 0.00015629362 0.0005534644 2.7393091e-06 0.00011177691
0.00011056674 0.0006025357 -4.1637588e-07 0.00010560655 0.00018518191 0.00052540976 2.0124976e-06 0.0001129611
0.00011447897 0.0005961318 2.0531686e-06 0.000109302084 0.00015069224 0.00056110753 1.4989038e-06 0.00011661709
0.0002831016 0.0004283647 9.181377e-07 0.00010559706 0.00017674417 0.00053323247 1.9871543e-06 0.00012936257
0.00021758313 0.0004927989 9.0838637e-07 0.00010585948 0.00035663845 0.00035261986 2.3619214e-06 0.00014922417
0.0003329124 0.0003817999 8.6977457e-07 0.00010713518 0.00051169976 0.00019876235 2.2157067e-06 0.00015777847
0.00035839723 0.00035410209 9.390462e-07 0.0001075312 0.00067618274 3.1570555e-05 0.020284735 1.9344764e-06
2.9178655e-06 0.00016333375 2.2026485e-05 -1.9569565e-05 -3.3513527e-07 3.0295894e-06 2.8800847e-05 -2.4566609e-05
-3.2490706e-07 8.4153805e-07 1.26349105e-05 -9.92743e-06 -5.80375e-07 4.0628142e-06 2.8552367e-05 -2.5711939e-05
-3.6828604e-07 -1.1549046e-06 -4.9230903e-06 8.258124e-06 -8.104294e-07 3.1829763e-06 3.2231263e-05 -2.9458564e-05
-7.315629e-08 -2.4813025e-06 4.6387904e-06 -1.2044101e-06 -8.042655e-07 3.117454e-06 2.5710502e-05 -2.3208642e-05
-4.5451067e-08 -3.564514e-06 2.6317257e-06 7.797212e-07 -7.815262e-07 2.9679084e-06 2.5902702e-05 -2.3486036e-05
-1.5622098e-07 -4.302231e-06 -2.513378e-06 6.68977e-06 -8.515905e-07 2.477798e-06 1.5300075e-05 -1.3087198e-05
-6.606373e-08 -4.8802995e-06 -5.7901393e-06 1.1085808e-05 -1.6192705e-06 2.067168e-06 1.7228602e-05 -1.5165078e-05
-6.340369e-08 -4.710232e-06 -1.22664205e-05 1.8176153e-05 -2.3680655e-06 2.6938446e-06 1.5571468e-05 -1.4450843e-05
-4.32545e-08 -4.3146615e-06 -1.7494613e-05 2.0328842e-05 7.901057e-07 6.2340537e-06 1.660733e-05 -1.5875248e-05
5.3849188e-08 -4.4743897e-06 -1.861763e-05 2.2025197e-05 -2.2286102e-07 6.119431e-06 1.9990495e-05 -1.956542e-05
4.60791e-08 -5.2769806e-06 -6.184362e-06 7.895321e-06 -1.2617949e-07 6.809955e-06 4.4647277e-06 -3.9388674e-06
2.6607312e-08 -6.2656554e-06 -1.584711e-05 1.7425116e-05 2.4632448e-07 7.255434e-06 8.357664e-07 -3.0037854e-09
4.1488306e-08 -6.294669e-06 -7.3956808e-06 8.73405e-06 1.4982736e-07 7.489918e-06 -7.933982e-06 1.5913974e-05
-0.00024822622 -4.4935023e-06 1.7325692e-06 1.7490864e-05 1.89328e-06 -2.3100323e-05 3.7405076e-08 -1.9806355e-06
1.423516e-06 -2.257866e-05 2.1218264e-08 -2.129461e-06 2.6420462e-06 -2.377667e-05 -2.0649145e-08 -1.8317809e-06
2.8162654e-06 -2.4082288e-05 -2.894932e-08 -2.4504475e-06 1.0110127e-06 -2.210888e-05 -2.173639e-08 -1.8039024e-06
2.3265598e-06 -2.3463523e-05 -1.378525e-07 -2.9006803e-06 -9.145772e-08 -2.0913763e-05 -1.1706434e-07 -1.9434638e-06
2.623652e-06 -2.3722614e-05 -6.22158e-08 -3.169044e-06 1.6207804e-06 -2.2554712e-05 -1.8838631e-07 -2.0514285e-06
4.1893952e-07 -2.1562473e-05 -3.7503643e-08 -3.314856e-06 6.410204e-08 -2.0986854e-05 -2.0657836e-07 -2.1863136e-06
00000000: 69dc 1538 37df 303a 4a3e 2736 2c75 cb38
00000010: a021 6b38 6f9f 2b3a e421 3836 849a c838
00000020: 7075 c036 ec38 393a afd1 3d35 45bf c638
00000030: d559 0738 7069 313a 98b9 4936 88d8 cc38
00000040: 85d1 c0b7 c9c9 403a cb5f 4d35 573e c338
00000050: 440b 9438 ec67 273a 7ce0 4036 a51b d738
00000060: 48fc 8137 6cf3 363a 28d6 32b4 712b c738
00000070: b0fb c438 ef89 213a 02d6 2d36 98ae e038
00000080: ae07 ceb7 f65d 413a 5e69 2634 f3a8 ca38
00000090: eb51 fc38 65bf 1a3a 1d93 d235 8780 e438
000000a0: 62ef b436 02a4 393a dc77 9db4 033c cf38
000000b0: f72f 5339 cc49 053a 6bd2 2f36 6274 e738
000000c0: c790 4c38 9942 2e3a cbf7 f0b4 116f d938
000000d0: c0e2 2339 5e16 113a f9d4 3736 c669 ea38
000000e0: 11e0 e738 7df3 1d3a 448a dfb4 1679 dd38
000000f0: 642d 4239 a7bb 093a 720e 0736 87e5 ec38
00000100: 6e14 f038 ba45 1c3a 2bc9 0936 1c39 e538
00000110: 2403 1e39 4a17 133a f12d c935 5390 f438
00000120: 416d 9439 2396 e039 f175 7635 fd73 dd38
00000130: 6754 3939 a0c8 0b3a 0d5b 0536 80a5 0739
00000140: 0727 6439 2d2f 013a d6d7 7335 e000 de38
00000150: 34fb ba39 d6df b839 8081 1e36 0f79 1c39
00000160: bf8a ae39 512c c839 747a 6935 c3ad e038
00000170: 9723 063a dd6a 5039 8db1 1436 5671 2539
00000180: 43e7 bb39 c7a6 b939 c312 7c35 6082 e138
00000190: db41 313a a06a 0438 2c2c a63c 0dd2 0136
000001a0: 8cd0 4336 9244 2b39 84c5 b837 5229 a4b7
000001b0: a4ec b3b4 f34f 4b36 5999 f137 6414 ceb7
000001c0: e36e aeb4 0ee6 6135 87fa 5337 fd8d 26b7
000001d0: 11cb 1bb5 4f53 8836 be83 ef37 f8af d7b7
000001e0: d9b8 c5b4 3802 9bb5 0631 a5b6 5f8c 0a37
000001f0: 498c 59b5 1e9b 5536 0e30 0738 c91d f7b7
00000200: 191a 9db3 7484 26b6 e8a6 9b36 37a7 a1b5
00000210: b4e4 57b5 7435 5136 e2ac d737 2eb0 c2b7
00000220: fa35 43b3 e235 6fb6 b49c 3036 084e 5135
00000230: 12ca 51b5 472c 4736 a149 d937 e103 c5b7
00000240: b2bd 27b4 e25b 90b6 81ab 28b6 b078 e036
00000250: db98 64b5 3f48 2636 a958 8037 1691 5bb7
00000260: ebde 8db3 74c1 a3b6 eb48 c2b6 2ffd 3937
00000270: b655 d9b5 adb9 0a36 2486 9037 846d 7eb7
00000280: 8c28 88b3 960c 9eb6 e0cb 4db7 fe78 9837
00000290: 0eeb 1eb6 e6c7 3436 799f 8237 e671 72b7
000002a0: d3c6 39b3 a9c6 90b6 65c1 92b7 db87 aa37
000002b0: a617 5435 1d2e d136 f84f 8b37 d62b 85b7
000002c0: cf47 6733 b722 96b6 0e2d 9cb7 c0c2 b837
000002d0: 924b 6fb4 8355 cd36 43b1 a737 6b20 a4b7
000002e0: 82e8 4533 eb10 b1b6 4483 cfb6 2576 0437
000002f0: f47b 07b4 1181 e436 b8cf 9536 9d2a 84b6
00000300: 198e e432 923d d2b6 69ef 84b7 272c 9237
00000310: 943e 8434 b473 f336 6e59 6035 276b 4eb1
00000320: e030 3233 cc36 d3b6 6a28 f8b6 7688 1237
00000330: 3be0 2034 e851 fb36 311c 05b7 007f 8537
00000340: 5c24 82b9 e4c6 96b6 a08a e835 58b9 9237
00000350: 9b1c fe35 91c7 c1b7 51a7 2033 0feb 04b6
00000360: a30f bf35 4e67 bdb7 7543 b632 dde7 0eb6
00000370: 024e 3136 0374 c7b7 f35f b1b2 83db f5b5
00000380: 12ff 3c36 5204 cab7 3aac f8b2 5e72 24b6
00000390: 22b2 8735 7576 b9b7 d4b6 bab2 9d1d f2b5
000003a0: fe21 1c36 88d3 c4b7 9b04 14b4 4fa9 42b6
000003b0: 6a67 c4b3 f76f afb7 cd64 fbb3 746c 02b6
000003c0: 0012 3036 edff c6b7 7f9b 85b3 c3ab 54b6
000003d0: 9789 d935 e033 bdb7 3c47 4ab4 46ab 09b6
000003e0: 9cea e034 0fe1 b4b7 b113 21b3 cb74 5eb6
000003f0: 78a8 8933 ed0c b0b7 d4cf 5db4 95b8 12b6

exp_avg_sq f4 [128, 106]
2.1866137e-08 7.369876e-07 2.6449985e-08 4.794427e-08 2.3568118e-08 7.1839565e-07 2.650392e-08 4.776863e-08
1.6708098e-08 7.469642e-07 2.7673467e-08 4.865969e-08 2.6793668e-08 7.0601857e-07 2.6518817e-08 4.8115915e-08
1.493817e-08 7.506177e-07 2.797706e-08 4.9070387e-08 3.3463078e-08 6.8061166e-07 2.6146651e-08 4.8521837e-08
1.4571941e-08 7.380809e-07 2.8292506e-08 4.9897356e-08 4.208522e-08 6.590108e-07 2.6083015e-08 4.9156363e-08
1.6981831e-08 7.29856e-07 2.845234e-08 5.0648485e-08 5.064944e-08 6.292613e-07 2.6303e-08 5.0537164e-08
2.5331143e-08 6.85537e-07 2.8993465e-08 5.1289565e-08 7.2473355e-08 5.686116e-07 2.6566163e-08 5.185564e-08
4.2621277e-08 6.360724e-07 2.910591e-08 5.1676604e-08 1.0589127e-07 5.175406e-07 2.6427664e-08 5.2589765e-08
6.412814e-08 5.9181747e-07 2.9131854e-08 5.2049895e-08 1.4937191e-07 4.6262025e-07 2.6190042e-08 5.3242907e-08
1.0106952e-07 5.2448735e-07 2.9398922e-08 5.259214e-08 1.983553e-07 4.2342674e-07 2.6442942e-08 5.4579523e-08
1.3677169e-07 4.681653e-07 2.9476132e-08 5.3251693e-08 2.7751895e-07 3.5055834e-07 2.6468637e-08 5.602294e-08
1.8335106e-07 4.0094292e-07 2.9497981e-08 5.4070313e-08 3.7152884e-07 2.727894e-07 2.6705942e-08 5.8360804e-08
2.2812605e-07 3.410177e-07 2.9515535e-08 5.5446186e-08 4.774601e-07 1.9479458e-07 2.6756176e-08 6.00211e-08
2.9017832e-07 2.8517437e-07 2.9212467e-08 5.7311958e-08 8.704854e-07 3.4528923e-05 0.00066974043 1.1361318e-07
1.5465488e-08 3.1835052e-07 1.6885563e-08 7.0980826e-09 9.1103814e-08 9.2174126e-08 1.7715369e-08 6.158835e-09
9.127143e-08 9.193239e-08 1.3728949e-08 1.045126e-08 9.130418e-08 9.256076e-08 1.8589526e-08 5.3289315e-09
9.074805e-08 9.16743e-08 8.877897e-09 1.5666684e-08 9.141876e-08 9.294414e-08 1.9454664e-08 5.0508278e-09
9.0601574e-08 9.148244e-08 4.9799755e-09 1.9431157e-08 9.1624116e-08 9.339012e-08 1.9334937e-08 4.863241e-09
9.0544056e-08 9.138156e-08 2.1982312e-09 2.2687967e-08 9.2019356e-08 9.381028e-08 1.9313688e-08 4.4381383e-09
9.080469e-08 9.1431055e-08 7.0093903e-10 2.3758428e-08 9.1949495e-08 9.396911e-08 1.928717e-08 4.1510266e-09
9.070545e-08 9.132922e-08 5.772836e-10 2.378434e-08 9.2163184e-08 9.3975174e-08 1.948597e-08 3.8766848e-09
9.063073e-08 9.1200675e-08 9.057072e-10 2.323539e-08 9.2140155e-08 9.407397e-08 1.9730441e-08 3.638222e-09
9.071504e-08 9.1239286e-08 1.0378072e-09 2.2618964e-08 9.21392e-08 9.419492e-08 2.03172e-08 3.2027752e-09
9.086139e-08 9.138601e-08 1.1788167e-09 2.0741961e-08 9.256722e-08 9.439132e-08 2.099012e-08 2.417811e-09
9.053317e-08 9.13348e-08 1.66333e-09 1.758063e-08 9.273578e-08 9.452407e-08 2.1890125e-08 2.090463e-09
9.0454265e-08 9.129955e-08 2.230574e-09 1.3209442e-08 9.275383e-08 9.449873e-08 2.2425477e-08 1.8312246e-09
9.052293e-08 9.130982e-08 2.8704488e-09 1.0333522e-08 9.2736954e-08 9.447752e-08 1.219548e-06 0.0005578629
0.00021246458 3.2428627e-08 1.6403172e-08 3.5781046e-08 1.10835174e-10 1.3293276e-09 3.6515453e-09 3.696145e-09
1.297031e-10 1.2998937e-09 3.6427779e-09 3.6870986e-09 7.2701505e-11 1.3263348e-09 3.643592e-09 3.7064074e-09
1.3680311e-10 1.2795033e-09 3.6115304e-09 3.6722159e-09 5.9759774e-11 1.3413346e-09 3.663872e-09 3.7133903e-09
1.3992954e-10 1.2408663e-09 3.6513519e-09 3.6822347e-09 5.0023943e-11 1.3433314e-09 3.6568022e-09 3.7217704e-09
1.7217798e-10 1.1623614e-09 3.650253e-09 3.6943026e-09 5.1134163e-11 1.340964e-09 3.6620584e-09 3.7313095e-09
2.0445345e-10 1.115103e-09 3.6744625e-09 3.7087813e-09 6.4699766e-11 1.2890038e-09 3.6519154e-09 3.7342676e-09
00000000: 25d4 bb32 67d5 4535 2234 e332 48eb 4d33
00000010: d772 ca32 c6d7 4035 bdaa e332 2a2a 4d33
00000020: 7f85 8f32 fd82 4835 99b6 ed32 e5fd 5033
00000030: e627 e632 3a85 3d35 7fcb e332 02a8 4e33
00000040: 6251 8032 0e7e 4935 3552 f032 76c1 5233
00000050: 0bb9 0f33 47b3 3635 1899 e032 5366 5033
00000060: 1358 7a32 8920 4635 e107 f332 b94e 5633
00000070: 30c1 3433 e1e6 3035 280d e032 fe1f 5333
00000080: 71df 9132 53eb 4335 5b67 f432 9988 5933
00000090: a689 5933 82ea 2835 e9f0 e132 330e 5933
000000a0: c697 d932 be05 3835 4e0d f932 7949 5c33
000000b0: a6a2 9b33 b1a2 1835 9c33 e432 e1b7 5e33
000000c0: 970e 3733 90be 2a35 9304 fa32 07f3 5d33
000000d0: 5766 e333 1fed 0a35 0c03 e332 0fdf 6133
000000e0: d1b6 8933 63dd 1e35 a03d fa32 778d 5f33
000000f0: 0a63 2034 0b5e f834 83f8 e032 32ad 6433
00000100: 8e0b d933 7fca 0c35 ea88 fc32 abe1 6133
00000110: 7dfb 5434 5453 e334 a524 e332 d26a 6a33
00000120: 84db 1234 2658 fb34 b332 fd32 dbb6 6433
00000130: eafd 9434 5f34 bc34 265d e332 e09d 7033
00000140: 28df 4434 2d41 d734 bf62 fd32 f03a 6833
00000150: 8976 c734 e473 9234 fd66 e532 62a8 7a33
00000160: d0f2 7434 1e15 b734 5989 fd32 ba23 6e33
00000170: cf2a 0035 ba28 5134 74d5 e532 f3e4 8033
00000180: cec9 9b34 111a 9934 e5ee fa32 2a27 7633
00000190: 4dab 6935 26d3 1038 8591 2f3a 82fb f333
000001a0: f8d8 8432 c3e9 aa34 bf0b 9132 65e3 f331
000001b0: daa4 c333 43f1 c533 822c 9832 b09d d331
000001c0: 0001 c433 5e6c c533 8edc 6b32 218d 3332
000001d0: 0113 c433 d1c5 c633 cdae 9f32 c719 b731
000001e0: 45e1 c233 7bde c433 6785 1832 6793 8632
000001f0: ff51 c433 9598 c733 421d a732 8d8b ad31
00000200: be90 c233 0175 c433 541c ab31 91e9 a632
00000210: e4c2 c433 c38d c833 fa15 a632 8519 a731
00000220: 1f71 c233 8b3d c433 b10f 1731 5ee3 c232
00000230: 2d9c c533 bf74 c933 40e7 a532 477e 9831
00000240: 6800 c333 c158 c433 33ac 4030 5615 cc32
00000250: c575 c533 11cc c933 efac a532 d1a0 8e31
00000260: d9c9 c233 c520 c433 b9ae 1e30 514e cc32
00000270: 3feb c533 66cf c933 1a62 a732 ae33 8531
00000280: c5a0 c233 1ada c333 7af5 7830 2a97 c732
00000290: 96de c533 b605 ca33 b37b a932 4704 7a31
000002a0: 1fcf c233 54ef c333 98a2 8e30 a14b c232
000002b0: 10de c533 3448 ca33 ff85 ae32 d117 5c31
000002c0: 941f c333 fe3f c433 ed03 a230 0e2c b232
000002d0: 5ec9 c633 2db4 ca33 c34d b432 9526 2631
000002e0: 236b c233 d623 c433 399b e430 3704 9732
000002f0: 0926 c733 28fd ca33 e508 bc32 d0a7 0f31
00000300: c23f c233 7510 c433 ac48 1931 beef 6232
00000310: f52f c733 3aef ca33 25a2 c032 7dae fb30
00000320: 8265 c233 1b16 c433 7841 4531 4f87 3132
00000330: ae26 c733 91e3 ca33 5aaf a335 8c3d 123a
00000340: 07c9 5e39 a747 0b33 f5e6 8c32 adad 1933
00000350: a8ba f32e 8fb3 b630 aaee 7a31 45ff 7d31
00000360: 2d9c 0e2f f2a7 b230 6d54 7a31 2060 7d31
00000370: 4fdf 9f2e 424a b630 c062 7a31 cfb3 7e31
00000380: a76a 162f 85da af30 b72e 7831 4e5a 7c31
00000390: c369 832e 045a b830 85c7 7b31 a72e 7f31
000003a0: aada 192f 1a8b aa30 43eb 7a31 8f0a 7d31
000003b0: f401 5c2e 46a0 b830 254b 7b31 14c2 7f31
000003c0: cb4f 3d2f f5c0 9f30 eed7 7a31 dcde 7d31
000003d0: f3e3 602e fa4c b830 9da7 7b31 f234 8031
000003e0: 88cc 602f 3342 9930 d481 7c31 92dd 7e31
000003f0: bb46 8e2e ca28 b130 2df5 7a31 f74e 8031

exp_avg f4 [128]
0.00071102835 2.085719e-06 -2.2095492e-05 -1.1219546e-05 -6.2148785e-05 2.6945798e-05 0.0002721109 -2.9824252e-05
0.0006144656 -0.00056595105 1.5836149e-05 0.00045968863 -5.0447343e-05 -0.00026244432 -4.4871816e-05 0.0010381402
7.66029e-05 0.000598491 -0.0010598833 6.351931e-05 2.5428074e-06 -1.8131936e-05 -1.4790059e-05 0.00033238615
0.000919624 7.394809e-05 -0.00010106498 -0.00012938507 -0.0012241991 1.9105393e-05 -0.0002723279 0.00088806584
-0.0012094087 -9.717737e-05 -0.00022230686 -0.0006097191 -0.0006822979 -0.00048402834 0.00023130536 -7.789894e-05
-3.1215615e-05 0.00021048413 5.0088216e-05 0.00095141184 0.00019297101 -0.00035748503 -0.000267637 0.00096031924
-0.0011868583 -2.9325482e-05 -0.00039479017 -1.6520366e-05 -0.0002935713 -0.00092839455 5.342921e-06 -0.00049054966
0.00018809021 -3.7809794e-05 0.0009949193 -0.00047206556 7.351419e-05 -5.465944e-05 -0.0011933346 -1.3145039e-05
0.00018216298 -7.251745e-05 -0.00088159076 0.00017380672 -0.00026629213 0.00037667443 -0.00011084472 0.00027669998
0.00030578187 0.00037622912 -0.0002972905 -0.0013822594 -0.0012917412 -0.0016157911 -4.3723663e-05 -7.8909055e-05
-0.00022343708 -0.0005434166 0.0013929553 2.6272823e-05 0.00022942114 0.00011165184 -1.7779637e-05 -0.00047984498
0.0008947434 0.00010533457 -7.3027086e-06 0.001032167 -1.4880524e-06 -0.00032279073 0.0008991596 -1.9377781e-05
-0.00044097521 -0.00072111166 -0.00020346892 0.00014408134 0.00013752001 -1.4985817e-05 -4.0102066e-05 7.137315e-05
1.4429002e-05 -1.1948202e-05 -0.000337469 0.0012881688 -0.0002928949 -0.0005584992 -0.00048106426 -7.319782e-05
-0.0008362997 0.00016950983 -8.436902e-06 0.0011033916 -0.0012188369 -1.2564718e-05 -0.00025264214 -4.6653317e-05
-0.00074940803 0.00044453779 1.9863508e-05 -0.00022830981 -0.0005717486 0.00036389183 6.3515754e-06 -6.070538e-05
00000000: 4e64 3a3a 61f8 0b36 b559 b9b7 953b 3cb7
00000010: e055 82b8 a909 e237 1baa 8e39 182f fab7
00000020: 1714 213a 555c 14ba dfd7 8437 5d02 f139
00000030: 6c97 53b8 ae98 89b9 bf34 3cb8 3412 883a
00000040: dea5 a038 0de4 1c3a c8eb 8aba ab35 8538
00000050: 19a5 2a36 091a 98b7 d222 78b7 1d44 ae39
00000060: ec12 713a 9414 9b38 d9f2 d3b8 8aab 07b9
00000070: 4e75 a0ba 8544 a037 3bc7 8eb9 17cd 683a
00000080: 0685 9eba b4cb cbb8 0b1b 69b9 8ed5 1fba
00000090: 3ddc 32ba 2fc5 fdb9 8f8a 7239 ad5d a3b8
000000a0: 83ed 02b8 67b5 5c39 d015 5238 2b68 793a
000000b0: 4358 4a39 d46c bbb9 a151 8cb9 efbd 7b3a
000000c0: 5b90 9bba feff f5b7 d7fb ceb9 3795 8ab7
000000d0: 79ea 99b9 815f 73ba 5847 b336 3b98 00ba
000000e0: 153a 4539 f595 1eb8 f467 823a 917f f7b9
000000f0: a12b 9a38 2042 65b8 aa69 9cba 8389 5cb7
00000100: 0103 3f39 8214 98b8 8e1a 67ba e33f 3639
00000110: 209d 8bb9 637c c539 4e75 e8b8 0b12 9139
00000120: 5951 a039 9e40 c539 a8dd 9bb9 ee2c b5ba
00000130: a44f a9ba f4c8 d3ba ed63 37b8 fa7b a5b8
00000140: 6f4a 6ab9 1274 0eba d393 b63a 7564 dc37
00000150: c590 7039 a026 ea38 7b25 95b7 b493 fbb9
00000160: 378d 6a3a 11e7 dc38 ca09 f5b6 c749 873a
00000170: 17b9 c7b5 3d3c a9b9 94b5 6b3a 788d a2b7
00000180: b132 e7b9 fc08 3dba 465a 55b9 8a14 1739
00000190: 3f33 1039 986b 7bb7 4433 28b8 2bae 9538
000001a0: 1714 7237 2375 48b7 53ee b0b9 c6d7 a83a
000001b0: b08f 99b9 3f68 12ba 5a37 fcb9 c881 99b8
000001c0: 1f3b 5bba 73be 3139 388c 0db7 ae9f 903a
000001d0: 61c1 9fba 0ecd 52b7 0e75 84b9 9ead 43b8
000001e0: ec73 44ba da10 e939 8fa0 a637 7366 6fb9
000001f0: 66e1 15ba bcc8 be39 9e1f d536 e89d 7eb8

exp_avg_sq f4 [128]
8.0590996e-07 1.1555407e-07 5.2728417e-09 1.4719103e-09 9.426234e-07 3.5686735e-08 1.5619851e-07 5.9917107e-09
6.7050803e-07 6.361266e-07 5.183405e-09 7.6910646e-07 4.896981e-08 7.250284e-07 1.9006839e-08 4.4897497e-06
2.3014106e-06 1.0486666e-06 2.7109088e-06 1.6007544e-07 6.1523116e-07 6.194178e-08 1.0584322e-08 9.3154625e-07
1.4007082e-06 4.7977597e-08 1.7970567e-08 3.7921446e-08 5.398213e-06 1.0524335e-07 1.3892211e-06 2.7376586e-06
2.7836859e-06 1.05080424e-07 1.403751e-06 1.7943197e-06 7.998072e-07 1.4563415e-06 3.0917147e-07 1.1985142e-07
8.49748e-09 1.5626621e-07 2.3364377e-08 3.985154e-06 2.7032e-07 4.3949836e-07 1.697906e-07 5.6004474e-06
2.5089628e-06 7.520495e-09 4.3267272e-07 8.509572e-09 1.9883412e-06 1.8094994e-06 4.256589e-08 1.4912644e-06
2.7038885e-07 1.0692418e-08 2.666238e-06 4.7851506e-07 5.6492272e-08 1.1303465e-08 2.4869466e-06 4.389704e-09
6.538899e-08 5.1843422e-08 1.6348176e-06 1.15860864e-07 2.3750914e-07 2.2856857e-06 1.229643e-07 1.8111865e-07
6.6773634e-07 9.801761e-07 6.3104835e-07 4.7842886e-06 3.7053244e-06 4.759311e-06 1.8373608e-08 1.0130433e-06
1.9991421e-07 4.5429053e-07 3.4339591e-06 6.740681e-08 1.0637438e-07 8.656932e-08 1.0730121e-08 5.0932687e-07
2.893914e-06 3.4754585e-08 1.5650421e-07 3.7831467e-06 1.2879046e-09 1.0750942e-06 1.2824017e-06 8.473703e-09
3.8002935e-07 1.4984414e-06 4.814301e-07 4.6401755e-07 4.440533e-08 2.7079825e-09 4.0679755e-08 2.206035e-08
2.0029875e-08 1.1221909e-08 5.8846433e-07 2.6436926e-06 1.5350459e-07 6.5825566e-07 4.6334046e-07 1.8912219e-06
3.4061068e-06 3.063023e-07 6.4793513e-09 2.0420803e-06 3.5448122e-06 2.7078906e-09 2.164459e-06 1.31406095e-08
1.1037394e-06 3.6724077e-07 1.3256341e-08 1.1573399e-07 2.9008777e-06 8.64508e-07 2.6934423e-08 4.2968214e-08
00000000: b655 5835 8626 f833 682c b531 3d4c ca30
00000010: 9608 7d35 fb45 1933 85b7 2734 a5df cd31
00000020: f6fc 3335 49c2 2a35 b619 b231 9874 4e35
00000030: e052 5233 939f 4235 7b44 a332 a8a6 9636
00000040: ef71 1a36 e9bf 8c35 0fed 3536 34e1 2b34
00000050: 5d26 2535 db04 8533 57d6 3532 5f0f 7a35
00000060: f8ff bb35 ed0f 4e33 b25d 9a32 12df 2233
00000070: 4c22 b536 2502 e233 4675 ba35 9eb8 3736
00000080: 5ccf 3a36 93a8 e133 8468 bc35 5bd4 f035
00000090: 55b2 5635 8377 c335 34fc a534 82b0 0034
000000a0: 50fc 1132 21ca 2734 cfb2 c832 36b8 8536
000000b0: 7f20 9134 32f4 eb34 af4f 3634 7aeb bb36
000000c0: a75f 2836 7d33 0132 164a e834 7e31 1232
000000d0: 716f 0536 eddd f235 b1d1 3633 7427 c835
000000e0: f629 9134 c0b1 3732 9fed 3236 4e73 0035
000000f0: e9a1 7233 2a31 4232 6be5 2636 3fd4 9631
00000100: fa6b 8c33 72aa 5e33 e86b db35 2fcf f833
00000110: 0406 7f34 c863 1936 2b08 0434 8479 4234
00000120: 7e3e 3335 988e 8335 5065 2935 ba88 a036
00000130: fda8 7836 2cb2 9f36 fed3 9d32 e7f7 8735
00000140: 00a8 5634 37e5 f334 f872 6636 49c1 9033
00000150: ef6f e433 fde7 b933 9257 3832 adb8 0835
00000160: 1035 4236 1245 1533 8d0b 2834 f7e1 7d36
00000170: 1d02 b130 f54b 9035 fd1e ac35 bd93 1132
00000180: d606 cc34 0e1e c935 a03b 0135 161e f934
00000190: 2db8 3e33 5517 3a31 ddb7 2e33 397f bd32
000001a0: 290e ac32 7aca 4032 f6f6 1d35 4b6a 3136
000001b0: 05d3 2434 fcb2 3035 07c1 f834 e4d5 fd35
000001c0: 7894 6436 de71 a434 faa0 de31 ac0a 0936
000001d0: 69e3 6d36 b715 3a31 1f41 1136 03c1 6132
000001e0: 3224 9435 3029 c534 01be 6332 6f89 f833
000001f0: b3ac 4236 8a10 6835 6c5d e732 0d8c 3833
