results/run1/CarAgent/CarAgent-500059.onnx (onnx, 126338 bytes, 7 tensors)

network_body._body_endoder.seq_layers.0.weight f4 [128, 106]
-0.09300558 -0.15644826 0.123561114 -0.1183364 0.035219617 -0.08380927 -0.04544281 -0.11489307
-0.012274322 -0.05444274 0.05635077 -0.04167788 -0.0905481 -0.10583189 -0.03037118 -0.14141034
0.00039089 0.01718414 -0.09155111 -0.12992533 -0.09108127 0.023959346 -0.032741323 -0.12497787
0.039178826 -0.057706516 0.0524511 0.011139394 0.05148155 -0.082398646 -0.08813046 0.12853172
-0.008355992 -0.11804277 -0.0022607427 -0.12249139 -0.034364898 -0.051874608 0.18886653 0.090782404
-0.14087139 0.110833116 -0.23679775 0.009555729 -0.085700445 -0.2617799 0.06787668 -0.028525278
0.06898946 0.027320178 -0.0117676705 0.00354459 -0.02984014 0.079364896 -0.0105278995 -0.11992377
0.011353714 -0.061368853 -0.05538602 -0.10167615 -0.18055604 0.17076363 0.07984013 0.007886598
-0.15615718 -0.064066485 -0.05590507 -0.06355564 -0.032394063 -0.06282301 -0.034436896 -0.030295363
-0.065083675 -0.0041311244 -0.0018329396 0.13530178 -0.076917276 0.0044289054 0.01870881 -0.012243896
0.021997143 -0.21731062 -0.07564721 0.022309095 0.18847322 -0.12575825 -0.03160583 -0.02355271
0.040657498 0.076460175 -0.047128264 0.01079121 -0.18902989 0.015755048 0.02980411 -0.09108551
-0.006552519 0.115533784 -0.015570166 0.00016999515 0.028460901 -0.13434264 0.12212448 -0.18888195
-0.10422505 -0.033468883 0.08189517 -0.037879754 0.0124068335 0.0799085 -0.005049311 -0.10907457
-0.060908888 -0.1469744 -0.028046302 -0.112904094 0.1308063 -0.14454277 0.016979085 0.03293384
-0.031352907 0.11218506 0.14483245 -0.10432716 0.010094582 -0.026317699 0.024189038 -0.0099679865
-0.16277531 0.18695937 0.11221511 0.06365447 0.17806967 -0.113728106 -0.08342977 0.0016936475
-0.09697237 0.15041623 0.095614195 -0.19791216 -0.02423468 -0.049964 0.26148695 0.0062583317
-0.08922221 -0.060599398 0.07248482 -0.05754116 -0.1753802 -0.099567614 0.085004844 0.10824007
0.06540973 -0.05050353 0.007697814 -0.042633105 -0.03412553 -0.10616749 0.008618658 0.029807745
0.10146485 0.025871571 0.13897364 -0.17883533 -0.1799315 0.032278184 0.014250614 -0.012734938
-0.009136143 -0.12705049 0.09651133 0.0070987046 -5.5292705e-05 -0.0045533995 -0.11209241 0.114394866
-0.12772915 0.111876786 -0.0013533426 -0.043899354 -0.0264406 -0.24456073 -0.050581325 -0.07678221
-0.059412815 0.013509641 0.04951755 -0.07827759 -0.040504668 0.008375356 -0.062355574 -0.19910377
-0.15929043 -0.028336598 -0.080862455 0.067218386 0.1435389 -0.09722429 -0.0842514 0.013701994
-0.005092645 -0.017128574 -0.10740228 -0.010248479 0.03995487 -0.06698133 0.08995276 -0.060655482
0.052073054 -0.17683503 -0.08505361 -0.09189497 -0.06891189 0.080117635 -0.0049513364 0.05712724
0.0028481355 0.16552839 -0.13371187 0.10996176 0.09272414 0.022319918 0.07409385 0.2055836
-0.020980202 0.06085008 0.060732078 -0.20637733 -0.010898896 -0.06995101 0.06766987 -0.14496687
0.004728297 0.038548645 -0.10178046 -0.10470548 0.028451536 -0.1764847 0.13938376 -0.06342059
-0.005210232 0.026267903 -0.15100922 -0.04560761 -0.024314532 0.16329992 -0.060264062 -0.074918054
-0.15966472 0.24453916 -0.12869045 -0.26754385 0.15627433 -0.006597979 -0.031582445 -0.00025079932
00000000: b679 bebd f933 20be 9c0d fd3d 5b5a f2bd
00000010: 7242 103d 32a4 abbd 3d22 3abd 0f4d ebbd
00000020: 3d1a 49bc 5aff 5ebd 11d0 663d 6db6 2abd
00000030: 4871 b9bd 64be d8bd fbcc f8bc dfcd 10be
00000040: 5ef0 cc39 c1c5 8c3c 267f bbbd 250b 05be
00000050: d188 babd 6446 c43c c41b 06bd 66f4 ffbd
00000060: fa79 203d ab5d 6cbd f7d6 563d 0182 363c
00000070: 51de 523d 9fc0 a8bd be7d b4bd d29d 033e
00000080: 92e7 08bc 68c0 f1bd f828 14bb c4dc fabd
00000090: 35c2 0cbd 787a 54bd 3a66 413e 20ec b93d
000000a0: 9740 10be 79fc e23d 1c7b 72be a28f 1c3c
000000b0: b783 afbd 0408 86be ee02 8b3d d8ad e9bc
000000c0: 594a 8d3d 91ce df3c 30cd 40bc 5a4c 683b
000000d0: 4f73 f4bc 108a a23d 367d 2cbc 989a f5bd
000000e0: ee04 3a3c e85d 7bbd 74dc 62bd 963b d0bd
000000f0: afe3 38be a9dc 2e3e 3983 a33d ca36 013c
00000100: abe7 1fbe 4a35 83bd b7fc 64bd 7629 82bd
00000110: a3af 04bd 5aa9 80bd b40d 0dbd fb2d f8bc
00000120: 974a 85bd 625e 87bb 3f3f f0ba 8d8c 0a3e
00000130: ce86 9dbd 5a20 913b 3843 993c 9f9a 48bc
00000140: 5a33 b43c ad86 5ebe edec 9abd 90c1 b63c
00000150: 20ff 403e c5c6 00be 1d75 01bd 9df1 c0bc
00000160: 7a88 263d 2797 9c3d 9109 41bd 9ecd 303c
00000170: 0d91 41be bb10 813c c027 f43c 0a8b babd
00000180: 83b6 d6bb fa9c ec3d 021a 7fbc ba40 3239
00000190: d626 e93c 1e91 09be 661c fa3d 456a 41be
000001a0: f173 d5bd ab16 09bd a8b8 a73d cd27 1bbd
000001b0: 0846 4b3c 11a7 a33d b174 a5bb 7d62 dfbd
000001c0: 997b 79bd 7580 16be 5cc1 e5bc 433a e7bd
000001d0: 16f2 053e 0503 14be b917 8b3c a2e5 063d
000001e0: e86b 00bd 48c1 e53d f54e 143e 7aa9 d5bd
000001f0: bf63 253c 3798 d7bc 1728 c63c c450 23bc
00000200: 92ae 26be 4772 3f3e 09d1 e53d 465d 823d
00000210: e557 363e 48ea e8bd 3add aabd 61fd dd3a
00000220: 7399 c6bd b606 1a3e 60d1 c33d 7ca9 4abe
00000230: cf87 c6bc 0da7 4cbd 9ee1 853e b112 cd3b
00000240: 22ba b6bd 1337 78bd ec72 943d 48b0 6bbd
00000250: de96 33be 1bea cbbd 0517 ae3d f8ac dd3d
00000260: 89f5 853d cadc 4ebd f23d fc3b 0da0 2ebd
00000270: 36c7 0bbd 576e d9bd 4635 0d3c 5f2f f43c
00000280: cecc cf3d 9ef0 d33c 1b4f 0e3e 9c20 37be
00000290: f73f 38be 2136 043d 687b 693c 34a6 50bc
000002a0: c3af 15bc 8619 02be bba7 c53d 409c e83b
000002b0: 17ea 67b8 af34 95bb b590 e5bd db47 ea3d
000002c0: 6ecb 02be a81f e53d a462 b1ba cfcf 33bd
000002d0: f599 d8bc 216e 7abe 5d2e 4fbd fe3f 9dbd
000002e0: da5a 73bd 8b57 5d3c ead2 4a3d 0050 a0bd
000002f0: 39e8 25bd ca38 093c 8f68 7fbd dce1 4bbe
00000300: 081d 23be 2722 e8bc 379b a5bd cba9 893d
00000310: ddfb 123e 871d c7bd ff8b acbd 547e 603c
00000320: 34e0 a6bb 3951 8cbc baf5 dbbd 3de9 27bc
00000330: b8a7 233d 822d 89bd 2739 b83d e271 78bd
00000340: 8e4a 553d 3e14 35be 9630 aebd 6e33 bcbd
00000350: ad21 8dbd b714 a43d d23e a2bb 41fe 693d
00000360: c9a7 3a3b 4680 293e c4eb 08be a233 e13d
00000370: 27e6 bd3d 43d8 b63c 84be 973d 8284 523e
00000380: acde abbc ef3d 793d 33c2 783d 9454 53be
00000390: 4891 32bc 7a42 8fbd 8096 8a3d 3272 14be
000003a0: d4ef 9a3b 2fe5 1d3d 4672 d0bd d46f d6bd
000003b0: 3213 e93c 68b8 34be 9eba 0e3e a7e2 81bd
000003c0: 98ba aabb c92f d73c 29a2 1abe 0ccf 3abd
000003d0: 452f c7bc 1838 273e 73d7 76bd a36e 99bd
000003e0: 267f 23be 7968 7a3e 6ec7 03be 82fb 88be
000003f0: 6106 203e dc33 d8bb 985c 01bd b77d 83b9

network_body._body_endoder.seq_layers.0.bias f4 [128]
-0.021050606 -0.009778366 -0.0038407047 0.035368383 0.021498425 0.025311818 -0.0058063744 0.017969027
0.01516901 0.029305456 -0.0050504087 0.007249621 -0.00704437 0.008225585 -0.006008491 0.0072919456
-0.004666398 -0.018307708 0.010598336 0.022352137 0.037106268 -0.016311591 0.029345443 0.011317888
-0.021512149 0.0025313173 0.0017165069 0.012274935 0.016611395 -0.0055774297 0.027141016 0.029623184
0.009616062 0.0125639485 0.038027775 0.006913709 0.01944018 0.014953699 0.02807267 0.015963433
0.033475243 0.0062374794 -0.0064916536 -0.018871244 -0.000210909 0.042711124 0.0012220225 0.021179752
0.014155395 -0.023433056 0.04673631 0.022504972 0.0063254205 -0.019269546 0.016208995 0.01024355
0.01701857 0.014915668 0.02801926 0.005705499 -0.010613435 0.007668566 -0.02452745 0.012248824
0.0038488163 0.015873002 0.01412112 0.01470108 0.012570296 0.021389386 -0.010298812 0.0067314366
0.015315754 0.008929376 -0.011065317 0.023813138 0.026226696 0.030160122 0.010711695 0.013565319
0.016226081 -0.041321725 -0.009250483 0.005448884 0.012649503 0.017989678 0.020048281 0.016169969
-0.010622579 -0.0149385445 -0.0010229562 0.020951116 0.0075537185 0.0006298893 0.006458307 0.022109771
-0.012714973 -0.0008103796 0.0170884 -0.023346003 0.0011074324 0.008706048 0.020645848 0.0071312264
0.0136387255 -0.0035580941 0.0216647 0.014991529 -0.021506622 0.0006775323 0.02270894 0.007336997
0.002626091 0.020678064 0.022273447 -0.014233335 0.004365617 0.019147223 -0.010186243 0.03490236
0.00069820654 0.026819633 0.011958285 0.0032299897 0.02397169 -0.010064042 -0.0011501911 0.0026158453
00000000: 5272 acbc 7135 20bc 55b4 7bbb 70de 103d
00000010: 771d b03c bb5a cf3c 6643 bebb c833 933c
00000020: 7087 783c ff11 f03c e67d a5bb 3b8e ed3b
00000030: 75d4 e6bb 9bc4 063c e0e2 c4bb 46f1 ee3b
00000040: 95e8 98bb 0cfa 95bc a5a4 2d3c d41b b73c
00000050: befc 173d e39f 85bc db65 f03c aa6e 393c
00000060: 3f3a b0bc 75e4 253b 6afc e03a cf1c 493c
00000070: 9f14 883c dfc2 b6bb d656 de3c 52ac f23c
00000080: b08c 1d3c 05d9 4d3c 03c3 1b3d 658c e23b
00000090: 0341 9f3c 5c00 753c a8f8 e53c bfc5 823c
000000a0: 561d 093d c563 cc3b f0b7 d4bb de97 9abc
000000b0: 7427 5db9 dcf1 2e3d 452c a03a 2981 ad3c
000000c0: 08ec 673c aef6 bfbc 936e 3f3d 595c b83c
000000d0: 7945 cf3b 2bdb 9dbc bac8 843c 90d4 273c
000000e0: 876a 8b3c d960 743c a688 e53c 32f5 ba3b
000000f0: f9e3 2dbc 9848 fb3b caed c8bc 4baf 483c
00000100: 6c3c 7c3b 1908 823c 455c 673c ccdc 703c
00000110: a5f3 4d3c cb38 af3c 59bc 28bc 6293 dc3b
00000120: eeee 7a3c 844c 123c 4e4b 35bc c513 c33c
00000130: 5ed9 d63c 5c12 f73c 1b80 2f3c 1241 5e3c
00000140: 8fec 843c f840 29bd 568f 17bc 8d8c b23b
00000150: dc3f 4f3c 175f 933c 4b3c a43c e276 843c
00000160: 530a 2ebc ccc0 74bc b714 86ba ada1 ab3c
00000170: 2f85 f73b 281f 253a 35a0 d33b 8d1f b53c
00000180: 7652 50bc a86f 54ba f9fc 8b3c 1e40 bfbc
00000190: 4427 913a d0a3 0e3c 7b21 a93c 10ad e93b
000001a0: f674 5f3c ea2e 69bb 2b7a b13c 089f 753c
000001b0: a82e b0bc 6c9c 313a 1908 ba3c 316b f03b
000001c0: 7f1a 2c3b 0b65 a93c ce76 b63c ef32 69bc
000001d0: 730d 8f3b a3da 9c3c 33e4 26bc c7f5 0e3d
000001e0: d907 373a d9b4 db3c afec 433c 3cae 533b
000001f0: 4760 c43c a7e3 24bc 02c2 96ba 9a6e 2b3b

network_body._body_endoder.seq_layers.2.weight f4 [128, 128]
-0.07693872 0.029609043 -0.029704716 -0.10945604 0.038373537 0.0732833 -0.09605453 0.033722587
-0.13978453 -0.09431996 0.07936281 -0.08096413 0.057389732 -0.012660705 0.008200808 0.11435828
0.12134166 0.04621485 0.03872093 -0.12627475 -0.24863248 0.06736672 0.03019514 -0.0016385807
-0.05577147 0.0851339 -0.083813734 -0.08160265 -0.02309551 0.18527958 -0.052153368 0.050525535
0.12151529 0.03387616 0.23350976 0.037328925 -0.15384024 0.0021343655 -0.11530781 0.09322029
-0.11777965 0.09053969 0.10876813 0.09238237 0.06051508 -0.007217101 0.08740911 0.111800425
0.09210629 0.010165586 0.06412178 -0.033544723 -0.0173094 0.1358106 -0.15718992 -0.037191626
-0.076940835 0.12608533 0.027193785 -0.058314893 0.038726732 -0.123826705 -0.12216562 -0.108968
-0.041252002 -0.020141326 -0.032568324 -0.021094674 -0.09467765 0.0031167888 -0.08066451 0.05122732
0.0386159 0.14859156 0.050372604 0.115019664 -0.062419806 -0.09995826 -0.017005097 0.12977688
-0.06647862 -0.16126877 0.16744542 0.05067596 -0.038177766 -0.057090685 -0.041182928 -0.18231012
-0.026668493 0.010396745 0.12938897 -0.07209059 0.1077745 0.006285809 0.10804743 0.080485135
-0.15276824 -0.023560831 0.04612755 -0.042609755 0.027654286 0.06552393 -0.12579626 0.047146883
-0.08881306 0.018603038 -0.031124104 0.1302736 0.08471165 0.015346516 0.16612355 -0.08626092
0.1070959 0.12485923 0.0032692417 0.0561832 -0.08857918 -0.049309608 0.021889124 -0.026889447
-0.0053273547 -0.06901028 0.07500734 0.029430624 -0.005690906 0.054699443 -0.08985491 0.05843378
0.11562764 -0.0033568635 -0.10898019 -0.1422019 0.080226146 0.07586905 0.080550954 0.076628454
-0.052460745 -0.16608733 -0.060142715 0.0712545 0.09859681 0.021324331 -0.03927291 -0.05528961
0.15937455 -0.09994721 0.029795364 0.033402793 -0.019394107 -0.08700482 0.033693768 -0.056159608
0.049127087 -0.020103926 0.04142281 -0.10203465 -0.15291427 -0.16983058 -0.05035472 -0.044336233
-0.011941079 0.0018489754 -0.1587126 -0.1273524 0.00340897 -0.05614134 -0.08733991 0.06642841
0.02632494 -0.062158495 -0.12131708 -0.06680749 0.17136914 0.019616533 0.015002012 -0.07188417
-0.02455222 0.054892667 0.023063997 -0.03139567 -0.05727395 -0.028946983 -0.108559646 0.0004909637
0.10513754 0.04077358 -0.02716315 -0.11847696 0.047707427 0.010897697 -0.030313648 -0.06625594
0.084175214 0.02997471 -0.013979621 0.18658821 -0.06826991 0.25651923 0.024123112 -0.027644139
-0.037328362 0.19067144 0.0026060578 0.123081006 0.143375 0.19693227 -0.023828015 -0.028205866
0.1061454 0.122232236 -0.20864618 -0.042461257 0.019636095 -0.054797776 0.07354648 -0.0017775778
0.1162654 0.06441831 0.055230286 0.062471032 0.002172001 -0.11117694 -0.005362848 0.044547953
-0.02217178 0.19668247 -0.0026991596 -0.054271225 -0.03564066 -0.033928365 -0.06488414 0.00095608697
-0.029091612 0.100379825 -0.16301633 0.056605432 -0.17551285 0.10886101 0.09876094 -0.06786687
-0.050532408 -0.10731834 0.015374324 -0.13419312 0.10147707 0.0053901216 0.12304929 -0.056121588
-0.14450757 -0.14880684 0.18561769 0.013854423 -0.01897254 0.018534154 0.015604413 0.0089348825
00000000: 0c92 9dbd aa8e f23c 4e57 f3bc 7d2a e0bd
00000010: 922d 1d3d 8e15 963d 3db8 c4bd b220 0a3d
00000020: ad23 0fbe d32a c1bd f888 a23d 86d0 a5bd
00000030: 7f11 6b3d d86e 4fbc af5c 063c ad34 ea3d
00000040: fa81 f83d c84b 3d3d d799 1e3d 2b4e 01be
00000050: 8399 7ebe 90f7 893d cc5b f73c a5c5 d6ba
00000060: a070 64bd af5a ae3d 89a6 abbd 4a1f a7bd
00000070: cc32 bdbc eeb9 3d3e c59e 55bd ddf3 4e3d
00000080: 02dd f83d bac1 0a3d 2f1d 6f3e 37e6 183d
00000090: 4c88 1dbe b6e0 0b3b 8026 ecbd 48ea be3d
000000a0: 7536 f1bd df6c b93d d3c1 de3d f832 bd3d
000000b0: a9de 773d 6e7d ecbb 8c03 b33d 9ff7 e43d
000000c0: 39a2 bc3d 8f8d 263c 4852 833d 3166 09bd
000000d0: 71cc 8dbc ef11 0b3e 65f6 20be 3f56 18bd
000000e0: 2893 9dbd 831c 013e 80c5 de3c 99db 6ebd
000000f0: ec9f 1e3d db98 fdbd f831 fabd 9d2a dfbd
00000100: dcf7 28bd 6cff a4bc 5d66 05bd bdce acbc
00000110: 5be6 c1bd 0a43 4c3b 6f33 a5bd bdd3 513d
00000120: b52b 1e3d 6328 183e 8153 4e3d 6e8f eb3d
00000130: e9ab 7fbd ebb6 ccbd 464e 8bbc 3be4 043e
00000140: f125 88bd a423 25be d076 2b3e 9891 4f3d
00000150: 4a60 1cbd ecd7 69bd 6eaf 28bd 81af 3abe
00000160: e277 dabc 1c57 2a3c 8b7e 043e 3ba4 93bd
00000170: e1b8 dc3d 30f9 cd3b f947 dd3d 64d5 a43d
00000180: 476f 1cbe a502 c1bc 3ef0 3c3d 9187 2ebd
00000190: 3e8b e23c 6931 863d bcd0 00be 171d 413d
000001a0: 9fe3 b5bd 6665 983c faf7 febc 7166 053e
000001b0: 4d7d ad3d f46f 7b3c 4b1c 2a3e 91a9 b0bd
000001c0: 1855 db3d 32b6 ff3d c640 563b 5b20 663d
000001d0: 0069 b5bd dff8 49bd d250 b33c 4247 dcbc
000001e0: 1791 aebb 4355 8dbd 739d 993d 7e18 f13c
000001f0: c87a babb 860c 603d da05 b8bd 4258 6f3d
00000200: 2fce ec3d d3fe 5bbb 0131 dfbd 609d 11be
00000210: 9b4d a43d 3c61 9b3d e6f7 a43d 61ef 9c3d
00000220: 14e1 56bd cc12 2abe 3558 76bd e1ed 913d
00000230: 20ed c93d 5db0 ae3c a2dc 20bd 5c77 62bd
00000240: 1533 233e 1fb1 ccbd 6815 f43c 5ed1 083d
00000250: 64e0 9ebc 952f b2bd 7a02 0a3d 9e07 66bd
00000260: 7c39 493d fdb0 a4bc f7aa 293d 8bf7 d0bd
00000270: 8f95 1cbe 11e8 2dbe c040 4ebd e999 35bd
00000280: 84a4 43bc 5259 f23a 8e85 22be ab68 02be
00000290: 0769 5f3b 76f4 65bd 44df b2bd 9e0b 883d
000002a0: 67a7 d73c e899 7ebd 1775 f8bd 5ed2 88bd
000002b0: 647b 2f3e dab2 a03c 00cb 753c 0238 93bd
000002c0: bd21 c9bc 22d7 603d b5f0 bc3c bf98 00bd
000002d0: 1798 6abd 3922 edbc 8554 debd 04b4 003a
000002e0: 5a52 d73d 3302 273d 4185 debc 0ca4 f2bd
000002f0: dd68 433d 418c 323c 5454 f8bc 32b1 87bd
00000300: 0e64 ac3d 868d f53c c80a 65bc fb10 3f3e
00000310: 18d1 8bbd 7d56 833e d59d c53c f675 e2bc
00000320: a0e5 18bd 603f 433e 65ca 2a3b e511 fc3d
00000330: e5d0 123e 9da8 493e f832 c3bc fd0f e7bc
00000340: c262 d93d e554 fa3d 58a7 55be dbeb 2dbd
00000350: e0db a03c a273 60bd 899f 963d 9dfd e8ba
00000360: 8e1c ee3d bfed 833d 2739 623d a0e1 7f3d
00000370: 2158 0e3b bcb0 e3bd d4ba afbb ea77 363d
00000380: 98a1 b5bc 2167 493e 62e4 30bb 814b 5ebd
00000390: f1fb 11bd 78f8 0abd fae1 84bd e9a1 7a3a
000003a0: 8851 eebc f093 cd3d c1ed 26be 19db 673d
000003b0: a4b9 33be 85f2 de3d 2d43 ca3d c9fd 8abd
000003c0: 12fb 4ebd b8c9 dbbd 97e4 7b3c ec69 09be
000003d0: 36d3 cf3d 9e9f b03b 4401 fc3d c0df 65bd
000003e0: cbf9 13be d260 18be 9012 3e3e a9fd 623c
000003f0: 4d6c 9bbc f0d4 973c a7a9 7f3c 9d63 123c

network_body._body_endoder.seq_layers.2.bias f4 [128]
-0.00785097 -0.018404499 0.02321993 -0.017926272 0.008393439 0.01075386 -0.0069640293 -0.013486586
-0.008635795 0.0023565914 -0.0064431494 0.0010357117 -0.0051889294 -0.011626141 0.030678859 -0.016723843
-0.0045778356 0.020381568 -0.009401768 -0.006733161 -0.01675474 -0.004949826 0.012138121 0.015431514
0.024116777 -0.017129444 -0.0076044123 0.0062016463 -0.007545823 -0.007722317 0.0026159647 0.00492064
0.01270566 0.0068307016 0.0064925267 0.019693982 0.008448206 0.013615598 -0.01112441 0.021955809
0.022636073 0.0038068418 -0.010974758 0.020715589 -0.0021936612 -0.0041151023 0.024232922 -0.0144826565
0.015979683 0.005315438 0.018324012 -0.0069260104 0.008353456 -0.008902833 0.010527311 0.024429254
0.017943108 0.023115495 -0.008504441 0.009769409 -0.012387112 -0.008702643 0.0070150965 0.0016847689
0.02096377 0.024118345 -0.00093397644 0.013011792 -0.004468285 0.016796617 -0.013326879 0.006436535
0.015508312 0.01969867 0.02471257 0.0024040835 -0.010559359 0.024808668 0.011167046 -0.0038076274
-0.014440988 0.018676057 -0.01137512 -0.008046242 -0.008033177 -0.002519669 -0.011070944 0.017141623
0.0263752 0.023732202 -0.013183612 0.020898946 0.01895908 -0.0019149642 0.00435145 0.002667931
-0.00086539914 0.00017771611 0.019413566 0.025008101 -0.0068550156 -0.005654406 0.017131403 -0.015458921
-0.004731321 -0.0062149945 -0.0020228978 0.0074036624 -0.009738613 0.012864997 0.0061857803 -0.010692448
0.009090494 0.021202672 0.012477225 0.006433463 0.009724903 0.020319216 -0.013304032 0.012191067
-0.009312 0.017127665 -0.00024174877 0.029022923 0.017411448 0.013366425 0.019800998 -0.007920097
00000000: 5ba1 00bc 08c5 96bc b937 be3c 1eda 92bc
00000010: a384 093c f530 303c 8332 e4bb d7f6 5cbc
00000020: 267d 0dbc 0b71 1a3b 0e21 d3bb b8c0 873a
00000030: e507 aabb 927b 3ebc 3b52 fb3c 7100 89bc
00000040: ab01 96bb 3ff7 a63c e009 1abc d9a1 dcbb
00000050: 3d41 89bc 2632 a2bb f8de 463c 76d4 7c3c
00000060: 8c90 c53c 0c53 8cbc 6f2e f9bb 2e37 cb3b
00000070: f442 f7bb 7d0b fdbb 9b70 2b3b 523d a13b
00000080: 672b 503c 14d4 df3b 43bf d43b 4655 a13c
00000090: 586a 0a3c f513 5f3c 2843 36bc abdc b33c
000000a0: 496f b93c 357c 793b 79cf 33bc bdb3 a93c
000000b0: 87c3 0fbb fbd7 86bb 1f84 c63c aa48 6dbc
000000c0: d3e7 823c 202d ae3b 3d1c 963c 96f3 e2bb
000000d0: efdc 083c 30dd 11bc be7a 2c3c dc1f c83c
000000e0: 6dfd 923c b55c bd3c 3656 0bbc df0f 203c
000000f0: 50f3 4abc 8895 0ebc e5de e53b 77d3 dc3a
00000100: 36bc ab3c d693 c53c 19d6 74ba 692f 553c
00000110: b16a 92bb 0f99 893c fb58 5abc 92e9 d23b
00000120: 9316 7e3c 1b5f a13c 0472 ca3c d48d 1d3b
00000130: 2901 2dbc 8c3b cb3c fcf5 363c 6389 79bb
00000140: e599 6cbc 88fe 983c b65e 3abc 63d4 03bc
00000150: 969d 03bc 0821 25bb e862 35bc 976c 8c3c
00000160: ce10 d83c 096a c23c 1400 58bc 4434 ab3c
00000170: 1350 9b3c 89ff faba 9c96 8e3b 74d8 2e3b
00000180: f4db 62ba 4e59 3a39 3309 9f3c cadd cc3c
00000190: 0aa0 e0bb 9848 b9bb 2857 8c3c 6a47 7dbc
000001a0: 3209 9bbb 27a7 cbbb 9892 04bb 6c9a f23b
000001b0: b48e 1fbc b5c7 523c 16b2 ca3b 612f 2fbc
000001c0: 4cf0 143c 3ab1 ad3c 466d 4c3c cdcf d23b
000001d0: 3355 1f3c 7c74 a63c 28f9 59bc 0bbd 473c
000001e0: 5c91 18bc 514f 8c3c f17d 7db9 7bc1 ed3c
000001f0: 74a2 8e3c dafe 5a3c b435 a23c 4bc3 01bc

action_model._continuous_distribution.log_sigma f4 [1, 2]
-0.05328122 -0.004867693
00000000: 693d 5abd 2b81 9fbb

action_model._continuous_distribution.mu.weight f4 [2, 128]
-0.051356107 -0.007907969 0.082613945 -0.04154912 0.002975011 0.009028181 -0.04631116 -0.05479188
-0.024057504 -0.038821794 -0.056836613 -0.009986405 -0.024279324 -0.058564365 0.06969751 -0.025582276
-0.060196616 0.048669666 -0.05139698 -0.042209435 -0.012926734 -0.04693096 0.018881068 0.023736797
0.053602237 -0.03313276 -0.018174194 -0.019677257 -0.031021344 -0.017623391 -0.018567761 0.0011760901
0.0034943142 -0.0015394732 0.01590002 0.03316751 0.0049238135 0.018797316 -0.067272544 0.033176437
0.03787259 -0.009946305 -0.03173865 -0.015300724 -0.035533145 -0.03315922 0.057213183 -0.022954142
0.030907314 -0.009074119 0.021351011 -0.048191063 0.018061575 -0.04350405 0.011826032 0.032908976
0.030900765 0.03850378 -0.025264528 0.02633404 -0.032126598 -0.038369786 0.013328294 -0.01643882
0.041411076 0.05700255 -0.02049024 -0.023393724 0.010674351 -0.030627858 -0.04184657 -0.010396476
0.017375162 0.036529012 0.050492905 -0.011407925 -0.03744575 0.034982495 -0.0066905166 -0.048764564
-0.016413037 0.023196714 -0.036161084 -0.030485319 -0.051543307 -0.025555948 -0.04495738 0.023227386
0.06436856 0.012129234 -0.040502243 0.04823025 0.014752517 -0.04069957 0.008147702 0.019996746
-0.05900166 -0.00078576576 0.03654956 0.03949594 0.002439618 -0.019939909 0.03563862 -0.03278507
-0.014676812 -0.048948757 0.007272254 -0.051250447 -0.008985756 0.014641944 0.014935089 -0.030782059
0.016778516 0.04843011 0.019582137 -0.035095625 -0.009916884 0.045246467 -0.044959057 -0.025132582
-0.022862447 0.023195483 -0.021194149 0.0606417 0.0337135 0.016586423 0.066223696 -0.0063143037
-0.02561703 -0.007621869 -0.008072129 0.0021028023 -0.073579945 0.043492008 0.0066300286 -0.0066344673
0.033296485 -0.06429575 0.031223759 0.018095732 -0.031966023 0.028091036 -0.0139266215 -0.013432416
0.033821303 -0.04810525 0.050048858 0.042583697 0.010369053 0.060764804 0.040989887 0.019325623
0.013960695 0.014558833 0.073350534 -0.053461816 -0.021112414 0.009869822 -0.042694166 0.052001793
0.0337993 -0.044647414 0.06397573 -0.07285108 -0.041366514 -0.040231466 0.022466678 -0.052682992
0.022865571 -0.0010897181 0.010702431 -0.04459051 0.023613226 0.0060200333 -0.00023650777 -0.002952603
-0.010281698 0.050405115 0.022239257 -0.014978388 0.028913004 0.012005276 -0.006024042 -0.044766434
0.038985677 -0.0045910124 0.025575222 0.049119722 -0.00032184512 0.03088472 0.07615873 -0.009166286
0.036238626 0.047495786 0.0357244 -0.02369629 0.008786528 -0.01618957 0.0133411735 0.035629977
-0.0599396 -0.035445172 -0.02643819 0.07433802 0.0028161914 -0.05032342 -0.024517054 -0.0045380755
-0.011104768 -0.031692386 -0.007993187 0.04654533 -0.0076205456 0.008397652 0.0042247707 0.0030938995
-0.0027483532 -0.027375354 0.04449789 0.019424472 0.039303787 -0.028381195 -0.02659713 0.016663961
-0.061414458 -0.053601533 0.017232653 -0.013157308 -0.024566887 0.00069060887 0.0057566557 0.008340818
0.024453402 0.0020721788 -0.025107177 0.007251598 0.04590509 -0.05275011 0.053264372 0.037970126
-0.022513643 0.00819883 -0.037117645 -0.010130111 0.003920303 -0.028142944 -0.008906037 -0.044246994
-0.041408747 -0.0015851416 0.016252253 0.015893497 0.041309692 0.0052958806 0.025424266 0.009143444
00000000: c85a 52bd 6d90 01bc 8031 a93d 692f 2abd
00000010: 67f8 423b f0ea 133c c5b0 3dbd 736d 60bd
00000020: 3e14 c5bc 9a03 1fbd 82cd 68bd 059e 23bc
00000030: 6fe5 c6bc 30e1 6fbd 91bd 8e3d ec91 d1bc
00000040: ba90 76bd d859 473d a485 52bd cde3 2cbd
00000050: a7ca 53bc ae3a 40bd 78ac 9a3c ac73 c23c
00000060: 058e 5b3d 38b6 07bd 0ce2 94bc 3332 a1bc
00000070: 7920 febc ee5e 90bc 6b1b 98bc 0927 9a3a
00000080: dd00 653b 26c8 c9ba c240 823c a8da 073d
00000090: f157 a13b d4fc 993c 30c6 89bd 04e4 073d
000000a0: 4a20 1b3d d4f5 22bc 6300 02bd e3af 7abc
000000b0: 348b 11bd f6d1 07bd 5f58 6a3d 530a bcbc
000000c0: 5631 fd3c 9dab 14bc 51e8 ae3c fe63 45bd
000000d0: def5 933c 4d31 32bd f9c1 413c 90cb 063d
000000e0: 9a23 fd3c 24b6 1d3d 8ef7 cebc 7cba d73c
000000f0: 2e97 03bd a329 1dbd eb5e 5a3c b4aa 86bc
00000100: a99e 293d 827b 693d 26db a7bc 32a4 bfbc
00000110: 79e3 2e3c 46e7 fabc 4f67 2bbd fb55 2abc
00000120: 5b56 8e3c 729f 153d a6d1 4e3d 4ee8 3abc
00000130: b760 19bd ce49 0f3d 1f3c dbbb 5abd 47bd
00000140: a274 86bc 0907 be3c a51d 14bd 59bc f9bc
00000150: 131f 53bd b55a d1bc 3b25 38bd 5c47 be3c
00000160: aad3 833d b2b9 463c aee5 25bd 158d 453d
00000170: 8bb4 713c 98b4 26bd f07d 053c 37d0 a33c
00000180: baab 71bd d9fb 4dba feb4 153d 7fc6 213d
00000190: 00e2 1f3b 0559 a3bc cdf9 113d a349 06bd
000001a0: 0377 70bc 7e7e 48bd 174c ee3b fdeb 51bd
000001b0: fe38 13bc c4e4 6f3c 4eb2 743c a82a fcbc
000001c0: 1973 893c a75e 463d b86a a03c 6ec0 0fbd
000001d0: 6d7a 22bc 5c54 393d fd26 38bd d8e2 cdbc
000001e0: 074a bbbc 7404 be3c 5a9f adbc 6e63 783d
000001f0: 2b17 0a3d 40e0 873c 4aa0 873d 38e8 cebb
00000200: ceda d1bc dfc0 f9bb f740 04bc 2bcf 093b
00000210: 15b1 96bd ad24 323d b640 d93b f265 d9bb
00000220: e561 083d 7dad 83bd f8c8 ff3c 803d 943c
00000230: ceee 02bd 2c1f e63c 7c2c 64bc a313 5cbc
00000240: 3588 0a3d 030a 45bd 0800 4d3d 3e6c 2e3d
00000250: f6e2 293c 84e4 783d 03e5 273d c550 9e3c
00000260: 66bb 643c 2c88 6e3c ce38 963d c7fa 5abd
00000270: f1f3 acbc 09b5 213c 14e0 2ebd d5ff 543d
00000280: 2371 0a3d 35e0 36bd b505 833d f232 95bd
00000290: ef6f 29bd c0c9 24bd 0a0c b83c 1fca 57bd
000002a0: 9450 bb3c dfd4 8eba 4059 2f3c 8aa4 36bd
000002b0: 8670 c13c b343 c53b 12ff 77b9 7580 41bb
000002c0: 9174 28bc 9875 4e3d 1a2f b63c ea67 75bc
000002d0: f7da ec3c c7b1 443c 5465 c5bb 025d 37bd
000002e0: 72af 1f3d 3470 96bb 2183 d13c c331 493d
000002f0: 52bd a8b9 f401 fd3c 1cf9 9b3d 312e 16bc
00000300: f46e 143d f18a 423d c053 123d b91e c2bc
00000310: 5ff5 0f3c fd9f 84bc f094 5a3c bdf0 113d
00000320: 3a83 75bd f52e 11bd e794 d8bc 883e 983d
00000330: da8f 383b ee1f 4ebd fdd7 c8bc 23b4 94bb
00000340: c6f0 35bc e0cf 01bd dbf5 02bc 51a6 3e3d
00000350: c5b5 f9bb 4e96 093c f26f 8a3b 05c3 4a3b
00000360: b71d 34bb 4742 e0bc 6b43 363d 1220 9f3c
00000370: 02fd 203d ae7f e8bc 39e2 d9bc dc82 883c
00000380: ba8d 7bbd 488d 5bbd 7e2b 8d3c c091 57bc
00000390: 7f40 c9bc fa09 353a 54a2 bc3b eda7 083c
000003a0: 8052 c83c 64cd 073b 91ad cdbc d09e ed3b
000003b0: fa06 3c3d 8010 58bd be2b 5a3d 9086 1b3d
000003c0: 886e b8bc 6354 063c ac08 18bd c4f8 25bc
000003d0: e375 803b 088c e6bc a0ea 11bc 563c 35bd
000003e0: 389c 29bd 87c4 cfba 7223 853c 1433 823c
000003f0: 5a34 293d 1189 ad3b 8d46 d03c 62ce 153c

action_model._continuous_distribution.mu.bias f4 [2]
0.019850781 -0.0033419672
00000000: 1b9e a23c e804 5bbb
