results/run1/CarAgent/CarAgent-499970.onnx (onnx, 645957 bytes, 13 tensors)

network_body.observation_encoder.processors.0.normalizer.running_mean f4 [100]
000000 36 85 86 3d 1e 46 68 3f a9 e8 af 3a e9 dd 54 3e
       0.06568377 0.9073199 0.0013420779 0.20787777
000010 2d fc aa 3d 5a b5 63 3f 00 b2 b0 3a dd ad 53 3e
       0.0834888 0.88948596 0.0013480783 0.20671792
000020 55 47 6c 3d ea 6f 6a 3f 36 dc ae 3a 67 18 56 3e
       0.057685215 0.9157702 0.0013340774 0.20907746
000030 bd b6 fb 3d 30 9e 59 3f cb 2b b0 3a 22 5e 52 3e
       0.12290714 0.85007 0.0013440786 0.20543721
000040 73 97 6a 3d b7 94 6a 3f 19 99 ae 3a 4f b3 57 3e
       0.05727334 0.9163317 0.0013320773 0.21064495
000050 5a 9d 46 3e 87 74 47 3f c8 2b b0 3a c5 05 4f 3e
       0.19395962 0.7791218 0.0013440782 0.20217045
000060 40 57 8d 3d ef 94 67 3f c6 2b b0 3a c4 b2 59 3e
       0.06901407 0.9046163 0.001344078 0.212596
000070 7b aa 8a 3e 93 ce 33 3f 8f 01 b2 3a 9c 60 4a 3e
       0.2708319 0.7023708 0.0013580787 0.19763416
000080 e7 34 bb 3d c8 e0 61 3f 35 38 b1 3a bf 70 5c 3e
       0.0914095 0.88233614 0.0013520779 0.21527384
000090 83 b6 b0 3e 2b cd 20 3f 59 7b b1 3a 7d 01 46 3e
       0.34514245 0.6281306 0.0013540789 0.19336505
0000a0 1c 0f 03 3e 71 81 58 3f ac 44 b2 3a f8 e0 5f 3e
       0.12798733 0.8457251 0.0013600788 0.21863163
0000b0 65 95 d6 3e a4 ef 0d 3f e3 ca b2 3a 8c f5 41 3e
       0.41910854 0.5544379 0.0013640787 0.18941325
0000c0 29 78 35 3e dd f8 4a 3f 70 be b1 3a e6 84 63 3e
       0.17721619 0.79285985 0.0013560783 0.22218665
0000d0 49 92 fb 3e e1 22 f7 3e 97 5d b4 3a 6c 45 3e 3e
       0.49135044 0.48268798 0.0013760802 0.1858117
0000e0 99 20 78 3e 4f fb 37 3f 92 01 b2 3a 22 90 66 3e
       0.24231185 0.7186784 0.001358079 0.2251592
0000f0 e2 12 10 3f 48 08 d3 3e 93 5d b4 3a 98 02 3b 3e
       0.5627881 0.41217256 0.0013760797 0.18262708
000100 7b 91 aa 3e b9 73 1e 3f 02 b2 b0 3a 02 5e 68 3e
       0.33314118 0.6189533 0.0013480785 0.22692111
000110 f2 f5 25 3f 19 c3 a7 3e 03 0e b3 3a 5c 86 37 3e
       0.6482841 0.32766035 0.0013660792 0.17922348
000120 63 96 de 3e 69 89 02 3f cc 2b b0 3a 69 0f 68 3e
       0.4347411 0.5099092 0.0013440787 0.22662129
000130 ca bb 35 3f 65 4f 88 3e 8d 01 b2 3a 2a 3f 34 3e
       0.7098967 0.26623073 0.0013580784 0.1760222
000140 7f 7c 05 3f 6e 26 d6 3e 8a a5 af 3a 7b fc 66 3e
       0.5214309 0.41826195 0.0013400775 0.22557251
000150 f6 9b 42 3f 54 f6 5e 3e e1 12 ae 3a 3d e4 31 3e
       0.7601923 0.21773654 0.0013280773 0.17372222
000160 0a be 18 3f a7 b2 ad 3e 76 62 af 3a ab 43 66 3e
       0.59664977 0.33925363 0.0013380784 0.22486751
000170 a7 82 4d 3f d5 c8 36 3e ab 8c ad 3a 1e da 30 3e
       0.80277485 0.17850049 0.0013240775 0.17270705
000180 2b e0 29 3f ed e9 8a 3e 76 be b1 3a c2 e0 66 3e
       0.6635768 0.27131596 0.001356079 0.22546676

network_body.observation_encoder.processors.1.normalizer.running_mean f4 [6]
000000 01 bc 45 3d 4a ff 16 bc 96 9f 73 40 b4 d0 3f bd
       0.048274998 -0.009216139 3.8066154 -0.046829894
000010 a2 fa c7 bc d6 f9 69 3f
       -0.024411503 0.91396844

network_body._body_endoder.seq_layers.0.weight f4 [256, 106]
000000 67 5d a4 bc 42 7c 34 3e 18 8c d8 bd 84 64 b2 bd
       -0.020064069 0.17625526 -0.10573596 -0.08710578
000010 b4 41 35 be 2c e6 e1 bc 8b 4e f1 3d 19 fa a5 bd
       -0.17700845 -0.027575575 0.11782559 -0.08104343
000020 b8 44 4b be 49 b3 f8 3c 19 01 de bd 52 4e 4b 3e
       -0.19850433 0.030358927 -0.10840053 0.19854096
000030 57 d5 17 3e be 07 02 be 65 54 9d 3e 75 34 83 3d
       0.14827476 -0.12698266 0.3072845 0.0640649
000040 5d 93 c3 bc 9f 7a f9 3d 2d 3b cc bd f7 59 3d 3e
       -0.02387398 0.12181591 -0.099722244 0.1849135
000050 a1 9d 34 bd ea a0 e0 bc 60 d2 60 3d 22 36 ea 3b
       -0.04409564 -0.02742048 0.05488813 0.0071475664
000060 fb c2 b8 3d 78 80 45 3d 43 d3 81 bd 34 1c a7 3d
       0.090215646 0.04821822 -0.06339123 0.08159676
000070 2d ad ce bd 6a 02 1f 3e 7f 1e 2d 3d d8 e6 17 3e
       -0.100916244 0.15528265 0.04226541 0.14834154
000080 1d ff 60 bd b2 81 d0 bd 4b 7b a4 bd b2 cd 09 3e
       -0.054930795 -0.101809874 -0.08031329 0.13457373
000090 8a e5 29 3d f6 12 80 be c2 b8 02 3c c0 0a 1b be
       0.04147867 -0.25014466 0.00797862 -0.1514082
0000a0 ca 37 fe bc 3d 83 dd 3d 40 38 18 3d 5c 6b 58 3d
       -0.031032462 0.10816047 0.03716302 0.05283676
0000b0 76 67 a2 3d d6 b2 fb bd 5a 97 48 bd e2 02 0f be
       0.0792989 -0.122899696 -0.048972465 -0.13965943
0000c0 c0 e3 a7 bd 55 69 9f 3d a6 d7 a1 3d 6f 83 88 bd
       -0.08197737 0.07783762 0.0790246 -0.06665694
0000d0 6e 83 b1 3d aa 22 4e bd ba f2 8d 3e 40 9f ab bd
       0.08667646 -0.050326027 0.27724248 -0.08379984
0000e0 6c b1 f3 bd 81 6c 57 bb 92 8b 92 bd 70 a3 c5 bd
       -0.11899075 -0.003287107 -0.07155527 -0.09650314
0000f0 06 a0 ec 3d a0 13 fe 3d f6 b7 41 bd 03 c2 b8 bd
       0.115539595 0.12406087 -0.04729458 -0.0902138
000100 78 10 fd 3d d5 f8 56 be e6 7e 49 be ad 2d 8d 3d
       0.12356657 -0.2099336 -0.19677314 0.068934776
000110 4b ac 7b bc c6 27 c2 3d 86 18 e1 bd 2e a6 30 3d
       -0.015360902 0.094802424 -0.109910056 0.04312723
000120 6b 88 a5 bc 6a 77 34 3e 9b 66 b5 3d c0 1c 7f 3d
       -0.02020665 0.17623678 0.08857461 0.062283278
000130 b4 d0 a3 3d 88 51 e0 3d 6d 33 97 bd 1e 98 f3 bd
       0.07998791 0.10953051 -0.073828556 -0.118942484
000140 09 09 61 bd 88 26 68 bd 09 66 25 bd 71 7b 22 3e
       -0.054940257 -0.05667737 -0.04038051 0.15867402
000150 0f 26 8c 3c 42 0b 42 bd 2f 12 e7 bc 38 cb 03 3e
       0.017107992 -0.047374018 -0.028206913 0.1287049
000160 0d b7 72 bb 2e 3f 57 3c 3d bd d1 3d 71 f3 9f bc
       -0.0037035376 0.013137622 0.102411725 -0.019525262
000170 e1 63 45 3d 62 0b 0f 3e 00 71 30 3e eb fc ee bc
       0.048190955 0.13969186 0.17230606 -0.029173335
000180 06 15 2b 3d 1f c5 6b 3c 98 94 6d 3d 8e a0 8a 3e
       0.041768096 0.014390259 0.05800304 0.27075619
000190 a8 d3 13 bd 0c e7 66 bd ca f8 30 3c 88 0a b8 3d
       -0.036090523 -0.056372687 0.010801503 0.08986384
0001a0 ea 56 0b 3c 53 64 8f bd 2b 74 bb 3d f8 69 1e 3c
       0.008504609 -0.07001557 0.09153017 0.00966882
0001b0 5b bd 5a bb e8 04 15 bd 8f 93 34 be 4c 3b 52 be
       -0.0033377025 -0.036381632 -0.17634414 -0.20530432
0001c0 9c 08 5e bd 1a 3f f1 bb f9 17 0e be 78 00 30 bd
       -0.05420743 -0.0073622586 -0.13876332 -0.042969197
0001d0 19 ce f6 bd 09 fc 9c bd eb 52 14 bc d8 3e 2d 3e
       -0.12051029 -0.076652594 -0.009052972 0.16918504
0001e0 74 02 4b bc 54 7a d1 3d 1b 90 c6 3d 1c da 69 bd
       -0.012390722 0.1022841 0.09695455 -0.05709277
0001f0 da a5 40 be e6 51 4f 3e 57 7a 2c 3b 8a 4e 29 3d
       -0.18813267 0.20246086 0.0026318037 0.041334666
000200 26 07 60 bd ec 00 32 3c 1c 06 2d 3e c6 b4 b7 bc
       -0.054694317 0.010864478 0.16896862 -0.022425067
000210 bd 82 37 bc a5 21 77 3d a4 83 da bd 16 2f 5d 3d
       -0.011200604 0.06033482 -0.1066964 0.053999983
000220 c7 02 c1 bd 56 4f 90 bd f4 fc 57 3c 03 db e8 ba
       -0.09424358 -0.07046382 0.013182867 -0.0017765466
000230 f7 19 e9 bd 61 3a c5 3d 7b 65 26 bd ac d2 3b bc
       -0.113819055 0.096302755 -0.040624123 -0.011463802
000240 d8 da 93 bd a4 df b0 bd bb f3 66 3e ea e9 37 3d
       -0.072194755 -0.08636406 0.22553913 0.044900812
000250 60 35 04 be 5e 17 6c be 1e 31 ff 3c 43 4a 50 3e
       -0.12910986 -0.23055789 0.03115135 0.20340829
000260 67 4b bb bd 63 89 47 bd aa 7d 85 3e 85 82 94 bd
       -0.09145241 -0.048715007 0.26072437 -0.07251457
000270 9a 55 a2 bc e2 9b dc 3d 12 89 13 3e 03 f9 b2 3c
       -0.019816209 0.1077192 0.14407757 0.021847254
000280 f8 73 22 bc 7c f9 e9 bb 5b 17 5b bd 2f 05 01 bd
       -0.009915344 -0.0071403366 -0.05348907 -0.031499084
000290 ce 6b aa bc 0b ee 5f 3e 2a 28 1d 3d 67 2e 87 bb
       -0.020803358 0.2186815 0.03836838 -0.0041254046
0002a0 47 ab 44 3e af 34 ef bd eb a3 07 3e a3 30 11 bd
       0.19205962 -0.116799705 0.13246123 -0.035446774
0002b0 c3 53 9b bd d9 93 0e 3e 91 7b 93 bd a3 4c bc bc
       -0.07584336 0.13923587 -0.07201303 -0.022985762
0002c0 7c ca ba bd 52 3f ce 3d e4 6c 15 be 7a 0f b0 bd
       -0.09120652 0.10070671 -0.1459232 -0.08596702
0002d0 64 b7 7d be 5a 62 ef bd 6e a9 90 bd 17 84 92 3d
       -0.24776989 -0.11688681 -0.07063566 0.071541004
0002e0 74 f1 a0 3d 6e 78 05 3e 04 6d 2b 3d fd 19 2b 3d
       0.078585535 0.13034222 0.041852012 0.04177283
0002f0 1d 7c 63 bd 85 f6 eb bd fa 98 0d 3d ca a6 2b 3d
       -0.055538286 -0.11521629 0.034569718 0.04190711
000300 ac 0c 8e 3d 40 1e 77 bc dc 81 bb bd 1d cd 4e 3d
       0.06936011 -0.015082896 -0.09155628 0.05048858
000310 15 01 91 bd 03 df 49 3d 96 19 8d bc d0 8e 2e 3e
       -0.070802845 0.049284946 -0.017224114 0.17046666
000320 5e 05 37 3d cb 2e 89 3d 5a 61 35 be e7 44 69 bd
       0.044682853 0.06698378 -0.17712918 -0.056950476
000330 5e bc 3a 3e 54 d3 a2 3d bc 53 72 3d ba 93 0d be
       0.18235919 0.07950464 0.059161887 -0.13825884
000340 18 fc 7f be 66 ab cd bb c8 cf 1c be 44 d3 cb 3d
       -0.2499851 -0.006276536 -0.15313637 0.09952405
000350 2e 57 94 3d b5 34 b5 ba 9b 58 bc bd 55 6e 23 be
       0.07243191 -0.0013824912 -0.09196588 -0.15960057
000360 14 dd 91 3e b6 fe d6 3d 43 f9 23 bd e7 4b a3 bd
       0.28488982 0.10497801 -0.040032636 -0.079734616
000370 9a bb 2b bd 9e 85 51 bd 59 10 94 3d 97 47 5c bd
       -0.041926958 -0.051152818 0.072296806 -0.05377921
000380 e3 e0 06 bd 64 f5 b9 bd 9a 73 aa bd 9e 12 47 3d
       -0.032929312 -0.09080008 -0.083228305 0.04860174
000390 7c cd 36 3b 86 4f ab bd 47 7b 84 bc 22 58 19 be
       0.0027893474 -0.08364777 -0.016172064 -0.14975026
0003a0 34 45 a5 bd 7e 6e b8 3d f9 56 9e bd 06 dd 8b 3d
       -0.0806984 0.0900545 -0.077314325 0.06829266
0003b0 0a 19 e0 bd 06 c7 8e bc fb 5a 50 bd df 28 1e 3d
       -0.10942276 -0.017428886 -0.050868016 0.038613196
0003c0 ec 44 40 3e b7 56 dc 3c 7f 45 90 3c 9d f1 22 3d
       0.18776292 0.026896818 0.017611263 0.0397812
0003d0 35 fd 73 bd 93 f0 b8 bd cc 39 aa 3d d4 23 b4 bd
       -0.05956765 -0.09030261 0.08311805 -0.08795896
0003e0 c9 38 17 3e b7 ad 36 3e ec 13 12 be f5 af 0b 3e
       0.14767756 0.17839704 -0.14265412 0.13641341
0003f0 b7 08 09 be a8 10 55 be 69 1e 79 bd 7c 2a 1b 3d
       -0.1338223 -0.20807135 -0.060820017 0.037882313

network_body._body_endoder.seq_layers.0.bias f4 [256]
000000 9b 40 b3 3c 0f b5 29 3c 02 da 75 3c 0a 22 72 bb
       0.021881392 0.010358109 0.01500559 -0.0036946558
000010 a2 23 01 bb 51 e9 2a 3c 50 6c 0b bc 02 8e 21 3c
       -0.0019705077 0.0104316035 -0.00850971 0.009860517
000020 67 d1 af 3b a7 72 0e 3b 1d 91 29 3c 9c 01 5e bc
       0.005365539 0.0021735819 0.010349539 -0.013550188
000030 c3 95 91 3b 67 63 7e bb 77 3c 67 3c 58 d1 b4 3b
       0.004442902 -0.0038816573 0.014113537 0.00551812
000040 d9 c8 b4 bb 2c 63 1e 3c 60 de c5 3a cb a5 94 3c
       -0.005517107 0.009667199 0.001509618 0.018145462
000050 cf 49 fe 3b 00 01 71 3c a7 3c 06 bc 97 98 79 3c
       0.0077602635 0.014709711 -0.008193172 0.015234134
000060 8e a3 3e 3c 84 21 ac bc a4 d4 85 3a cf 54 6b bc
       0.011635674 -0.021012075 0.0010210467 -0.014363482
000070 97 44 97 bc 31 3b 38 3c a8 7f 17 bc c1 02 d8 bc
       -0.018465323 0.011244581 -0.009246744 -0.0263685
000080 2a c4 20 bc 64 db bd bb a9 1d c2 3b 61 b4 41 3c
       -0.009812394 -0.0057939757 0.005923946 0.011822791
000090 41 8b 69 3c 12 6f 55 3c d7 ac 24 3c 29 19 5b 3c
       0.014254392 0.0130269695 0.010050974 0.013372698
0000a0 62 fd 6a 3c e3 96 3a 3c f5 03 4e 3c 85 54 37 3c
       0.014342638 0.011388513 0.012574186 0.011189585
0000b0 5f ae dc bb 8f f6 2e 3c 32 fe 97 ba af bb c7 bb
       -0.006734654 0.010678901 -0.0011596142 -0.0060953717
0000c0 82 2c 03 3c c3 2e 27 bc 09 dc d0 bb a0 71 0c 3c
       0.008006217 -0.01020402 -0.0063738865 0.008572012
0000d0 56 86 2d 3c 48 21 fc 3b 19 ec aa b9 dd 55 74 bc
       0.01059111 0.007694397 -0.00032600833 -0.0149130495
0000e0 a7 a8 2d 3a d0 a9 11 3c 9f 3b 40 3c a8 0a 5e bc
       0.00066245574 0.008890584 0.011732965 -0.013552345
0000f0 46 f9 11 bc 33 f0 aa ba 9a 98 16 3b 4e 40 32 3c
       -0.008909529 -0.0013041556 0.0022979141 0.010879589
000100 bf e7 21 3b f9 5f 73 3b 2d 9f 2f 3c a5 e9 ce bb
       0.0024704782 0.0037136062 0.010719103 -0.0063144737
000110 d5 72 84 3c 2c e6 a2 bc 6f a3 3a 3c 63 54 13 bc
       0.016168037 -0.019885145 0.011391505 -0.008992287
000120 28 b9 c8 bb 9d 97 59 3c e9 bf 19 3c d2 38 8f 3b
       -0.006125588 0.013280776 0.009384134 0.004370787
000130 dd f1 10 3c 8c 26 8b 3c 31 c3 0d bb 85 31 2b bc
       0.008846727 0.016986154 -0.0021631236 -0.010448818
000140 3b 4d 10 bc f4 d8 0a bc 99 9e 3d 3b 58 3f 54 3c
       -0.008807476 -0.008474577 0.0028933643 0.012954555
000150 3a d0 89 3c 0f 2c 0d 3c fc db a8 bb 10 64 9d 3c
       0.016822923 0.008616461 -0.0051531773 0.019212753
000160 00 a9 f0 bb 5d 31 93 3c 9c f9 89 3c 51 c8 8b 3c
       -0.007344365 0.017967874 0.016842656 0.017063292
000170 55 7c 2a ba 75 1e 0d 3c 38 4f f2 bb 2c 3f 37 3b
       -0.0006503512 0.008613219 -0.0073946975 0.0027961237
000180 d6 b0 0d bc 08 9e 30 3c 85 1f c3 3c eb 6e 4f 3c
       -0.008648118 0.010779865 0.02381874 0.012660722
000190 44 84 ab 3c d2 d2 61 bc 31 13 18 3c 2b 1c 38 bc
       0.020937093 -0.013783174 0.009281919 -0.0112371845
0001a0 bc 54 a0 bb 52 b2 54 bb f9 4f 1c 3b 11 d3 ce bb
       -0.0048929136 -0.003245492 0.0023851378 -0.006311782
0001b0 3a 7c 21 bb 13 35 a6 bb 6e c8 fd 3b 0c fd 49 3c
       -0.0024640695 -0.005072245 0.0077448403 0.0123283975
0001c0 11 62 7b 39 fa 15 08 3c 0b 5a 4f 3c 37 85 ca ba
       0.00023973758 0.008306021 0.012655745 -0.0015451078
0001d0 fa b5 c1 ba 46 a7 56 bc 2d 60 7b 3c e9 a6 3e 3c
       -0.0014778965 -0.0131014045 0.015342754 0.011636474
0001e0 bc 46 24 3c 8e 3a 86 3c 0c e3 ad bb eb f7 43 bc
       0.01002663 0.016385343 -0.005306607 -0.011960964
0001f0 93 a2 5e 3b 67 2d df 3b 0a 59 c9 bb 95 2c 3f 3c
       0.0033971414 0.0068108323 -0.0061446475 0.011668344
000200 88 c2 84 bb da 7c 84 bc 58 ec 59 3c fa 19 86 3c
       -0.0040515102 -0.016172815 0.013300978 0.016369808
000210 2c 90 06 3c 72 8d 20 3c bd b1 78 ba 13 ee b1 bb
       0.008213084 0.009799348 -0.0009486934 -0.005429992
000220 5c 0b b6 ba 7b 9e 2d 3c af f3 27 bc 89 21 49 bb
       -0.0013888883 0.010596867 -0.01025097 -0.0030690155
000230 c0 69 13 bc 5e 26 83 bb b1 96 30 bb 7a 50 7b 3c
       -0.008997381 -0.0040023765 -0.0026945288 0.015339011
000240 20 2e 1d 3b 21 c9 0b 3c 7d bc 6a ba c7 d1 63 bc
       0.0023983791 0.00853184 -0.00089544785 -0.013904995
000250 07 e1 2e 3c ef 62 b7 bb 69 ae 58 bc 85 02 97 bb
       0.010673768 -0.0055965106 -0.013225176 -0.0046084546
000260 83 b0 4c 3b 2e 0f 8f 3c a8 2f 41 bc b2 5e c3 ba
       0.003123314 0.017463293 -0.011791147 -0.0014905541
000270 1c 5b 4e bc ad 58 8c 3c 4d 4d 53 bc ea 2d 87 3c
       -0.012594964 0.017132128 -0.012896848 0.016501386
000280 32 68 10 bc 77 30 40 3c ce 36 6e bc cb da 51 bb
       -0.008813905 0.011730305 -0.014539434 -0.003202128
000290 8c 0f 85 3c e1 99 88 bb 98 3e ab b9 21 8a 34 3c
       0.016242765 -0.0041687344 -0.00032662298 0.011019261
0002a0 f2 99 1b 3c f7 7a 60 3b da 25 38 3c e3 2e 3a 3c
       0.009497153 0.003425298 0.011239493 0.011363718
0002b0 a8 3c 17 bc 3f 18 70 3c d1 d3 69 bc da 36 26 bb
       -0.00923077 0.014654218 -0.014271692 -0.0025362284
0002c0 3e b6 16 bc 4c 1b 9c bb fd 54 19 bc 8f 74 62 3c
       -0.009198723 -0.004763996 -0.009358642 0.013821735
0002d0 95 5b 8a 3c 78 81 25 bc f7 00 2f 3c 1c 35 08 bc
       0.016889373 -0.010101669 0.010681382 -0.0083134435
0002e0 35 8b 81 3c ff 33 3e b9 1e 8b 57 3c a3 8c ff bb
       0.01581345 -0.00018139182 0.013155727 -0.0077987476
0002f0 36 86 22 3b 2f a3 a4 bb bd 6c 4a 3c 28 eb 6b 3c
       0.0024799234 -0.005024336 0.012355027 0.014399327
000300 2b e2 18 bb 5e e6 10 bc a1 9d 43 bc a1 70 0c 3c
       -0.0023328166 -0.008843986 -0.011939437 0.008571775
000310 94 61 00 bc 29 54 4f bc d2 b8 a2 3c d6 40 ca 3b
       -0.007835764 -0.012654343 0.01986352 0.00617228
000320 b2 ce 24 39 4e e2 2f 3c 63 eb f3 3b 5d a9 3c bb
       0.00015717259 0.010735108 0.007443832 -0.0028787472
000330 3e a7 c3 bb 2c f3 37 bb 52 de 1e bc 1f 34 62 3c
       -0.0059708646 -0.0028068526 -0.00969656 0.013806372
000340 e4 06 6d bc 4f 5e 52 3c 9b d4 0b 3c 63 63 7c 3c
       -0.014466975 0.012839868 0.008534576 0.015404555
000350 57 fe 83 bb 43 cf 25 3c 1e df 7f bb b7 b1 35 3c
       -0.0040281224 0.010120216 -0.00390429 0.011089734
000360 8b dc b9 bb 7c 43 01 ba 69 ef 51 3b f1 90 79 bb
       -0.0056720427 -0.00049310154 0.0032033569 -0.0038080777
000370 d7 96 29 bc 7d aa 8d bc 33 da 50 3c 53 d9 21 3b
       -0.010350904 -0.01729321 0.012747335 0.0024696186
000380 d3 fd 6a 3c 3c 50 df 3b ad 74 52 3c e9 61 48 3c
       0.014342743 0.0068149846 0.0128452005 0.012230375
000390 a1 2b 13 bb 60 5a a4 3c 09 9f 9c 3a dd 49 02 bc
       -0.0022456425 0.020062625 0.0011949252 -0.007952181
0003a0 fe 32 15 bc 29 b5 af bb eb 9d 25 bc 38 61 74 3b
       -0.009106396 -0.005362172 -0.010108451 0.0037289392
0003b0 a6 23 c0 bb bd e4 24 bc 41 61 2d bc ce 9a ea 3b
       -0.0058636246 -0.010064301 -0.010582269 0.0071595674
0003c0 11 51 05 3b 90 57 51 3b a6 73 f0 bb 75 0d 0b 3c
       0.0020342509 0.003194306 -0.007338005 0.008487095
0003d0 8d dc 65 bc 60 32 31 3c 9f 7e 59 bc 49 48 a3 3c
       -0.014029634 0.010815233 -0.013274818 0.01993193
0003e0 f2 da 1f bc 62 14 65 3c 6f 10 f1 bb 74 06 a0 3c
       -0.0097567905 0.01398191 -0.0073566954 0.019534327
0003f0 74 d9 87 3c 2a bc 83 3c f9 7b b8 3b 41 cf 2b 3c
       0.016583182 0.016080935 0.005630013 0.010486425

network_body._body_endoder.seq_layers.2.weight f4 [256, 256]
000000 f8 a6 d5 bc 34 98 c1 3d ed 8d 65 bd dd 56 af 3d
       -0.026080593 0.094528586 -0.056043554 0.0856149
000010 e4 31 50 3c b9 c9 f7 bd a8 53 93 3c 16 29 0d bd
       0.012707207 -0.120990224 0.017984226 -0.03446301
000020 81 e7 92 bc 43 72 b9 3c df 05 cd bd 6a 34 92 ba
       -0.017932655 0.022637492 -0.100108854 -0.0011154537
000030 0d 28 7a 3c 3c 6c cc 3b 57 6a 24 bd 63 4e b8 3d
       0.015268338 0.0062384885 -0.040140476 0.08999326
000040 3e bc d4 b9 3b 35 8f bd 75 f0 5c bc 65 93 dd 3c
       -0.00040576042 -0.06992575 -0.013485064 0.027047822
000050 a4 80 8f bb d8 b1 8f bd a9 0f f0 bd fe 0f 24 bc
       -0.004379349 -0.07016343 -0.11721737 -0.010013578
000060 01 8a d8 bd 2c 2d c0 ba dd d6 75 3d 3a 48 bd bc
       -0.10573197 -0.00146619 0.060019363 -0.02310573
000070 52 3d 86 3d be 6d 01 3d 5f d4 54 3d 8d 18 7c 3d
       0.06554665 0.0315988 0.051960345 0.06154685
000080 a3 04 ab 3d 05 d1 13 3d 24 94 b3 bc 25 96 86 bb
       0.08350494 0.03608801 -0.021921225 -0.004107254
000090 59 24 1b bd 67 f0 7f 3d 4d 8f 3a 3d 3d 5d 30 3d
       -0.03787646 0.062485125 0.04554682 0.04305767
0000a0 6e c1 1e 3d dd cc 65 bd 84 cc b3 b9 90 11 69 3d
       0.038758688 -0.056103576 -0.00034293917 0.056901515
0000b0 fa fe 7e bc 05 54 27 bd 71 7d 85 bd fd 5d ec 3c
       -0.015563721 -0.04085161 -0.06518067 0.02885341
0000c0 a1 87 28 bd 5b ff a9 bd 1a a8 e5 bd ae 6e 25 3e
       -0.04114497 -0.08300658 -0.112137035 0.16155502
0000d0 e1 dd 0c 3d 3f ea 42 3d f6 30 3d bd 23 34 41 3d
       0.034391288 0.047586676 -0.04618927 0.047168862
0000e0 67 8d ca bd 8e 39 cc 3c c7 76 81 bd 0d 66 2c 3c
       -0.098902516 0.024929788 -0.06321483 0.010522378
0000f0 a3 a7 67 3c a7 ad de bd ff 73 04 bd d4 ed 46 bb
       0.014139089 -0.10872965 -0.032337185 -0.003035416
000100 06 d9 a0 bd 8c 3a 73 bd de d7 0f 3c 60 7b 39 3d
       -0.07853894 -0.059382007 0.008779494 0.045283675
000110 1e 87 94 bd d8 23 03 be 6d 09 b8 bd 6d f3 37 3c
       -0.07252334 -0.12806642 -0.08986173 0.011227471
000120 03 8c 5e 3c 1a 2d 15 bd d1 89 f4 3c 4d 0f bc bc
       0.013583186 -0.036419965 0.029850872 -0.022956515
000130 9a f6 f1 3c 44 ba 5c bb e6 a5 22 bd 70 78 5a 3d
       0.029536534 -0.003368036 -0.039708994 0.053337514
000140 52 7e e2 3c 84 3d 9d bd 29 e7 e3 bd ee 3c c9 3c
       0.027648125 -0.07677749 -0.11128075 0.024565186
000150 07 6b 6a 3d 8f 5b ba 3c 0d 89 6e 3d 38 43 4d bc
       0.057230975 0.022748737 0.05823617 -0.012528233
000160 75 2c 88 3d 63 3f fa 3c f4 af 00 3d 51 70 81 bd
       0.066491045 0.030547803 0.031417802 -0.06320251
000170 ae 5b 98 ba 3f 6f 8c 39 aa 04 0f 3a 78 be 7d bd
       -0.0011624002 0.00026785766 0.0005455712 -0.061949223
000180 d0 a2 0b bd 50 52 f7 bc f6 3b ef bc 93 ab b4 3b
       -0.034090817 -0.030190617 -0.029203396 0.0055136173
000190 23 66 a9 bc f9 99 2a bd 72 df 8f 3d d5 e3 b3 3d
       -0.020678585 -0.041650746 0.07025041 0.0878369
0001a0 57 4c 96 3c eb 1e 6a 3d d1 21 ab bd 86 b4 ab 3c
       0.018346949 0.057158392 -0.08356059 0.020960104
0001b0 64 3c 88 3d d4 95 78 bd 07 d1 20 bd 10 6f cb 3c
       0.066521436 -0.060689762 -0.039261844 0.024833232
0001c0 13 0d 33 bd 5d 36 3e 3c 2b d5 a4 bd 19 0f a6 3d
       -0.04371364 0.011609641 -0.08048471 0.081083484
0001d0 cf c7 4a 3d 90 42 e8 3c 81 d6 25 3c 0c 45 2d bc
       0.04950696 0.028352052 0.0101219425 -0.010575544
0001e0 9a 3f 38 bd 74 61 2e bd 72 99 43 bc 7e 50 03 bd
       -0.04498253 -0.042573407 -0.01193844 -0.032059185
0001f0 f0 bb 85 3d ee 6b 62 3c 4c ec b2 bc 18 36 86 3b
       0.06529987 0.013819678 -0.02184119 0.004095804
000200 10 ab a6 3c a9 ca b9 3c 52 bc da 3d cc 1e 4d be
       0.02034524 0.022679644 0.106804505 -0.2003128
000210 f0 ec 4d 3d dd ef a2 3b 27 73 15 bc f1 2e 90 3d
       0.05027479 0.0049724416 -0.009121693 0.07040203
000220 92 eb 39 3d 07 c6 aa bd 88 38 80 3d 97 8f 71 bd
       0.045390673 -0.08338552 0.062607825 -0.05897483
000230 aa c7 1f bd 05 27 13 bd e7 d7 c3 3d c5 d8 de ba
       -0.039008774 -0.035925884 0.095626645 -0.0017001858
000240 38 eb aa 39 3b 1b 3a bc 97 09 45 3d b1 ac 8d bc
       0.00032600178 -0.011359031 0.04810485 -0.01729426
000250 eb 0f ef bc 1f d1 af 3c b9 ec 89 3d 33 9f 0c 3d
       -0.029182395 0.021462021 0.067346044 0.03433151
000260 e5 a1 86 bc 44 f1 9d 3d b1 d9 a7 3d e5 b0 0f 3d
       -0.01643462 0.077120334 0.08195818 0.03508081
000270 61 4e 90 3d 0f 87 53 3d 73 63 0e bd 01 6a 14 bc
       0.070461996 0.051642474 -0.03476281 -0.009058476
000280 f3 a8 bc bd 17 2e 8d 3d 04 98 77 3c 5c a4 c9 bc
       -0.09211912 0.068935566 0.015111927 -0.024614505
000290 df 69 80 3d 24 0d c9 bc e7 d5 83 ba e3 f7 ac 3c
       0.06270193 -0.024542399 -0.0010058255 0.021114295
0002a0 5b 7e 27 3d ba fb 7a bd 0d 9c 5b bd 07 50 95 bd
       0.040891986 -0.06127522 -0.05361562 -0.07290655
0002b0 87 f0 a9 bc b3 b0 f6 bc 24 53 23 bd 85 27 58 3d
       -0.020744575 -0.030113554 -0.03987421 0.052772064
0002c0 89 39 c0 bc a7 a9 c6 bd 78 6b 80 3d f3 30 b4 bb
       -0.023464935 -0.09700327 0.06270498 -0.0054989993
0002d0 0b 9f 2d 3d 97 35 35 3c 08 13 36 3d 64 39 9f 3d
       0.042388003 0.01106014 0.044451743 0.07774618
0002e0 66 5d 6a bd f8 53 1c bb 7f de 66 ba d5 38 70 3c
       -0.057217978 -0.002385376 -0.0008806958 0.014661987
0002f0 71 11 85 3d 42 37 4d bd af a5 2f 3d 91 71 2f be
       0.06497467 -0.050101526 0.042882618 -0.17133166
000300 e5 36 6d bd 36 16 ac ba 63 b9 b1 3c 91 50 60 3c
       -0.05791368 -0.0013129178 0.021694845 0.0136910835
000310 d6 f0 0d 3d 38 cb 44 bd 58 ad 0f be dd 7f 57 3c
       0.034653507 -0.048045367 -0.14030969 0.013153044
000320 39 e0 fa 3c 03 ba c8 3c 3b 16 72 3d b2 88 ca 3b
       0.030624496 0.02450276 0.059103232 0.006180846
000330 c6 03 a5 3c 85 c6 3f 3d b3 49 32 bd 99 9d 20 bd
       0.0201434 0.046820182 -0.043527316 -0.039212797
000340 c4 78 d7 ba 32 8e de 3d b0 ea 9b 3d 51 6d d3 bd
       -0.0016439189 0.10866965 0.076131225 -0.10323585
000350 81 af 3d 3d f0 2c 8e bd 3e 8b f0 3c 04 55 26 3e
       0.04630995 -0.06942165 0.02936327 0.16243368
000360 e3 4f 83 bc d8 71 03 3d 81 2b 5d bd 46 a8 39 bd
       -0.016029304 0.03209099 -0.053996567 -0.045326494
000370 bb 10 f4 3d 3d 70 f9 bc 9f cd 5d 3d 09 85 87 3b
       0.119172536 -0.030449027 0.054151174 0.004135732
000380 3b cc 86 bd 96 4d 78 3d e1 db 91 bd 37 16 f5 bc
       -0.065819226 0.060620867 -0.07122017 -0.02991782
000390 41 c8 d9 bc 62 28 81 bc ef d4 0a 3d ef 35 38 3d
       -0.026584746 -0.015766326 0.033894476 0.04497331
0003a0 2e 42 81 bd a8 f2 c2 3d ed c8 89 3d 5a 29 c3 3c
       -0.06311451 0.09518939 0.06727777 0.023823429
0003b0 80 a8 3d 3d b7 9f ca bc 9e dd 5e 3d 74 5c 11 3e
       0.046303272 -0.024734361 0.05441057 0.14195424
0003c0 8d 96 fe bd b3 f1 c6 bc 08 9f 07 3a fc 5b 56 bd
       -0.12431059 -0.024285173 0.0005173539 -0.052333817
0003d0 95 5d 05 be 45 e8 04 be b7 54 64 3d 0c d1 c1 bd
       -0.1302398 -0.12979229 0.055744853 -0.09463701
0003e0 8f 17 89 bd dd 8f 27 3c a7 a7 9d 3d 1f 76 5d bd
       -0.066939466 0.010227171 0.07697993 -0.054067727
0003f0 6e bd f7 bc 39 18 2f 3d 03 b4 3c 3d 9c 9a 35 bb
       -0.030241694 0.04274771 0.04607011 -0.0027710563

network_body._body_endoder.seq_layers.2.bias f4 [256]
000000 b0 a7 6c bc 70 01 5b 3c dd 4d 4c bc 71 fa 67 3c
       -0.014444277 0.013367042 -0.012469736 0.014158831
000010 47 c9 42 3c 60 5e 16 3c 92 49 3a bc 89 c7 0a ba
       0.011888809 0.009177774 -0.01137008 -0.0005294015
000020 10 0e ec ba 95 08 ec 3b df 6b 86 bb 8c a0 c6 3b
       -0.0018009562 0.0072031715 -0.0041022147 0.006061619
000030 09 fc b0 3b 81 ab 43 3c de 09 bd 3a df df fb bb
       0.0054011387 0.011942745 0.0014422496 -0.0076865996
000040 62 9f 36 3c 48 9b 6c 3c bb 6d 3b b7 90 11 69 3c
       0.011146398 0.014441319 -1.1171617e-05 0.014225379
000050 06 bf 97 3c 1d 66 59 bc 50 78 2f bc b4 d1 25 bc
       0.018523704 -0.013268975 -0.010709837 -0.010120798
000060 9d 93 3e bc 6a 2c 97 3b c0 39 de ba 0f a5 01 bc
       -0.011631873 0.004613449 -0.0016954467 -0.007912888
000070 68 bf 0c bc 92 b9 6d bc 66 50 16 3c 0b 7f 35 3c
       -0.008590557 -0.014509575 0.009174442 0.011077653
000080 23 36 f2 bb 7d 2d aa bb 65 b0 ef 38 f0 f2 40 3c
       -0.0073917075 -0.005193411 0.00011429264 0.011776671
000090 ee a8 48 ba 22 3e 08 3c 07 4e 3d bc 46 49 5e bc
       -0.0007654567 0.008315595 -0.011554248 -0.013567274
0000a0 d5 85 1f bc 62 c2 fd ba 31 de 35 bc 6d cc 3d bc
       -0.009736498 -0.0019360299 -0.011100338 -0.011584383
0000b0 bd 64 f3 bb 26 67 c9 bb 9d fb d5 bb b1 47 4d 3c
       -0.0074277804 -0.0061463295 -0.006530239 0.0125293
0000c0 07 94 ad bc cc df 5c 3c ea 01 3d 3c 43 80 23 3c
       -0.021188749 0.013481092 0.011536101 0.00997931
0000d0 03 fa 50 3c 26 67 22 bc 1b 3e c8 bb 1d e4 81 3c
       0.01275492 -0.009912288 -0.006110919 0.015855843
0000e0 e3 03 76 bc a0 37 74 3b ca 0e 20 bc c5 09 82 3c
       -0.015015575 0.00372646 -0.009769151 0.0158738
0000f0 a3 70 5c bb ba f9 48 bc a2 ea 16 3c b8 61 7a 3c
       -0.0033636473 -0.012266571 0.009211214 0.015282087
000100 5b 75 4d bc 50 65 76 bc 66 1c e9 bb c3 01 0c ba
       -0.012540187 -0.015038803 -0.007113981 -0.00053408387
000110 b0 f8 84 3c 91 41 40 3c 09 d8 58 bc f8 c6 79 3c
       0.016231865 0.011734382 -0.013235101 0.015245192
000120 84 99 c6 bb d5 36 8b 3b 3f d3 43 bc 16 66 f9 bb
       -0.006060781 0.00424848 -0.01195222 -0.0076110465
000130 0f d0 2b bc 9d ef 86 3c 04 da 20 bc 7a f7 87 3b
       -0.010486617 0.016471678 -0.009817604 0.0041493746
000140 16 59 57 3b e3 d8 13 3c b7 4f 91 3c fa 35 8f 3c
       0.0032859496 0.009023878 0.017738206 0.017481793
000150 cf 34 06 bc b3 d2 26 3b 15 9e 38 3c 35 46 28 bc
       -0.0081913015 0.0025455176 0.011268158 -0.010270645
000160 f7 7c 14 3c 31 e0 51 bc 74 59 b2 bc 87 d1 23 bc
       0.009062997 -0.012809799 -0.02177117 -0.009998686
000170 a6 16 2a bc d6 b5 94 3b d9 30 53 bc 45 3f 3f bc
       -0.010381376 0.004538278 -0.012890064 -0.0116727995
000180 cd 48 63 3c cf 29 f2 ba 02 dc 0f bc 52 6b 09 bc
       0.0138723375 -0.0018475595 -0.008780481 -0.008387404
000190 77 0b da bb 52 8a a1 3c d6 fa 9d 3c 39 c6 d4 3b
       -0.0066541987 0.019719277 0.019284647 0.0064933565
0001a0 ea 75 19 bc 87 cd a6 bb d2 11 26 3c 08 40 18 bc
       -0.009366492 -0.0050904187 0.010136085 -0.00929261
0001b0 0d 8a 06 bc 2a d3 53 bc 10 4c 51 bc 6d 59 48 bc
       -0.008211625 -0.012928763 -0.012774482 -0.012228352
0001c0 66 1a 8c 3c f1 c3 54 bc d6 82 25 3c 33 c5 27 bc
       0.017102432 -0.012986169 0.0101019945 -0.010239887
0001d0 a1 4d 81 3c 22 70 05 bc 18 b9 c0 3b a1 ce 66 bc
       0.015784087 -0.00814441 0.00588144 -0.01408735
0001e0 5b 61 ec ba 85 8d 2f 3c 55 af 5f 3c 38 8c 8f 3b
       -0.0018034385 0.010714893 0.013652642 0.004380729
0001f0 0e b9 1d bc ce 7c 23 3c ea 12 71 bc 3e f5 7f 3c
       -0.00962664 0.009978486 -0.014713982 0.015622435
000200 dd 42 2c 3c e6 c4 e9 bb c5 28 97 3c 33 d3 25 3c
       0.010513988 -0.007134068 0.018452058 0.010121155
000210 09 1b 74 3c ae 12 4d 3c 1c d7 15 3a d2 13 12 3c
       0.014899024 0.012516661 0.0005715953 0.008915858
000220 5a 44 23 3c 9c 0f 6b bc 90 ab 88 bc 08 23 80 3c
       0.009965027 -0.014346983 -0.01668337 0.015641704
000230 4d 87 50 3c 11 16 c8 bb d8 4e 23 3c 6b 1d 19 3c
       0.012727571 -0.006106146 0.009967528 0.009345393
000240 98 47 8d bc 74 c4 5a 3c e0 a9 57 3c ce c2 33 bc
       -0.017246053 0.013352502 0.01316306 -0.010971738
000250 b0 e1 85 3c bd 68 40 bc 0c 88 39 bc 07 55 f9 bb
       0.016342968 -0.011743722 -0.01132394 -0.007609013
000260 3d 5e 68 38 fd d0 0a bc c6 1c 4c 3b 22 1b 61 bc
       5.5400877e-05 -0.008472678 0.003114508 -0.013739379
000270 02 01 6e bc 41 a8 3d bb fd 21 46 3c a6 b4 81 3b
       -0.0145266075 -0.0028939398 0.012093064 0.0039583026
000280 17 1a 55 bc b0 55 1e bc b9 72 36 3c 4f e4 94 3c
       -0.013006709 -0.009663984 0.01113575 0.018175272
000290 34 d4 21 bc 5a 6c da bb 47 20 b0 3b a3 7c e6 bb
       -0.009877253 -0.0066657485 0.0053749415 -0.007033901
0002a0 db ff 22 bc 28 1f 6a bc 57 cf 29 bc e2 bc e2 3b
       -0.009948696 -0.014289655 -0.010364375 0.0069194892
0002b0 84 96 79 bc 48 23 3c bb 46 a5 c9 3b 9e 46 d0 bb
       -0.01523364 -0.0028707553 0.0061537353 -0.0063560745
0002c0 85 d4 e3 3b 66 97 37 bc 47 a0 0d 3c a8 6d 5f 3c
       0.0069528245 -0.01120553 0.00864417 0.013636984
0002d0 11 03 a1 3c 29 28 8a 3c 5a 14 0b 3c be 1f f7 bb
       0.019654782 0.016864853 0.008488739 -0.0075416258
0002e0 03 da 04 bc 0e 08 28 bc e1 81 5e bc 83 62 72 3c
       -0.008108619 -0.010255827 -0.01358077 0.014793995
0002f0 78 f6 84 3c 8e 75 f6 bb 75 bf 9a bb af a7 51 3c
       0.016230807 -0.007521338 -0.0047225305 0.012796327
000300 5c ea 72 b9 c5 e6 20 3c 32 1f ec bb e4 13 da 3b
       -0.00023166224 0.009820645 -0.007205867 0.006655203
000310 c3 74 01 bc 10 47 77 3c 3d 85 e0 bb 12 62 4e bc
       -0.007901373 0.015092626 -0.0068518207 -0.012596624
000320 f3 5b 97 3c 44 fb 35 3b 0f a3 7c bc 37 9d f7 3a
       0.018476462 0.0027768174 -0.015419736 0.0018891458
000330 e8 53 14 3c d3 1a 15 3c 10 5f f4 ba e7 b4 31 bc
       0.009053208 0.009100634 -0.0018644053 -0.010846353
000340 df 37 45 3c e1 bb 1f 3c 98 95 00 bc e7 88 72 bc
       0.0120372465 0.009749384 -0.007848166 -0.014803148
000350 51 64 80 3c d4 b2 d5 bb ed 09 84 ba 3a 11 e7 3b
       0.015672835 -0.006521562 -0.0010073759 0.007051614
000360 7a ab 6d 3c 61 7a fa bb 1c d0 73 3c 70 4c 55 3c
       0.014506215 -0.0076439832 0.01488116 0.013018712
000370 05 73 4e 3c 29 4e 56 3b 6d e9 3b 3c b7 17 39 3b
       0.012600665 0.0032700396 0.011469227 0.0028242895
000380 97 f7 0c bc 66 b3 63 bc 35 c8 9a bc 60 14 93 bc
       -0.008603952 -0.013897752 -0.018894294 -0.017954051
000390 4f 44 93 3c 6c d5 0f bc 6b 5b 4e 3b 5d 86 98 bc
       0.017976908 -0.008778911 0.0031487595 -0.018618757
0003a0 0d ce 64 3c db 80 3d bc 37 12 59 3c 2e f3 8d 3b
       0.013965142 -0.011566366 0.013248972 0.004331968
0003b0 cc da 87 3c c9 24 4e bc 5d 62 d7 bb d5 02 75 3c
       0.016583823 -0.012582012 -0.006573005 0.0149542885
0003c0 2d b0 17 bc 15 1e 4e 3b b6 a6 69 bc af 6a 43 bc
       -0.009258312 0.0031451036 -0.014260938 -0.011927291
0003d0 53 06 2e bc a3 c7 13 3c bc 83 4d 3c 94 8f b9 bb
       -0.010621625 0.009019765 0.012543615 -0.005662868
0003e0 f7 b7 36 bb cd 54 10 bc 94 04 3a bc e5 13 23 bc
       -0.0027880648 -0.008809281 -0.011353631 -0.009953474
0003f0 f7 13 2f bc 5c 56 52 bc 65 b9 08 bc 18 f8 5b bc
       -0.010685912 -0.0128379725 -0.008344983 -0.013425849

network_body._body_endoder.seq_layers.4.weight f4 [256, 256]
000000 8b 96 ef 3d 51 aa b7 3c 5d 56 97 bd 1b 98 d0 3b
       0.11698636 0.02242008 -0.07389519 0.0063657886
000010 18 37 f0 bd 87 d8 6a 3a 28 fe ba 3d 17 75 0f 3c
       -0.11729258 0.00089586567 0.09130508 0.008755944
000020 10 73 b0 3d 47 3f ab ba 47 61 14 bd c7 4f f9 bc
       0.086156964 -0.0013065123 -0.036225583 -0.030433549
000030 a8 c4 9d 3d 2e 3a 52 3d e5 58 41 3d 55 56 bd 3d
       0.07703525 0.051325016 0.047203917 0.09244982
000040 05 1d 5a 3a 34 c9 e0 bd f6 df 13 3c cc 19 d2 3c
       0.0008320364 -0.109758765 0.009025564 0.025647067
000050 fc 26 b4 3d fa 0c 7b bc c8 23 53 3d ad 97 2e bc
       0.08796498 -0.015322918 0.051547796 -0.0106562795
000060 3f 3d 5d bc 41 ad 4a bd 37 8e 65 bd f6 98 c9 3c
       -0.013503372 -0.049481634 -0.05604383 0.02460907
000070 db 75 10 3c b4 31 9d 3c 29 5b a2 bc d6 61 39 3d
       0.008817161 0.01918874 -0.01981886 0.04525932
000080 ef 54 8f 3d e5 3a 88 3d 38 d5 e0 bc e7 0a 9c 3d
       0.06998622 0.06651858 -0.02744542 0.07619267
000090 b5 53 9b bd ea 6a 89 3d 3b 64 03 bd 2d 1f a8 3d
       -0.07584325 0.06709845 -0.03207801 0.08209071
0000a0 af f4 a1 3d 32 b2 7a 3d d2 5e a1 3d c0 41 ba bd
       0.07907998 0.061205097 0.07879414 -0.09094572
0000b0 68 67 74 3d bd f6 bb bc ee 3c 0c 3d e7 ed 0c 3d
       0.05966893 -0.022944802 0.034237795 0.03440657
0000c0 0a e8 ba 3c 70 c4 b6 3b df eb 5f 3d 7a a7 61 bc
       0.022815723 0.0055776164 0.054668304 -0.01377284
0000d0 be b6 9d bc 4b 5e 86 3a b7 94 ab 3d 8e 21 a0 3d
       -0.019252177 0.001025149 0.083779745 0.078189
0000e0 27 a7 70 3b 82 ae 1e 3d fb df 7d 3d 26 44 24 bd
       0.0036720724 0.038740642 0.061981183 -0.040104054
0000f0 7c e5 05 3d d8 5d 88 3d e7 50 a8 39 46 f5 f6 ba
       0.032689556 0.06658524 0.00032103734 -0.0018841408
000100 42 b9 a1 bd 48 ac 6a 3d d6 51 5b bb 18 74 d9 3c
       -0.07896663 0.057293206 -0.0033465526 0.026544616
000110 1b e2 fe 3d 4e 8b 56 bd 5f 04 09 bd 53 8c 41 3c
       0.1244547 -0.052378945 -0.033451434 0.011813241
000120 33 ee 95 bd 7b 65 13 bd a6 9a 05 bd dd b1 ec 3b
       -0.073208235 -0.03598545 -0.032618187 0.0072233514
000130 e7 84 d1 3c 67 c0 69 bd 91 79 6d 3d 04 f8 35 3d
       0.025576068 -0.057068255 0.057977263 0.04442598
000140 4e 1d 95 bc 25 a4 40 bc 7e df 35 3d 7d e1 48 3a
       -0.01820245 -0.011757885 0.044402592 0.0007662995
000150 a5 7b 94 bc 24 b1 cc 3d be b0 29 bd 48 79 af bd
       -0.018125365 0.099947244 -0.04142832 -0.085680544
000160 82 21 c0 bc c4 13 18 3c ca c2 98 3d b4 75 04 3e
       -0.023453478 0.009282056 0.07459028 0.12935525
000170 d3 e7 33 3c 14 d0 7a 3d ec 7c b5 3b b8 d7 80 bd
       0.010980564 0.061233595 0.0055385735 -0.06291145
000180 81 5a 4f 3c a4 f1 df 3c 41 81 82 3b 52 b1 81 3b
       0.012655855 0.027336903 0.0039826934 0.003957906
000190 6d 0b 88 3c b9 5a a2 bc be d0 0b 3c 43 9d 94 bc
       0.01660701 -0.01981865 0.008533655 -0.018141394
0001a0 db ad 89 3c 0f 02 74 3c 1f 68 08 3d 12 ff a4 3d
       0.016806534 0.014893069 0.033302423 0.08056463
0001b0 f5 06 6f bc 3f de 84 ba 34 e8 b1 3d 48 bc 0a bd
       -0.014589061 -0.0010137035 0.08686867 -0.033870965
0001c0 f9 c5 cc 3c 6b 32 93 bd 20 13 13 be bb 28 57 be
       0.024996744 -0.07187351 -0.14362764 -0.21011631
0001d0 5e 2d 80 3d c3 58 31 3d c4 53 b0 3c f5 29 6d bd
       0.06258653 0.04329754 0.021524318 -0.05790134
0001e0 82 e2 81 3d 97 67 6a bd 41 96 78 bd 17 37 1d 3d
       0.06342031 -0.057227697 -0.06069017 0.038382616
0001f0 ff 27 74 3c a6 0f da 3d 7f 70 b8 3c e5 64 1a 3c
       0.014902114 0.10647516 0.02251458 0.009423469
000200 2e 60 89 3c 41 41 e0 3d b9 09 30 3d 0b 85 d2 bd
       0.016769495 0.10949946 0.042978022 -0.10279282
000210 5b f8 76 bd 56 68 bb 3d 5e 9b 81 3d ad 7e 1c be
       -0.060295444 0.0915076 0.06328462 -0.15282698
000220 ad 78 8a 3c da 7c ad ba 79 d0 b4 bc ab 33 ca 3d
       0.016903246 -0.0013236061 -0.022072064 0.09873136
000230 82 3f 52 3d 6b e8 34 3e 4a 00 6a 3d ab fe a6 3d
       0.051330097 0.17666785 0.057129182 0.08154043
000240 8d e4 a3 3d 74 c3 af 3d 4e 79 22 3e 92 ec b8 bb
       0.08002577 0.085822016 0.15866587 -0.0056434358
000250 3e 9d b5 bc d5 40 28 bd 8d 0f d6 3d 63 04 8e bb
       -0.022169705 -0.041077454 0.10452185 -0.004334019
000260 d9 2f 8c 3c 03 5d 56 bc 16 97 08 3e f7 06 ad bd
       0.01711266 -0.013083699 0.13338885 -0.08448594
000270 2e 97 39 3b 1b 64 ee bc 90 8a 24 bd 76 ee 3a 3d
       0.002831887 -0.029100468 -0.040171206 0.04563757
000280 d8 11 f4 3c 46 77 b2 3d d4 ff b1 bc ed a8 4b bd
       0.029793665 0.08714156 -0.021728434 -0.049721647
000290 8c c1 ca bc 47 fc 93 bc 03 b2 bf 3b 14 cd c8 bb
       -0.024750493 -0.018064631 0.005850078 -0.006127963
0002a0 c5 49 42 3d 3a 89 fd 3d 6b 0f 80 3d 57 a8 dd 3c
       0.047433633 0.123796895 0.06252941 0.02705781
0002b0 57 80 eb bd f9 d5 9b 3d 38 9b e4 bd 65 ae 0e 3c
       -0.11499088 0.076091714 -0.11162418 0.008708571
0002c0 ce 19 25 be 86 0d 93 3d e7 d3 4e bd 9b 57 9e 3d
       -0.16123125 0.07180314 -0.050495055 0.07731553
0002d0 8b 06 ec 3c e5 e4 82 bd 13 5f 14 bd 64 e6 34 3d
       0.028811714 -0.063913144 -0.036223482 0.04416503
0002e0 40 0a 24 3c 08 25 94 3d 99 5b 50 3d ad f7 fe bc
       0.010012209 0.07233626 0.050868604 -0.03112396
0002f0 9e 3c c4 bc b1 56 c8 bd 9b 0a 90 3d c8 81 93 bc
       -0.023954686 -0.0978216 0.07033273 -0.01800622
000300 77 c8 e9 3c 92 00 e7 bc ba 57 3d bd a8 31 9c bc
       0.028537972 -0.028198514 -0.04622624 -0.019066647
000310 66 2c 12 3e 8a b8 f3 bc ac 46 51 bd b7 2d 3e bd
       0.14274749 -0.029751081 -0.05109279 -0.046430316
000320 96 50 55 3c 5c 79 1b 3e e7 ec ba 3c 51 39 ff bd
       0.0130197015 0.15183014 0.022818042 -0.12462104
000330 9b 5e 18 3e 50 bb c7 bc 14 f9 0b 3e 16 4f 36 3d
       0.14879839 -0.02438131 0.13669235 0.044509016
000340 6a 99 a5 bd 93 e7 1c bd 50 e6 c7 3d c7 19 00 3b
       -0.08085902 -0.038306784 0.097607255 0.0019546614
000350 6d db 81 3d 58 70 1d bd 97 18 ad bd 20 82 9c 3c
       0.0634068 -0.038437217 -0.08451956 0.019105017
000360 18 38 2f be 2a 49 0c be 79 08 fd 3c 05 63 00 bd
       -0.17111242 -0.13699785 0.03088783 -0.031344432
000370 78 7e c7 bd 03 14 27 3d 70 d9 6b 3b 7f bc 73 3d
       -0.09740919 0.04079057 0.0035987757 0.059505936
000380 c9 1d f8 3c 22 26 f4 bd a2 ea b8 bd b7 06 45 3d
       0.03028764 -0.11921336 -0.09029128 0.048102107
000390 b6 ce af bd 3e d1 db bd f9 9d 8b 3d d6 ee db bc
       -0.08584349 -0.10733269 0.0681724 -0.026847284
0003a0 15 3c 35 3d 71 17 3d 3d 1c 88 28 3d fe 7c 25 bd
       0.04424675 0.046164934 0.04114543 -0.040402405
0003b0 04 a6 85 bc 9c 09 68 bd 48 1a b7 3c 0d b7 c2 3d
       -0.016314514 -0.05664979 0.022351399 0.095075704
0003c0 a1 96 36 3d 80 59 56 bc f2 0d b1 3c 1c 6f a9 bc
       0.044577245 -0.013082862 0.021613095 -0.020682864
0003d0 55 39 6b bc 5d e3 fe 3c c7 f4 88 bd 3e 4b 98 bd
       -0.014356931 0.031114275 -0.066873126 -0.07436226
0003e0 fc 96 81 3d c5 46 92 bd f7 0f 32 3d b9 82 59 3d
       0.06327626 -0.071424045 0.043472257 0.053103182
0003f0 bb 55 85 3c 73 a6 c1 bc c8 eb da 3c ab 29 45 bc
       0.016276231 -0.02363894 0.026723757 -0.01203386

network_body._body_endoder.seq_layers.4.bias f4 [256]
000000 5a 5f fe bb 1d c1 8a 3c 3d 18 8b 3c 23 ab 44 3c
       -0.0077628316 0.016937787 0.016979331 0.012003693
000010 57 24 db ba 00 9d 6f 3c 20 25 47 bc 90 31 29 bc
       -0.0016719204 0.014624834 -0.012154847 -0.010326758
000020 0d df 0c bc 41 d2 3b 3c ce e6 21 3c 7d e7 3d 3c
       -0.008598101 0.011463703 0.009881688 0.011590836
000030 67 bf 43 3c 4e fd e9 bb 37 de 23 bc 20 8c 4d bc
       0.011947489 -0.007140792 -0.010001711 -0.012545615
000040 21 8d 93 3c f8 c7 62 3c f7 18 82 3c 8e dd 31 bc
       0.018011631 0.013841622 0.015881045 -0.010856045
000050 e9 84 16 3c 28 0e 3e bc dd b0 3e bc ae c3 9a bb
       0.009186962 -0.011600055 -0.011638847 -0.004723034
000060 f5 f8 2f bc 27 b5 25 3c 02 04 e1 bb d5 1c 19 bc
       -0.010740508 0.010113991 -0.006866933 -0.009345253
000070 d9 46 be 3b ef 02 73 3c a5 36 b2 bb 28 f6 6c 3c
       0.0058067855 0.014832242 -0.005438643 0.014462985
000080 45 5c bc 3b 04 06 3c 3c e0 5c 2f 3c 7f 33 39 bc
       0.005748304 0.011476044 0.0107032955 -0.0113037815
000090 dd f5 57 bc df 10 63 3c b7 90 25 3c 34 c6 97 bb
       -0.013181177 0.013859003 0.0101053035 -0.004631782
0000a0 29 ff 94 39 1a 7e 41 3c 7e 97 56 bc 4b 01 87 3c
       0.0002841887 0.01180985 -0.013097642 0.016480109
0000b0 6d 2a fb 3b 06 21 88 3a ff e4 55 3c 1c 35 d8 3b
       0.0076649697 0.0010385818 0.013055085 0.006598128
0000c0 10 d1 19 3c 1b 10 54 3b bf 92 30 3c 0a 76 5b 3c
       0.009388223 0.0032358232 0.0107771745 0.013394842
0000d0 9c 8c 68 bc 19 ef b3 bb 80 6a 5d 3a 9d 84 7d 3c
       -0.01419368 -0.005491149 0.00084463507 0.015473512
0000e0 5e 6a 13 bb 48 f6 3f 3c c2 5c 28 bc e6 ce 04 3c
       -0.002249382 0.011716433 -0.010276021 0.008105969
0000f0 3c 34 57 3c 07 64 3e bc 48 d3 91 39 43 d6 aa 3b
       0.013135012 -0.011620528 0.00027813972 0.0052135303
000100 d0 9f 31 bc be 00 88 3c e0 e2 1a 3c b9 9e c2 ba
       -0.010841325 0.016601916 0.009453505 -0.0014848328
000110 a9 dd 20 3c dd de 2a bc 49 82 1e bc bb ac 6f 3c
       0.009818473 -0.010429111 -0.009674617 0.0146285845
000120 e9 ff 1b bc b6 9b f3 39 1d a9 44 3c f5 91 5c 3c
       -0.009521463 0.00046464585 0.01200321 0.013462533
000130 db ca e2 3a 6f 6e e0 bb 14 4c 64 bc e4 b4 cb bb
       0.0017302887 -0.006849102 -0.013934154 -0.006216632
000140 74 12 6f bc af a3 be 3b 25 2a 71 3c 10 1c 60 3c
       -0.014591802 0.0058178524 0.014719521 0.013678566
000150 b1 24 0d 3c 04 a0 75 3b 15 0e 66 3c 41 14 87 bc
       0.008614705 0.003747941 0.014041443 -0.01648915
000160 34 46 6f 3c 84 21 57 bc 6a 96 76 bc 2e 9d 83 3c
       0.01460414 -0.013130549 -0.01505051 0.01606616
000170 8a f6 36 3c 6b 46 e9 3b 17 81 51 3c 20 43 53 bc
       0.011167178 0.00711899 0.012787125 -0.012894422
000180 2d f2 44 bc 00 aa 73 3c 26 17 ed bb 8e 58 14 3c
       -0.01202063 0.014872074 -0.0072354255 0.009054316
000190 8d f4 4f bc a6 30 85 3c 03 9d 58 ba 42 5f 73 bc
       -0.012692583 0.016258549 -0.00082631427 -0.014854254
0001a0 7d 43 69 3c 04 78 2a bb f5 f8 41 3c 6b c4 c9 3b
       0.014237282 -0.0026011476 0.011839141 0.006157448
0001b0 fb 86 68 bc 00 f4 51 bc 57 cb 79 3c bd 3c 45 bb
       -0.014192338 -0.012814522 0.015246234 -0.0030096017
0001c0 5f 99 1d 3c df f5 56 3c 7d 83 68 3c 76 65 e8 3b
       0.009619086 0.013120144 0.0141915055 0.007092173
0001d0 81 88 86 3c 2c 93 68 3c da 9e 58 3c 0d 9b 58 bb
       0.016422512 0.014195245 0.013221467 -0.0033051402
0001e0 33 34 bb ba 3f 0a 2d bc 2e da be bb 3c 2a 23 3c
       -0.0014282524 -0.010561525 -0.005824349 0.0099588
0001f0 03 60 65 3c ed aa a3 3b 93 d6 57 bc 85 20 5f 3b
       0.013999942 0.004994741 -0.013173717 0.0034046483
000200 dc 2b 29 3c b5 2a 57 3a 96 4e 9a 3c 32 43 7a bc
       0.010325398 0.0008207963 0.0188363 -0.01527481
000210 5c 80 d1 3b a7 1b 17 3c 57 be d6 bb 66 91 45 3c
       0.0063934755 0.009222901 -0.006553452 0.0120585915
000220 58 59 8e 3b 87 94 da 3b 30 90 e3 bb be 1a 35 bc
       0.0043441467 0.006670538 -0.0069446787 -0.011053739
000230 15 3e 13 3c f6 53 07 bc 11 56 46 bc 9b 56 18 bc
       0.0089869695 -0.008259764 -0.012105481 -0.009297992
000240 6e de 26 3c c6 b6 72 3c 02 aa 2e bc 44 cd 47 bc
       0.010184867 0.014814084 -0.01066065 -0.012194935
000250 ae 8e 26 3c 57 2e 7c 3c b4 98 20 bc 25 6c 04 bc
       0.010165853 0.015391908 -0.009802032 -0.008082424
000260 e5 22 31 bc 96 b6 a3 3a fd d3 f2 3a e1 2c 99 3b
       -0.010811542 0.0012490328 0.0018526312 0.0046745394
000270 b9 0b 8b bc 84 47 32 3c 7c 69 47 3c f3 92 1c bc
       -0.016973363 0.0108813085 0.0121711455 -0.00955652
000280 93 11 25 3c d9 3e 75 b9 7e ac d3 bb 38 73 63 bc
       0.010074991 -0.00023388433 -0.0064597717 -0.013882451
000290 59 6e 70 3c 67 d5 05 3c 4f 3c 51 bc 95 e6 c7 3b
       0.014674746 0.008168555 -0.012770726 0.0061004856
0002a0 8c dd e8 bb 8c a4 8c bb 52 f5 8c 3c 17 b3 2f 3c
       -0.0071064886 -0.0042920765 0.017206822 0.010723851
0002b0 2e 4e 48 bc 53 6b 42 3c 88 31 3a 3c b9 44 17 bc
       -0.012225671 0.011866408 0.011364348 -0.009232693
0002c0 65 6c 96 3b 0e 4b 46 ba 37 03 6c 3c 85 cb 06 3c
       0.0045905584 -0.00075642846 0.014405063 0.008227234
0002d0 ac 54 89 3c e4 f6 25 bc c6 5c 68 3c 59 4e 11 bc
       0.016764008 -0.010129664 0.014182275 -0.008868777
0002e0 53 dd 65 bc 54 84 9a 3c e5 9a 8d 3c 88 3d 81 3c
       -0.014029819 0.018861927 0.017285774 0.01577641
0002f0 0b 7f f7 ba ad c3 90 3c 52 a8 29 bc dd 65 87 bb
       -0.0018882466 0.01767143 -0.010355072 -0.004132016
000300 0e 46 41 bc f4 03 32 3c 24 ec 3e bc 09 6b f2 bb
       -0.0117964875 0.0108652 -0.01165298 -0.0073980135
000310 28 9b 65 bc 49 15 68 bc 58 b1 a1 bb 92 15 39 bc
       -0.014014043 -0.014165231 -0.004934471 -0.011296647
000320 58 37 80 3c cf ef 64 bc 74 10 16 bc 26 c4 67 3b
       0.01565139 -0.01397319 -0.009159196 0.0035364716
000330 46 04 47 bc e6 01 5f bc 19 34 25 bb 9a 9a 37 bc
       -0.012147015 -0.0136112925 -0.0025208055 -0.0112062935
000340 c5 24 82 3c a6 d3 c2 bb aa 29 77 3c 93 1f 7f 3c
       0.015886674 -0.0059456406 0.015085617 0.015571493
000350 2c c1 7d 3c 5c 84 2d bc db 80 80 bc 97 ce 22 3c
       0.01548795 -0.010590639 -0.015686443 0.00993695
000360 21 3c 1b bc da d6 04 3c e2 24 7a bc d4 d0 0e 3c
       -0.009474785 0.008107865 -0.015267583 0.008716781
000370 2f 1f 35 3c 14 5f 5a bc 4d 32 d9 b9 e2 8c 31 bc
       0.011054798 -0.013328332 -0.00041426942 -0.010836812
000380 e6 c5 6e bc e5 97 45 bc 75 7a 7e bc bd 98 57 bc
       -0.01457355 -0.01206014 -0.015532126 -0.013158974
000390 8f 68 66 3c a5 fb 75 bc b2 25 77 3c 57 77 44 3c
       0.014063015 -0.01501361 0.015084671 0.011991343
0003a0 77 69 f4 3a 78 26 45 bc 0d 4a 29 bc 41 1c 4f bc
       0.0018647154 -0.012033097 -0.0103325965 -0.012641014
0003b0 a1 85 2b bc 07 b4 81 bc 33 09 02 bc ce 73 3d 3c
       -0.010468871 -0.015832914 -0.007936764 0.0115632545
0003c0 a3 75 43 bc c9 37 86 3c 1d 16 ef bb dd d7 a8 3a
       -0.011929902 0.016384022 -0.0072963373 0.0012881715
0003d0 2a 8c 32 bc 68 66 4a 3b 7f 45 5c bc 6a ae a3 3a
       -0.0108976755 0.0030883793 -0.013444304 0.0012487893
0003e0 f2 ab 7a 3c a3 47 53 3b d7 59 5f bc a5 89 26 bc
       0.015299784 0.0032238744 -0.013632259 -0.010164653
0003f0 b4 2e 7c 3c 80 f6 55 39 c9 fd 86 bc 83 f5 aa 3b
       0.015391994 0.00020405091 -0.016478436 0.0052172556

action_model._continuous_distribution.log_sigma f4 [1, 2]
000000 08 cb 13 bd 0b 85 e6 bb
       -0.036082298 -0.007034903
