results/run1/CarAgent/CarAgent-1304279.onnx (onnx, 645957 bytes, 13 tensors)

network_body.observation_encoder.processors.0.normalizer.running_mean f4 [100]
0	0x3d5b1837	0.05348989
1	0x3f6b6038	0.91943693
2	0x3b9136a1	0.004431561
3	0x3e4f73c3	0.20259003
4	0x3d8bea04	0.06831744
5	0x3f67a0d4	0.9047978
6	0x3b915d46	0.004436168
7	0x3e4f1a84	0.20224959
8	0x3d3c2d87	0.045941856
9	0x3f6d58a1	0.9271336
10	0x3b916a18	0.004437696
11	0x3e50c8a5	0.2038904
12	0x3dbf7629	0.09348709
13	0x3f612e89	0.8796163
14	0x3b91167f	0.0044277306
15	0x3e4fba9b	0.20286028
16	0x3d48dd92	0.04903943
17	0x3f6c9367	0.9241242
18	0x3b9176ff	0.0044392343
19	0x3e52f721	0.20602085
20	0x3e078dc0	0.13237667
21	0x3f573f05	0.84080535
22	0x3b915065	0.0044346326
23	0x3e509b9c	0.2037186
24	0x3da12bdf	0.07869696
25	0x3f64feab	0.8945109
26	0x3b9244d3	0.004463771
27	0x3e54b24a	0.20771137
28	0x3e325899	0.1741661
29	0x3f4c8e67	0.7990479
30	0x3b91eac3	0.0044530346
31	0x3e52275d	0.20522828
32	0x3e084fb3	0.13311653
33	0x3f5712e8	0.84013224
34	0x3b92ff3c	0.0044859927
35	0x3e54cb3b	0.20780651
36	0x3e6188aa	0.2202479
37	0x3f40c309	0.752976
38	0x3b925821	0.004466072
39	0x3e54fd73	0.20799808
40	0x3e4955e0	0.19661665
41	0x3f46d4fe	0.7766875
42	0x3b936619	0.004498255
43	0x3e538f9a	0.20660248
44	0x3e930b3a	0.28719503
45	0x3f2fa4c8	0.6861081
46	0x3b935fde	0.0044975122
47	0x3e583133	0.21112518
48	0x3e854aad	0.26033536
49	0x3f364072	0.71192086
50	0x3b937993	0.0045005768
51	0x3e51cecb	0.20489042
52	0x3ec1a694	0.37822402
53	0x3f186353	0.59526557
54	0x3b93a019	0.004505169
55	0x3e5a0efd	0.2129478
56	0x3ea6607b	0.32495484
57	0x3f24f547	0.64436764
58	0x3b931f70	0.0044898316
59	0x3e5042d9	0.20338
60	0x3ef1b700	0.4720993
61	0x3f007682	0.5018083
62	0x3b93a67d	0.004505931
63	0x3e5a565e	0.21322009
64	0x3ed0a4f2	0.40750843
65	0x3f0f12fb	0.55888337
66	0x3b934607	0.004494432
67	0x3e4f4dd4	0.20244533
68	0x3f164f48	0.58714724
69	0x3ec6401d	0.3872079
70	0x3b93acff	0.0045067067
71	0x3e58df43	0.21178918
72	0x3f007c78	0.50189924
73	0x3eec6d0b	0.46176943
74	0x3b9325e6	0.004490602
75	0x3e4d50aa	0.20050302
76	0x3f2b1cd1	0.66840845
77	0x3e9cd51f	0.30631348
78	0x3b93797b	0.0045005656
79	0x3e56f6d3	0.20992593
80	0x3f136ed5	0.5759099
81	0x3ec5b989	0.38618115
82	0x3b93c6bb	0.0045097745
83	0x3e4b6839	0.19863977
84	0x3f3c2192	0.73488724
85	0x3e76798a	0.24069801
86	0x3b934613	0.0044944375
87	0x3e55ccdf	0.20878933
88	0x3f23dae5	0.6400588
89	0x3ea48981	0.32136157
90	0x3b948791	0.0045327623
91	0x3e4a5293	0.19758062
92	0x3f4a7119	0.79078823
93	0x3e3eb71a	0.18624535
94	0x3b931f73	0.004489833
95	0x3e55e833	0.20889358
96	0x3f32fcc0	0.69916916
97	0x3e86b4af	0.26309726
98	0x3b95622f	0.0045588235
99	0x3e4a8795	0.19778283

network_body.observation_encoder.processors.1.normalizer.running_mean f4 [6]
0	0x3e2142f3	0.15748195
1	0xbd40fe04	-0.04711725
2	0x41468b31	12.408982
3	0xbda55777	-0.08073323
4	0xbcb8548d	-0.022501254
5	0x3f6493a3	0.89287776

network_body._body_endoder.seq_layers.0.weight f4 [256, 106]
0	0xbc4729b9	-0.012155944
1	0x3e2d1b24	0.16904885
2	0xbde171e7	-0.11008053
3	0xbdacc73e	-0.0843644
4	0xbe31cb23	-0.17362647
5	0xbcfa4dc5	-0.030554662
6	0x3de9a185	0.114077605
7	0xbda2480e	-0.079238996
8	0xbe4b3c9b	-0.19847338
9	0x3cf8f6ce	0.030391123
10	0xbde9e05f	-0.114197485
11	0x3e4d10ac	0.20025891
12	0x3e195c4f	0.14976619
13	0xbe02d58b	-0.12776773
14	0x3e9bc681	0.30424884
15	0x3d888150	0.066652894
16	0xbcc69f6d	-0.024245942
17	0x3df8f2e8	0.12155706
18	0xbdd86251	-0.10565627
19	0x3e3fb1bd	0.18720146
20	0xbd3d5bbd	-0.046230067
21	0xbccc9d28	-0.024977282
22	0x3d520c55	0.051281292
23	0x3c2b6646	0.010461396
24	0x3db507aa	0.088393524
25	0x3d486ec0	0.048933744
26	0xbd8e45f9	-0.0694694
27	0x3dab947f	0.08377933
28	0xbdcbc62e	-0.09949909
29	0x3e1ec596	0.1550506
30	0x3d1ca1de	0.038240306
31	0x3e1c1816	0.15243563
32	0xbd79b675	-0.06096502
33	0xbdc7c60e	-0.09754573
34	0xbdb1ab09	-0.086752005
35	0x3e0c074a	0.13674656
36	0x3d38e127	0.045136597
37	0xbe811fa0	-0.2521944
38	0x3b86d5bb	0.004114834
39	0xbe158480	-0.14601326
40	0xbd2d09ea	-0.042245783
41	0x3df05839	0.11735577
42	0x3d0067c7	0.03134897
43	0x3d6358c5	0.05550458
44	0x3db87e38	0.09008449
45	0xbe076e2b	-0.1322562
46	0xbd5a66a9	-0.05332056
47	0xbe0aa2cb	-0.13538663
48	0xbdaf1527	-0.08548956
49	0x3da78ca4	0.08181122
50	0x3d965d2f	0.07341992
51	0xbd83abb6	-0.06429236
52	0x3dcbf2c6	0.09958415
53	0xbd7e107a	-0.062027432
54	0x3e8c27ce	0.2737412
55	0xbda8a104	-0.08233836
56	0xbdebfe7a	-0.11523147
57	0xbbbc5863	-0.005747841
58	0xbd9fa82a	-0.077957466
59	0xbdc41591	-0.09574426
60	0x3e037014	0.12835723
61	0x3de5edbe	0.11226986
62	0xbd4f915e	-0.050675742
63	0xbdb9e727	-0.09077292
64	0x3dff05c0	0.124522686
65	0xbe56875e	-0.20950076
66	0xbe4d6d7e	-0.20061299
67	0x3d8db591	0.06919397
68	0xbbb479ed	-0.0055076987
69	0x3db066eb	0.0861338
70	0xbde6ee4f	-0.112759225
71	0x3d2b6b90	0.041850626
72	0xbcab4b80	-0.020910025
73	0x3e395ecf	0.18102573
74	0x3db127c8	0.08650166
75	0x3d80535b	0.06265899
76	0x3db6759f	0.08909153
77	0x3dd1eeb9	0.10250611
78	0xbda2bc70	-0.07946098
79	0xbdfaed45	-0.12252287
80	0xbd5970f7	-0.053086247
81	0xbd5d0b4a	-0.053965844
82	0xbd3c8090	-0.046021044
83	0x3e223d96	0.15843806
84	0x3cedd83e	0.029033776
85	0xbd70cad6	-0.05878719
86	0xbcfa9150	-0.030586869
87	0x3e026654	0.12734348
88	0xbb67d620	-0.0035375431
89	0x3c8a1f8e	0.01686075
90	0x3dc737e0	0.09727454
91	0xbc9bb2c4	-0.01900614
92	0x3d7d199e	0.06179201
93	0x3e0213c9	0.1270286
94	0x3e2d3142	0.16913322
95	0xbcfbbf4f	-0.030730871
96	0x3d3c0b66	0.045909308
97	0x3c8219ea	0.015881497
98	0x3d55552b	0.052083176
99	0x3e8bdd2e	0.27317184
100	0xbcd2be5d	-0.025725538
101	0xbd610038	-0.05493185
102	0x3cba98a4	0.022777863
103	0x3db4e293	0.08832278
104	0x3c439846	0.01193816
105	0xbda36c23	-0.0797961
106	0x3db1e08b	0.08685406
107	0x3c324508	0.010880716
108	0xbc1b9918	-0.00949695
109	0xbd0d1141	-0.034440283
110	0xbe3bb8da	-0.18332234
111	0xbe50e857	-0.2040113
112	0xbd74b36c	-0.059741423
113	0xbbdbb89b	-0.0067053563
114	0xbe0e1878	-0.13876522
115	0xbd36f45c	-0.044666633
116	0xbe04b03f	-0.12957858
117	0xbd96d0cf	-0.07364046
118	0xbc95294a	-0.018208165
119	0x3e31a48a	0.17347923
120	0xbc741266	-0.014896965
121	0x3dd0ca2d	0.10194812
122	0x3ddc9f61	0.107725866
123	0xbd8b56f3	-0.068036936
124	0xbe452158	-0.19251001
125	0x3e508478	0.20363033
126	0xbc20f1c4	-0.009823266
127	0x3d456426	0.048191212
128	0xbd6d4b9f	-0.057933446
129	0x3c200b81	0.009768368
130	0x3e298da4	0.16557938
131	0xbcad2514	-0.021135844
132	0xbcb02c2e	-0.021505442
133	0x3d77bab4	0.06048079
134	0xbdf33ea4	-0.11877182
135	0x3d7e34ee	0.062062196
136	0xbdc706ca	-0.09718092
137	0xbd9306a9	-0.07179005
138	0x3c851819	0.016246842
139	0xbbc7e5a8	-0.006100375
140	0xbdff835d	-0.124762274
141	0x3dc801bb	0.09765955
142	0xbd6aae3e	-0.057295077
143	0x3a941b02	0.0011299553
144	0xbd9f5ef1	-0.077817805
145	0xbdb36c0e	-0.08760844
146	0x3e6e1bc9	0.23252787
147	0x3d19becb	0.03753547
148	0xbe0a6416	-0.13514742
149	0xbe69d519	-0.22835197
150	0x3b9b0247	0.004730496
151	0x3e68f3a0	0.22749186
152	0xbdc79fae	-0.09747253
153	0xbd4e9df1	-0.050443593
154	0x3e8933e7	0.2679741
155	0xbda2ce75	-0.07949535
156	0xbc99b3ac	-0.018762432
157	0x3de27f4c	0.11059436
158	0x3dec1903	0.11528208
159	0x3d4e9f43	0.050444853
160	0xbc9abe6d	-0.01888963
161	0xbbc11223	-0.0058920546
162	0xbd47f959	-0.04882178
163	0xbd0dbc51	-0.03460342
164	0xbc9b7ce8	-0.018980458
165	0x3e645cb0	0.22300982
166	0x3caf3c6d	0.021391118
167	0x3c68a62a	0.014199773
168	0x3e3a8e8e	0.18218443
169	0xbdec4663	-0.11536863
170	0x3e0e12bb	0.13874333
171	0xbd25b360	-0.04045427
172	0xbda36319	-0.07977886
173	0x3e10e107	0.14148341
174	0xbda22226	-0.079166695
175	0xbc5026bc	-0.0127045475
176	0xbdd6ecbb	-0.104943715
177	0x3dcc144e	0.0996481
178	0xbe0b77e5	-0.13619955
179	0xbdbd6092	-0.09246935
180	0xbe81c613	-0.2534643
181	0xbde8f3cc	-0.113746256
182	0xbd9d750a	-0.07688339
183	0x3da43434	0.080177695
184	0x3d991f65	0.07476691
185	0x3e059aa8	0.13047278
186	0x3d5852cb	0.052813333
187	0x3d042e45	0.03227069
188	0xbd3e5471	-0.04646725
189	0xbddc0295	-0.1074268
190	0x3d01a811	0.03165442
191	0x3d3843a4	0.044986382
192	0x3d873af2	0.0660304
193	0xbc958606	-0.018252384
194	0xbda80dc7	-0.08205753
195	0x3d319f9e	0.043365113
196	0xbd852287	-0.06500726
197	0x3d6abcba	0.05730889
198	0xbcd923d4	-0.026506342
199	0x3e371d5d	0.17882295
200	0x3d24953e	0.04018139
201	0x3d8151a1	0.063143976
202	0xbe30584c	-0.17221183
203	0xbd7a3a4a	-0.061090745
204	0x3e40501d	0.18780561
205	0x3db5089b	0.08839532
206	0x3d45e8e5	0.04831781
207	0xbe0eddd4	-0.13951808
208	0xbe85fa0c	-0.26167333
209	0xbc28ee99	-0.010310792
210	0xbe2084fc	-0.1567573
211	0x3dce3c34	0.100700766
212	0x3d79aeac	0.060957596
213	0x3bab6394	0.0052303765
214	0xbdc551c7	-0.096347384
215	0xbe248403	-0.16065983
216	0x3e8ae5d2	0.27128464
217	0x3de612be	0.112340435
218	0xbd35bbaa	-0.044368424
219	0xbda66994	-0.08125606
220	0xbd471570	-0.04860443
221	0xbd3a23fd	-0.045444477
222	0x3d810e43	0.06301548
223	0xbd607491	-0.054798666
224	0xbd3af4aa	-0.045643486
225	0xbda63e66	-0.0811737
226	0xbdba9e58	-0.09112233
227	0x3d3c69a1	0.045999173
228	0x3b8702a7	0.004120189
229	0xbdad5272	-0.08462991
230	0xbcc32f80	-0.02382636
231	0xbe1ad7e6	-0.15121421
232	0xbdbf17f5	-0.09330741
233	0x3dcd0a5b	0.10011741
234	0xbdad091b	-0.08449002
235	0x3d86d067	0.06582718
236	0xbde33775	-0.11094562
237	0xbc8b4b13	-0.017003572
238	0xbd783bca	-0.060603894
239	0x3d161603	0.036642086
240	0x3e33957b	0.17537491
241	0x3d1ba419	0.037998293
242	0x3c53484a	0.012895653
243	0x3d196356	0.03744825
244	0xbd5d47d9	-0.054023597
245	0xbdc3a211	-0.09552396
246	0x3d91a54a	0.071116045
247	0xbdb8b720	-0.09019303
248	0x3e0b3e7d	0.13598056
249	0x3e41fb83	0.189436
250	0xbe1e3260	-0.15448904
251	0x3e08a84f	0.13345455
252	0xbe02451d	-0.12721677
253	0xbe5a5e02	-0.21324924
254	0xbd96908c	-0.07351789
255	0x3d0ed9a8	0.034875542

network_body._body_endoder.seq_layers.0.bias f4 [256]
0	0x3d062353	0.03274853
1	0x3ca1229f	0.019669829
2	0x3cc24eb4	0.02371917
3	0xbb3e806d	-0.0029068247
4	0xbb02a2c6	-0.0019933446
5	0x3c1ad427	0.009449995
6	0x3bf8c003	0.007591249
7	0x3c09ed32	0.008418368
8	0x3b5b14f1	0.003342923
9	0x3b0e6545	0.0021727842
10	0x3c54d491	0.012990133
11	0xbc5c8b46	-0.01346094
12	0x3c0b7071	0.008510695
13	0x3b92f7d1	0.0044851084
14	0x3cbe0bde	0.023199018
15	0x3c40d25f	0.011768906
16	0xbc05e38a	-0.008171925
17	0x3c8bb096	0.017051976
18	0xbafa6a2d	-0.0019105129
19	0x3cc9dd86	0.024641763
20	0x3c23b953	0.009992915
21	0x3c867c52	0.016416702
22	0xbc789bd9	-0.015173876
23	0x3cb10760	0.021609962
24	0x3c867a02	0.0164156
25	0xbcb7e740	-0.022449136
26	0x3c2c04d5	0.010499199
27	0xbca437ed	-0.020046199
28	0xbc0feb4d	-0.008784127
29	0x3c8956f3	0.016765093
30	0xbc682ed3	-0.01417132
31	0xbcf0a182	-0.029373888
32	0xbc846b86	-0.016164552
33	0xba3ebd37	-0.000727612
34	0x3b4cedeb	0.003126974
35	0x3c89e496	0.016832631
36	0x3ca31de1	0.019911708
37	0x3c9bdc23	0.019025868
38	0x3c0d6eb0	0.008632347
39	0x3c8a3333	0.016870117
40	0x3cb76632	0.022387598
41	0x3c9de49e	0.019274052
42	0x3c996dfe	0.018729206
43	0x3c8fe2a5	0.017564127
44	0xbc2100c5	-0.009826844
45	0x3c806a73	0.015675759
46	0xbbc056f3	-0.00586974
47	0xbabd862b	-0.0014459541
48	0x3c8160eb	0.015793284
49	0xbc58679e	-0.013208298
50	0xbc36f4cd	-0.0111667635
51	0x3c54265f	0.0129486015
52	0x3c80d9a6	0.015728783
53	0x3c765aee	0.015036328
54	0xbbcb7a5f	-0.006209656
55	0xbc5e387f	-0.013563274
56	0x3c093412	0.008374231
57	0x3c3b91dd	0.011448351
58	0x3c83ff0f	0.016112832
59	0xbcc84fed	-0.024452174
60	0xbc122bf3	-0.008921611
61	0x3b94186f	0.0045195143
62	0x3c32ca79	0.010912531
63	0x3c885c6a	0.016645629
64	0x3b743a8e	0.0037266347
65	0xb9df7c2d	-0.00042626393
66	0x3c8284f5	0.01593254
67	0xbbf611cb	-0.0075094453
68	0x3ccbb272	0.024865363
69	0xbcc9c184	-0.024628408
70	0x3c94159f	0.018076716
71	0xbc2d822c	-0.010590117
72	0xbc673dc3	-0.014113846
73	0x3ca72bb5	0.020406583
74	0x3c095a7a	0.008383388
75	0x3c1db236	0.009625008
76	0x3c86600d	0.016403222
77	0x3cc7b511	0.024378331
78	0xbb843ae8	-0.0040353425
79	0xbc522632	-0.012826489
80	0xbc2e1f3e	-0.010627566
81	0xbc1a88de	-0.009432046
82	0x3bf5a619	0.007496607
83	0x3cabfe13	0.020995175
84	0x3cabd71d	0.020976597
85	0x3c6bc8b4	0.014391113
86	0xbc028ede	-0.0079686325
87	0x3cef4678	0.029208407
88	0xbbe0b7a6	-0.00685783
89	0x3cf5eac6	0.030019175
90	0x3cc0307e	0.023460623
91	0x3cc4f43b	0.02404224
92	0x3c2dc9eb	0.010607223
93	0x3c4b6d8b	0.012416254
94	0xbc55febd	-0.013061223
95	0x3b02e62e	0.0019973624
96	0xbc8abcd6	-0.016935747
97	0x3c862756	0.016376179
98	0x3cf54261	0.029938878
99	0x3ca88d52	0.0205752
100	0x3cd327fa	0.025775898
101	0xbc14467f	-0.009050011
102	0x3c140102	0.009033443
103	0xbc520206	-0.012817865
104	0x3b482323	0.0030538521
105	0x3bae95cd	0.0053279162
106	0xbac0d8b9	-0.0014713026
107	0xbb561cf8	-0.0032671075
108	0x3ac6ac1d	0.0015157495
109	0xbc33a312	-0.010964172
110	0x3c82fc69	0.0159895
111	0x3c990828	0.018680647
112	0xbb856bd6	-0.004071693
113	0x3c3b846f	0.011445149
114	0x3c96fd96	0.018431466
115	0x3b2767f2	0.0025544134
116	0x3b412a31	0.002947461
117	0xbc864eb9	-0.01639496
118	0x3c9ca8b2	0.019123409
119	0x3c725a0e	0.0147919785
120	0x3c59ad2b	0.013285915
121	0x3ca986f8	0.02069424
122	0xbc357243	-0.011074605
123	0xbc9a194d	-0.018810892
124	0x3c1b46e9	0.0094773555
125	0x3c98277b	0.018573513
126	0xbc282755	-0.010263284
127	0x3c87bfc5	0.016570935
128	0xbbaf38f3	-0.005347365
129	0xbc8b5a16	-0.01701073
130	0x3c9f0def	0.019415824
131	0x3cba9569	0.022776322
132	0x3c8879c4	0.016659625
133	0x3c79f1c1	0.0152553925
134	0xba83c4fd	-0.0010053214
135	0xbaff922e	-0.0019498521
136	0xbad701ce	-0.0016403736
137	0x3c3b224b	0.01142175
138	0xbc813976	-0.01577447
139	0xbaafe0cf	-0.0013418439
140	0xbc6efd9d	-0.014586833
141	0x3b9b7e11	0.004745253
142	0xbbcfc3c6	-0.0063404767
143	0x3ca1b4a9	0.019739466
144	0x3c4b4292	0.012406008
145	0x3c43337c	0.01191413
146	0x3bedbde2	0.007255302
147	0xbc9955d0	-0.018717676
148	0x3c844c9e	0.016149815
149	0xbc8cf0db	-0.017204693
150	0xbc83b903	-0.016079431
151	0xbc633475	-0.013867487
152	0x3b96291d	0.004582538
153	0x3cc0c03a	0.02352916
154	0xbc97452e	-0.018465605
155	0xbb851891	-0.0040617664
156	0xbc639d34	-0.013892461
157	0x3cc1d9c8	0.023663417
158	0xbc9a5b15	-0.01884226
159	0x3cb20365	0.021730134
160	0xbc878e6c	-0.016547404
161	0x3c75b480	0.014996648
162	0xbca887f5	-0.020572642
163	0xbb3bdfab	-0.0028667252
164	0x3cad65e9	0.021166759
165	0xbb6fb7d4	-0.0036578076
166	0x3bb75dae	0.0055958843
167	0x3ca18b6b	0.0197198
168	0x3c7d0ab2	0.0154444445
169	0x3c211172	0.009830819
170	0x3c89832c	0.01678618
171	0x3c8d1541	0.017222049
172	0xbc78b3c1	-0.015179575
173	0x3cb2f9c7	0.021847619
174	0xbc8c3d46	-0.017119061
175	0x3c53f052	0.012935715
176	0xbc6f2523	-0.014596256
177	0xbc2bd6eb	-0.010488252
178	0xbbd9ebde	-0.006650432
179	0x3cc7c186	0.024384271
180	0x3cb8d051	0.02256027
181	0xbc4eee39	-0.012630039
182	0x3c7365f5	0.014855851
183	0xbc5b5614	-0.013387222
184	0x3ca8d2b8	0.020608291
185	0x3b7ff903	0.0039058335
186	0x3cb55005	0.022132883
187	0xbc1ee079	-0.009697073
188	0x3b49cb30	0.0030791275
189	0xbb5fa9f2	-0.0034128395
190	0x3ca56349	0.020188944
191	0x3ca3e815	0.020008126
192	0xb8312619	-4.223557e-05
193	0xbc4d7383	-0.012539747
194	0xbcb3b195	-0.021935264
195	0x3c6add18	0.014334939
196	0xbc029191	-0.007969276
197	0xbc71c1b6	-0.014755657
198	0x3cdb686c	0.02678319
199	0x3c00814c	0.007843327
200	0x3af039ba	0.0018327751
201	0x3c5c628a	0.013451228
202	0x3c38d925	0.01128224
203	0xbc145c27	-0.009055174
204	0xbbf894c7	-0.007586095
205	0xbc046f6c	-0.008083206
206	0xbb09bcf8	-0.0021017175
207	0x3ca8e229	0.020615654
208	0xbc1efad1	-0.009703354
209	0x3c9e092e	0.019291487
210	0x3c4b0503	0.012391332
211	0x3cb97e71	0.0226433
212	0xb6c64619	-5.9090203e-06
213	0x3c231ecd	0.009956074
214	0xbc5e6235	-0.013573219
215	0x3c9ade63	0.01890487
216	0x3c02b7ad	0.007978362
217	0xbb80703e	-0.0039196303
218	0x3bbf3076	0.0058346344
219	0xbc3d4425	-0.011551891
220	0xbc503099	-0.012706899
221	0xbccda3e2	-0.02510256
222	0x3c9a36a2	0.01882488
223	0x3ba873aa	0.0051407414
224	0x3c8a4db8	0.016882762
225	0x3c3d1a6e	0.011541946
226	0x3c628b2b	0.013827126
227	0x3ca0aa1f	0.01961237
228	0xbb0ff244	-0.002196447
229	0x3cd9e62d	0.026599014
230	0xba23e998	-0.0006252765
231	0xbc4c2378	-0.012459628
232	0xbc867a65	-0.016415784
233	0xbc254cda	-0.010089124
234	0xbc4d36b2	-0.012525247
235	0xbbf397ef	-0.0074338834
236	0xbbf7054e	-0.007538474
237	0xbc4ca861	-0.012491317
238	0xbc5c2ffb	-0.013439174
239	0x3c38d916	0.011282226
240	0x3c3cf21b	0.011532332
241	0xba14229d	-0.000565091
242	0xbc373c9c	-0.011183884
243	0x3c5f4c9e	0.013629107
244	0xbc5cc83d	-0.013475475
245	0x3c843f58	0.016143486
246	0xbc823c9f	-0.015898047
247	0x3cebe3df	0.02879518
248	0xbc2265b8	-0.009911947
249	0x3cc8a5f5	0.024493197
250	0x3ab07b9a	0.001346457
251	0x3cd9ad50	0.0265719
252	0x3cb267ab	0.021777948
253	0x3cb6abf9	0.0222988
254	0x3c60ad62	0.013713213
255	0x3c953e28	0.018218115

network_body._body_endoder.seq_layers.2.weight f4 [256, 256]
0	0xbcdf7604	-0.027277954
1	0x3dbb7b32	0.09154357
2	0xbd5ed6fb	-0.05440424
3	0x3daa6951	0.08320869
4	0x3c3eecae	0.0116531085
5	0xbe008338	-0.12550056
6	0x3c6c9f48	0.0144422725
7	0xbd13eb76	-0.036113225
8	0xbca5d572	-0.02024338
9	0x3cc57f15	0.024108449
10	0xbdd364c8	-0.10321957
11	0xbbb4a995	-0.00551338
12	0x3c6b4643	0.014360013
13	0x3b64c827	0.003490934
14	0xbd2322bd	-0.03982805
15	0x3db8ac16	0.09017198
16	0xba981f1a	-0.0011605949
17	0xbda130a6	-0.07870607
18	0xbc86ba18	-0.016446158
19	0x3cc7c7d4	0.024387278
20	0xbbc00bbd	-0.0058607743
21	0xbd8da8b8	-0.06916946
22	0xbe00b180	-0.12567711
23	0xbc3470c4	-0.011013214
24	0xbdcf5bf6	-0.10124962
25	0xbb96de8c	-0.0046041664
26	0x3d74823d	0.059694517
27	0xbccdc2f1	-0.02511737
28	0x3d810424	0.06299618
29	0x3cfe8d7c	0.031073324
30	0x3d5b578a	0.05355028
31	0x3d71479a	0.058906175
32	0x3dbae803	0.09126284
33	0x3d0eccdf	0.03486335
34	0xbcc3dc80	-0.023908854
35	0xbb9f2472	-0.0048566395
36	0xbd2f8bdb	-0.042857986
37	0x3d54d5ef	0.051961835
38	0x3d23adfc	0.039960846
39	0x3d2029d9	0.03910241
40	0x3d152d78	0.036420316
41	0xbd54adbc	-0.0519235
42	0xbac50587	-0.0015031555
43	0x3d7ba300	0.061434746
44	0xbc477639	-0.012174183
45	0xbd1c8649	-0.038214
46	0xbd890dff	-0.06692123
47	0x3ccec11a	0.025238562
48	0xbd32b375	-0.043628175
49	0xbdb3f3b6	-0.087867185
50	0xbdd9ad7f	-0.10628795
51	0x3e2340de	0.15942714
52	0x3cf1966c	0.029490672
53	0x3d35dfc8	0.044402868
54	0xbd421b9f	-0.047389623
55	0x3d3b016f	0.045655664
56	0xbdccbd93	-0.09997096
57	0x3ce45d6d	0.02787658
58	0xbd759504	-0.059956565
59	0x3babcad9	0.005242687
60	0x3c7600e4	0.015014861
61	0xbdda45d7	-0.10657852
62	0xbd0f20c1	-0.034943346
63	0xbba80513	-0.005127558
64	0xbdb55bad	-0.088553764
65	0xbd849596	-0.06473844
66	0x3c248568	0.010041572
67	0x3d2a5249	0.04158238
68	0xbd950180	-0.07275677
69	0xbe04da1c	-0.12973827
70	0xbdb6f7f4	-0.08934012
71	0x3c218365	0.009857987
72	0x3c30e904	0.010797743
73	0xbd0818f5	-0.033226926
74	0x3d0449cb	0.032296937
75	0xbc7e7455	-0.015530665
76	0x3cbbec85	0.02293993
77	0xbc0ddf67	-0.00865922
78	0xbd4512b0	-0.048113525
79	0x3d478993	0.048715185
80	0x3cd8b1b8	0.02645193
81	0xbd9d920b	-0.07693871
82	0xbde929d4	-0.11384931
83	0x3cb597b9	0.022167074
84	0x3d54e996	0.051980577
85	0x3cddc2fd	0.027070517
86	0x3d69af7a	0.057052113
87	0xbc4b2a2d	-0.012400192
88	0x3d8db306	0.06918912
89	0x3cff80c6	0.031189334
90	0x3cf76ee0	0.030204237
91	0xbd5962dd	-0.0530728
92	0xbb3378bf	-0.0027385203
93	0xb9a86eb7	-0.00032125946
94	0xbac6b979	-0.0015161476
95	0xbd855f12	-0.06512274
96	0xbd1be768	-0.038062483
97	0xbd138f53	-0.036025357
98	0xbd03800c	-0.032104537
99	0x3b9d32be	0.0047973087
100	0xbcda18f7	-0.026623232
101	0xbd44c0e8	-0.048035532
102	0x3d9a4652	0.07532944
103	0x3da548ba	0.08070512
104	0x3c0fc53a	0.00877505
105	0x3d626561	0.055272464
106	0xbdaf3fea	-0.085571125
107	0x3c9b41bc	0.018952243
108	0x3d70daf5	0.058802564
109	0xbd67a53f	-0.056554075
110	0xbd2d10f8	-0.04225251
111	0x3cc39cb6	0.023878437
112	0xbd3da857	-0.04630312
113	0x3c51db27	0.012808598
114	0xbda71fcb	-0.08160361
115	0x3d9d6948	0.076860964
116	0x3d377408	0.04478839
117	0x3cc79da6	0.024367165
118	0x3c0372ba	0.008022958
119	0xbca200c0	-0.019775748
120	0xbd447048	-0.047958642
121	0xbd35517b	-0.04426716
122	0xbc156a15	-0.00911953
123	0xbd0aa84b	-0.033851903
124	0x3d7aefc2	0.061263807
125	0x3c2f5775	0.010702004
126	0xbcca31e5	-0.024681995
127	0xbaafc509	-0.0013410161
128	0x3c7b487a	0.015337104
129	0x3ca40a14	0.020024337
130	0x3de25c6e	0.11052786
131	0xbe50d580	-0.20393944
132	0x3d4e6d84	0.05039741
133	0x3bfbf27c	0.0076888185
134	0xbc3c02b9	-0.0114752585
135	0x3d8abe48	0.067745745
136	0x3d241bd4	0.0400656
137	0xbdae4ec0	-0.08511114
138	0x3d7aedf1	0.061262075
139	0xbd7cf7f6	-0.06175991
140	0xbd319764	-0.043357268
141	0xbd23ebb6	-0.040019713
142	0x3dbfeb7a	0.093710855
143	0xbc053697	-0.008130691
144	0x3bbb82cb	0.005722379
145	0xbbf2c911	-0.007409223
146	0x3d2cc889	0.042183433
147	0xbccff06a	-0.025383193
148	0xbd18b50b	-0.03728203
149	0x3cbd874a	0.0231358
150	0x3d8448ed	0.06459222
151	0x3d1c4513	0.03815181
152	0xbcb0ada3	-0.021567171
153	0x3d96f061	0.073700674
154	0x3da4f193	0.08053889
155	0x3d019504	0.031636253
156	0x3d98bd43	0.07457974
157	0x3d443126	0.047898434
158	0xbd190f3f	-0.037368055
159	0xbb70ab81	-0.0036723318
160	0xbdbe25e1	-0.092845686
161	0x3d8a05f3	0.06739416
162	0x3c507867	0.012724019
163	0xbcdff50f	-0.027338533
164	0x3d7b3a93	0.061335158
165	0xbccd3435	-0.025049308
166	0xbc41033a	-0.011780554
167	0x3c78142d	0.015141529
168	0x3d13d36b	0.036090296
169	0xbd7f46b6	-0.062323295
170	0xbd5cf5e9	-0.053945456
171	0xbd991a0a	-0.0747567
172	0xbcc1d534	-0.023661233
173	0xbcee926d	-0.029122556
174	0xbd2bdfb5	-0.04196139
175	0x3d4ea815	0.050453264
176	0xbcb6d979	-0.022320496
177	0xbdbbee66	-0.0917633
178	0x3d7ee4b4	0.062229827
179	0xbbfa7e6f	-0.0076444666
180	0x3d23d08e	0.039993815
181	0x3c21efa2	0.009883793
182	0x3d350f63	0.044204127
183	0x3d8d4ead	0.06899772
184	0xbd678058	-0.056518883
185	0xbb950ff9	-0.004549023
186	0xba967f5e	-0.001148205
187	0x3caa2533	0.020769691
188	0x3d8a2531	0.06745375
189	0xbd26150a	-0.04054741
190	0x3d3700cb	0.04467849
191	0xbe309c24	-0.17247063
192	0xbd75b7f1	-0.059989873
193	0xbb63e861	-0.003477596
194	0x3c6971df	0.01424834
195	0x3c3ff04c	0.011715006
196	0x3cdacbb0	0.026708454
197	0xbd60ae8c	-0.05485396
198	0xbe1c4e8a	-0.15264335
199	0x3c3551bd	0.011066851
200	0x3cb25a7b	0.02177166
201	0x3cd3e038	0.025863752
202	0x3d59e517	0.053196993
203	0x3c2bf2c6	0.010494893
204	0x3c8c4b6e	0.017125811
205	0x3d41e32c	0.04733579
206	0xbd32d561	-0.043660525
207	0xbd2f4572	-0.042790838
208	0xbc1536fa	-0.009107346
209	0x3de90395	0.11377636
210	0x3d8dcf0e	0.06924258
211	0xbde30de0	-0.11086631
212	0x3d6802e9	0.0566434
213	0xbd9d542b	-0.076820694
214	0x3cfbd028	0.030738905
215	0x3e235eb5	0.15954097
216	0xbc20e20c	-0.009819519
217	0x3cd7696c	0.026295386
218	0xbd67fdfe	-0.05663871
219	0xbd46d22b	-0.048540276
220	0x3dea26d6	0.114331886
221	0xbd02e3b0	-0.03195542
222	0x3d61efe6	0.055160426
223	0x3b3a97b6	0.0028471774
224	0xbd9498b6	-0.0725569
225	0x3d665995	0.056237776
226	0xbd9558b6	-0.07292311
227	0xbd0b6441	-0.034031156
228	0xbcf6593e	-0.03007185
229	0xbc3bb926	-0.011457717
230	0x3cdf60e2	0.027267877
231	0x3d160756	0.03662809
232	0xbd89bcbd	-0.06725452
233	0x3dc158ec	0.094407886
234	0x3d8ab073	0.06771936
235	0x3cb46633	0.022021389
236	0x3d342f63	0.043990504
237	0xbcc44daa	-0.023962814
238	0x3d53adba	0.05167935
239	0x3e0ffea1	0.14061977
240	0xbe02f87b	-0.127901
241	0xbcdd2456	-0.026994865
242	0x3a48b3b9	0.00076561753
243	0xbd52fab1	-0.05150861
244	0xbe0bb9fa	-0.13645163
245	0xbe09ce80	-0.1345768
246	0x3d6108b9	0.05493996
247	0xbdc3ab7f	-0.09554195
248	0xbd81963d	-0.06327484
249	0x3b729d11	0.0037019888
250	0x3d976d97	0.073939495
251	0xbd5e70ae	-0.05430668
252	0xbd161421	-0.03664029
253	0x3d11783f	0.035515066
254	0x3d4d033c	0.050051913
255	0xbb940387	-0.004517022

network_body._body_endoder.seq_layers.2.bias f4 [256]
0	0xbc943153	-0.018089926
1	0x3ca29397	0.019845767
2	0xbca9c9d9	-0.020726131
3	0x3caa11fe	0.020760532
4	0x3c7aae87	0.0153004
5	0x3c73718a	0.014858613
6	0xbc799baf	-0.015234872
7	0xbbe1a8a8	-0.0068865605
8	0x3bedf9bd	0.007262437
9	0x3b853be0	0.0040659755
10	0xbb2efd46	-0.0026701256
11	0x3c407507	0.0117466515
12	0x3bf4df15	0.0074728825
13	0x3c8b4772	0.017001841
14	0x3b91d670	0.004450612
15	0xbc11ae2f	-0.008891626
16	0x3c6a4b8b	0.014300237
17	0x3c929b04	0.017896183
18	0x3b95adcd	0.004567838
19	0x3c917114	0.017754115
20	0x3cd6b1c5	0.026207814
21	0xbc3f2071	-0.0116654495
22	0xbc36a684	-0.011148099
23	0xbc19d46a	-0.009389022
24	0xbc9511ef	-0.018197028
25	0x3bf0e559	0.007351559
26	0x3b2eaa00	0.002665162
27	0x3a81d120	0.0009904243
28	0xbbd2c344	-0.006431969
29	0xbcaf4dda	-0.021399427
30	0x3c8209cd	0.015873814
31	0x3c72fab3	0.014830279
32	0xbc127851	-0.0089398185
33	0xba33cd22	-0.0006858875
34	0x3a82c9b4	0.0009978325
35	0x3c906a06	0.01762868
36	0xba514553	-0.00079830474
37	0x3c6ef2df	0.014584272
38	0xbc80bbc6	-0.015714537
39	0xbc94b10d	-0.01815083
40	0xbc677b70	-0.014128551
41	0xbb9bbadc	-0.0047525
42	0xbc89316b	-0.016747197
43	0xbc5cd85d	-0.013479319
44	0xbc570c9b	-0.013125564
45	0xbbaf5fe2	-0.0053520063
46	0xbc5cc451	-0.01347454
47	0x3c8f8b4b	0.017522475
48	0xbcea60dc	-0.02861064
49	0x3c99e422	0.01878554
50	0x3c8c8d8b	0.017157337
51	0x3ca5bfaf	0.020233003
52	0x3cab2185	0.020890007
53	0xbc7868c0	-0.015161693
54	0xbc2638e7	-0.0101454025
55	0x3cb82d19	0.022482442
56	0xbca894bd	-0.020578736
57	0x3c4819f3	0.012213218
58	0xbc66f0be	-0.014095483
59	0x3cac226b	0.021012506
60	0xbaeab497	-0.0017906603
61	0xbc841b4a	-0.016126294
62	0x3c5dca24	0.013536964
63	0x3cb96d4a	0.02263512
64	0xbca7c61e	-0.020480212
65	0xbca24403	-0.019807821
66	0xbc521b49	-0.012823888
67	0x3b9717bd	0.004610984
68	0x3c88d16d	0.016701424
69	0x3cd05c57	0.025434656
70	0xbca79987	-0.02045895
71	0x3cadf765	0.021236131
72	0x3a8e0474	0.0010835067
73	0x3c4445da	0.011979545
74	0xbc9965a5	-0.018725226
75	0xbbd7e96b	-0.006589105
76	0xbc8516ea	-0.016246278
77	0x3cad7a18	0.021176383
78	0xbc546b11	-0.01296498
79	0x3b0674a4	0.00205163
80	0x3c3fbd76	0.011702886
81	0x3c54153c	0.012944516
82	0x3cbadf9c	0.022811703
83	0x3cc9ab9e	0.024617966
84	0xbc871155	-0.016487757
85	0x3c343b0e	0.011000408
86	0x3c907673	0.017634606
87	0xbc7f673d	-0.015588579
88	0x3ca57846	0.020198952
89	0xbc7b6a3d	-0.015345153
90	0xbcf62631	-0.030047508
91	0xbc646e0d	-0.013942254
92	0xbc753d59	-0.01496824
93	0x3bc17f98	0.005905103
94	0xbca0a4ef	-0.019609896
95	0xbc7b4188	-0.015335448
96	0x3ca522f8	0.020158276
97	0xbc13ca7f	-0.009020447
98	0xbc3a59b0	-0.011373922
99	0xbc036e37	-0.008021883
100	0xbc1172d0	-0.008877471
101	0x3cd7922f	0.026314823
102	0x3cd6c6ee	0.026217904
103	0x3c25b842	0.010114731
104	0xbc8866ae	-0.016650524
105	0xba3959ea	-0.0007070588
106	0x3c7e21a1	0.015510947
107	0xbc3cf360	-0.0115326345
108	0xbc3f7eac	-0.011687916
109	0xbc97763a	-0.018488992
110	0xbcaa0c32	-0.020757768
111	0xbc80bb4f	-0.015714316
112	0x3cb5c932	0.022190664
113	0xbc7f4499	-0.01558032
114	0x3c700f90	0.014652148
115	0xbc82b126	-0.015953612
116	0x3c9d26e3	0.019183582
117	0xbc187498	-0.009305142
118	0x3c40fecc	0.011779498
119	0xbcc46ede	-0.023978647
120	0x3bd051e3	0.006357418
121	0x3c846602	0.016161922
122	0x3c918f08	0.017768398
123	0x3b90ba62	0.00441675
124	0xbc59fcd9	-0.0133049125
125	0x3b47fee3	0.0030516915
126	0xbcbfca81	-0.023411991
127	0x3cc8bc84	0.024503954
128	0x3c91715f	0.017754255
129	0xbc2d9c3d	-0.010596332
130	0x3ccc6974	0.024952628
131	0x3c77333e	0.015087901
132	0x3ca14259	0.019684957
133	0x3ca958b1	0.020672174
134	0x3c210ec5	0.0098301815
135	0x3c513592	0.01276912
136	0x3ca471d9	0.020073818
137	0xbca9ef99	-0.020744132
138	0xbcb2e7bf	-0.02183902
139	0x3cb1531d	0.021646077
140	0x3c869274	0.016427256
141	0xbbea494a	-0.00714985
142	0x3c6f8f0c	0.014621507
143	0x3c8d5c46	0.017255913
144	0xbccc42cc	-0.024934195
145	0x3ca6cd2b	0.020361504
146	0x3c93dda2	0.018050019
147	0xbc8a5441	-0.016885879
148	0x3cafb086	0.021446478
149	0xbc3ae65a	-0.011407459
150	0xbc97854a	-0.018496174
151	0xbc0c82b2	-0.008576082
152	0xbabb8718	-0.0014307229
153	0xbc0ded00	-0.008662462
154	0x3c113cdd	0.008864609
155	0xbc9b4950	-0.018955857
156	0xbca5edd8	-0.020255014
157	0xbb8e6882	-0.0043459544
158	0x3c820176	0.015869837
159	0x3c4a01cb	0.012329529
160	0xbcb2e912	-0.021839652
161	0xbc6b5cf3	-0.014365423
162	0x3ca64c18	0.020299956
163	0x3ccb2837	0.02479945
164	0xbc457918	-0.012052797
165	0xbc565337	-0.013081363
166	0x3c29325e	0.01032695
167	0xbc2066d8	-0.009790145
168	0xbc7f0817	-0.015565894
169	0xbcaca1d0	-0.021073252
170	0xbc3651d0	-0.011127904
171	0x3c328ca9	0.010897794
172	0xbcab8595	-0.02093772
173	0xbc1a800b	-0.009429942
174	0x3c2ebbaf	0.010664864
175	0xbb3b89d8	-0.0028616097
176	0x3c5a9e6e	0.013343437
177	0xbc42c5b4	-0.011887956
178	0x3c97b3d2	0.018518362
179	0x3cac2e81	0.021018269
180	0x3ce8f2e8	0.02843614
181	0x3cc382d3	0.023866093
182	0x3c964bd4	0.018346705
183	0xbc338088	-0.010955937
184	0xbc71fab5	-0.014769246
185	0xbc4b515b	-0.012409533
186	0xbc8f4225	-0.017487595
187	0x3cb5ccd4	0.022192396
188	0x3cb96f09	0.022635954
189	0xbc7bf860	-0.015379041
190	0xbc99e3ab	-0.018785318
191	0x3c8ec68e	0.017428663
192	0x3a8649a0	0.0010245331
193	0x3c7dae6c	0.01548348
194	0xbc337129	-0.010952272
195	0x3c39ccdd	0.011340347
196	0xbc202615	-0.009774704
197	0x3cab2141	0.02088988
198	0xbbd9c8c0	-0.0066462457
199	0xbc3e073a	-0.011598403
200	0x3cd024b3	0.025408125
201	0x3c87ee3d	0.016593093
202	0xbcbc2113	-0.02296499
203	0xbb25c1c3	-0.0025292493
204	0x381400aa	3.5286568e-05
205	0x3c87922f	0.016549198
206	0xbb8216cb	-0.0039700023
207	0xbc6857c0	-0.0141810775
208	0x3cca7d9d	0.0247181
209	0x3c5da7f7	0.0135288155
210	0xbc4b3a3f	-0.012404024
211	0xbc9dcc40	-0.019262433
212	0x3cbdb66d	0.023158276
213	0xbc35132b	-0.011051933
214	0xb9592072	-0.0002070682
215	0x3c6ca800	0.014444351
216	0x3ca94155	0.020661036
217	0xbc18514a	-0.009296725
218	0x3cc35a62	0.023846809
219	0x3cadc7e2	0.021213476
220	0x3c990a41	0.018681647
221	0x3ba5d99b	0.005061341
222	0x3c81d6bb	0.015849462
223	0x3c06cec6	0.00822801
224	0xbc3156e7	-0.010823942
225	0xbcacbbfc	-0.021085732
226	0xbc7d69ad	-0.01546709
227	0xbcb771ce	-0.022393133
228	0x3cd8cc53	0.026464617
229	0xbc42ff13	-0.011901635
230	0x3c16b697	0.009198806
231	0xbcb76366	-0.022386264
232	0x3caf7a34	0.021420576
233	0xbc87cefe	-0.016578194
234	0x3c9dca23	0.019261425
235	0x3c348cff	0.011019944
236	0x3cbeded6	0.023299616
237	0xbc0a7bda	-0.00845238
238	0xbb9c7d4d	-0.004775679
239	0x3cbd3973	0.023098683
240	0xbc8183fe	-0.01581001
241	0x3bc9ab1d	0.0061544315
242	0xbc6acd06	-0.014331108
243	0xbc781872	-0.015142547
244	0xbc873c8f	-0.016508369
245	0x3ca4973a	0.020091642
246	0x3c9e9e2c	0.019362532
247	0xbbad1b2b	-0.0052827797
248	0xbc427991	-0.011869804
249	0xbc52554f	-0.012837722
250	0xbcab9ffe	-0.020950314
251	0xbc7e021a	-0.015503431
252	0xbc568e5b	-0.013095464
253	0xbcabfc03	-0.020994192
254	0xbc262d09	-0.010142573
255	0xbca0cb6f	-0.019628255

network_body._body_endoder.seq_layers.4.weight f4 [256, 256]
0	0x3df6544d	0.12027798
1	0x3c9dcc95	0.019262591
2	0xbd96ea8b	-0.07368954
3	0xba49e1b8	-0.0007701176
4	0xbdeed388	-0.1166144
5	0x3a7f2add	0.0009733865
6	0x3dbe6630	0.092968345
7	0x3bdaf0a7	0.00668152
8	0x3dc2f10e	0.09518634
9	0xbbe9db36	-0.0071367277
10	0xbd10ac2b	-0.035320442
11	0xbd02f118	-0.031968206
12	0x3d8e2048	0.06939751
13	0x3d4abce6	0.049496554
14	0x3d4e395b	0.050347667
15	0x3db5efea	0.088836506
16	0x3ba67f66	0.005081105
17	0xbde1d49c	-0.1102688
18	0x3c7a9250	0.015293673
19	0x3ccd1753	0.025035536
20	0x3d98961e	0.074505076
21	0xbc827b02	-0.015927795
22	0x3d5f439f	0.054507848
23	0xbc2c7014	-0.010524768
24	0xbc5748f6	-0.013139954
25	0xbd60304c	-0.05473356
26	0xbd8447b0	-0.06458986
27	0x3c7cac30	0.015421912
28	0x3c99bb91	0.018766196
29	0x3cb704c5	0.022341141
30	0xbc946c23	-0.01811797
31	0x3d22f162	0.03978098
32	0x3d908d34	0.07058182
33	0x3d84a8c4	0.06477502
34	0xbce3b4e6	-0.02779622
35	0x3d9814d4	0.07425848
36	0xbd9b8727	-0.07594138
37	0x3d968a9b	0.07350656
38	0xbcd2bc89	-0.025724666
39	0x3dac56fc	0.084150285
40	0x3d9ceedb	0.076627456
41	0x3d850b12	0.06496252
42	0x3dab65cf	0.08369028
43	0xbdabc04e	-0.083862886
44	0x3d799c9a	0.060940363
45	0xbd19fa9a	-0.037592508
46	0x3d05b12e	0.032639675
47	0x3d00e76c	0.0314707
48	0x3ca97b9d	0.020688826
49	0x3c6e80da	0.014557088
50	0x3d686774	0.056739286
51	0xbc010c4e	-0.007876469
52	0xbca1e593	-0.01976279
53	0xba6d3c24	-0.0009049794
54	0x3da6813c	0.08130118
55	0x3d9bab4c	0.07601032
56	0x3c0788f4	0.008272398
57	0x3cdcb640	0.026942372
58	0x3d87e5d3	0.06635632
59	0xbd16ca7e	-0.036814205
60	0x3d00fb80	0.03148985
61	0x3d92c269	0.07165987
62	0xba81a523	-0.0009891134
63	0xbc80c036	-0.015716653
64	0xbd9982dc	-0.074956626
65	0x3d6ca41f	0.057773706
66	0x3a028351	0.0004978674
67	0x3d0d3cfa	0.03448198
68	0x3df84b58	0.12123746
69	0xbd3a02b9	-0.045412753
70	0xbd0cb859	-0.034355495
71	0x3ca56d42	0.0201937
72	0xbda37794	-0.07981792
73	0xbcf682d7	-0.030091686
74	0xbd1abc2e	-0.03777712
75	0x3c4c8e0a	0.012485037
76	0x3ce78f2a	0.028266508
77	0xbd61986b	-0.055076998
78	0x3d6bb9d0	0.05755025
79	0x3d23aaee	0.039957933
80	0xbc6e53f3	-0.014546382
81	0xbc32aefa	-0.0109059755
82	0x3d271a02	0.040796287
83	0xbc0ca60a	-0.008584509
84	0xbc8a02a6	-0.016846966
85	0x3dd4c0dd	0.10388348
86	0xbd3c8a8d	-0.04603057
87	0xbdb3563c	-0.08756682
88	0xbd266c03	-0.04063035
89	0x3c891cdc	0.016737394
90	0x3d959131	0.07303084
91	0x3e06da8d	0.13169308
92	0x3c201b2e	0.009772105
93	0x3d82de41	0.06390048
94	0x3b4612fe	0.0030223723
95	0xbd81e817	-0.06343096
96	0x3c4f6066	0.0126572605
97	0x3ce30b2f	0.027715294
98	0x3aaccd1b	0.0013183685
99	0xba26f3f7	-0.0006368751
100	0x3c8d47c6	0.017246138
101	0xbc91aa36	-0.017781358
102	0x3c224b47	0.009905643
103	0xbc21a8ce	-0.009866906
104	0x3c888127	0.016663147
105	0x3cc5dd9f	0.024153529
106	0x3ce2ac1f	0.027669964
107	0x3da5efc0	0.08102369
108	0xbc997dc0	-0.01873672
109	0xbb371138	-0.0027933847
110	0x3da5523e	0.08072327
111	0xbd0c7498	-0.03429088
112	0x3cc10f07	0.023566736
113	0xbd8e7320	-0.06955552
114	0xbe13350f	-0.14375709
115	0xbe5526d6	-0.20815596
116	0x3d7ee53a	0.062230326
117	0x3d3700cd	0.044678498
118	0x3c9b4ace	0.018956568
119	0xbd67801e	-0.056518666
120	0x3d6ea346	0.05826118
121	0xbd5c613f	-0.05380368
122	0xbd7f0b53	-0.06226666
123	0x3d09f6f6	0.033682786
124	0x3c81c27f	0.015839813
125	0x3dd8c9a8	0.10585338
126	0x3caa4d2c	0.020788752
127	0x3bd94ff1	0.006631844
128	0x3c84ec8a	0.016226072
129	0x3ddab0fb	0.106782876
130	0x3d0d36bc	0.034476027
131	0xbdc2c63e	-0.09510468
132	0xbd839b66	-0.06426124
133	0x3dbf23a8	0.09332973
134	0x3d86b30b	0.065771185
135	0xbe227c57	-0.15867744
136	0x3c88c380	0.016694784
137	0xbb445ed8	-0.0029963758
138	0xbcd2baaa	-0.025723774
139	0x3dbd527b	0.092442475
140	0x3d4832a2	0.048876412
141	0x3e32bf46	0.17455778
142	0x3d825b65	0.063650884
143	0x3da69f97	0.08135908
144	0x3da7c5a4	0.08191994
145	0x3db1d6f3	0.086835764
146	0x3e1df5c2	0.1542578
147	0x3adbf77f	0.0016782134
148	0xbcd2aadf	-0.025716243
149	0xbd2487ff	-0.04016876
150	0x3dda8408	0.10669714
151	0xbc407297	-0.01174607
152	0x3cf09ab7	0.029370649
153	0xbc184489	-0.009293684
154	0x3e0ef57a	0.1396083
155	0xbdaac302	-0.08337976
156	0x3af5ceb2	0.0018753617
157	0xbccd149a	-0.025034238
158	0xbd388cd7	-0.04505619
159	0x3d4304cf	0.047612008
160	0x3ce17597	0.027521892
161	0x3daebd7b	0.08532234
162	0xbca96bcd	-0.020681286
163	0xbd6690ae	-0.05629032
164	0xbcb0c754	-0.021579422
165	0xbca46a2c	-0.020070158
166	0x3c117a7e	0.008879302
167	0xbc02ed14	-0.007991094
168	0x3d48e282	0.04904414
169	0x3df7afb7	0.12094062
170	0x3d93656e	0.071970806
171	0x3cb5e822	0.022205416
172	0xbdee74a8	-0.11643344
173	0x3d9ef94d	0.07762394
174	0xbde9299f	-0.11384892
175	0x3c8efc30	0.017454237
176	0xbe26666e	-0.16250011
177	0x3d9a84f5	0.07544891
178	0xbd28c795	-0.04120596
179	0x3da3a4f3	0.07990446
180	0x3ca044b8	0.019564018
181	0xbd80a59d	-0.06281588
182	0xbd122781	-0.035682205
183	0x3d292518	0.04129514
184	0x3bed2c83	0.007237972
185	0x3d8ff10d	0.07028399
186	0x3d4ba616	0.04971894
187	0xbcac4dce	-0.021033194
188	0xbcc54c4a	-0.024084229
189	0xbdd0578e	-0.1017295
190	0x3d828f3d	0.06374977
191	0xbc821851	-0.015880736
192	0x3cd287d9	0.025699543
193	0xbcfe597e	-0.031048533
194	0xbd43df0d	-0.04782014
195	0xbc98ad97	-0.018637462
196	0x3e12077c	0.14260668
197	0xbc9d73e1	-0.019220294
198	0xbd2190da	-0.03944478
199	0xbd3cb150	-0.046067536
200	0x3c7d94cd	0.015477371
201	0x3e1e881a	0.15481606
202	0x3cbc05e9	0.022952037
203	0xbdfffccf	-0.12499391
204	0x3e18984a	0.14901844
205	0xbcc660e3	-0.024216121
206	0x3e0e1769	0.13876118
207	0x3d401e5b	0.04690395
208	0xbd93bcde	-0.07213758
209	0xbd1c138b	-0.038104575
210	0x3dc542b5	0.09631864
211	0x3bf1ebe0	0.007382855
212	0x3d6acae9	0.057322416
213	0xbd1ad929	-0.037804756
214	0xbdb71243	-0.0893903
215	0x3cbd3e6c	0.023101054
216	0xbe2f6d32	-0.17131498
217	0xbe0be634	-0.13662034
218	0x3d04c95c	0.032418594
219	0xbcedd2be	-0.029031154
220	0xbdcddcb1	-0.10051859
221	0x3d2bf908	0.04198554
222	0x3b97fbf9	0.004638192
223	0x3d540781	0.05176497
224	0x3d0aeb7b	0.033915978
225	0xbdf1fc31	-0.1181568
226	0xbdd78883	-0.105240844
227	0x3d28f0ec	0.041245386
228	0xbdad8410	-0.084724545
229	0xbdebbc5a	-0.115105346
230	0x3d95c0ff	0.07312202
231	0xbceee4f0	-0.0291619
232	0x3d2dec57	0.04246172
233	0x3d45f3a1	0.048328046
234	0x3d1c5a73	0.038172197
235	0xbd0e03c6	-0.034671567
236	0xbc9b24c6	-0.018938433
237	0xbd471cce	-0.048611455
238	0x3cb48a85	0.022038708
239	0x3dc7bf36	0.097532675
240	0x3d35d935	0.044396598
241	0xbc85bcb9	-0.016325342
242	0x3c1c306b	0.009533028
243	0xbca4380a	-0.020046253
244	0xbc926052	-0.017868195
245	0x3d0d2e7e	0.034468167
246	0xbd98f434	-0.07468453
247	0xbda3fe94	-0.08007541
248	0x3d8e923b	0.06961485
249	0xbd949d73	-0.072565936
250	0x3d34c27c	0.044130787
251	0x3d5bea3b	0.053690176
252	0x3c992e7c	0.018698923
253	0xbca8eb03	-0.020619875
254	0x3cc40ea1	0.023932757
255	0xbcaeaf6b	-0.02132388

network_body._body_endoder.seq_layers.4.bias f4 [256]
0	0xbbf364d4	-0.007427791
1	0x3cc8a7e3	0.024494117
2	0x3cc4fe1e	0.024046954
3	0x3c7b554a	0.015340159
4	0x3c167c3e	0.009184895
5	0x3c9a3c60	0.018827617
6	0xbc86699c	-0.01640778
7	0xbc4a5063	-0.012348267
8	0xbc275e87	-0.010215408
9	0x3c98a8c4	0.018635161
10	0x3c8e83b8	0.017396793
11	0x3c8c59d1	0.017132672
12	0x3c95a1f5	0.018265704
13	0xbbe3cc4b	-0.006951844
14	0xbc80ec1e	-0.01573759
15	0xbc9172d5	-0.017754951
16	0x3cc1b883	0.023647552
17	0x3ca3bdb3	0.019987917
18	0x3cb54b1b	0.02213054
19	0xbc4bd8ec	-0.012441855
20	0x3c98a65e	0.018634018
21	0xbc9ebe4f	-0.019377856
22	0xbc82204c	-0.015884541
23	0xbb038be2	-0.002007239
24	0xbc6ef33e	-0.014584361
25	0x3c5c428f	0.013443603
26	0xbc805317	-0.01566462
27	0xbbfa290c	-0.0076342877
28	0x3c5ec467	0.013596631
29	0x3cb4cc85	0.022070179
30	0xbc5ec818	-0.013597511
31	0x3ca45124	0.020058222
32	0x3c72d642	0.014821591
33	0x3c999b5b	0.018750837
34	0x3c82485e	0.015903648
35	0xbc877331	-0.01653442
36	0xbca7f7bf	-0.020503877
37	0x3cacdbac	0.021100841
38	0x3c4d2dd8	0.012523137
39	0xbc31f3f6	-0.0108613875
40	0x3bd213e8	0.0064110644
41	0x3c82d533	0.015970802
42	0xbc9aadab	-0.01888164
43	0x3cb0b3cb	0.021570107
44	0x3c725850	0.014791563
45	0x3b8c9a51	0.004290857
46	0x3c96902e	0.018379297
47	0x3c2550c3	0.010090056
48	0x3c8f3d51	0.017485293
49	0x3b5258ae	0.0032096314
50	0x3c935524	0.017984934
51	0x3ca60541	0.020266177
52	0xbca93ef6	-0.020659905
53	0xbb595550	-0.0033162422
54	0x3b9e0cca	0.004823302
55	0x3cbc5f2b	0.022994598
56	0xbbae9a11	-0.0053284247
57	0x3ca1c3fd	0.019746775
58	0xbc30dab2	-0.0107943285
59	0x3c4f5d4e	0.012656523
60	0x3c909df8	0.01765345
61	0xbc8df6eb	-0.017329654
62	0x3c0ab714	0.008466501
63	0x3c3ae94d	0.011408162
64	0xbc59999a	-0.01328125
65	0x3cbe0066	0.02319355
66	0x3c7bc945	0.015367811
67	0xbc0ef26b	-0.008724789
68	0x3c828ccc	0.015936278
69	0xbc5823b0	-0.013192102
70	0xbc888f5d	-0.016669923
71	0x3ca40ac8	0.020024672
72	0xbc82199d	-0.015881354
73	0x3b9e57e4	0.0048322547
74	0x3cb623f5	0.022233943
75	0x3c96d519	0.01841216
76	0x3bd46f6e	0.00648301
77	0xbc08b226	-0.008343255
78	0xbcafd00f	-0.021461515
79	0xbbd7885c	-0.0065775346
80	0xbcaae462	-0.020860855
81	0x3c17cc3d	0.009265003
82	0x3ca6d48b	0.02036502
83	0x3ca6864d	0.020327711
84	0x3c571ebc	0.013129886
85	0x3bb366a6	0.005474883
86	0x3c9c28d8	0.019062445
87	0xbcc18bd5	-0.023626247
88	0x3ca6ca94	0.020360269
89	0xbc8c3c90	-0.017118722
90	0xbcb53ea1	-0.02212459
91	0x3cada2fa	0.021195877
92	0x3c66431f	0.014054089
93	0x3c810081	0.01574731
94	0x3ca63586	0.020289194
95	0xbc9d8acf	-0.019231228
96	0xbc87e733	-0.016589737
97	0x3cad633c	0.021165483
98	0xbbb091da	-0.0053884806
99	0x3c84f95a	0.016232181
100	0xbc94020a	-0.018067379
101	0x3caf1c17	0.021375699
102	0x3bfb6a2e	0.0076725697
103	0xbca3ed04	-0.020010479
104	0x3ca0cdc8	0.019629374
105	0xbb4cd62e	-0.003125559
106	0x3c9169ab	0.017750582
107	0x3c4aa52a	0.01236848
108	0xbc9e81a9	-0.019348936
109	0xbc909e0c	-0.017653488
110	0x3ca9ac9d	0.020712191
111	0x3a9eafde	0.0012106856
112	0x3c54f2a7	0.012997306
113	0x3c880ff5	0.016609171
114	0x3cafb2c0	0.02144754
115	0x3c8461a1	0.016159834
116	0x3cbc5512	0.022989783
117	0x3c9ff696	0.019526761
118	0x3c9f0920	0.01941353
119	0x39267691	0.00015875163
120	0x3b0642fe	0.0020486708
121	0xbc8bdb4e	-0.017072346
122	0xbc1e1cf3	-0.009650457
123	0x3c668e6e	0.014072044
124	0x3ca40819	0.020023393
125	0x3c5745b2	0.013139175
126	0xbc5cc40f	-0.013474478
127	0x3c33a1ba	0.010963852
128	0x3c8a935a	0.016915966
129	0x3b2adc96	0.002607142
130	0x3ce38ffa	0.027778614
131	0xbcb24ba9	-0.021764593
132	0x3c3fa097	0.011696002
133	0x3c559109	0.013035067
134	0xbbdb6b40	-0.006696135
135	0x3c96cfcf	0.018409638
136	0x3c2e3b71	0.010634289
137	0x3c71fb76	0.014769426
138	0xbc19a6d0	-0.00937815
139	0xbc97871f	-0.018497048
140	0x3c8ab85f	0.016933618
141	0xbbb35392	-0.005472609
142	0xbc9ccfe8	-0.019142106
143	0xbc35924a	-0.011082241
144	0x3c9810e4	0.018562742
145	0x3ca8d561	0.02060956
146	0xbc94e602	-0.018176083
147	0xbc5f2e2b	-0.013621847
148	0x3c94ff70	0.018188208
149	0x3ca5c56b	0.020235738
150	0xbb40518b	-0.0029345478
151	0xbc571e1e	-0.013129739
152	0xbc842846	-0.016132485
153	0x3a5aec52	0.00083512545
154	0x3bfd5008	0.0077304877
155	0x3c181841	0.009283126
156	0xbcc1f05d	-0.023674184
157	0x3c96d793	0.01841334
158	0x3c951828	0.018199995
159	0xbc9248da	-0.017857004
160	0x3c566524	0.013085637
161	0xbb36e65d	-0.0027908303
162	0xbc06beac	-0.008224171
163	0xbc8a45a8	-0.016878918
164	0x3ca2386d	0.019802297
165	0x3c3a39cb	0.011366318
166	0xbc9f3312	-0.019433532
167	0x3c29e751	0.010370092
168	0xbbd1b1ac	-0.006399354
169	0xbaa13476	-0.001229896
170	0x3cc40f1a	0.023932982
171	0x3c8548e3	0.016270107
172	0xbc92ae17	-0.017905278
173	0x3c947808	0.018123642
174	0x3c85c479	0.016329037
175	0xbc3acec9	-0.0114018405
176	0x3c062d26	0.008189475
177	0x3c032964	0.008005474
178	0x3cab3e07	0.0209036
179	0x3c299a3b	0.010351713
180	0x3cb40d88	0.021979108
181	0xbc8b4a17	-0.017003102
182	0x3c9c7970	0.019100875
183	0xbc1c5cec	-0.009543639
184	0xbca3ec92	-0.020010266
185	0x3cdd05f0	0.02698037
186	0x3cbad205	0.022805223
187	0x3cabcfde	0.020973142
188	0x3b641d41	0.0034807476
189	0x3cc9f228	0.024651602
190	0xbc61199a	-0.013739014
191	0xbc046d5e	-0.008082716
192	0xbc8856ec	-0.01664301
193	0x3caa0b22	0.020757262
194	0xbc83979f	-0.01606351
195	0xbba06b95	-0.0048956373
196	0xbca978b1	-0.020687433
197	0xbc9f9901	-0.019482138
198	0xbbe418dd	-0.0069609717
199	0xbc743ee7	-0.014907575
200	0x3caab6e2	0.020839158
201	0xbca38c6b	-0.019964417
202	0xbb89d89d	-0.0042067305
203	0x3b9aa8a4	0.0047198106
204	0xbc8d155f	-0.017222105
205	0xbca86998	-0.020558164
206	0xbc0450bd	-0.00807589
207	0xbc5e5c09	-0.013571748
208	0x3cc8e572	0.02452347
209	0xbacd22bc	-0.001565061
210	0x3cb28eaa	0.021796543
211	0x3cacc057	0.021087809
212	0x3cb40a9a	0.021977711
213	0xbc4015fa	-0.01172399
214	0xbc25e3b0	-0.010125086
215	0x3c6d68ff	0.014490365
216	0xbc1ebce8	-0.009688593
217	0x3c892c70	0.016744822
218	0xbcba7503	-0.022760874
219	0x3c9dc066	0.019256782
220	0x3c83d259	0.016091513
221	0xbca296a7	-0.019847227
222	0x3c0042d8	0.007828437
223	0xbc72eba6	-0.014826691
224	0xbcbcd954	-0.023052849
225	0xbc98d644	-0.018656857
226	0xbc97259c	-0.01845055
227	0xbc9049f8	-0.017613396
228	0x3cb24f63	0.02176637
229	0xbcbaf8c1	-0.022823693
230	0x3cc98b98	0.024602696
231	0x3c95e408	0.01829721
232	0x3c4657ba	0.012105877
233	0xbc31faaa	-0.010862986
234	0xbc530cc5	-0.012881462
235	0xbc77249a	-0.01508441
236	0xbc5436f9	-0.01295256
237	0xbc9efb32	-0.019406889
238	0xbc1b87b7	-0.009492806
239	0x3c9d92ec	0.019235097
240	0xbc7efcda	-0.015563214
241	0x3cd5739c	0.026056103
242	0xbc60e3c1	-0.013726176
243	0x3bbe2586	0.005802813
244	0xbc8bcfef	-0.017066924
245	0x3bad6fcc	0.0052928682
246	0xbc9ecc29	-0.01938446
247	0x3b9868dc	0.004651172
248	0x3cbb9b08	0.022901073
249	0x39a9b76b	0.0003237085
250	0xbc9e7bed	-0.019346202
251	0xbc1af1a9	-0.00945703
252	0x3ca6808f	0.020324973
253	0x3b5b7857	0.0033488476
254	0xbcbb401d	-0.02285772
255	0x3c6a863e	0.014314232

action_model._continuous_distribution.log_sigma f4 [1, 2]
0	0xbddfb4b9	-0.10923142
1	0x3b81a35f	0.003956243
