results/run1/CarAgent/CarAgent-999981.onnx (onnx, 645957 bytes, 13 tensors)

network_body.observation_encoder.processors.0.normalizer.running_mean f4 [100]
000000 09 cc 6d 3d 8c 97 69 3f fb 66 bd 3b a5 c5 52 3e
       0.05805591 0.9124687 0.0057800985 0.20583208
000010 6a a9 9a 3d 5f 1a 65 3f 59 99 bd 3b 81 19 52 3e
       0.075518444 0.89493364 0.0057861027 0.20517541
000020 2e cc 48 3d 48 f8 6b 3f 17 aa bd 3b 12 19 54 3e
       0.049022846 0.9217572 0.0057880986 0.20712689
000030 2d 14 d7 3d 64 8b 5d 3f 17 3d bd 3b bb 19 52 3e
       0.10501895 0.8654082 0.0057751047 0.20517628
000040 72 cc 4e 3d ea 9f 6b 3f fc ba bd 3b 5a 02 56 3e
       0.050487943 0.92040884 0.0057901125 0.20899335
000050 8a 93 1b 3e 53 8e 51 3f a7 88 bd 3b d5 da 51 3e
       0.15193 0.81857795 0.0057841125 0.20493634
000060 23 be 94 3d 95 f8 65 3f 67 c7 be 3b de c9 57 3e
       0.07262828 0.8983243 0.0058221105 0.210731
000070 39 0b 50 3e 0e 73 44 3f f7 51 be 3b 3b cb 51 3e
       0.20316781 0.7673806 0.005808111 0.20487683
000080 b2 d6 ee 3d d2 b7 5a 3f 9e ba bf 3b 8a c7 58 3e
       0.11662044 0.8543674 0.005851104 0.21169868
000090 3a 93 84 3e 26 2d 36 3f 81 e0 be 3b 62 9b 52 3e
       0.25893575 0.7116264 0.005825103 0.20567086
0000a0 9d 96 30 3e b9 6f 4c 3f c2 40 c0 3b ee f1 58 3e
       0.17244954 0.79857975 0.0058670947 0.21186039
0000b0 63 0b a9 3e 49 f8 23 3f 86 38 c0 3b d4 8a 53 3e
       0.330165 0.6405073 0.005866113 0.20658427
0000c0 ba ce 6d 3e 41 b4 3c 3f 16 5a c0 3b d2 bc 58 3e
       0.23223391 0.73712546 0.005870114 0.21165779
0000d0 2d e0 d4 3e 67 1d 0e 3f 5c 8c c0 3b 37 90 53 3e
       0.41577283 0.55513614 0.005876107 0.20660482
0000e0 f2 25 98 3e 99 0a 2b 3f 98 e4 bf 3b 7e 7e 58 3e
       0.2971645 0.66813046 0.005856108 0.21142003
0000f0 b7 c1 00 3f b9 da ef 3e bd 94 c0 3b f9 9c 52 3e
       0.50295585 0.4684656 0.005877106 0.20567693
000100 26 8c c3 3e d8 3f 14 3f e6 16 c0 3b 53 5d 58 3e
       0.38192862 0.5790992 0.0058621047 0.2112935
000110 9c 83 1b 3f 00 99 ba 3e 2c 9d c0 3b 1d 6f 50 3e
       0.60747695 0.36444855 0.0058781113 0.20354886
000120 69 1f f4 3e aa bc f5 3e f6 ec bf 3b f6 fa 56 3e
       0.47680214 0.47995502 0.0058571054 0.20994172
000130 2c aa 2e 3f 45 81 94 3e fa 59 c0 3b 66 0b 4e 3e
       0.6822841 0.29004875 0.005870101 0.20121536
000140 5c d2 0d 3f d8 be cc 3e be be c0 3b 97 7c 55 3e
       0.5539911 0.39989352 0.0058821132 0.20848309
000150 16 57 3e 3f 79 77 6b 3e f9 16 c0 3b e0 7a 4c 3e
       0.7435163 0.22994794 0.0058621136 0.19968748
000160 51 24 1f 3f 1d 61 a9 3e 50 ba c1 3b c5 ac 54 3e
       0.6216479 0.33081904 0.0059121028 0.20769031
000170 98 84 4b 3f f0 a6 38 3e 9c e4 bf 3b 9e 36 4c 3e
       0.79499197 0.18032432 0.00585611 0.1994271
000180 38 10 2f 3f 65 6d 89 3e 7f d7 c2 3b d9 25 55 3e
       0.6838412 0.26841274 0.0059460993 0.20815219

network_body.observation_encoder.processors.1.normalizer.running_mean f4 [6]
000000 ed 4a fb 3d fa c8 8f bd 05 55 19 41 d0 e5 aa bd
       0.1227015 -0.07020755 9.583257 -0.083446145
000010 bf a5 c2 bc fe 61 60 3f
       -0.023760675 0.87649524

network_body._body_endoder.seq_layers.0.weight f4 [256, 106]
000000 64 bf 86 bc 59 bd 30 3e 56 75 e0 bd 77 9a a7 bd
       -0.016448684 0.1725973 -0.1095988 -0.08183759
000010 64 d3 33 be d0 09 ed bc 7a a5 ea 3d 5f 27 9c bd
       -0.17561108 -0.028935343 0.114573434 -0.07624697
000020 22 fe 4e be dd 06 05 3d c5 d3 e8 bd 53 1d 4f 3e
       -0.20214131 0.03247725 -0.11368517 0.2022603
000030 3e 2f 19 3e d1 fe 02 be b4 04 9c 3e 3a fb 8d 3d
       0.14959428 -0.12792517 0.30472338 0.06932683
000040 05 01 d8 bc 2f b1 fa 3d f3 5c d7 bd 12 80 41 3e
       -0.026367674 0.12240826 -0.105157755 0.18896511
000050 a1 2c 39 bd 42 5c d7 bc a5 c8 53 3d 86 8f 4b 3c
       -0.045208577 -0.02628911 0.05170502 0.012424355
000060 9f 61 b4 3d 4e 47 47 3d a9 29 8d bd 74 7f ae 3d
       0.08807682 0.048651986 -0.06892712 0.085204035
000070 5e 64 cc bd 24 d5 1e 3e 6e 63 1e 3d 07 9f 1d 3e
       -0.09980081 0.15510994 0.038669042 0.15392695
000080 3a 15 77 bd dc 9d c9 bd 0f 7b b0 bd 9d e1 0d 3e
       -0.060322978 -0.098445624 -0.086172216 0.13855596
000090 75 93 3c 3d 34 d0 81 be 95 a5 95 3b c7 9a 14 be
       0.046039063 -0.2535416 0.004566858 -0.14512168
0000a0 bd eb 20 bd b3 92 ea 3d 28 3a 02 3d cb fe 6a 3d
       -0.039287318 0.11453762 0.031793743 0.057371896
0000b0 2a 69 b4 3d d2 a9 05 be 5d 80 58 bd d0 b5 09 be
       0.08809121 -0.13053063 -0.05285679 -0.13448262
0000c0 4b 91 b2 bd be e1 a9 3d 0f 24 97 3d aa 38 7e bd
       -0.08719119 0.0829501 0.073799245 -0.062065758
0000d0 2c 12 c9 3d 63 d2 78 bd 9c 67 8c 3e aa a3 a6 bd
       0.09817919 -0.060747515 0.27422798 -0.08136685
0000e0 e3 c5 ed bd 9e 7e 9d bb 29 d2 9e bd d7 7a bd bd
       -0.116100095 -0.0048063537 -0.077549286 -0.092519455
0000f0 ba 29 02 3e 23 1c e8 3d 33 81 4d bd 98 eb b7 bd
       0.1271123 0.11333492 -0.050172042 -0.08980483
000100 73 7c 00 3e 90 76 59 be 13 2f 4d be fb 85 95 3d
       0.12547474 -0.21236634 -0.20037489 0.07300945
000110 3d 01 e3 bb 44 f1 b2 3d 27 f8 e5 bd 3a 79 2e 3d
       -0.006927638 0.08737424 -0.11228972 0.04259608
000120 6d f3 a3 bc 0f 90 36 3e 16 08 b1 3d e9 dc 87 3d
       -0.020013535 0.17828391 0.086441204 0.06633932
000130 24 54 b6 3d fc 69 d1 3d f2 02 a2 bd 98 00 fa bd
       0.08902767 0.10225293 -0.07910718 -0.122071445
000140 15 ff 55 bd 70 4b 69 bd cf 3e 3c bd 51 f3 25 3e
       -0.05224522 -0.05695671 -0.045958336 0.16206099
000150 81 b3 e1 3c 11 80 6b bd 8a ad f7 bc 0a 98 02 3e
       0.027551414 -0.05749518 -0.030234117 0.12753311
000160 e3 d9 b0 b9 6f c2 41 3c 69 60 c7 3d c4 4c 84 bc
       -0.00033731674 0.011826142 0.09735186 -0.016149886
000170 3d 51 70 3d a3 38 05 3e 14 85 2d 3e f5 b2 fc bc
       0.058671225 0.13009886 0.16945297 -0.030847052
000180 91 e2 47 3d b3 76 39 3c 79 bc 55 3d f1 cf 8c 3e
       0.048800055 0.011319804 0.052181695 0.27502397
000190 e8 7d ee bc a6 c5 61 bd b5 4e 9f 3c 6f 28 b1 3d
       -0.029112771 -0.055120133 0.01944671 0.0865029
0001a0 5c 85 36 3c 7a 21 9e bd fc 27 ae 3d eb bc 42 3c
       0.011140194 -0.07721229 0.0850372 0.011885862
0001b0 a8 c7 01 bc 4f e7 17 bd fc a5 3b be 74 1d 52 be
       -0.007921137 -0.037085827 -0.18325037 -0.20519048
0001c0 03 4a 6e bd ee 22 15 bc a0 0f 11 be f5 a0 30 bd
       -0.05817605 -0.009102566 -0.14166117 -0.04312225
0001d0 f9 12 03 be f9 a3 9c bd f6 a1 91 bc b0 1f 30 3e
       -0.12800206 -0.07648463 -0.017777424 0.17199588
0001e0 c2 84 59 bc 51 62 cc 3d 97 e5 cf 3d 3f d3 81 bd
       -0.013276281 0.0997969 0.10151213 -0.0633912
0001f0 96 88 43 be 71 b0 4d 3e 55 17 12 bc 38 fd 3e 3d
       -0.19095072 0.20086838 -0.008916696 0.046628207
000200 56 24 66 bd b7 cd 00 3c 0e fa 26 3e 15 6d 9b bc
       -0.056186996 0.007861546 0.16306326 -0.018972913
000210 af b4 a1 bc e0 0c 6e 3d 80 99 f0 bd 38 db 76 3d
       -0.019739477 0.058117747 -0.11748028 0.060267657
000220 58 7f c3 bd 46 7d 96 bd c1 09 85 3c 33 55 cb bb
       -0.09545773 -0.07348113 0.016240003 -0.006205225
000230 ae 80 fc bd 8e 57 c2 3d bf 1a 64 bd fa f6 2d ba
       -0.12329231 0.09489356 -0.05568957 -0.00066362286
000240 40 b0 9b bd a8 40 b6 bd 1f 86 6d 3e 6a dd 19 3d
       -0.076019764 -0.08899051 0.23195694 0.037564673
000250 ee 91 08 be 99 2e 6d be 0d 9d f7 3b 5f cc 65 3e
       -0.13336918 -0.23162307 0.0075565637 0.22441243
000260 ce f1 c4 bd 75 b4 53 bd bf e4 88 3e f4 0e a2 bd
       -0.09616433 -0.05168577 0.2673702 -0.07913008
000270 6a 26 8a bc 57 41 da 3d 19 a0 f4 3d 4d 02 3c 3d
       -0.01686402 0.10656994 0.11944599 0.04590063
000280 99 6f 90 bc 98 c1 f0 bb 13 e9 47 bd f9 8f 0e bd
       -0.017631339 -0.007347297 -0.04880626 -0.03480527
000290 d4 d5 90 bc 22 e1 5f 3e 5f 6c a0 3c 65 c8 81 3c
       -0.017680086 0.21863225 0.019582925 0.015842626
0002a0 6f d2 3b 3e 39 ed ed bd 87 36 0e 3e 99 a8 27 bd
       0.18341993 -0.11617512 0.13887988 -0.04093227
0002b0 63 8c a0 bd 47 64 0c 3e 50 98 a3 bd 6a 22 46 bc
       -0.07839277 0.13710128 -0.07988036 -0.012093166
0002c0 c3 94 d4 bd 86 eb cc 3d 9f 13 0c be 46 34 bc bd
       -0.103799365 0.1000586 -0.1367936 -0.09189658
0002d0 46 0c 81 be d9 bd f1 bd de db a0 bd 86 54 a7 3d
       -0.25204676 -0.11803789 -0.07854436 0.081704184
0002e0 2c 93 9b 3d 20 27 07 3e 0c dc 52 3d 38 eb 08 3d
       0.0759643 0.13198519 0.051479384 0.033427447
0002f0 cb 7c 3b bd 92 ac e4 bd 4c 2c 00 3d 7f 76 39 3d
       -0.04577331 -0.11165728 0.031292245 0.045279022
000300 bc 1f 89 3d fa 18 7f bc f8 bf ab bd cd b9 38 3d
       0.06695506 -0.01556992 -0.083862245 0.04509907
000310 4f c6 83 bd 5c 7b 5b 3d 89 4e d4 bc 86 6e 36 3e
       -0.06434309 0.05358444 -0.025916355 0.17815599
000320 93 9a 28 3d 2d ab 87 3d b9 5f 31 be cf c7 75 bd
       0.04116304 0.06624446 -0.17321672 -0.060005005
000330 f5 ca 40 3e a8 c5 ae 3d 0a e2 4e 3d e2 d5 0e be
       0.18827422 0.08533794 0.050508536 -0.13948777
000340 d3 f1 84 be fa 45 17 bc f1 7f 22 be f9 a0 c6 3d
       -0.25965747 -0.009232992 -0.15869118 0.09698672
000350 ae c8 7a 3d 30 1d 8a 3b 6f b5 c3 bd 60 6c 25 be
       0.06122654 0.004214905 -0.0955609 -0.16154623
000360 fb 7e 8b 3e 64 8a e1 3d af 83 32 bd 22 e9 a7 bd
       0.27245316 0.11012724 -0.043582615 -0.081987634
000370 85 33 4a bd 92 fe 3c bd af d4 82 3d c7 a7 64 bd
       -0.04936554 -0.046141215 0.063882224 -0.055824067
000380 f3 ca 35 bd 28 ac aa bd c7 d0 b8 bd 03 f6 39 3d
       -0.044383 -0.083336174 -0.09024196 0.04540063
000390 75 7c 9c 3a e6 9c ab bd 42 79 bb bc 20 ea 1b be
       0.0011938947 -0.083795354 -0.022884969 -0.1522603
0003a0 15 a3 bc bd 73 31 c9 3d 00 22 ab bd f8 d7 85 3d
       -0.09210793 0.09823885 -0.08356094 0.065353334
0003b0 af 6c e5 bd 74 f4 8a bc 92 58 75 bd 46 08 12 3d
       -0.112023704 -0.016962267 -0.05989892 0.03565242
0003c0 4f c5 34 3e 98 6c 14 3d 2e 9d 61 3c e5 f3 17 3d
       0.17653392 0.036236376 0.013770385 0.03709783
0003d0 1c 7f 5b bd ea 80 c5 bd ac 28 93 3d 33 88 ba bd
       -0.053588018 -0.09643729 0.07185492 -0.09108009
0003e0 52 61 0c 3e 8a 57 40 3e 16 23 1d be 24 88 08 3e
       0.13709 0.18783394 -0.15345415 0.13333184
0003f0 0f d5 01 be 01 af 5b be 8a 71 94 bd 7b 5b 0a 3d
       -0.12678932 -0.21453477 -0.07248218 0.03377865

network_body._body_endoder.seq_layers.0.bias f4 [256]
000000 54 a3 fd 3c c3 75 8e 3c 51 b7 b8 3c 86 70 65 bb
       0.03096167 0.017390138 0.02254835 -0.0035009696
000010 98 36 4c bb 11 f6 20 3c ea ba b0 3b 1e 46 06 3c
       -0.003116047 0.009824292 0.0053933756 0.008195428
000020 8e 03 45 3b e1 4d 40 3b 89 06 48 3c 2f ad 66 bc
       0.0030061933 0.0029343294 0.012208589 -0.014079376
000030 f2 e9 0b 3c 51 6f 86 3b 15 e9 b3 3c 94 f0 2a 3c
       0.008539664 0.0041026254 0.021961728 0.010433335
000040 6a 3f 17 bc fb 71 7e 3c 3e 6f c5 ba 8c 79 bd 3c
       -0.009231428 0.015530105 -0.001506306 0.023129247
000050 0f dd 21 3c fc a4 86 3c 27 94 65 bc ed 12 a2 3c
       0.009879365 0.016436093 -0.014012373 0.019784415
000060 7d a8 7c 3c 8c b8 bd bc 71 9d 07 3c 49 37 a6 bc
       0.01542103 -0.023159288 0.008277283 -0.020290034
000070 cf de 12 bc 08 03 86 3c 6f d0 56 bc 6d 80 ff bc
       -0.0089642545 0.016358867 -0.013111218 -0.031189168
000080 5e 51 73 bc b7 b4 00 bb 01 a2 58 3b 76 e9 8f 3c
       -0.014850942 -0.0019638964 0.0033055546 0.017567378
000090 c5 5f 9f 3c 35 fa 99 3c 76 52 16 3c f8 8b 82 3c
       0.019454846 0.018796066 0.009174934 0.015935883
0000a0 9f a1 ae 3c e4 11 9a 3c c5 cc 90 3c 56 fa 8a 3c
       0.021317301 0.018807359 0.017675767 0.016965073
0000b0 f8 15 20 bc 7d 36 74 3c e7 02 98 bb 61 d8 2a bb
       -0.009770863 0.014905569 -0.004639018 -0.0026068913
0000c0 4b 46 70 3c c1 50 56 bc 02 0a 2b bc cb c5 46 3c
       0.014665197 -0.013080777 -0.010439398 0.012132118
0000d0 13 fa 7b 3c f2 18 70 3c 27 02 ab bb d9 f0 69 bc
       0.015379447 0.014654385 -0.0052187624 -0.014278614
0000e0 8d 11 eb 3b 2f 1b 37 3c 53 7e 78 3c 48 cb be bc
       0.007173723 0.011175915 0.015166837 -0.023290291
0000f0 37 99 1b bc 51 a3 4a 3b 49 05 33 3c 1b bc 5d 3c
       -0.0094969785 0.0030920098 0.010926553 0.013533617
000100 14 59 9a 3b b9 92 5e 39 62 64 73 3c 90 b6 06 bc
       0.004710326 0.00021226228 0.014855476 -0.008222237
000110 e5 d7 ba 3c d2 59 cf bc 01 d6 89 3c d5 13 34 bc
       0.022808025 -0.025311384 0.016825678 -0.010991056
000120 8d dd 4d bc 78 09 9f 3c 6f ee 09 3c 87 22 cf 3b
       -0.012565029 0.019413695 0.008418663 0.0063212547
000130 cf c9 86 3c 34 56 bd 3c d4 11 8c bb 6f 2b 4d bc
       0.016453652 0.023112394 -0.004274586 -0.012522562
000140 9f 0f 38 bc ec ff 1e bc 59 4a 01 3c fa 52 a1 3c
       -0.011234193 -0.009704571 0.007891261 0.019692887
000150 90 34 a6 3c 2a 2f 62 3c 7c 9b 0b bc 04 9f e1 3c
       0.020288736 0.01380519 -0.008520957 0.027541645
000160 4e dc e9 bb 23 a9 e8 3c 09 eb b1 3c 50 a5 bb 3c
       -0.007136858 0.028400963 0.021718519 0.022905976
000170 37 a3 20 3c e8 87 34 3c b0 8c 41 bc 75 1e 4d 3b
       0.009804538 0.011018731 -0.011813328 0.0031298671
000180 b8 97 80 bc 77 d3 7a 3c d0 89 ee 3c bd ee 9b 3c
       -0.015697345 0.015309206 0.029118448 0.019034738
000190 a2 76 cc 3c d4 b8 1c bc e0 48 11 3c b5 98 44 bc
       0.024958912 -0.009565551 0.008867472 -0.011999299
0001a0 7e a7 86 3a 8f 6e 65 3b 86 f7 1c ba 8d 34 56 bb
       0.0010273305 0.0035008525 -0.00059878116 -0.0032685131
0001b0 5c de e5 3a 00 47 24 bc 88 52 6e 3c d1 21 94 3c
       0.0017537582 -0.010026693 0.014546044 0.018082531
0001c0 a4 6b ed ba b1 f1 2f 3c 71 58 93 3c 48 d9 e9 3a
       -0.0018113744 0.010738776 0.017986508 0.0017841244
0001d0 30 17 51 3b bb ce 80 bc f2 30 99 3c 89 1c 6f 3c
       0.003190469 -0.015723577 0.018700097 0.014594206
0001e0 54 85 69 3c a1 e4 a3 3c ba b4 27 bc 94 d7 95 bc
       0.014252979 0.02000648 -0.01023596 -0.018291272
0001f0 66 db 0c 3c a9 26 84 3c 8e a7 28 bc 9f 01 7d 3c
       0.008597231 0.016131716 -0.010293854 0.015442281
000200 e6 8e a2 bb be a8 98 bc 7c da 96 3c 22 71 b8 3c
       -0.0049608825 -0.01863515 0.018414728 0.022514883
000210 16 46 7b 3c 13 93 73 3c 22 cb d4 b9 88 bb 32 bb
       0.015336534 0.014866608 -0.00040587137 -0.0027272422
000220 8b 71 e6 ba a9 b0 3f 3c fa 40 78 bc a1 2a 50 ba
       -0.0017581446 0.011699834 -0.01515221 -0.00079409225
000230 9e 02 54 bc 8e 7f 87 3b 02 65 9c bb 88 55 99 3c
       -0.012940077 0.0041350788 -0.0047727833 0.018717542
000240 e6 b8 17 3c 3f 31 38 3c b0 a1 ba 3b 27 46 98 bc
       0.009260392 0.01124221 0.005695544 -0.018588139
000250 03 29 7b 3c ee 59 75 bc d9 31 7e bc c0 e5 51 bc
       0.015329602 -0.014975054 -0.015514814 -0.012811124
000260 ad 53 ab 3b 01 02 b8 3c e6 d3 8d bc 1e 37 af bb
       0.005228481 0.022461893 -0.017312955 -0.0053471467
000270 cc 67 5b bc c9 49 bb 3c 53 b0 93 bc 0b ef a9 3c
       -0.013391446 0.022862332 -0.018028414 0.020743867
000280 40 05 80 bc c0 74 69 3c ec 75 a3 bc c1 89 05 bb
       -0.015627503 0.014249027 -0.01995369 -0.0020376297
000290 57 ce ab 3c da 86 84 bb 9c 3d ab 3b 93 a7 9b 3c
       0.020972414 -0.004044396 0.0052258503 0.019000804
0002a0 d9 d8 7b 3c a4 2c 22 3c e4 7f 7f 3c 60 26 84 3c
       0.015371525 0.0098983385 0.015594456 0.01613158
0002b0 73 e4 68 bc 9d f2 ad 3c a6 60 89 bc 9f 83 35 3c
       -0.014214623 0.021233851 -0.016769718 0.011078744
0002c0 34 3c 6c bc bd 0e 23 bc 42 a8 e7 bb 7b 29 ba 3c
       -0.01441865 -0.009952244 -0.0070696184 0.022724858
0002d0 9c 27 b5 3c 05 fd 48 bc e6 fc 69 3c 47 5e 59 bc
       0.022113614 -0.012267356 0.014281487 -0.013267106
0002e0 08 b0 a6 3c c6 c4 4f 3b 15 b3 a7 3c 7a a4 1d bc
       0.02034761 0.003170298 0.020471135 -0.009621734
0002f0 10 46 49 3b a1 cb 81 bb 9c 5a 9e 3c 50 f6 99 3c
       0.0030711927 -0.003961042 0.019330315 0.018794209
000300 2a ec f1 39 d1 72 43 bc 31 4b ac bc ac 34 5f 3c
       0.00046143058 -0.01192923 -0.021031948 0.013623398
000310 13 5a 0f bc 4d d6 60 bc 2a da d0 3c a2 ba c2 3b
       -0.008749503 -0.013722968 0.025494654 0.0059426585
000320 c0 15 86 3a c2 01 6c 3c 1d 87 29 3c b6 37 f5 bb
       0.0010229871 0.014404716 0.010347155 -0.007483448
000330 33 8a ed bb 0e 0b ff bb 3d 22 a3 bb 64 66 a1 3c
       -0.0072491406 -0.0077833002 -0.0049784468 0.019702144
000340 4f 38 3b bc a5 c1 98 3c c6 f6 47 3c 56 ff b0 3c
       -0.011426999 0.018647024 0.0122048315 0.021606129
000350 16 03 c1 ba 0f 56 1f 3c 05 e7 5e bc b4 bb 90 3c
       -0.0014725651 0.009725108 -0.013604884 0.017667629
000360 24 4a 97 3b e8 55 96 bb ad 8b ac 3b 10 9e 2b bc
       0.0046169925 -0.0045878775 0.005265674 -0.010474697
000370 d9 6d 4d bc 90 a9 c7 bc 84 83 91 3c 9f 2a 9b 3b
       -0.012538397 -0.024372846 0.017762907 0.0047353054
000380 9c 39 8d 3c 3e d7 2d 3c 6f e6 6c 3c ad d0 8e 3c
       0.017239384 0.0106104 0.0144592365 0.017433489
000390 b6 c3 ec ba 97 1b d3 3c d9 5a 0b ba 2d fc 37 bc
       -0.0018063697 0.025769992 -0.00053159666 -0.011229557
0003a0 6a 07 7a bc a4 32 2b bc 8f 55 5f bc 0f fd bd bb
       -0.015260557 -0.010449085 -0.013631239 -0.005797989
0003b0 08 0a 10 bc f9 4e 4a bc 65 c2 51 bc 1f 8d 31 3c
       -0.008791454 -0.01234793 -0.012802695 0.010836869
0003c0 0f 50 27 3c 8b ad 85 3a 94 6d 2f bc 17 e7 51 3c
       0.010211959 0.0010198815 -0.010707278 0.012811444
0003d0 0a 13 67 bc ef e5 80 3c 46 39 80 bc fa 2c df 3c
       -0.01410366 0.01573464 -0.01565231 0.027243126
0003e0 3c 99 25 bc 7c f8 c2 3c b2 db a6 b9 cf d9 d5 3c
       -0.010107335 0.023800127 -0.00031825673 0.026104836
0003f0 33 ef ac 3c 4c 6a ac 3c cf bc 50 3c a1 57 88 3c
       0.021110153 0.02104678 0.012740328 0.016643347

network_body._body_endoder.seq_layers.2.weight f4 [256, 256]
000000 a3 00 d9 bc 00 ef bf 3d 7c 7f 64 bd 3d 75 a9 3d
       -0.026489561 0.093717575 -0.05578564 0.082743146
000010 fc a6 15 3c fe e9 fb bd 1e 5f 59 3c 4d c6 17 bd
       0.00913405 -0.1230049 0.013267307 -0.03705435
000020 6b 65 9e bc 22 43 ab 3c 86 75 d4 bd 2f 24 a4 bb
       -0.01933547 0.020906035 -0.10373978 -0.0050091962
000030 9a 83 63 3c 5d f4 96 3b 14 48 28 bd e0 12 b7 3d
       0.013886357 0.004606767 -0.041084364 0.08939147
000040 79 69 84 bb df dc 9b bd 04 ac 89 bc e5 4c ca 3c
       -0.0040408936 -0.07610487 -0.016805656 0.02469487
000050 09 c8 b3 bb 3c 73 8d bd ad 7e fc bd f0 e8 29 bc
       -0.0054864925 -0.06906745 -0.12328849 -0.010370478
000060 62 24 d1 bd 8e 6e a3 bb ec 5b 75 3d 2f 3a cf bc
       -0.102120176 -0.0049875444 0.059902117 -0.025296299
000070 db d4 7e 3d d3 fd fc 3c ca 35 5c 3d 48 92 69 3d
       0.062214714 0.030882752 0.053762235 0.05702427
000080 6a 2d b3 3d 4e 8a 04 3d b6 f2 d9 bc 62 d6 9d bb
       0.087488964 0.03235846 -0.026604991 -0.004816816
000090 0d a2 2d bd 4e 23 69 3d f6 ff 20 3d 7d c3 1b 3d
       -0.04239087 0.056918435 0.039306603 0.03802823
0000a0 35 71 1c 3d 64 89 52 bd 94 45 c9 ba 7c 25 7b 3d
       0.0381939 -0.051400557 -0.0015355819 0.061315045
0000b0 1c 45 52 bc 1d f7 24 bd fa 77 89 bd ed da c9 3c
       -0.01283386 -0.040274728 -0.06712337 0.024640525
0000c0 13 34 33 bd 16 e0 ae bd 85 00 e0 bd a1 89 22 3e
       -0.043750834 -0.08538835 -0.10937599 0.15872814
0000d0 5e 0c ff 3c ba e1 39 3d 25 7c 43 bd 39 be 3b 3d
       0.031133827 0.045381285 -0.047725815 0.045835707
0000e0 7d 52 d5 bd 02 7c dd 3c 65 3e 78 bd 6a eb 78 3b
       -0.10416124 0.02703667 -0.06060638 0.0037982115
0000f0 13 bb 6a 3c 5d d4 da bd 72 ff 10 bd de 87 9a bb
       0.0143268285 -0.10685036 -0.03539986 -0.0047159037
000100 e3 d8 af bd 5b 19 87 bd c0 2e 13 3c 98 07 2c 3d
       -0.0858629 -0.06596633 0.008983314 0.04199943
000110 c2 3e 95 bd 4a 03 05 be f5 f0 b8 bd cb b3 2e 3c
       -0.07287361 -0.12989536 -0.09030334 0.010662983
000120 37 fd 35 3c b8 d1 06 bd 52 74 f3 3c 81 1c 93 bc
       0.011107734 -0.032914847 0.029718552 -0.017957928
000130 ba ba cf 3c 93 d1 1e bc ad d8 3d bd 8a fd 43 3d
       0.025357593 -0.009693521 -0.046349216 0.047849216
000140 38 27 e1 3c f1 65 9e bd 0c 08 e8 bd a4 67 b6 3c
       0.027484521 -0.077342875 -0.1132966 0.022266217
000150 e9 80 4c 3d 48 93 cd 3c 9d ae 6e 3d 25 f0 31 bc
       0.049927626 0.025094643 0.058271993 -0.010860478
000160 5c c3 89 3d 5c d3 f7 3c 01 64 f3 3c 84 b1 65 bd
       0.06726715 0.030252151 0.029710772 -0.056077495
000170 d7 64 0f bb 6d 96 07 bb 37 02 83 38 d0 37 83 bd
       -0.0021880174 -0.0020689026 6.246979e-05 -0.0640713
000180 34 11 1b bd e3 f7 16 bd a5 04 09 bd e3 a5 ec 3b
       -0.037858203 -0.036857497 -0.033451695 0.0072219237
000190 d3 28 d0 bc 65 89 46 bd c2 71 93 3d 7d a0 ae 3d
       -0.025410092 -0.048470873 0.07199432 0.085267045
0001a0 a1 c4 d8 3b 70 2a 62 3d fb 3b af bd 8b 21 95 3c
       0.006615237 0.055216253 -0.08556362 0.018204471
0001b0 b0 75 76 3d 63 7e 6d bd a3 3b 2d bd 91 ab c4 3c
       0.06017083 -0.05798186 -0.042293202 0.02400759
0001c0 b9 4f 38 bd 7c 89 47 3c 6e 19 a6 bd 21 40 a4 3d
       -0.044997904 0.012178775 -0.08110319 0.08020044
0001d0 9d 8e 3a 3d ea 4b c2 3c 2c f2 03 3c 8b ba 9d bc
       0.045546163 0.02371784 0.008053344 -0.01925399
0001e0 7d de 42 bd 20 f3 3a bd e9 fa 31 bc 30 2d 09 bd
       -0.047575463 -0.04564202 -0.010863044 -0.03349036
0001f0 84 d9 78 3d db dc 34 3c ac 38 c4 bc 59 40 b8 b9
       0.060754314 0.011038984 -0.023952805 -0.00035143158
000200 26 3f 8c 3c 49 1e 9d 3c a2 3e db 3d a1 7f 4e be
       0.017119955 0.01917948 0.10705306 -0.20165874
000210 4a cc 47 3d 1e 67 18 3c cd e2 38 bc 2f e3 87 3d
       0.04877881 0.009301929 -0.011284542 0.06635129
000220 70 b1 1c 3d cf cf ae bd ed 18 7a 3d 22 8c 79 bd
       0.038255155 -0.0853573 0.061058927 -0.060924657
000230 40 7b 30 bd 72 ca 23 bd b2 f8 bc 3d 7c 0c 07 bc
       -0.04308629 -0.03998799 0.09227122 -0.008242723
000240 d1 35 07 3c 64 ca 09 bc 77 99 42 3d fc c5 d3 bc
       0.008252577 -0.00841007 0.047509637 -0.025851242
000250 d9 57 1f bd ee 7f b4 3c 28 89 86 3d 4b 67 15 3d
       -0.038902137 0.022033658 0.06569129 0.03647546
000260 0f 0a a0 bc 5c fe 95 3d f2 c3 a3 3d b2 92 f6 3c
       -0.019536046 0.07323906 0.07996358 0.030099247
000270 c9 eb 94 3d b1 86 56 3d c3 39 16 bd 6a 20 ea bb
       0.07271535 0.052374545 -0.03667618 -0.0071449773
000280 a4 a2 bc bd 49 00 8a 3d aa 19 4a 3c 28 57 df bc
       -0.09210709 0.06738336 0.01233522 -0.027263239
000290 42 1a 7b 3d 0e cd d5 bc 29 33 e7 bb 0f bb 74 3c
       0.06130434 -0.026098754 -0.0070556593 0.014937176
0002a0 1c 35 1b 3d a5 50 6b bd bc a2 5d bd 6c 01 96 bd
       0.037892446 -0.057449955 -0.054110274 -0.0732449
0002b0 1a 07 a8 bc 81 a6 f4 bc a7 49 2b bd db 09 4f 3d
       -0.020511199 -0.029864551 -0.041818287 0.05054651
0002c0 ec b0 a9 bc 08 ac bf bd e6 5a 77 3d ff a2 17 bc
       -0.020714246 -0.09358984 0.060389422 -0.00925517
0002d0 72 1b 2b 3d 68 c9 20 3c da e6 30 3d 74 7c 90 3d
       0.04177422 0.009813644 0.043188907 0.070549875
0002e0 83 94 63 bd 7c bc bf bb f6 b7 7f ba 37 8b a0 3c
       -0.055561554 -0.0058513265 -0.00097548903 0.019597633
0002f0 ec 9e 87 3d 62 e5 2e bd 11 55 35 3d dd 06 31 be
       0.06622109 -0.042699225 0.04427058 -0.17287774
000300 64 a0 77 bd ce d8 8d bb a4 7e 66 3c b2 e2 34 3c
       -0.060455695 -0.0043288236 0.014068279 0.0110403765
000310 62 bc f4 3c d3 72 5c bd f5 54 19 be 17 c7 2a 3c
       0.029874984 -0.053820442 -0.14973815 0.010423443
000320 49 66 a8 3c ff 09 da 3c 00 6e 5e 3d 8d 96 1e 3c
       0.020556586 0.026616095 0.054304123 0.009679449
000330 dc 6b 93 3c 7c 1b 39 3d 10 02 2a bd 9a 4b 33 bd
       0.017995767 0.045192227 -0.041505873 -0.04377327
000340 ca c4 de bb f3 56 e5 3d d6 05 90 3d ea 65 df bd
       -0.0067983614 0.11198225 0.07032363 -0.109081104
000350 54 c8 57 3d c2 3a a0 bd 1b 8b fb 3c 7a 6c 22 3e
       0.052681282 -0.07823707 0.03070598 0.15861693
000360 4b 44 19 bc ff a7 e0 3c e5 cd 6b bd 5e 6c 47 bd
       -0.009354661 0.027423857 -0.057569403 -0.04868733
000370 80 16 eb 3d ee 8b 04 bd a3 7d 5e 3d 84 82 2c 3b
       0.11478901 -0.03236001 0.054319035 0.002632291
000380 f9 29 8a bd 00 33 6e 3d 23 1e 91 bd 4a 76 0f bd
       -0.06746287 0.058154106 -0.07085826 -0.03502492
000390 cf d2 e8 bc 10 53 64 bc 97 e9 f8 3c 65 17 25 3d
       -0.028420834 -0.013935819 0.030384822 0.040305514
0003a0 6d d5 8a bd ea 12 c2 3d 74 14 8b 3d 18 ac b5 3c
       -0.06778989 0.09476264 0.067910105 0.022176787
0003b0 8b d6 34 3d e8 bf d5 bc 03 97 54 3d 30 40 10 3e
       0.044149917 -0.026092485 0.05190183 0.14086986
0003c0 4b 07 05 be 72 d7 d8 bc 53 8b 24 ba 63 35 55 bd
       -0.12991063 -0.02646992 -0.00062768644 -0.052052867
0003d0 c4 45 0c be 72 92 09 be 1c 3e 60 3d b3 5a c3 bd
       -0.13698488 -0.1343477 0.054746732 -0.09538784
0003e0 d9 aa 82 bd 52 ca 00 3c 05 89 96 3d da 29 61 bd
       -0.06380243 0.007860737 0.07350353 -0.054971553
0003f0 63 ca 11 bd 11 e8 14 3d 65 87 55 3d ef dc b3 ba
       -0.0355934 0.03635413 0.052131075 -0.001372246

network_body._body_endoder.seq_layers.2.bias f4 [256]
000000 bd 6c 99 bc 87 50 9a 3c a3 9c 9e bc f7 f7 9d 3c
       -0.018728608 0.018837227 -0.0193618 0.019283278
000010 5f e7 6b 3c bc 2d 70 3c 94 f0 69 bc e9 dd d3 bb
       0.014398425 0.014659341 -0.01427855 -0.0064656627
000020 78 3c b9 3b ef 8f a0 3b ee 99 14 bb 38 6a 39 3c
       0.0056529604 0.0048999707 -0.0022674757 0.011316828
000030 1b 44 cc 3b f6 d9 84 3c 25 6f 60 3b 5f 37 06 bc
       0.0062337047 0.016217213 0.0034245935 -0.008191912
000040 0c 1e 60 3c 8f fc 8d 3c b4 2a 98 3b 41 2a 8b 3c
       0.013679039 0.017332343 0.0046437625 0.016987922
000050 07 bd cc 3c d5 06 4b bc 13 d5 3a bc 71 47 19 bc
       0.024992479 -0.012391766 -0.01140334 -0.009355412
000060 41 c7 8c bc 02 c7 ac 3b 35 b7 d9 3a 2f 12 11 bb
       -0.017184855 0.005272747 0.0016610386 -0.0022136082
000070 11 7d e1 bb 1d 30 a5 bc df 85 7e 3c c5 fa 66 3c
       -0.006881364 -0.020164544 0.015534847 0.014097874
000080 6f 0a 0c bc 7c 7c 6c ba d7 45 9c 3a 2f 53 89 3c
       -0.008547409 -0.0009021235 0.0011922669 0.016763298
000090 65 f8 db b9 69 df 61 3c 5d 9c 76 bc cb db 93 bc
       -0.00041956003 0.013786175 -0.015051928 -0.018049141
0000a0 70 52 5e bc 3c 12 a4 bb 1b b6 81 bc 9f b7 55 bc
       -0.013569459 -0.0050070565 -0.015833905 -0.013044267
0000b0 ed c8 45 bc a4 45 d8 bb b9 f2 56 bc 47 e7 8d 3c
       -0.01207183 -0.0066000987 -0.013119393 0.017322196
0000c0 7c 08 df bc 4b 58 96 3c 89 5c 85 3c 25 72 9a 3c
       -0.027225725 0.018352648 0.016279476 0.018853256
0000d0 5b 63 a0 3c af a3 67 bc 85 d6 23 bc de f6 b2 3c
       0.019578626 -0.014138146 -0.009999876 0.021846231
0000e0 38 e9 9b bc e4 4b 25 3c 3d bc 5a bc e7 ea a6 3c
       -0.019032106 0.0100888945 -0.013350544 0.020375682
0000f0 0f 9c 09 bb ec d2 7d bc 19 e3 4d 3c 51 27 ae 3c
       -0.002099756 -0.015492182 0.012566351 0.021258982
000100 8c 6b 9e bc bf b7 9e bc 59 ca 45 bc b5 6a 85 3b
       -0.019338392 -0.019374726 -0.012072169 0.0040715584
000110 1c f9 90 3c d0 5c c9 3c b8 b3 a0 bc 48 c3 a7 3c
       0.01769691 0.02458039 -0.019616947 0.02047886
000120 f0 e5 62 ba 70 ac 39 3c 7b ef 8d bc 2d e3 df bb
       -0.0008655479 0.011332616 -0.017326107 -0.0068325014
000130 9b 06 78 bc be 55 a5 3c 73 29 52 bc 1a b7 67 3b
       -0.015138294 0.020182487 -0.012827265 0.003535694
000140 e3 9d 2d 3c 19 55 4c 3c 1c bc b4 3c be db bd 3c
       0.010596725 0.012471461 0.022062354 0.02317607
000150 9a 89 73 bc 01 35 1a 3c 7b 4b 89 3c d4 d5 6b bc
       -0.01486435 0.009412051 0.016759625 -0.014394242
000160 27 c8 91 3c ac 0d 7d bc df fa f1 bc f0 e7 57 bc
       0.017795635 -0.015445154 -0.02953857 -0.013177857
000170 99 7f 6c bc e9 a3 bf 3b 62 2d 9c bc ea d0 72 bc
       -0.0144347185 0.005848397 -0.019064609 -0.014820317
000180 ae 51 9f 3c 78 0d ee bb 8b 69 45 bc d6 99 20 bc
       0.019448128 -0.007264789 -0.012049089 -0.009802302
000190 25 3a 0d bc 9d 0c d1 3c c5 1f d2 3c 8d c8 19 3c
       -0.00861982 0.02551871 0.025649915 0.009386194
0001a0 af 50 7b bc 0d 94 6c ba 2d 54 68 3c 70 6b 39 bc
       -0.015339061 -0.0009024747 0.014180225 -0.011317119
0001b0 7c 34 31 bc 97 a0 8e bc fd 37 9a bc 83 a2 74 bc
       -0.010815736 -0.01741056 -0.018825525 -0.014931324
0001c0 41 25 ae 3c a2 8f 7d bc 33 a8 63 3c 87 cb 7f bc
       0.021257998 -0.015476139 0.013895082 -0.01561249
0001d0 29 fa 97 3c 62 73 17 bc a7 dd 24 3c c8 33 b2 bc
       0.018551903 -0.009243818 0.010062612 -0.021753207
0001e0 02 9f a8 3b 21 91 7c 3c 12 64 8b 3c cb af 5d 3b
       0.0051459083 0.015415461 0.01701549 0.0033826705
0001f0 0f 34 51 bc cd 85 62 3b e9 a3 b7 bc 0f 2c bf 3c
       -0.012768759 0.0034564615 -0.022417026 0.023336438
000200 45 a8 8d 3c b5 c5 2b bc e5 3e c2 3c f4 80 68 3c
       0.017292151 -0.010484149 0.023711631 0.014190901
000210 da 3c 9c 3c 26 ae a0 3c 42 39 14 3c be 69 3f 3c
       0.019071985 0.01961429 0.009046854 0.011682926
000220 2c 7d 99 3c 5a 54 ab bc ae f7 be bc e9 b8 a6 3c
       0.018736444 -0.020914245 -0.023311462 0.020351844
000230 20 8a 81 3c de 47 e3 bb 2d ab 65 3c ea b6 85 3c
       0.015812933 -0.0069360575 0.014017862 0.016322572
000240 9b 01 c3 bc c1 44 a3 3c 80 45 8c 3c dd ab 86 bc
       -0.023804476 0.019930245 0.017122984 -0.016439373
000250 a6 51 a7 3c 76 ef 3f bc 8d 36 8c bc 5c b2 22 bc
       0.020424675 -0.011714807 -0.017115856 -0.0099302195
000260 fe ee 99 ba b4 ac 0c bc 5b 07 05 3c 9e 57 98 bc
       -0.0011744199 -0.0085860975 0.008119429 -0.018596467
000270 ca 3c a0 bc 20 8f 71 bb e6 3e 77 3c 7f fe 39 3c
       -0.019560236 -0.003685899 0.01509068 0.0113521805
000280 bc 7b a7 bc 23 23 5e bc 83 60 a7 3c 79 c1 c3 3c
       -0.020444743 -0.013558182 0.020431763 0.023895966
000290 b7 5d 43 bc c5 c6 32 bc 7b 3a 22 3c 13 98 13 bc
       -0.011924199 -0.010911648 0.009901638 -0.009008425
0002a0 6c ad 6c bc 46 54 ac bc c5 ed 37 bc ee 0b 22 3c
       -0.014445644 -0.021036278 -0.011226122 0.00989054
0002b0 c2 e2 a4 bc 1f 1c 0f bc 6c 85 1f 3c cf 03 42 bb
       -0.020127658 -0.008734732 0.0097364 -0.002960432
0002c0 c6 e4 41 3c 13 a7 3e bc 1f c6 8a 3c 4f ee a7 3c
       0.011834329 -0.011636513 0.016940175 0.020499377
0002d0 b6 3e dc 3c 3c 1f bd 3c a9 ab 94 3c 0b 80 30 bc
       0.026885372 0.023086183 0.01814826 -0.010772715
0002e0 99 30 6e bc 9a dd 4e bc 68 6b 87 bc 96 eb ab 3c
       -0.014537954 -0.012626076 -0.016530707 0.02098636
0002f0 d1 ea b1 3c 39 56 64 bc 58 64 83 bc e7 a6 8e 3c
       0.021718415 -0.013936573 -0.016039059 0.01741357
000300 e1 04 0d 3a cb 39 6b 3c 62 44 23 bc c2 de 31 3c
       0.000537945 0.014357041 -0.009965034 0.010856332
000310 64 b7 16 bc 50 d4 a1 3c ce e5 f6 bb 8f b3 3b bc
       -0.009198997 0.019754559 -0.007534719 -0.011456384
000320 03 f8 c2 3c 66 2f 6c 3c 74 dd b2 bc b9 09 93 ba
       0.023799902 0.014415598 -0.021834113 -0.0011218108
000330 9b 11 08 3b 7d 2e 81 3c f9 ce 4d bb a9 a1 61 bc
       0.0020762447 0.015769238 -0.0031403883 -0.013771453
000340 0e 7a bc 3c 94 89 4e 3c 51 fd 3b bc eb 83 96 bc
       0.023007419 0.012606043 -0.01147397 -0.01837345
000350 b4 6d a9 3c 61 d9 24 bc e9 73 cd ba ac c7 56 3c
       0.020682193 -0.010061593 -0.0015674803 0.013109129
000360 af 47 a5 3c 4e bc 3e bc 79 49 bc 3c 9e 40 a7 3c
       0.020175783 -0.011641575 0.022984253 0.020416554
000370 b7 3d 92 3c 0d 30 b5 3b 94 ad 6e 3c b4 9d bb 3b
       0.017851694 0.0055294097 0.014567751 0.005725587
000380 b9 01 2e bc 28 59 a1 bc f5 d9 a0 bc 6f e2 bd bc
       -0.010620528 -0.019695833 -0.01963518 -0.023179261
000390 02 eb cd 3c 6a bb 47 bc 73 2f 11 3c 69 cb b3 bc
       0.025136475 -0.012190679 0.00886141 -0.02194758
0003a0 ab 1e a5 3c 04 98 83 bc a1 36 96 3c bc 79 21 3c
       0.020156225 -0.016063698 0.018336596 0.009855684
0003b0 72 19 b6 3c 1f 81 15 bc 90 bd b0 bb 4d 51 b6 3c
       0.02222893 -0.009125023 -0.0053936914 0.022255564
0003c0 cf d3 7f bc a5 78 9d 3b 9e 7d 84 bc 02 b0 6c bc
       -0.015614464 0.0048056417 -0.01617318 -0.01444626
0003d0 eb 11 82 bc 9c d0 9a 3c a0 9d 92 3c 09 96 ef bb
       -0.015877685 0.0188983 0.017897427 -0.0073115868
0003e0 78 a2 2b bc d9 3f 48 bc 61 1f 99 bc bf cc 6b bc
       -0.010475747 -0.012222254 -0.01869172 -0.014392077
0003f0 9c 63 4c bc 1e 43 a6 bc 35 21 25 bc d6 9a 9d bc
       -0.012474921 -0.020295676 -0.010078718 -0.01923887

network_body._body_endoder.seq_layers.4.weight f4 [256, 256]
000000 3c 0e f6 3d df 04 a3 3c ee 26 94 bd ce 53 ea 3a
       0.12014434 0.019899784 -0.07233988 0.0017877759
000010 3d 7b f1 bd 25 67 84 3a 82 64 c2 3d 56 7e d6 3b
       -0.11791084 0.001010154 0.094918266 0.006545822
000020 5f de ba 3d 94 33 d8 bb cb 98 10 bd 68 24 03 bd
       0.09124445 -0.0065979455 -0.035301965 -0.03201714
000030 2c 44 90 3d 05 ec 4f 3d 0b e6 48 3d cb 51 ba 3d
       0.07044253 0.050762195 0.04904751 0.09097632
000040 47 46 91 3b 90 4d e2 bd 47 c0 70 3c 4a 59 ca 3c
       0.0044334265 -0.1104995 0.01469428 0.02470078
000050 20 6a 9c 3d 34 55 7f bc 0f 5c 60 3d 51 fd 22 bc
       0.07637429 -0.015584279 0.054775294 -0.009948091
000060 37 68 4c bc 98 a5 59 bd 51 42 81 bd ac 13 97 3c
       -0.012476019 -0.053136438 -0.06311477 0.018441997
000070 c0 b1 8a 3c d1 67 bb 3c 99 b8 9b bc c6 9d 23 3d
       0.01693046 0.022876652 -0.019008921 0.039945386
000080 ad 50 90 3d f5 c9 85 3d f6 37 e5 bc c0 fb 97 3d
       0.07046638 0.06532661 -0.027980786 0.074210644
000090 55 22 9c bd 4f ec 93 3d 39 57 e5 bc 32 18 ab 3d
       -0.07623736 0.07222807 -0.027995693 0.08354224
0000a0 ac f5 9a 3d 3f 50 84 3d 55 65 aa 3d 41 2c af bd
       0.075663894 0.06460618 0.08320109 -0.08553363
0000b0 7f ee 7a 3d ce c5 0d bd 5d 14 0b 3d 02 d1 00 3d
       0.061262604 -0.03461247 0.033954967 0.031449325
0000c0 b0 d8 a8 3c 00 dd 64 3c 48 70 64 3d 42 04 13 bc
       0.020611137 0.013968706 0.055771142 -0.008973183
0000d0 94 5c 9b bc e8 e3 e6 b9 ab da a6 3d bc 1d 9d 3d
       -0.018965043 -0.00044038822 0.08147176 0.07671687
0000e0 b2 8a 05 3c 35 66 fb 3c bf c3 87 3d 3b 4d 1e bd
       0.008150743 0.030688385 0.066291325 -0.03864787
0000f0 23 46 fe 3c c2 6e 92 3d 40 69 d3 ba 70 e8 3c bc
       0.031039303 0.071500316 -0.0016129389 -0.011530027
000100 9c 54 9c bd 32 8f 69 3d 14 82 8e ba 15 0f 02 3d
       -0.076333255 0.057021327 -0.0010872507 0.031752665
000110 a4 4e fa 3d cf 65 3e bd 82 51 0a bd 38 57 95 3c
       0.12222031 -0.04648381 -0.03376914 0.018230066
000120 87 36 a1 bd 27 b0 02 bd 8a c0 17 bd 69 a2 45 3c
       -0.078717284 -0.031906273 -0.037048854 0.012062647
000130 b3 52 ea 3c 09 4f 5f bd d8 a4 6c 3d 7e 73 2a 3d
       0.028603887 -0.054518733 0.057774395 0.04161405
000140 d9 93 81 bc 33 40 36 bc 31 7a 30 3d ea 96 ea bb
       -0.01581757 -0.011123705 0.04308528 -0.0071591036
000150 eb ca 7f bc 27 20 d0 3d e4 94 3a bd 7b 72 b0 bd
       -0.015612344 0.101623826 -0.04555215 -0.086155854
000160 b3 83 13 bd b4 1e 7a 3c 47 36 96 3d 5e 2c 06 3e
       -0.03601427 0.015266109 0.07334571 0.13102862
000170 68 57 24 3c 28 d6 82 3d cd 14 4d 3b b3 f5 81 bd
       0.010030605 0.06388503 0.0031292916 -0.063456915
000180 e8 46 4e 3c b3 bb dc 3c 91 4f 25 3b 97 ff f0 3a
       0.012590148 0.02694497 0.0025224427 0.0018386719
000190 94 97 8f 3c d3 bf a4 bc 8f fa 11 3c f2 38 4e bc
       0.017528333 -0.020111 0.0089098355 -0.012586819
0001a0 5b b4 8b 3c 9a 8e bb 3c 99 40 e8 3c 45 a6 a8 3d
       0.017053774 0.022895146 0.028351115 0.082348384
0001b0 14 73 89 bc 3a 72 ae ba 98 15 a9 3d e8 f9 08 bd
       -0.016778506 -0.0013309189 0.08256072 -0.033441454
0001c0 ab 87 bc 3c 34 c2 8c bd 41 ee 12 be 66 10 55 be
       0.02301391 -0.06872979 -0.14348699 -0.20807037
0001d0 97 bb 7d 3d a5 d2 34 3d 17 c8 a0 3c 41 39 66 bd
       0.061946478 0.0441462 0.01962666 -0.056206945
0001e0 55 1d 76 3d fd 77 5d bd 6f 6a 7b bd 84 3f 0f 3d
       0.060086567 -0.054069508 -0.0613808 0.034972683
0001f0 97 51 77 3c 90 d6 d8 3d 74 69 bb 3c 0e 59 03 3c
       0.015095136 0.105877995 0.022877432 0.008016838
000200 e1 73 88 3c 73 74 dc 3d 44 27 16 3d fa f2 c5 bd
       0.016656818 0.107643984 0.03665854 -0.09665485
000210 48 ea 83 bd d3 45 c0 3d b2 60 86 3d 0f 5b 20 be
       -0.0644117 0.09388318 0.06561412 -0.15659736
000220 54 c5 7e 3c 81 bf 26 bb 8e 74 c6 bc 1c ba bf 3d
       0.015549976 -0.0025443735 -0.0242255 0.093616694
000230 12 6d 49 3d 9f 54 32 3e 69 f4 80 3d f4 bb a4 3d
       0.049176283 0.17415093 0.062966175 0.08043662
000240 41 5a a9 3d 4c 7a b0 3d 9f 0b 1f 3e 8d c8 47 3a
       0.08269168 0.08617076 0.15531777 0.0007621132
000250 45 6d cc bc 36 b5 22 bd 4a 59 dc 3d 9a 0f 21 bc
       -0.024954448 -0.039723597 0.10759218 -0.00983038
000260 35 12 e4 3c ba 2f 1b bc 99 6e 0c 3e c5 68 a9 bd
       0.027840713 -0.009471828 0.13714065 -0.08271936
000270 e3 e6 0f 3b 7b 76 c6 bc 50 9d 38 bd 0d 19 40 3d
       0.0021957688 -0.024226418 -0.0450719 0.04689889
000280 80 14 e0 3c 57 5d af 3d e0 e1 b0 bc 45 b2 64 bd
       0.027353525 0.08562725 -0.02159208 -0.055834074
000290 2f 49 b4 bc 91 06 9f bc 17 d1 27 3c c6 b6 f3 bb
       -0.022007553 -0.01941231 0.010242722 -0.00743756
0002a0 32 9f 45 3d eb d8 f8 3d aa 64 90 3d 40 69 ba 3c
       0.048247524 0.12150749 0.0705045 0.022755265
0002b0 3d 61 ed bd b9 79 9e 3d 47 53 e7 bd 3b 01 87 3c
       -0.11590812 0.077380605 -0.11295181 0.016480079
0002c0 77 15 26 be 87 59 9c 3d e4 10 34 bd bc a1 a3 3d
       -0.16219126 0.076342635 -0.04396142 0.07989833
0002d0 99 d0 b4 3c f4 58 82 bd d2 77 12 bd 10 3b 29 3d
       0.022072123 -0.06364623 -0.0357588 0.041316092
0002e0 69 7c 0d 3c 4a 7e 90 3d 00 cd 4e 3d 80 25 c4 bc
       0.008635619 0.07055338 0.050488472 -0.023943663
0002f0 6f d6 d0 bc eb 22 cd bd fe b8 85 3d 31 2a 80 bc
       -0.025492875 -0.10016426 0.06529425 -0.015645118
000300 4a 81 d5 3c 32 46 fe bc 30 6e 40 bd 7c a9 95 bc
       0.026062626 -0.031039331 -0.046980083 -0.018269293
000310 51 cd 12 3e 49 ec af bc d3 03 31 bd 7e 8c 45 bd
       0.14336134 -0.021474974 -0.043216538 -0.048229687
000320 bb 81 81 3c 4e 94 1d 3e 4c 30 bc 3c e6 29 00 be
       0.01580893 0.15388605 0.022972248 -0.12515983
000330 95 84 18 3e 5c 4b cb bc 71 8b 0d 3e 02 40 3d 3d
       0.14894326 -0.024816208 0.13822724 0.04620362
000340 10 89 99 bd 5a 04 19 bd 50 35 c6 3d 67 89 e8 3b
       -0.07496846 -0.037357666 0.09678137 0.0070964578
000350 6c f6 73 3d 7e c5 19 bd da d8 b2 bd 12 11 a8 3c
       0.059561178 -0.03754186 -0.087327674 0.020515952
000360 77 56 2f be 6e 44 0a be 09 20 f9 3c c3 b4 eb bc
       -0.17122827 -0.13502666 0.030410783 -0.028772717
000370 da 1b cb bd cf a7 2c 3d 65 b2 af 3b 43 c7 60 3d
       -0.09917422 0.042152222 0.0053618425 0.05487753
000380 ff 68 09 3d 23 aa f2 bd 56 fd cd bd 7b 5a 34 3d
       0.033547398 -0.11848857 -0.100580856 0.0440316
000390 36 79 ad bd de 01 e7 bd 5d 48 94 3d d3 f2 da bc
       -0.08470385 -0.11279653 0.07240365 -0.026727116
0003a0 e7 dd 30 3d 86 26 47 3d e1 91 1e 3d d2 79 1a bd
       0.043180373 0.048620723 0.03871334 -0.037713833
0003b0 74 87 98 bc f9 e4 4d bd 67 5c a9 3c 8b cc c3 3d
       -0.018619277 -0.050267193 0.020673944 0.09560498
0003c0 d2 17 36 3d 5a 16 7c bc 34 a2 46 3c 8d f4 9f bc
       0.04445631 -0.015386188 0.012123633 -0.01952579
0003d0 8f 92 83 bc c4 2e 07 3d ea 44 95 bd 59 51 a1 bd
       -0.016061096 0.033003584 -0.07288535 -0.07876844
0003e0 d8 78 8f 3d 2f de 94 bd fb 3d 39 3d 28 72 5d 3d
       0.07005471 -0.07268941 0.045225125 0.054063946
0003f0 75 4b 93 3c 75 1f a6 bc f3 0b c6 3c 64 23 90 bc
       0.017980317 -0.020278672 0.02417562 -0.017595

network_body._body_endoder.seq_layers.4.bias f4 [256]
000000 e5 f2 ee bb 35 ca bf 3c 9b 22 bc 3c 84 cc 6b 3c
       -0.007292139 0.02341185 0.02296572 0.014392022
000010 fa c7 0a 3c ac b9 90 3c 28 42 83 bc f3 57 43 bc
       0.00847053 0.01766666 -0.016022757 -0.011922824
000020 9a 0e 21 bc ac 6b 92 3c db cd 87 3c e2 3d 81 3c
       -0.009830141 0.017873608 0.016577652 0.015776578
000030 e5 1f 8f 3c a4 eb db bb b8 da 7c bc 5b 95 89 bc
       0.017471263 -0.00671144 -0.015433006 -0.016794851
000040 6d 8e ba 3c 6c fe 9a 3c b3 d4 ad 3c c0 74 42 bc
       0.022772992 0.018920146 0.021219587 -0.011868656
000050 ca be 8e 3c 98 78 99 bc 29 00 76 bc e0 4c 23 bb
       0.01742496 -0.018734261 -0.015014687 -0.0024917647
000060 76 55 63 bc 3f 33 4f 3c 60 2c 71 bc 58 2f f8 bb
       -0.013875356 0.012646495 -0.0147200525 -0.007574003
000070 36 62 49 3c 7b f7 ab 3c 41 48 53 bc 0f c2 9a 3c
       0.012291482 0.020992031 -0.012895645 0.018891362
000080 96 97 61 3c b2 cb 90 3c 1d 25 78 3c f9 6e 80 bc
       0.013769051 0.017675254 0.015145567 -0.015677916
000090 86 27 9d bc 94 f1 a5 3c f5 0f 40 3c dd 19 22 bc
       -0.019183885 0.020256795 0.011722554 -0.009893862
0000a0 9b e4 bd 3b 9b f5 6f 3c 76 f3 92 bc 2e 3a aa 3c
       0.005795074 0.014645959 -0.017938357 0.020779695
0000b0 8b 91 65 3c 0f 63 8b 3b 61 9b 8f 3c 93 38 05 3c
       0.014011751 0.004253752 0.017530145 0.008131164
0000c0 01 7a 88 3c 8c 07 cb 3a b0 b9 8c 3c a5 2d a0 3c
       0.016659738 0.001548992 0.017178386 0.019553015
0000d0 7b b3 a2 bc d2 56 7c bb 39 58 8d 3b 46 56 b4 3c
       -0.019860974 -0.0038503897 0.0043134955 0.022013795
0000e0 8c 65 b8 bb c5 fb 99 3c 57 07 2e bc 20 65 40 3c
       -0.0056273397 0.01879681 -0.010621867 0.01174286
0000f0 81 6e 8a 3c e1 21 86 bc 50 83 fb 3b c3 86 26 3c
       0.016898395 -0.016373577 0.007675566 0.010163966
000100 fd 2c 5b bc 1e 2b b4 3c 0a 5f 5d 3c f2 f5 0e bc
       -0.013377425 0.021993216 0.013511429 -0.00872563
000110 5d b6 76 3c c8 2d 4e bc a0 d6 83 bc d3 0b 9a 3c
       0.015058127 -0.012584157 -0.016093552 0.018804466
000120 2b 39 78 bc 44 00 8d 3b d5 50 aa 3c b6 da 8c 3c
       -0.015150349 0.00430301 0.020790497 0.017194133
000130 42 11 b3 3b ab 03 1f bc a9 2c a6 bc 6b 34 d4 bb
       0.005464704 -0.009705464 -0.020284967 -0.0064759753
000140 a8 8f a7 bc 38 6c fd 3b 19 c3 9f 3c ce 79 9f 3c
       -0.020454243 0.007733848 0.01950221 0.01946726
000150 80 b0 43 3c 7f d7 92 3b 61 0e 95 3c 1a fd b9 bc
       0.011943936 0.0044812555 0.018195333 -0.022703696
000160 2b 80 9d 3c b4 33 89 bc 90 8d ac bc 44 2d a7 3c
       0.019226154 -0.016748287 -0.021063596 0.020407327
000170 28 92 58 3c c8 c2 71 3c 79 df 9a 3c e1 30 97 bc
       0.01321844 0.014755912 0.018905388 -0.018455924
000180 0f 85 80 bc 6e aa a5 3c 5b 6b c9 bb ba fa 7b 3c
       -0.015688447 0.020222869 -0.006146831 0.015379602
000190 cb 41 8a bc e2 e7 a7 3c f5 59 d2 3b f8 1a a6 bc
       -0.016877076 0.020496313 0.006419415 -0.020276532
0001a0 bc ea 98 3c 8d 60 9d bb f9 e0 8a 3c 96 64 3e 3c
       0.018666618 -0.0048027695 0.016952978 0.011620661
0001b0 8c 91 97 bc 27 f7 8c bc 28 83 9f 3c 2d 9d 44 3a
       -0.01850202 -0.017207695 0.01947172 0.00075002277
0001c0 c5 5f 43 3c e5 f9 7d 3c 1b 1c a8 3c 81 4a 7a 3c
       0.011924689 0.015501474 0.020521214 0.015276552
0001d0 80 fb b4 3c 5b 57 9a 3c 72 85 97 3c ee ef 2e ba
       0.02209258 0.018840482 0.018496249 -0.00066733256
0001e0 fd 59 d2 3a 1f 4c 85 bc cd c7 27 bc 2b a1 46 3c
       0.0016048547 -0.016271649 -0.010240507 0.012123386
0001f0 a9 24 9d 3c 0e d6 4a 3c db d1 5e bc 63 27 1d 3c
       0.01918252 0.012380136 -0.013599838 0.00959191
000200 77 6b 83 3c 1a 2d 7d 3a ae e5 da 3c 1f b8 ae bc
       0.016042454 0.0009657905 0.026720848 -0.02132803
000210 ae b4 27 3c b6 6f 35 3c 68 23 db bb 2d 89 8f 3c
       0.0102359485 0.011073997 -0.0066875704 0.017521465
000220 6b 35 20 3c a7 12 63 3c 9d 0b 16 bc 32 55 8e bc
       0.009778361 0.0138594275 -0.009158042 -0.017374609
000230 29 0a 84 3c 50 e5 be bb cb 4e 9a bc 1f 96 33 bc
       0.016118126 -0.005825676 -0.0188364 -0.010961085
000240 cf 38 8f 3c 76 92 a0 3c e7 91 8d bc 7d f7 5f bc
       0.017483143 0.019601088 -0.017281486 -0.013669846
000250 27 2c 8d 3c 93 6a 9c 3c 43 6c 88 bb 16 12 5b bc
       0.017232968 0.019093787 -0.0041632964 -0.013371011
000260 2b 63 7d bc 64 62 0e b9 db 42 e2 3b 03 2e e2 3b
       -0.015465538 -0.00013578829 0.0069049424 0.0069024577
000270 03 a3 b9 bc cf 7f 8e 3c 96 33 8c 3c 1f 8b 8e bc
       -0.022660738 0.017394928 0.017114442 -0.017400322
000280 d6 e4 3b 3c 17 64 58 bb 47 37 1e bc 4a 56 92 bc
       0.011468133 -0.0033018643 -0.009656734 -0.017863411
000290 8a 60 9c 3c d2 ff 2a 3c c1 07 95 bc 77 58 17 3c
       0.019089002 0.010436969 -0.018192174 0.0092374
0002a0 7d 1b d0 bb ae b3 71 bb c1 94 bd 3c 5b 71 7d 3c
       -0.006350933 -0.003688078 0.02314222 0.015468921
0002b0 4b c9 8e bc 07 23 90 3c 7f 9f 7a 3c ff 7e 50 bc
       -0.017429968 0.017594827 0.015296816 -0.012725591
0002c0 eb 76 07 3c 52 47 dd 3b af 7f a2 3c ea d7 1e 3c
       0.008268098 0.006752887 0.019836275 0.009695033
0002d0 3e 8a ac 3c ac 23 84 bc dd b7 95 3c c7 d2 17 bc
       0.021062013 -0.01613029 0.01827615 -0.009266562
0002e0 37 65 9d bc 73 31 d4 3c 06 0c b5 3c ac 9e a4 3c
       -0.019213302 0.025902485 0.02210046 0.020095192
0002f0 cf ef 39 3b 85 02 c2 3c 80 e0 55 bc f9 39 0e bc
       0.0028371697 0.023682842 -0.013054013 -0.008680814
000300 d3 a0 81 bc e0 e3 a0 3c 69 6d 7b bc 6b 14 ac bb
       -0.015823757 0.01963991 -0.01534591 -0.0052514574
000310 7a e4 a2 bc 41 c3 99 bc f1 36 03 bc 2a 4f 67 bc
       -0.019884337 -0.018769862 -0.0080087045 -0.014117995
000320 4c 08 a2 3c 22 15 a1 bc b0 e2 9f bb 52 11 67 3b
       0.019779347 -0.019663397 -0.004879318 0.0035258126
000330 2c c9 87 bc 41 d3 9e bc 40 9d eb bb f5 c7 58 bc
       -0.016575418 -0.019387843 -0.0071903765 -0.013231267
000340 c3 74 be 3c 6d be 2c bb cb d0 a8 3c 10 b5 a2 3c
       0.023249036 -0.002635862 0.020607373 0.019861728
000350 52 d6 ab 3c 05 c3 3e bc 32 01 70 bc da 71 5e 3c
       0.02097622 -0.011643176 -0.0146487225 0.013576949
000360 bf 5c 23 bc e6 3e 81 3c b5 e0 af bc be 80 97 3c
       -0.009970843 0.015777063 -0.021469453 0.018494006
000370 11 35 75 3c e4 a7 9a bc da 45 d0 3b bb 4b 66 bc
       0.014966265 -0.018878885 0.006355983 -0.0140561415
000380 2b 30 b6 bc 7b 01 8e bc e3 97 a6 bc 49 63 8b bc
       -0.022239765 -0.01733469 -0.020336097 -0.017015116
000390 4c c9 a8 3c 50 ba b5 bc 5f 44 be 3c 0f e9 8c 3c
       0.020603798 -0.022183567 0.023225961 0.017200975
0003a0 dd 13 34 3c 1c 4f 32 bc 62 03 4b bc bd 36 6f bc
       0.010991064 -0.010883119 -0.012390943 -0.014600453
0003b0 78 6e 4e bc 4f 3c a3 bc 34 24 13 bc 87 71 97 3c
       -0.01259958 -0.019926218 -0.0089807995 0.018486751
0003c0 1e 16 73 bc 0a 20 cb 3c e4 1e 51 bc 9a 92 b6 3b
       -0.014836816 0.02479555 -0.012763713 0.0055716755
0003d0 cb 2e 82 bc 4c 8d 95 3b fc b8 96 bc ac ba 50 3b
       -0.015891453 0.004563963 -0.018398754 0.0031849546
0003e0 40 8d b3 3c 4a 54 93 b8 21 f1 97 bc 3f f3 1d bc
       0.02191794 -7.025206e-05 -0.018547596 -0.009640514
0003f0 92 a0 9d 3c 78 27 4b 3a a1 e9 b2 bc 32 95 58 3c
       0.019241605 0.0007749717 -0.021839919 0.013219165

action_model._continuous_distribution.log_sigma f4 [1, 2]
000000 d2 65 b5 bd ea 3c d8 3a
       -0.08857311 0.0016497646
