results/run1/CarAgent/checkpoint.pt (torch, 749602 bytes, 36 tensors)

network_body._body_endoder.seq_layers.0.weight f4 [128, 106]
-0.09300558 -0.15644826 0.123561114 -0.1183364 0.035219617 -0.08380927 -0.04544281 -0.11489307
-0.012274322 -0.05444274 0.05635077 -0.04167788 -0.0905481 -0.10583189 -0.03037118 -0.14141034
0.00039089 0.01718414 -0.09155111 -0.12992533 -0.09108127 0.023959346 -0.032741323 -0.12497787
0.039178826 -0.057706516 0.0524511 0.011139394 0.05148155 -0.082398646 -0.08813046 0.12853172
-0.008355992 -0.11804277 -0.0022607427 -0.12249139 -0.034364898 -0.051874608 0.18886653 0.090782404
-0.14087139 0.110833116 -0.23679775 0.009555729 -0.085700445 -0.2617799 0.06787668 -0.028525278
0.06898946 0.027320178 -0.0117676705 0.00354459 -0.02984014 0.079364896 -0.0105278995 -0.11992377
0.011353714 -0.061368853 -0.05538602 -0.10167615 -0.18055604 0.17076363 0.07984013 0.007886598
-0.15615718 -0.064066485 -0.05590507 -0.06355564 -0.032394063 -0.06282301 -0.034436896 -0.030295363
-0.065083675 -0.0041311244 -0.0018329396 0.13530178 -0.076917276 0.0044289054 0.01870881 -0.012243896
0.021997143 -0.21731062 -0.07564721 0.022309095 0.18847322 -0.12575825 -0.03160583 -0.02355271
0.040657498 0.076460175 -0.047128264 0.01079121 -0.18902989 0.015755048 0.02980411 -0.09108551
-0.006552519 0.115533784 -0.015570166 0.00016999515 0.028460901 -0.13434264 0.12212448 -0.18888195
-0.10422505 -0.033468883 0.08189517 -0.037879754 0.0124068335 0.0799085 -0.005049311 -0.10907457
-0.060908888 -0.1469744 -0.028046302 -0.112904094 0.1308063 -0.14454277 0.016979085 0.03293384
-0.031352907 0.11218506 0.14483245 -0.10432716 0.010094582 -0.026317699 0.024189038 -0.0099679865
-0.16277531 0.18695937 0.11221511 0.06365447 0.17806967 -0.113728106 -0.08342977 0.0016936475
-0.09697237 0.15041623 0.095614195 -0.19791216 -0.02423468 -0.049964 0.26148695 0.0062583317
-0.08922221 -0.060599398 0.07248482 -0.05754116 -0.1753802 -0.099567614 0.085004844 0.10824007
0.06540973 -0.05050353 0.007697814 -0.042633105 -0.03412553 -0.10616749 0.008618658 0.029807745
0.10146485 0.025871571 0.13897364 -0.17883533 -0.1799315 0.032278184 0.014250614 -0.012734938
-0.009136143 -0.12705049 0.09651133 0.0070987046 -5.5292705e-05 -0.0045533995 -0.11209241 0.114394866
-0.12772915 0.111876786 -0.0013533426 -0.043899354 -0.0264406 -0.24456073 -0.050581325 -0.07678221
-0.059412815 0.013509641 0.04951755 -0.07827759 -0.040504668 0.008375356 -0.062355574 -0.19910377
-0.15929043 -0.028336598 -0.080862455 0.067218386 0.1435389 -0.09722429 -0.0842514 0.013701994
-0.005092645 -0.017128574 -0.10740228 -0.010248479 0.03995487 -0.06698133 0.08995276 -0.060655482
0.052073054 -0.17683503 -0.08505361 -0.09189497 -0.06891189 0.080117635 -0.0049513364 0.05712724
0.0028481355 0.16552839 -0.13371187 0.10996176 0.09272414 0.022319918 0.07409385 0.2055836
-0.020980202 0.06085008 0.060732078 -0.20637733 -0.010898896 -0.06995101 0.06766987 -0.14496687
0.004728297 0.038548645 -0.10178046 -0.10470548 0.028451536 -0.1764847 0.13938376 -0.06342059
-0.005210232 0.026267903 -0.15100922 -0.04560761 -0.024314532 0.16329992 -0.060264062 -0.074918054
-0.15966472 0.24453916 -0.12869045 -0.26754385 0.15627433 -0.006597979 -0.031582445 -0.00025079932
00000000: b679 bebd f933 20be 9c0d fd3d 5b5a f2bd
00000010: 7242 103d 32a4 abbd 3d22 3abd 0f4d ebbd
00000020: 3d1a 49bc 5aff 5ebd 11d0 663d 6db6 2abd
00000030: 4871 b9bd 64be d8bd fbcc f8bc dfcd 10be
00000040: 5ef0 cc39 c1c5 8c3c 267f bbbd 250b 05be
00000050: d188 babd 6446 c43c c41b 06bd 66f4 ffbd
00000060: fa79 203d ab5d 6cbd f7d6 563d 0182 363c
00000070: 51de 523d 9fc0 a8bd be7d b4bd d29d 033e
00000080: 92e7 08bc 68c0 f1bd f828 14bb c4dc fabd
00000090: 35c2 0cbd 787a 54bd 3a66 413e 20ec b93d
000000a0: 9740 10be 79fc e23d 1c7b 72be a28f 1c3c
000000b0: b783 afbd 0408 86be ee02 8b3d d8ad e9bc
000000c0: 594a 8d3d 91ce df3c 30cd 40bc 5a4c 683b
000000d0: 4f73 f4bc 108a a23d 367d 2cbc 989a f5bd
000000e0: ee04 3a3c e85d 7bbd 74dc 62bd 963b d0bd
000000f0: afe3 38be a9dc 2e3e 3983 a33d ca36 013c
00000100: abe7 1fbe 4a35 83bd b7fc 64bd 7629 82bd
00000110: a3af 04bd 5aa9 80bd b40d 0dbd fb2d f8bc
00000120: 974a 85bd 625e 87bb 3f3f f0ba 8d8c 0a3e
00000130: ce86 9dbd 5a20 913b 3843 993c 9f9a 48bc
00000140: 5a33 b43c ad86 5ebe edec 9abd 90c1 b63c
00000150: 20ff 403e c5c6 00be 1d75 01bd 9df1 c0bc
00000160: 7a88 263d 2797 9c3d 9109 41bd 9ecd 303c
00000170: 0d91 41be bb10 813c c027 f43c 0a8b babd
00000180: 83b6 d6bb fa9c ec3d 021a 7fbc ba40 3239
00000190: d626 e93c 1e91 09be 661c fa3d 456a 41be
000001a0: f173 d5bd ab16 09bd a8b8 a73d cd27 1bbd
000001b0: 0846 4b3c 11a7 a33d b174 a5bb 7d62 dfbd
000001c0: 997b 79bd 7580 16be 5cc1 e5bc 433a e7bd
000001d0: 16f2 053e 0503 14be b917 8b3c a2e5 063d
000001e0: e86b 00bd 48c1 e53d f54e 143e 7aa9 d5bd
000001f0: bf63 253c 3798 d7bc 1728 c63c c450 23bc
00000200: 92ae 26be 4772 3f3e 09d1 e53d 465d 823d
00000210: e557 363e 48ea e8bd 3add aabd 61fd dd3a
00000220: 7399 c6bd b606 1a3e 60d1 c33d 7ca9 4abe
00000230: cf87 c6bc 0da7 4cbd 9ee1 853e b112 cd3b
00000240: 22ba b6bd 1337 78bd ec72 943d 48b0 6bbd
00000250: de96 33be 1bea cbbd 0517 ae3d f8ac dd3d
00000260: 89f5 853d cadc 4ebd f23d fc3b 0da0 2ebd
00000270: 36c7 0bbd 576e d9bd 4635 0d3c 5f2f f43c
00000280: cecc cf3d 9ef0 d33c 1b4f 0e3e 9c20 37be
00000290: f73f 38be 2136 043d 687b 693c 34a6 50bc
000002a0: c3af 15bc 8619 02be bba7 c53d 409c e83b
000002b0: 17ea 67b8 af34 95bb b590 e5bd db47 ea3d
000002c0: 6ecb 02be a81f e53d a462 b1ba cfcf 33bd
000002d0: f599 d8bc 216e 7abe 5d2e 4fbd fe3f 9dbd
000002e0: da5a 73bd 8b57 5d3c ead2 4a3d 0050 a0bd
000002f0: 39e8 25bd ca38 093c 8f68 7fbd dce1 4bbe
00000300: 081d 23be 2722 e8bc 379b a5bd cba9 893d
00000310: ddfb 123e 871d c7bd ff8b acbd 547e 603c
00000320: 34e0 a6bb 3951 8cbc baf5 dbbd 3de9 27bc
00000330: b8a7 233d 822d 89bd 2739 b83d e271 78bd
00000340: 8e4a 553d 3e14 35be 9630 aebd 6e33 bcbd
00000350: ad21 8dbd b714 a43d d23e a2bb 41fe 693d
00000360: c9a7 3a3b 4680 293e c4eb 08be a233 e13d
00000370: 27e6 bd3d 43d8 b63c 84be 973d 8284 523e
00000380: acde abbc ef3d 793d 33c2 783d 9454 53be
00000390: 4891 32bc 7a42 8fbd 8096 8a3d 3272 14be
000003a0: d4ef 9a3b 2fe5 1d3d 4672 d0bd d46f d6bd
000003b0: 3213 e93c 68b8 34be 9eba 0e3e a7e2 81bd
000003c0: 98ba aabb c92f d73c 29a2 1abe 0ccf 3abd
000003d0: 452f c7bc 1838 273e 73d7 76bd a36e 99bd
000003e0: 267f 23be 7968 7a3e 6ec7 03be 82fb 88be
000003f0: 6106 203e dc33 d8bb 985c 01bd b77d 83b9

network_body._body_endoder.seq_layers.0.bias f4 [128]
-0.021050606 -0.009778366 -0.0038407047 0.035368383 0.021498425 0.025311818 -0.0058063744 0.017969027
0.01516901 0.029305456 -0.0050504087 0.007249621 -0.00704437 0.008225585 -0.006008491 0.0072919456
-0.004666398 -0.018307708 0.010598336 0.022352137 0.037106268 -0.016311591 0.029345443 0.011317888
-0.021512149 0.0025313173 0.0017165069 0.012274935 0.016611395 -0.0055774297 0.027141016 0.029623184
0.009616062 0.0125639485 0.038027775 0.006913709 0.01944018 0.014953699 0.02807267 0.015963433
0.033475243 0.0062374794 -0.0064916536 -0.018871244 -0.000210909 0.042711124 0.0012220225 0.021179752
0.014155395 -0.023433056 0.04673631 0.022504972 0.0063254205 -0.019269546 0.016208995 0.01024355
0.01701857 0.014915668 0.02801926 0.005705499 -0.010613435 0.007668566 -0.02452745 0.012248824
0.0038488163 0.015873002 0.01412112 0.01470108 0.012570296 0.021389386 -0.010298812 0.0067314366
0.015315754 0.008929376 -0.011065317 0.023813138 0.026226696 0.030160122 0.010711695 0.013565319
0.016226081 -0.041321725 -0.009250483 0.005448884 0.012649503 0.017989678 0.020048281 0.016169969
-0.010622579 -0.0149385445 -0.0010229562 0.020951116 0.0075537185 0.0006298893 0.006458307 0.022109771
-0.012714973 -0.0008103796 0.0170884 -0.023346003 0.0011074324 0.008706048 0.020645848 0.0071312264
0.0136387255 -0.0035580941 0.0216647 0.014991529 -0.021506622 0.0006775323 0.02270894 0.007336997
0.002626091 0.020678064 0.022273447 -0.014233335 0.004365617 0.019147223 -0.010186243 0.03490236
0.00069820654 0.026819633 0.011958285 0.0032299897 0.02397169 -0.010064042 -0.0011501911 0.0026158453
00000000: 5272 acbc 7135 20bc 55b4 7bbb 70de 103d
00000010: 771d b03c bb5a cf3c 6643 bebb c833 933c
00000020: 7087 783c ff11 f03c e67d a5bb 3b8e ed3b
00000030: 75d4 e6bb 9bc4 063c e0e2 c4bb 46f1 ee3b
00000040: 95e8 98bb 0cfa 95bc a5a4 2d3c d41b b73c
00000050: befc 173d e39f 85bc db65 f03c aa6e 393c
00000060: 3f3a b0bc 75e4 253b 6afc e03a cf1c 493c
00000070: 9f14 883c dfc2 b6bb d656 de3c 52ac f23c
00000080: b08c 1d3c 05d9 4d3c 03c3 1b3d 658c e23b
00000090: 0341 9f3c 5c00 753c a8f8 e53c bfc5 823c
000000a0: 561d 093d c563 cc3b f0b7 d4bb de97 9abc
000000b0: 7427 5db9 dcf1 2e3d 452c a03a 2981 ad3c
000000c0: 08ec 673c aef6 bfbc 936e 3f3d 595c b83c
000000d0: 7945 cf3b 2bdb 9dbc bac8 843c 90d4 273c
000000e0: 876a 8b3c d960 743c a688 e53c 32f5 ba3b
000000f0: f9e3 2dbc 9848 fb3b caed c8bc 4baf 483c
00000100: 6c3c 7c3b 1908 823c 455c 673c ccdc 703c
00000110: a5f3 4d3c cb38 af3c 59bc 28bc 6293 dc3b
00000120: eeee 7a3c 844c 123c 4e4b 35bc c513 c33c
00000130: 5ed9 d63c 5c12 f73c 1b80 2f3c 1241 5e3c
00000140: 8fec 843c f840 29bd 568f 17bc 8d8c b23b
00000150: dc3f 4f3c 175f 933c 4b3c a43c e276 843c
00000160: 530a 2ebc ccc0 74bc b714 86ba ada1 ab3c
00000170: 2f85 f73b 281f 253a 35a0 d33b 8d1f b53c
00000180: 7652 50bc a86f 54ba f9fc 8b3c 1e40 bfbc
00000190: 4427 913a d0a3 0e3c 7b21 a93c 10ad e93b
000001a0: f674 5f3c ea2e 69bb 2b7a b13c 089f 753c
000001b0: a82e b0bc 6c9c 313a 1908 ba3c 316b f03b
000001c0: 7f1a 2c3b 0b65 a93c ce76 b63c ef32 69bc
000001d0: 730d 8f3b a3da 9c3c 33e4 26bc c7f5 0e3d
000001e0: d907 373a d9b4 db3c afec 433c 3cae 533b
000001f0: 4760 c43c a7e3 24bc 02c2 96ba 9a6e 2b3b

network_body._body_endoder.seq_layers.2.weight f4 [128, 128]
-0.07693872 0.029609043 -0.029704716 -0.10945604 0.038373537 0.0732833 -0.09605453 0.033722587
-0.13978453 -0.09431996 0.07936281 -0.08096413 0.057389732 -0.012660705 0.008200808 0.11435828
0.12134166 0.04621485 0.03872093 -0.12627475 -0.24863248 0.06736672 0.03019514 -0.0016385807
-0.05577147 0.0851339 -0.083813734 -0.08160265 -0.02309551 0.18527958 -0.052153368 0.050525535
0.12151529 0.03387616 0.23350976 0.037328925 -0.15384024 0.0021343655 -0.11530781 0.09322029
-0.11777965 0.09053969 0.10876813 0.09238237 0.06051508 -0.007217101 0.08740911 0.111800425
0.09210629 0.010165586 0.06412178 -0.033544723 -0.0173094 0.1358106 -0.15718992 -0.037191626
-0.076940835 0.12608533 0.027193785 -0.058314893 0.038726732 -0.123826705 -0.12216562 -0.108968
-0.041252002 -0.020141326 -0.032568324 -0.021094674 -0.09467765 0.0031167888 -0.08066451 0.05122732
0.0386159 0.14859156 0.050372604 0.115019664 -0.062419806 -0.09995826 -0.017005097 0.12977688
-0.06647862 -0.16126877 0.16744542 0.05067596 -0.038177766 -0.057090685 -0.041182928 -0.18231012
-0.026668493 0.010396745 0.12938897 -0.07209059 0.1077745 0.006285809 0.10804743 0.080485135
-0.15276824 -0.023560831 0.04612755 -0.042609755 0.027654286 0.06552393 -0.12579626 0.047146883
-0.08881306 0.018603038 -0.031124104 0.1302736 0.08471165 0.015346516 0.16612355 -0.08626092
0.1070959 0.12485923 0.0032692417 0.0561832 -0.08857918 -0.049309608 0.021889124 -0.026889447
-0.0053273547 -0.06901028 0.07500734 0.029430624 -0.005690906 0.054699443 -0.08985491 0.05843378
0.11562764 -0.0033568635 -0.10898019 -0.1422019 0.080226146 0.07586905 0.080550954 0.076628454
-0.052460745 -0.16608733 -0.060142715 0.0712545 0.09859681 0.021324331 -0.03927291 -0.05528961
0.15937455 -0.09994721 0.029795364 0.033402793 -0.019394107 -0.08700482 0.033693768 -0.056159608
0.049127087 -0.020103926 0.04142281 -0.10203465 -0.15291427 -0.16983058 -0.05035472 -0.044336233
-0.011941079 0.0018489754 -0.1587126 -0.1273524 0.00340897 -0.05614134 -0.08733991 0.06642841
0.02632494 -0.062158495 -0.12131708 -0.06680749 0.17136914 0.019616533 0.015002012 -0.07188417
-0.02455222 0.054892667 0.023063997 -0.03139567 -0.05727395 -0.028946983 -0.108559646 0.0004909637
0.10513754 0.04077358 -0.02716315 -0.11847696 0.047707427 0.010897697 -0.030313648 -0.06625594
0.084175214 0.02997471 -0.013979621 0.18658821 -0.06826991 0.25651923 0.024123112 -0.027644139
-0.037328362 0.19067144 0.0026060578 0.123081006 0.143375 0.19693227 -0.023828015 -0.028205866
0.1061454 0.122232236 -0.20864618 -0.042461257 0.019636095 -0.054797776 0.07354648 -0.0017775778
0.1162654 0.06441831 0.055230286 0.062471032 0.002172001 -0.11117694 -0.005362848 0.044547953
-0.02217178 0.19668247 -0.0026991596 -0.054271225 -0.03564066 -0.033928365 -0.06488414 0.00095608697
-0.029091612 0.100379825 -0.16301633 0.056605432 -0.17551285 0.10886101 0.09876094 -0.06786687
-0.050532408 -0.10731834 0.015374324 -0.13419312 0.10147707 0.0053901216 0.12304929 -0.056121588
-0.14450757 -0.14880684 0.18561769 0.013854423 -0.01897254 0.018534154 0.015604413 0.0089348825
00000000: 0c92 9dbd aa8e f23c 4e57 f3bc 7d2a e0bd
00000010: 922d 1d3d 8e15 963d 3db8 c4bd b220 0a3d
00000020: ad23 0fbe d32a c1bd f888 a23d 86d0 a5bd
00000030: 7f11 6b3d d86e 4fbc af5c 063c ad34 ea3d
00000040: fa81 f83d c84b 3d3d d799 1e3d 2b4e 01be
00000050: 8399 7ebe 90f7 893d cc5b f73c a5c5 d6ba
00000060: a070 64bd af5a ae3d 89a6 abbd 4a1f a7bd
00000070: cc32 bdbc eeb9 3d3e c59e 55bd ddf3 4e3d
00000080: 02dd f83d bac1 0a3d 2f1d 6f3e 37e6 183d
00000090: 4c88 1dbe b6e0 0b3b 8026 ecbd 48ea be3d
000000a0: 7536 f1bd df6c b93d d3c1 de3d f832 bd3d
000000b0: a9de 773d 6e7d ecbb 8c03 b33d 9ff7 e43d
000000c0: 39a2 bc3d 8f8d 263c 4852 833d 3166 09bd
000000d0: 71cc 8dbc ef11 0b3e 65f6 20be 3f56 18bd
000000e0: 2893 9dbd 831c 013e 80c5 de3c 99db 6ebd
000000f0: ec9f 1e3d db98 fdbd f831 fabd 9d2a dfbd
00000100: dcf7 28bd 6cff a4bc 5d66 05bd bdce acbc
00000110: 5be6 c1bd 0a43 4c3b 6f33 a5bd bdd3 513d
00000120: b52b 1e3d 6328 183e 8153 4e3d 6e8f eb3d
00000130: e9ab 7fbd ebb6 ccbd 464e 8bbc 3be4 043e
00000140: f125 88bd a423 25be d076 2b3e 9891 4f3d
00000150: 4a60 1cbd ecd7 69bd 6eaf 28bd 81af 3abe
00000160: e277 dabc 1c57 2a3c 8b7e 043e 3ba4 93bd
00000170: e1b8 dc3d 30f9 cd3b f947 dd3d 64d5 a43d
00000180: 476f 1cbe a502 c1bc 3ef0 3c3d 9187 2ebd
00000190: 3e8b e23c 6931 863d bcd0 00be 171d 413d
000001a0: 9fe3 b5bd 6665 983c faf7 febc 7166 053e
000001b0: 4d7d ad3d f46f 7b3c 4b1c 2a3e 91a9 b0bd
000001c0: 1855 db3d 32b6 ff3d c640 563b 5b20 663d
000001d0: 0069 b5bd dff8 49bd d250 b33c 4247 dcbc
000001e0: 1791 aebb 4355 8dbd 739d 993d 7e18 f13c
000001f0: c87a babb 860c 603d da05 b8bd 4258 6f3d
00000200: 2fce ec3d d3fe 5bbb 0131 dfbd 609d 11be
00000210: 9b4d a43d 3c61 9b3d e6f7 a43d 61ef 9c3d
00000220: 14e1 56bd cc12 2abe 3558 76bd e1ed 913d
00000230: 20ed c93d 5db0 ae3c a2dc 20bd 5c77 62bd
00000240: 1533 233e 1fb1 ccbd 6815 f43c 5ed1 083d
00000250: 64e0 9ebc 952f b2bd 7a02 0a3d 9e07 66bd
00000260: 7c39 493d fdb0 a4bc f7aa 293d 8bf7 d0bd
00000270: 8f95 1cbe 11e8 2dbe c040 4ebd e999 35bd
00000280: 84a4 43bc 5259 f23a 8e85 22be ab68 02be
00000290: 0769 5f3b 76f4 65bd 44df b2bd 9e0b 883d
000002a0: 67a7 d73c e899 7ebd 1775 f8bd 5ed2 88bd
000002b0: 647b 2f3e dab2 a03c 00cb 753c 0238 93bd
000002c0: bd21 c9bc 22d7 603d b5f0 bc3c bf98 00bd
000002d0: 1798 6abd 3922 edbc 8554 debd 04b4 003a
000002e0: 5a52 d73d 3302 273d 4185 debc 0ca4 f2bd
000002f0: dd68 433d 418c 323c 5454 f8bc 32b1 87bd
00000300: 0e64 ac3d 868d f53c c80a 65bc fb10 3f3e
00000310: 18d1 8bbd 7d56 833e d59d c53c f675 e2bc
00000320: a0e5 18bd 603f 433e 65ca 2a3b e511 fc3d
00000330: e5d0 123e 9da8 493e f832 c3bc fd0f e7bc
00000340: c262 d93d e554 fa3d 58a7 55be dbeb 2dbd
00000350: e0db a03c a273 60bd 899f 963d 9dfd e8ba
00000360: 8e1c ee3d bfed 833d 2739 623d a0e1 7f3d
00000370: 2158 0e3b bcb0 e3bd d4ba afbb ea77 363d
00000380: 98a1 b5bc 2167 493e 62e4 30bb 814b 5ebd
00000390: f1fb 11bd 78f8 0abd fae1 84bd e9a1 7a3a
000003a0: 8851 eebc f093 cd3d c1ed 26be 19db 673d
000003b0: a4b9 33be 85f2 de3d 2d43 ca3d c9fd 8abd
000003c0: 12fb 4ebd b8c9 dbbd 97e4 7b3c ec69 09be
000003d0: 36d3 cf3d 9e9f b03b 4401 fc3d c0df 65bd
000003e0: cbf9 13be d260 18be 9012 3e3e a9fd 623c
000003f0: 4d6c 9bbc f0d4 973c a7a9 7f3c 9d63 123c

network_body._body_endoder.seq_layers.2.bias f4 [128]
-0.00785097 -0.018404499 0.02321993 -0.017926272 0.008393439 0.01075386 -0.0069640293 -0.013486586
-0.008635795 0.0023565914 -0.0064431494 0.0010357117 -0.0051889294 -0.011626141 0.030678859 -0.016723843
-0.0045778356 0.020381568 -0.009401768 -0.006733161 -0.01675474 -0.004949826 0.012138121 0.015431514
0.024116777 -0.017129444 -0.0076044123 0.0062016463 -0.007545823 -0.007722317 0.0026159647 0.00492064
0.01270566 0.0068307016 0.0064925267 0.019693982 0.008448206 0.013615598 -0.01112441 0.021955809
0.022636073 0.0038068418 -0.010974758 0.020715589 -0.0021936612 -0.0041151023 0.024232922 -0.0144826565
0.015979683 0.005315438 0.018324012 -0.0069260104 0.008353456 -0.008902833 0.010527311 0.024429254
0.017943108 0.023115495 -0.008504441 0.009769409 -0.012387112 -0.008702643 0.0070150965 0.0016847689
0.02096377 0.024118345 -0.00093397644 0.013011792 -0.004468285 0.016796617 -0.013326879 0.006436535
0.015508312 0.01969867 0.02471257 0.0024040835 -0.010559359 0.024808668 0.011167046 -0.0038076274
-0.014440988 0.018676057 -0.01137512 -0.008046242 -0.008033177 -0.002519669 -0.011070944 0.017141623
0.0263752 0.023732202 -0.013183612 0.020898946 0.01895908 -0.0019149642 0.00435145 0.002667931
-0.00086539914 0.00017771611 0.019413566 0.025008101 -0.0068550156 -0.005654406 0.017131403 -0.015458921
-0.004731321 -0.0062149945 -0.0020228978 0.0074036624 -0.009738613 0.012864997 0.0061857803 -0.010692448
0.009090494 0.021202672 0.012477225 0.006433463 0.009724903 0.020319216 -0.013304032 0.012191067
-0.009312 0.017127665 -0.00024174877 0.029022923 0.017411448 0.013366425 0.019800998 -0.007920097
00000000: 5ba1 00bc 08c5 96bc b937 be3c 1eda 92bc
00000010: a384 093c f530 303c 8332 e4bb d7f6 5cbc
00000020: 267d 0dbc 0b71 1a3b 0e21 d3bb b8c0 873a
00000030: e507 aabb 927b 3ebc 3b52 fb3c 7100 89bc
00000040: ab01 96bb 3ff7 a63c e009 1abc d9a1 dcbb
00000050: 3d41 89bc 2632 a2bb f8de 463c 76d4 7c3c
00000060: 8c90 c53c 0c53 8cbc 6f2e f9bb 2e37 cb3b
00000070: f442 f7bb 7d0b fdbb 9b70 2b3b 523d a13b
00000080: 672b 503c 14d4 df3b 43bf d43b 4655 a13c
00000090: 586a 0a3c f513 5f3c 2843 36bc abdc b33c
000000a0: 496f b93c 357c 793b 79cf 33bc bdb3 a93c
000000b0: 87c3 0fbb fbd7 86bb 1f84 c63c aa48 6dbc
000000c0: d3e7 823c 202d ae3b 3d1c 963c 96f3 e2bb
000000d0: efdc 083c 30dd 11bc be7a 2c3c dc1f c83c
000000e0: 6dfd 923c b55c bd3c 3656 0bbc df0f 203c
000000f0: 50f3 4abc 8895 0ebc e5de e53b 77d3 dc3a
00000100: 36bc ab3c d693 c53c 19d6 74ba 692f 553c
00000110: b16a 92bb 0f99 893c fb58 5abc 92e9 d23b
00000120: 9316 7e3c 1b5f a13c 0472 ca3c d48d 1d3b
00000130: 2901 2dbc 8c3b cb3c fcf5 363c 6389 79bb
00000140: e599 6cbc 88fe 983c b65e 3abc 63d4 03bc
00000150: 969d 03bc 0821 25bb e862 35bc 976c 8c3c
00000160: ce10 d83c 096a c23c 1400 58bc 4434 ab3c
00000170: 1350 9b3c 89ff faba 9c96 8e3b 74d8 2e3b
00000180: f4db 62ba 4e59 3a39 3309 9f3c cadd cc3c
00000190: 0aa0 e0bb 9848 b9bb 2857 8c3c 6a47 7dbc
000001a0: 3209 9bbb 27a7 cbbb 9892 04bb 6c9a f23b
000001b0: b48e 1fbc b5c7 523c 16b2 ca3b 612f 2fbc
000001c0: 4cf0 143c 3ab1 ad3c 466d 4c3c cdcf d23b
000001d0: 3355 1f3c 7c74 a63c 28f9 59bc 0bbd 473c
000001e0: 5c91 18bc 514f 8c3c f17d 7db9 7bc1 ed3c
000001f0: 74a2 8e3c dafe 5a3c b435 a23c 4bc3 01bc

action_model._continuous_distribution.log_sigma f4 [1, 2]
-0.05328122 -0.004867693
00000000: 693d 5abd 2b81 9fbb

action_model._continuous_distribution.mu.weight f4 [2, 128]
-0.051356107 -0.007907969 0.082613945 -0.04154912 0.002975011 0.009028181 -0.04631116 -0.05479188
-0.024057504 -0.038821794 -0.056836613 -0.009986405 -0.024279324 -0.058564365 0.06969751 -0.025582276
-0.060196616 0.048669666 -0.05139698 -0.042209435 -0.012926734 -0.04693096 0.018881068 0.023736797
0.053602237 -0.03313276 -0.018174194 -0.019677257 -0.031021344 -0.017623391 -0.018567761 0.0011760901
0.0034943142 -0.0015394732 0.01590002 0.03316751 0.0049238135 0.018797316 -0.067272544 0.033176437
0.03787259 -0.009946305 -0.03173865 -0.015300724 -0.035533145 -0.03315922 0.057213183 -0.022954142
0.030907314 -0.009074119 0.021351011 -0.048191063 0.018061575 -0.04350405 0.011826032 0.032908976
0.030900765 0.03850378 -0.025264528 0.02633404 -0.032126598 -0.038369786 0.013328294 -0.01643882
0.041411076 0.05700255 -0.02049024 -0.023393724 0.010674351 -0.030627858 -0.04184657 -0.010396476
0.017375162 0.036529012 0.050492905 -0.011407925 -0.03744575 0.034982495 -0.0066905166 -0.048764564
-0.016413037 0.023196714 -0.036161084 -0.030485319 -0.051543307 -0.025555948 -0.04495738 0.023227386
0.06436856 0.012129234 -0.040502243 0.04823025 0.014752517 -0.04069957 0.008147702 0.019996746
-0.05900166 -0.00078576576 0.03654956 0.03949594 0.002439618 -0.019939909 0.03563862 -0.03278507
-0.014676812 -0.048948757 0.007272254 -0.051250447 -0.008985756 0.014641944 0.014935089 -0.030782059
0.016778516 0.04843011 0.019582137 -0.035095625 -0.009916884 0.045246467 -0.044959057 -0.025132582
-0.022862447 0.023195483 -0.021194149 0.0606417 0.0337135 0.016586423 0.066223696 -0.0063143037
-0.02561703 -0.007621869 -0.008072129 0.0021028023 -0.073579945 0.043492008 0.0066300286 -0.0066344673
0.033296485 -0.06429575 0.031223759 0.018095732 -0.031966023 0.028091036 -0.0139266215 -0.013432416
0.033821303 -0.04810525 0.050048858 0.042583697 0.010369053 0.060764804 0.040989887 0.019325623
0.013960695 0.014558833 0.073350534 -0.053461816 -0.021112414 0.009869822 -0.042694166 0.052001793
0.0337993 -0.044647414 0.06397573 -0.07285108 -0.041366514 -0.040231466 0.022466678 -0.052682992
0.022865571 -0.0010897181 0.010702431 -0.04459051 0.023613226 0.0060200333 -0.00023650777 -0.002952603
-0.010281698 0.050405115 0.022239257 -0.014978388 0.028913004 0.012005276 -0.006024042 -0.044766434
0.038985677 -0.0045910124 0.025575222 0.049119722 -0.00032184512 0.03088472 0.07615873 -0.009166286
0.036238626 0.047495786 0.0357244 -0.02369629 0.008786528 -0.01618957 0.0133411735 0.035629977
-0.0599396 -0.035445172 -0.02643819 0.07433802 0.0028161914 -0.05032342 -0.024517054 -0.0045380755
-0.011104768 -0.031692386 -0.007993187 0.04654533 -0.0076205456 0.008397652 0.0042247707 0.0030938995
-0.0027483532 -0.027375354 0.04449789 0.019424472 0.039303787 -0.028381195 -0.02659713 0.016663961
-0.061414458 -0.053601533 0.017232653 -0.013157308 -0.024566887 0.00069060887 0.0057566557 0.008340818
0.024453402 0.0020721788 -0.025107177 0.007251598 0.04590509 -0.05275011 0.053264372 0.037970126
-0.022513643 0.00819883 -0.037117645 -0.010130111 0.003920303 -0.028142944 -0.008906037 -0.044246994
-0.041408747 -0.0015851416 0.016252253 0.015893497 0.041309692 0.0052958806 0.025424266 0.009143444
00000000: c85a 52bd 6d90 01bc 8031 a93d 692f 2abd
00000010: 67f8 423b f0ea 133c c5b0 3dbd 736d 60bd
00000020: 3e14 c5bc 9a03 1fbd 82cd 68bd 059e 23bc
00000030: 6fe5 c6bc 30e1 6fbd 91bd 8e3d ec91 d1bc
00000040: ba90 76bd d859 473d a485 52bd cde3 2cbd
00000050: a7ca 53bc ae3a 40bd 78ac 9a3c ac73 c23c
00000060: 058e 5b3d 38b6 07bd 0ce2 94bc 3332 a1bc
00000070: 7920 febc ee5e 90bc 6b1b 98bc 0927 9a3a
00000080: dd00 653b 26c8 c9ba c240 823c a8da 073d
00000090: f157 a13b d4fc 993c 30c6 89bd 04e4 073d
000000a0: 4a20 1b3d d4f5 22bc 6300 02bd e3af 7abc
000000b0: 348b 11bd f6d1 07bd 5f58 6a3d 530a bcbc
000000c0: 5631 fd3c 9dab 14bc 51e8 ae3c fe63 45bd
000000d0: def5 933c 4d31 32bd f9c1 413c 90cb 063d
000000e0: 9a23 fd3c 24b6 1d3d 8ef7 cebc 7cba d73c
000000f0: 2e97 03bd a329 1dbd eb5e 5a3c b4aa 86bc
00000100: a99e 293d 827b 693d 26db a7bc 32a4 bfbc
00000110: 79e3 2e3c 46e7 fabc 4f67 2bbd fb55 2abc
00000120: 5b56 8e3c 729f 153d a6d1 4e3d 4ee8 3abc
00000130: b760 19bd ce49 0f3d 1f3c dbbb 5abd 47bd
00000140: a274 86bc 0907 be3c a51d 14bd 59bc f9bc
00000150: 131f 53bd b55a d1bc 3b25 38bd 5c47 be3c
00000160: aad3 833d b2b9 463c aee5 25bd 158d 453d
00000170: 8bb4 713c 98b4 26bd f07d 053c 37d0 a33c
00000180: baab 71bd d9fb 4dba feb4 153d 7fc6 213d
00000190: 00e2 1f3b 0559 a3bc cdf9 113d a349 06bd
000001a0: 0377 70bc 7e7e 48bd 174c ee3b fdeb 51bd
000001b0: fe38 13bc c4e4 6f3c 4eb2 743c a82a fcbc
000001c0: 1973 893c a75e 463d b86a a03c 6ec0 0fbd
000001d0: 6d7a 22bc 5c54 393d fd26 38bd d8e2 cdbc
000001e0: 074a bbbc 7404 be3c 5a9f adbc 6e63 783d
000001f0: 2b17 0a3d 40e0 873c 4aa0 873d 38e8 cebb
00000200: ceda d1bc dfc0 f9bb f740 04bc 2bcf 093b
00000210: 15b1 96bd ad24 323d b640 d93b f265 d9bb
00000220: e561 083d 7dad 83bd f8c8 ff3c 803d 943c
00000230: ceee 02bd 2c1f e63c 7c2c 64bc a313 5cbc
00000240: 3588 0a3d 030a 45bd 0800 4d3d 3e6c 2e3d
00000250: f6e2 293c 84e4 783d 03e5 273d c550 9e3c
00000260: 66bb 643c 2c88 6e3c ce38 963d c7fa 5abd
00000270: f1f3 acbc 09b5 213c 14e0 2ebd d5ff 543d
00000280: 2371 0a3d 35e0 36bd b505 833d f232 95bd
00000290: ef6f 29bd c0c9 24bd 0a0c b83c 1fca 57bd
000002a0: 9450 bb3c dfd4 8eba 4059 2f3c 8aa4 36bd
000002b0: 8670 c13c b343 c53b 12ff 77b9 7580 41bb
000002c0: 9174 28bc 9875 4e3d 1a2f b63c ea67 75bc
000002d0: f7da ec3c c7b1 443c 5465 c5bb 025d 37bd
000002e0: 72af 1f3d 3470 96bb 2183 d13c c331 493d
000002f0: 52bd a8b9 f401 fd3c 1cf9 9b3d 312e 16bc
00000300: f46e 143d f18a 423d c053 123d b91e c2bc
00000310: 5ff5 0f3c fd9f 84bc f094 5a3c bdf0 113d
00000320: 3a83 75bd f52e 11bd e794 d8bc 883e 983d
00000330: da8f 383b ee1f 4ebd fdd7 c8bc 23b4 94bb
00000340: c6f0 35bc e0cf 01bd dbf5 02bc 51a6 3e3d
00000350: c5b5 f9bb 4e96 093c f26f 8a3b 05c3 4a3b
00000360: b71d 34bb 4742 e0bc 6b43 363d 1220 9f3c
00000370: 02fd 203d ae7f e8bc 39e2 d9bc dc82 883c
00000380: ba8d 7bbd 488d 5bbd 7e2b 8d3c c091 57bc
00000390: 7f40 c9bc fa09 353a 54a2 bc3b eda7 083c
000003a0: 8052 c83c 64cd 073b 91ad cdbc d09e ed3b
000003b0: fa06 3c3d 8010 58bd be2b 5a3d 9086 1b3d
000003c0: 886e b8bc 6354 063c ac08 18bd c4f8 25bc
000003d0: e375 803b 088c e6bc a0ea 11bc 563c 35bd
000003e0: 389c 29bd 87c4 cfba 7223 853c 1433 823c
000003f0: 5a34 293d 1189 ad3b 8d46 d03c 62ce 153c

action_model._continuous_distribution.mu.bias f4 [2]
0.019850781 -0.0033419672
00000000: 1b9e a23c e804 5bbb

exp_avg f4 [128, 106]
-0.00011931953 0.0010997239 0.0 8.5185995e-05 -5.469871e-05 0.0010351031 0.0 9.178508e-05
-5.5790857e-05 0.0010361953 0.0 7.59965e-05 -3.814337e-05 0.0010185478 0.0 9.752969e-05
-1.3281514e-05 0.0009936859 0.0 6.396853e-05 -1.380665e-05 0.0009942112 0.0 0.00010229409
0.00012667423 0.0008537303 0.0 5.451515e-05 -5.561317e-06 0.0009859656 0.0 0.00010625081
0.0001336318 0.00084677263 0.0 5.2551568e-05 5.7803278e-05 0.0009226012 0.0 0.000110229885
4.649393e-05 0.00093391066 0.0 5.7525096e-05 5.598201e-05 0.00092442246 0.0 0.00011598706
9.92336e-05 0.0008811709 0.0 6.486409e-05 0.00014336525 0.00083703914 0.0 0.0001254984
3.3499193e-05 0.00094690535 0.0 7.4833355e-05 0.00016331027 0.00081709423 0.0 0.00013357632
0.00012540937 0.00085499504 0.0 8.539885e-05 0.0002560691 0.00072433543 0.0 0.00014073472
9.74473e-05 0.00088295696 0.0 9.704791e-05 0.00032137748 0.00065902696 0.0 0.00014428944
0.00024730933 0.000733095 0.0 0.000113543974 0.00045933813 0.00052106625 0.0 0.00015268187
0.00031869375 0.00066171057 0.0 0.00012920603 0.00048012903 0.0005002754 0.0 0.00016304842
0.0006716467 0.0003087577 0.0 0.00014633859 0.0008885195 0.00015209006 0.026645772 -0.00041893194
0.0 6.393131e-05 -0.00021662914 0.0016173435 0.0 0.00012694363 -0.00012884862 0.0015295628
0.0 0.00013886044 -0.00011544533 0.0015161596 0.0 0.00010967869 -9.1120986e-05 0.0014918352
0.0 0.00015001242 -4.0027095e-05 0.0014407415 0.0 8.625019e-05 -4.3185366e-05 0.0014438996
0.0 0.00015912141 0.00022129001 0.0011794243 0.0 6.889212e-05 -7.7017685e-06 0.0014084162
0.0 0.00016696514 0.00022973241 0.0011709818 0.0 6.5025975e-05 9.222514e-05 0.0013084891
0.0 0.00017372392 8.930337e-05 0.0013114108 0.0 7.226818e-05 7.603666e-05 0.0013246775
0.0 0.0001829163 0.00019584701 0.0012048673 0.0 8.236362e-05 0.00023873759 0.0011619767
0.0 0.00019642967 0.000120642595 0.0012800716 0.0 9.421859e-05 0.00025734006 0.0011433742
0.0 0.00020907767 0.0002537886 0.0011469257 0.0 0.00010654057 0.00039020856 0.0010105057
0.0 0.00022201776 0.00021997333 0.0011807409 0.0 0.000119684686 0.00050272036 0.0008979939
0.0 0.00022768059 0.00040366442 0.0009970499 0.0 0.00013893575 0.0006830075 0.0007177068
0.0 0.00024172079 0.00047538243 0.00092533184 0.0 0.00016002248 0.00076870446 0.00063200993
0.0 0.0002553444 0.00091087876 0.0004898356 0.0 0.00018519438 0.0012815676 0.00019610193
0.038437404 -0.0006209962 0.0 2.3933795e-05 -0.00016194458 0.001474498 0.0 0.00013307283
-0.00019620948 0.0015087628 0.0 0.000147976 -0.00011716622 0.0014297196 0.0 0.00011698625
-0.00012514096 0.0014376943 0.0 0.00016215848 -0.0001309576 0.0014435112 0.0 0.000102904334
-7.482553e-05 0.0013873789 0.0 0.00017491786 1.7171358e-05 0.0012953822 0.0 0.00010243582
2.0478388e-05 0.001292075 0.0 0.00018738068 -4.6564473e-05 0.0013591178 0.0 0.00011283752
0.00011487824 0.001197675 0.0 0.00019920911 -3.0666277e-05 0.0013432198 0.0 0.00012413584
00000000: 2f3b fab8 9c24 903a 0000 0000 e2a5 b238
00000010: 4b6c 65b8 4cac 873a 0000 0000 bd7c c038
00000020: fa00 6ab8 f2d0 873a 0000 0000 4f60 9f38
00000030: 22fc 1fb8 cb80 853a 0000 0000 db88 cc38
00000040: abd3 5eb7 913e 823a 0000 0000 d826 8638
00000050: 1ca3 67b7 3150 823a 0000 0000 b986 d638
00000060: dbd3 0439 dfcc 5f3a 0000 0000 32a7 6438
00000070: 599b bab6 843b 813a 0000 0000 f8d2 de38
00000080: 831f 0c39 f3f9 5d3a 0000 0000 d16a 5c38
00000090: cc71 7238 b8da 713a 0000 0000 382b e738
000000a0: 7a02 4338 afd1 743a 0000 0000 1a47 7138
000000b0: 3ace 6a38 f154 723a 0000 0000 143e f338
000000c0: a21b d038 61fe 663a 0000 0000 a507 8838
000000d0: 5154 1639 bf6c 5b3a 0000 0000 3898 0339
000000e0: 7c81 0c38 be39 783a 0000 0000 daef 9c38
000000f0: 443e 2b39 4432 563a 0000 0000 9f10 0c39
00000100: 5280 0339 bf21 603a 0000 0000 2918 b338
00000110: 0341 8639 54e1 3d3a 0000 0000 3092 1339
00000120: 9f5c cc38 3d76 673a 0000 0000 3386 cb38
00000130: 8e7e a839 8dc2 2c3a 0000 0000 674c 1739
00000140: 4ca9 8139 2c2d 403a 0000 0000 751e ee38
00000150: 52d3 f039 2a98 083a 0000 0000 3a19 2039
00000160: 5a16 a739 a576 2d3a 0000 0000 7b7b 0739
00000170: d4b9 fb39 ea24 033a 0000 0000 faf7 2a39
00000180: 7211 303a c2e0 a139 0000 0000 7772 1939
00000190: 89eb 683a 5d7a 1f39 3c48 da3c 18a4 dbb9
000001a0: 0000 0000 dc12 8638 f126 63b9 0bfd d33a
000001b0: 0000 0000 2c1c 0539 8a1b 07b9 9c7b c83a
000001c0: 0000 0000 119b 1139 3d1b f2b8 e0b9 c63a
000001d0: 0000 0000 4c03 e638 3518 bfb8 af89 c33a
000001e0: 0000 0000 a74c 1d39 c4e2 27b8 43d7 bc3a
000001f0: 0000 0000 38e1 b438 ef21 35b8 3b41 bd3a
00000200: 0000 0000 d4d9 2639 160a 6839 ea96 9a3a
00000210: 0000 0000 2d7a 9038 d836 01b7 9b9a b83a
00000220: 0000 0000 5d13 2f39 53e4 7039 a17b 993a
00000230: 0000 0000 8e5e 8838 ff68 c138 9c81 ab3a
00000240: 0000 0000 a929 3639 6248 bb38 a5e3 ab3a
00000250: 0000 0000 af8e 9738 df75 9f38 cda0 ad3a
00000260: 0000 0000 38cd 3f39 485c 4d39 a3ec 9d3a
00000270: 0000 0000 a2ba ac38 a255 7a39 784d 983a
00000280: 0000 0000 b0f8 4d39 8001 fd38 13c8 a73a
00000290: 0000 0000 3897 c538 99eb 8639 46dd 953a
000002a0: 0000 0000 dc3b 5b39 ee0e 8539 7154 963a
000002b0: 0000 0000 886e df38 e894 cc39 f272 843a
000002c0: 0000 0000 70cd 6839 a4a8 6639 17c3 9a3a
000002d0: 0000 0000 3aff fa38 fec8 033a 5a67 6b3a
000002e0: 0000 0000 8bbd 6e39 eca2 d339 71af 823a
000002f0: 0000 0000 48af 1139 dc0b 333a 7d24 3c3a
00000300: 0000 0000 6e76 7d39 c03c f939 f891 723a
00000310: 0000 0000 b5cb 2739 e282 493a 78ad 253a
00000320: 0000 0000 bfdf 8539 0ac8 6e3a 5068 003a
00000330: 0000 0000 bd30 4239 46fa a73a b6a0 4d39
00000340: 8a70 1d3d 59ca 22ba 0000 0000 6fc5 c837
00000350: abcf 29b9 f143 c13a 0000 0000 7789 0b39
00000360: 95bd 4db9 aec1 c53a 0000 0000 012a 1b39
00000370: 23b7 f5b8 6e65 bb3a 0000 0000 8456 f538
00000380: 4538 03b9 0471 bc3a 0000 0000 1609 2a39
00000390: aa51 09b9 3334 bd3a 0000 0000 58ce d738
000003a0: a7eb 9cb8 b6d8 b53a 0000 0000 286a 3739
000003b0: 360b 9037 d0c9 a93a 0000 0000 d0d2 d638
000003c0: 01c9 ab37 d85a a93a 0000 0000 9e7b 4439
000003d0: 394e 43b8 6d24 b23a 0000 0000 2fa3 ec38
000003e0: c9ea f038 4efb 9c3a 0000 0000 cae2 5039
000003f0: aa9f 00b8 fa0e b03a 0000 0000 762a 0239

exp_avg_sq f4 [128, 106]
4.276123e-08 9.750041e-07 0.0 2.4967454e-08 4.596473e-08 9.4621316e-07 0.0 2.5129388e-08
4.629984e-08 9.655452e-07 0.0 2.4921613e-08 5.247939e-08 9.1535617e-07 0.0 2.525205e-08
4.9857054e-08 9.684377e-07 0.0 2.5292108e-08 5.9501293e-08 8.8949804e-07 0.0 2.570058e-08
5.0919684e-08 9.5010205e-07 0.0 2.604494e-08 6.957185e-08 8.5819863e-07 0.0 2.669192e-08
5.2675315e-08 9.1806385e-07 0.0 2.6134988e-08 8.4719524e-08 8.1394114e-07 0.0 2.8031694e-08
6.628825e-08 8.575251e-07 0.0 2.6192817e-08 1.10832175e-07 7.462533e-07 0.0 2.9439626e-08
8.873377e-08 7.8207523e-07 0.0 2.631105e-08 1.4637658e-07 6.828901e-07 0.0 3.0976356e-08
1.18947405e-07 7.1565614e-07 0.0 2.6615293e-08 1.9116978e-07 6.1252643e-07 0.0 3.283567e-08
1.5483677e-07 6.395384e-07 0.0 2.7187008e-08 2.5992864e-07 5.1240363e-07 0.0 3.5141024e-08
1.9856444e-07 5.762652e-07 0.0 2.8131984e-08 3.6100758e-07 4.1736286e-07 0.0 3.707321e-08
2.5238202e-07 5.015115e-07 0.0 2.9689424e-08 4.7472554e-07 3.268918e-07 0.0 3.8833257e-08
3.1335168e-07 4.3111422e-07 0.0 3.1783422e-08 5.858996e-07 2.582279e-07 0.0 4.07654e-08
3.939615e-07 3.5476828e-07 0.0 3.488929e-08 7.185449e-07 9.4448254e-08 0.0006465128 1.3945343e-07
0.0 3.321745e-07 1.2397851e-07 1.7159654e-06 0.0 5.3984117e-08 1.16639036e-07 1.6765965e-06
0.0 5.4983897e-08 1.4533973e-07 1.6631923e-06 0.0 5.3481177e-08 1.1591723e-07 1.6368564e-06
0.0 5.5665776e-08 1.630993e-07 1.6554404e-06 0.0 5.4352544e-08 1.2713016e-07 1.595316e-06
0.0 5.6964634e-08 1.6581339e-07 1.6165206e-06 0.0 5.5981566e-08 1.449886e-07 1.5429864e-06
0.0 5.9512015e-08 1.7225152e-07 1.5362835e-06 0.0 5.524315e-08 1.7500118e-07 1.4485481e-06
0.0 6.265815e-08 2.1022598e-07 1.4089111e-06 0.0 5.4030735e-08 2.2357032e-07 1.3290531e-06
0.0 6.585253e-08 2.702285e-07 1.255519e-06 0.0 5.280457e-08 2.9011295e-07 1.2119866e-06
0.0 6.9321025e-08 3.4556314e-07 1.1208093e-06 0.0 5.1760612e-08 3.781165e-07 1.0832911e-06
0.0 7.3243456e-08 4.135759e-07 1.004559e-06 0.0 5.1275762e-08 4.961519e-07 9.062895e-07
0.0 7.739054e-08 4.8303735e-07 9.1572855e-07 0.0 5.1736386e-08 7.0773706e-07 7.1798183e-07
0.0 8.033972e-08 5.5557604e-07 8.2088053e-07 0.0 5.3578585e-08 9.308037e-07 5.506592e-07
0.0 8.19843e-08 6.320351e-07 7.3653035e-07 0.0 5.6608204e-08 1.1171817e-06 4.3812102e-07
0.0 8.380745e-08 7.5310027e-07 6.242755e-07 0.0 6.1982156e-08 1.3182957e-06 1.6876541e-07
0.0011861537 2.6058638e-07 0.0 6.2272494e-07 7.009523e-08 1.5639897e-06 0.0 3.529817e-08
7.160441e-08 1.5564992e-06 0.0 3.6499337e-08 8.348522e-08 1.5277631e-06 0.0 3.4610217e-08
7.46153e-08 1.5225436e-06 0.0 3.74281e-08 1.00239184e-07 1.5309095e-06 0.0 3.5213546e-08
8.810975e-08 1.5003891e-06 0.0 3.873283e-08 9.4534556e-08 1.5243353e-06 0.0 3.6423025e-08
1.0559791e-07 1.4569397e-06 0.0 4.087569e-08 1.0012676e-07 1.4968999e-06 0.0 3.6848675e-08
1.2970256e-07 1.4040628e-06 0.0 4.3527102e-08 1.3240407e-07 1.4370397e-06 0.0 3.6992347e-08
00000000: 78a8 3733 e3dc 8235 0000 0000 0378 d632
00000010: c16a 4533 46ff 7d35 0000 0000 1cdc d732
00000020: 36db 4633 e197 8135 0000 0000 3513 d632
00000030: b365 6133 ccb6 7535 0000 0000 d8e9 d832
00000040: 6922 5633 44fb 8135 0000 0000 ef41 d932
00000050: 5d8e 7f33 d7c5 6e35 0000 0000 2cc4 dc32
00000060: c9b2 5a33 840a 7f35 0000 0000 6eb9 df32
00000070: 8767 9533 f65e 6635 0000 0000 2748 e532
00000080: 1f3d 6233 de70 7635 0000 0000 727f e032
00000090: 0def b533 9c7d 5a35 0000 0000 59ca f032
000000a0: 5a5a 8e33 ad30 6635 0000 0000 9dfe e032
000000b0: a202 ee33 2352 4835 0000 0000 6ce2 fc32
000000c0: e88d be33 cdef 5135 0000 0000 9c02 e232
000000d0: b02b 1d34 da4f 3735 0000 0000 dd0a 0533
000000e0: 0770 ff33 841b 4035 0000 0000 a69f e432
000000f0: 5944 4d34 7f6c 2435 0000 0000 3307 0d33
00000100: 3541 2634 bfac 2b35 0000 0000 dd88 e932
00000110: 528c 8b34 1c8c 0935 0000 0000 f7ed 1633
00000120: fa34 5534 a5b0 1a35 0000 0000 e3a6 f132
00000130: 81d0 c134 ea11 e034 0000 0000 6d3a 1f33
00000140: 1f7f 8734 9c9f 0635 0000 0000 bc07 ff32
00000150: c8dd fe34 ab7f af34 0000 0000 9ec9 2633
00000160: ba3a a834 e373 e734 0000 0000 3e82 0833
00000170: b746 1d35 93a2 8a34 0000 0000 0816 2f33
00000180: a881 d334 fb76 be34 0000 0000 2ed9 1533
00000190: 08e2 4035 7ad3 ca33 bd7a 293a abbc 1534
000001a0: 0000 0000 b755 b234 f41e 0534 1f50 e635
000001b0: 0000 0000 2adc 6733 fd7a fa33 6b07 e135
000001c0: 0000 0000 6f27 6c33 ae0e 1c34 da3a df35
000001d0: 0000 0000 2db3 6533 2cee f833 f5b1 db35
000001e0: 0000 0000 2b15 6f33 6520 2f34 8030 de35
000001f0: 0000 0000 4171 6933 4681 0834 a41e d635
00000200: 0000 0000 47a9 7433 700a 3234 3af7 d835
00000210: 0000 0000 6270 7033 2aae 1b34 9c18 cf35
00000220: 0000 0000 279a 7f33 23f4 3834 4d32 ce35
00000230: 0000 0000 7c44 6d33 f5e7 3b34 bc6b c235
00000240: 0000 0000 af8e 8633 7aba 6134 d119 bd35
00000250: 0000 0000 6c0f 6833 8b0e 7034 eb61 b235
00000260: 0000 0000 d06a 8d33 ec13 9134 4e83 a835
00000270: 0000 0000 3dcb 6233 d2c0 9b34 8bab a235
00000280: 0000 0000 a3dd 9433 d685 b934 b76e 9635
00000290: 0000 0000 654f 5e33 f0ff ca34 9965 9135
000002a0: 0000 0000 044a 9d33 7009 de34 62d4 8635
000002b0: 0000 0000 4c3a 5c33 4d2f 0535 bd47 7335
000002c0: 0000 0000 e631 a633 13aa 0135 63d0 7535
000002d0: 0000 0000 c234 5e33 52fb 3d35 56bb 4035
000002e0: 0000 0000 3a87 ac33 e522 1535 7b5a 5c35
000002f0: 0000 0000 471e 6633 58dc 7935 03d1 1335
00000300: 0000 0000 580f b033 1fa9 2935 fbb5 4535
00000310: 0000 0000 6121 7333 12f2 9535 e536 eb34
00000320: 0000 0000 a2f9 b333 a828 4a35 e393 2735
00000330: 0000 0000 0d1b 8533 4cf0 b035 e235 3534
00000340: b778 9b3a b8e6 8b34 0000 0000 5529 2735
00000350: 4387 9633 47ea d135 0000 0000 c09a 1733
00000360: f1c4 9933 e8e8 d035 0000 0000 72c3 1c33
00000370: 7c48 b333 8a0d cd35 0000 0000 56a6 1433
00000380: 323c a033 335a cc35 0000 0000 a2c0 2033
00000390: 1343 d733 a679 cd35 0000 0000 b43d 1733
000003a0: d936 bd33 fa60 c935 0000 0000 325b 2633
000003b0: ec02 cb33 c397 cc35 0000 0000 8a6f 1c33
000003c0: 11c5 e233 118c c335 0000 0000 4c8f 2f33
000003d0: 4505 d733 17e9 c835 0000 0000 8c43 1e33
000003e0: 5e44 0b34 3b73 bc35 0000 0000 8ef2 3a33
000003f0: f42a 0e34 4fe0 c035 0000 0000 84e1 1e33

exp_avg f4 [128]
0.0009804044 0.0014007143 0.0013125534 -0.0016672844 -7.8369325e-05 -9.438938e-05 -0.00015950539 3.322646e-05
-0.00012776753 -0.0011759769 -6.72009e-05 0.00019624499 -0.00010809658 1.6418053e-05 0.00064017833 -0.0009255174
-2.4570407e-05 0.0010792082 -0.0002872465 -0.0010918208 -1.3824417e-05 0.00014442252 -9.392652e-05 0.00013493383
1.9049034e-05 -0.0004053959 -0.00014898622 -0.0010858543 -0.0001442657 -0.0007237882 -0.00047875015 -0.0015671293
-0.0015544622 -0.0010036802 -9.65599e-05 -0.00034961637 -0.0005739648 0.00204928 -1.8869092e-05 4.543826e-05
-0.0007881727 1.4111003e-05 0.0013268648 0.0017222061 0.00026107434 -2.6200207e-05 -9.217989e-05 -8.291372e-07
0.00091609155 0.0003141653 1.6663636e-05 -7.694303e-05 7.58013e-05 0.00017972283 -0.0014141351 0.00024095745
-0.0016961842 0.00025603766 -0.002151853 -2.6651838e-05 0.00055789377 1.5683509e-05 0.0005288923 0.00092637003
-1.9348136e-05 -4.6694193e-05 0.00019003969 -0.0012202986 -0.0007606351 0.000241225 0.0011390444 -0.00012904918
-2.4574874e-05 -2.9938272e-05 0.00016996238 -0.0021233931 -0.0024711348 -0.00010519673 0.0010834225 -3.1697e-05
-0.000792742 0.00014318385 -0.00036983512 0.00015435556 0.0004497634 9.9616445e-05 -0.0011658169 0.00013219693
0.0002624062 0.0010032885 0.00090258644 0.00030898285 0.0016772242 -0.0012994889 0.0017247215 -0.0011615247
-0.000107597094 7.993462e-06 0.00030674547 0.0010918044 2.5596997e-05 -0.0011655149 3.449157e-05 -0.00044963995
-0.00047377966 -7.951081e-05 0.0005477735 -0.0010565617 0.00089880347 -8.676421e-05 -0.001515598 -4.7963287e-05
-5.6576773e-05 -0.00083054835 -6.2185427e-06 -6.044512e-05 -9.6728014e-05 -6.768927e-05 0.00048265661 -1.444882e-05
-8.267653e-05 5.9818776e-06 -8.072209e-05 -3.0962132e-05 4.6070476e-05 -5.0737744e-05 0.0005163702 -0.0003616199
00000000: ea80 803a 2c98 b73a fc09 ac3a c888 daba
00000010: 365a a4b8 eaf2 c5b8 e740 27b9 a45c 0b38
00000020: 56f9 05b9 3d23 9aba 35ee 8cb8 1dc7 4d39
00000030: e9b1 e2b8 80b9 8937 a4d1 273a 6c9e 72ba
00000040: 8c1c ceb7 3874 8d3a 9399 96b9 6d1b 8fba
00000050: 6bef 67b7 2070 1739 6bfa c4b8 067d 0d39
00000060: 7dcb 9f37 518b d4b9 2f39 1cb9 3953 8eba
00000070: 0746 17b9 9bbc 3dba c200 fbb9 2268 cdba
00000080: 19bf cbba eb8d 83ba 3480 cab8 b74c b7b9
00000090: 2076 16ba 374d 063b 1149 9eb7 f694 3e38
000000a0: 609d 4eba 4cbe 6c37 32ea ad3a a6bb e13a
000000b0: cee0 8839 84c8 dbb7 b450 c1b8 e091 5eb5
000000c0: dd25 703a 8eb6 a439 e3c8 8b37 7a5c a1b8
000000d0: 83f7 9e38 fb73 3c39 805a b9ba 86a9 7c39
000000e0: 7f52 deba cb3c 8639 1a06 0dbb 6392 dfb7
000000f0: 9e3f 123a 1490 8337 5da5 0a3a a4d7 723a
00000100: ce4d a2b7 82d9 43b8 6445 4739 6df2 9fba
00000110: 5c65 47ba 58f1 7c39 fd4b 953a 6051 07b9
00000120: 2426 ceb7 f323 fbb7 ee37 3239 a028 0bbb
00000130: c3f2 21bb 109d dcb8 a001 8e3a 65f2 04b8
00000140: 04d0 4fba 9f23 1639 6ee6 c1b9 81da 2139
00000150: 39ce eb39 2ce9 d038 53ce 98ba 589e 0a39
00000160: 9093 8939 c780 833a 8d9b 6c3a fafe a139
00000170: 4ed6 db3a 9d53 aaba 0d10 e23a 4d3e 98ba
00000180: c0a5 e1b8 a81b 0637 aed2 a039 e01a 8f3a
00000190: 22b9 d637 31c4 98ba 0bab 1038 a7bd ebb9
000001a0: a165 f8b9 0bbf a6b8 7598 0f3a 547c 8aba
000001b0: ae9d 6b3a 2ef5 b5b8 08a7 c6ba 302c 49b8
000001c0: d94c 6db8 28b9 59ba e0a8 d0b6 7486 7db8
000001d0: 75da cab8 66f4 8db8 130d fd39 3669 72b7
000001e0: a062 adb8 f0b7 c836 5849 a9b8 56dd 01b8
000001f0: cc3b 4138 3dcf 54b8 045d 073a cd97 bdb9

exp_avg_sq f4 [128]
1.0215858e-06 1.8333234e-06 1.6257887e-06 2.2400457e-06 1.4212863e-08 4.9258922e-08 1.4844785e-07 1.5183718e-07
4.728726e-07 1.7346042e-06 1.2634502e-08 1.0212888e-06 3.61994e-08 7.3188575e-09 2.537251e-07 5.846511e-07
2.39494e-09 7.742816e-07 1.2503009e-06 2.0836746e-06 1.5648698e-08 1.1959597e-06 1.2497037e-07 1.17922916e-07
9.700471e-09 5.945414e-07 6.103338e-07 1.7002577e-06 8.690193e-07 3.0100857e-06 1.1180344e-07 2.4362314e-06
2.0257874e-06 1.7268535e-06 7.8224247e-07 1.6559598e-07 5.8339276e-07 4.1342228e-06 3.105556e-08 2.5717418e-08
2.2465963e-06 1.7479405e-08 1.3782134e-06 2.6032433e-06 2.0885807e-06 6.6686736e-09 6.4795285e-09 2.041651e-10
1.178688e-06 8.597003e-08 4.6486182e-08 2.080404e-08 5.965619e-07 1.6476976e-07 2.9013347e-06 1.4140576e-07
2.041394e-06 1.2319462e-06 3.6676554e-06 2.5716735e-09 2.8102988e-07 1.0474914e-06 2.6234645e-07 2.1959622e-06
5.4199476e-09 6.419173e-09 1.3207879e-06 1.9198776e-06 4.1025612e-07 1.2047823e-06 3.098703e-06 2.2385766e-08
1.9056836e-09 6.9594357e-09 2.316385e-06 3.517595e-06 6.5168215e-06 9.704473e-09 1.7939989e-06 1.2154623e-08
6.3852946e-07 3.2877622e-08 8.0181195e-08 2.6672527e-07 3.83435e-07 1.5231612e-06 1.0747497e-06 3.389813e-06
3.8046812e-07 9.596903e-07 1.4249116e-06 3.3995366e-07 3.001427e-06 2.0347384e-06 2.006907e-06 3.919442e-06
1.2936716e-08 6.0979877e-10 1.7638972e-06 9.008704e-07 5.248268e-08 1.6456254e-06 1.3974574e-08 3.1354475e-06
1.8586515e-07 8.326657e-09 2.0783846e-06 8.8166917e-07 6.103289e-07 1.0678278e-08 1.8704876e-06 3.2383138e-08
9.209985e-09 4.5765262e-07 9.725866e-09 8.679267e-09 1.6057463e-08 4.1576884e-09 2.501323e-06 8.920985e-08
1.4620641e-08 4.386489e-09 1.1132039e-08 1.6851682e-09 7.375746e-09 2.0358124e-09 3.1813082e-07 1.2430173e-06
00000000: 6c1d 8935 8310 f635 ad35 da35 b153 1636
00000010: d52c 7432 c290 5333 0965 1f34 b008 2334
00000020: 1edf fd34 8cd0 e835 210f 5932 3713 8935
00000030: a979 1b33 5a79 fb31 b637 8834 ebf0 1c35
00000040: 3b94 2431 3ad8 4f35 03d0 a735 42d5 0b36
00000050: da6b 8632 dd84 a035 982f 0634 cf3c fd33
00000060: 1fa7 2632 9398 1f35 d2d5 2335 6934 e435
00000070: 8d46 6935 e100 4a36 9718 f033 237e 2336
00000080: c3f2 0736 3cc6 e735 4bfb 5135 adce 3134
00000090: 729a 1c35 b4b8 8a36 f361 0533 33e9 dc32
000000a0: 3bc4 1636 9e25 9632 0dfb b835 61b3 2e36
000000b0: 8b29 0c36 4622 e531 89a2 de31 5e7b 602f
000000c0: 6933 9e35 869e b833 19a8 4733 91b4 b232
000000d0: 6c23 2035 91eb 3034 8db4 4236 52d5 1734
000000e0: e2fe 0836 5959 a535 d721 7636 5cb9 3031
000000f0: 74e0 9634 8897 8c35 9fd8 8c34 585e 1336
00000100: 5d3a ba31 a58f dc31 ed45 b135 3fd7 0036
00000110: 2c41 dc34 01b4 a135 50f3 4f36 d24a c032
00000120: 24f5 0231 d81f ef31 3173 1b36 d20f 6c36
00000130: 12ab da36 b9b8 2632 55c9 f035 99d0 5032
00000140: 6967 2b35 5435 0d33 1430 ac33 7132 8f34
00000150: e8da cd34 6c6f cc35 1e40 9035 8b7c 6336
00000160: 2443 cc34 b5ce 8035 973f bf35 e082 b634
00000170: 206c 4936 8a8c 0836 66ae 0636 c083 8336
00000180: 4740 5e32 c69e 2730 0cbf ec35 58d3 7135
00000190: 5169 6133 42df dc35 d414 7032 946a 5236
000001a0: 3992 4734 060d 0f32 607a 0b36 d8ab 6c35
000001b0: 7cd5 2335 9073 3732 770d fb35 a315 0b33
000001c0: f139 1e32 4cb3 f534 d016 2732 d21b 1532
000001d0: bcee 8932 6adb 8e31 67dc 2736 a293 bf33
000001e0: 422e 7b32 f7b7 9631 3a3f 3f32 969b e730
000001f0: bf6d fd31 64e6 0b31 91cb aa34 c0d5 a635
