results/run5/CarAgent/CarAgent-32.onnx (onnx, 644027 bytes, 11 tensors)

network_body.observation_encoder.processors.0.normalizer.running_mean f4 [100]
000000 00 00 00 00 00 00 00 00 00 00 00 00 00 00 00 00
       0.0 0.0 0.0 0.0
000010 00 00 00 00 00 00 00 00 00 00 00 00 00 00 00 00
       0.0 0.0 0.0 0.0
000020 00 00 00 00 00 00 00 00 00 00 00 00 00 00 00 00
       0.0 0.0 0.0 0.0
000030 00 00 00 00 00 00 00 00 00 00 00 00 00 00 00 00
       0.0 0.0 0.0 0.0
000040 00 00 00 00 00 00 00 00 00 00 00 00 00 00 00 00
       0.0 0.0 0.0 0.0
000050 00 00 00 00 00 00 00 00 00 00 00 00 00 00 00 00
       0.0 0.0 0.0 0.0
000060 00 00 00 00 00 00 00 00 00 00 00 00 00 00 00 00
       0.0 0.0 0.0 0.0
000070 00 00 00 00 00 00 00 00 00 00 00 00 00 00 00 00
       0.0 0.0 0.0 0.0
000080 00 00 00 00 00 00 00 00 00 00 00 00 00 00 00 00
       0.0 0.0 0.0 0.0
000090 00 00 00 00 00 00 00 00 00 00 00 00 00 00 00 00
       0.0 0.0 0.0 0.0
0000a0 00 00 00 00 00 00 00 00 00 00 00 00 00 00 00 00
       0.0 0.0 0.0 0.0
0000b0 00 00 00 00 00 00 00 00 00 00 00 00 00 00 00 00
       0.0 0.0 0.0 0.0
0000c0 00 00 00 00 00 00 00 00 00 00 00 00 00 00 00 00
       0.0 0.0 0.0 0.0
0000d0 00 00 00 00 00 00 00 00 00 00 00 00 00 00 00 00
       0.0 0.0 0.0 0.0
0000e0 00 00 00 00 00 00 00 00 00 00 00 00 00 00 00 00
       0.0 0.0 0.0 0.0
0000f0 00 00 00 00 00 00 00 00 00 00 00 00 00 00 00 00
       0.0 0.0 0.0 0.0
000100 00 00 00 00 00 00 00 00 00 00 00 00 00 00 00 00
       0.0 0.0 0.0 0.0
000110 00 00 00 00 00 00 00 00 00 00 00 00 00 00 00 00
       0.0 0.0 0.0 0.0
000120 00 00 00 00 00 00 00 00 00 00 00 00 00 00 00 00
       0.0 0.0 0.0 0.0
000130 00 00 00 00 00 00 00 00 00 00 00 00 00 00 00 00
       0.0 0.0 0.0 0.0
000140 00 00 00 00 00 00 00 00 00 00 00 00 00 00 00 00
       0.0 0.0 0.0 0.0
000150 00 00 00 00 00 00 00 00 00 00 00 00 00 00 00 00
       0.0 0.0 0.0 0.0
000160 00 00 00 00 00 00 00 00 00 00 00 00 00 00 00 00
       0.0 0.0 0.0 0.0
000170 00 00 00 00 00 00 00 00 00 00 00 00 00 00 00 00
       0.0 0.0 0.0 0.0
000180 00 00 00 00 00 00 00 00 00 00 00 00 00 00 00 00
       0.0 0.0 0.0 0.0

network_body.observation_encoder.processors.1.normalizer.running_mean f4 [6]
000000 00 00 00 00 00 00 00 00 00 00 00 00 00 00 00 00
       0.0 0.0 0.0 0.0
000010 00 00 00 00 00 00 00 00
       0.0 0.0

network_body._body_endoder.seq_layers.0.weight f4 [256, 106]
000000 ce 77 8b 3d 2d ae 0b bb ea a5 a0 3d 85 14 1d 3e
       0.0680996 -0.0021313534 0.078441456 0.15339859
000010 26 85 3f bc c8 c1 26 be 92 a1 b6 3a 52 73 10 3d
       -0.01168946 -0.16284859 0.001393365 0.035266228
000020 39 53 e0 bd cc 09 eb 3c 26 37 04 be 67 ce ca bd
       -0.109533735 0.028691195 -0.12911662 -0.099026494
000030 4d eb 4d bd aa 2f 3b 3b f2 b0 76 bd b2 cd b1 3d
       -0.05027323 0.0028562346 -0.060227342 0.086818114
000040 5f e7 f9 bb 29 ae 0b bd c1 e7 d6 3d 5c 16 4e be
       -0.0076264585 -0.03410164 0.10493422 -0.20125717
000050 ed 1a 3d bd 22 68 27 bd 57 d5 3a be 47 1a 8e 3d
       -0.046168257 -0.040870793 -0.18245445 0.06938606
000060 d7 72 1f 3e bb 71 d2 bd bf 41 0c 3d 4a d7 28 3e
       0.15571152 -0.102755986 0.034242388 0.16488376
000070 42 b8 25 3d b9 e6 af ba c4 c4 06 3e 3a 6f 0d 3e
       0.040458925 -0.0013420201 0.13160998 0.13811961
000080 91 74 e7 bd 9f e5 a0 3b 0a bd af bd cb f9 67 3d
       -0.1130153 0.0049101855 -0.08580978 0.056634706
000090 5f 08 0b be 65 97 98 3d d0 59 5b 3d 43 28 8a bd
       -0.13577412 0.07450751 0.05355245 -0.067459606
0000a0 95 a6 b5 bd 19 00 03 3c d3 15 a0 bc a9 9c e4 bd
       -0.088696636 0.007995629 -0.019541657 -0.11162693
0000b0 50 fc 37 3c fb e3 43 3e b0 b9 2e 3c 18 af 2a 3d
       0.01122959 0.19129936 0.010664389 0.04167089
0000c0 bc 5b 00 bd b6 70 b8 bd 13 3e 43 bd 78 e4 29 3d
       -0.031337485 -0.09005873 -0.04766662 0.04147765
0000d0 48 ea ea 3c 36 0f fc bd 92 73 73 ba 3d bf 7b bd
       0.028676167 -0.12307589 -0.00092869357 -0.061461676
0000e0 0e 42 59 3c 17 10 8a bd a6 fe 07 bd 13 30 0c 3e
       0.013260378 -0.0674135 -0.033201836 0.13690214
0000f0 c9 3f 8c bd 06 ce 4b 3e 2a b4 84 3c cb 7e b5 3d
       -0.068481036 0.1990281 0.01619919 0.088620745
000100 b4 a3 7d 3d b1 bc 28 3d 2f c9 10 be 56 96 2f bd
       0.061923698 0.041195575 -0.14139245 -0.04286798
000110 93 77 ad bc 63 c7 71 3e 82 6f 67 3d 12 04 ad 3c
       -0.021175181 0.23611216 0.056502827 0.021120105
000120 49 86 eb bc 3c 28 23 3d ea 94 f8 3c 51 d9 48 bd
       -0.028750556 0.039833292 0.030344445 -0.049035374
000130 b0 3e d8 bd 71 c8 7c 3d ac 7a 3e be 07 97 9d bd
       -0.10558832 0.061714593 -0.18601483 -0.07694822
000140 05 62 c7 3d 48 2b 65 3e 4f 31 bd 3c 5c 3a 82 3e
       0.097354926 0.22379792 0.023094801 0.2543515
000150 34 5f ab bd 4a 04 d9 3d 58 95 1f 3c a8 93 ee bc
       -0.08367768 0.10596521 0.009740196 -0.029123142
000160 91 31 91 bd 16 6d 3b be 29 99 01 be bd fa 4e be
       -0.07089532 -0.18303332 -0.12656082 -0.20212837
000170 ff 26 a3 3c 25 04 f3 3d d0 6d 5a 3d bd 41 53 3c
       0.019916056 0.11866025 0.05332738 0.012894091
000180 3f 41 12 3d 6d 0c 09 3d fb a7 a0 bc 45 65 23 be
       0.035706755 0.033459116 -0.01961135 -0.159566
000190 21 a7 a7 3c 33 b9 b0 3d d8 be 80 3d 2e 11 8b bd
       0.020465435 0.08629074 0.062864006 -0.06790386
0001a0 b5 6a 10 be bd be bc bd ee 4b 1e 3e 27 19 bb 3b
       -0.14103206 -0.09216068 0.15458652 0.0057097855
0001b0 8c 5c af 3d be c1 4b 3d bc 0d a6 be f7 94 09 3e
       0.08562574 0.049745314 -0.32432353 0.13435732
0001c0 f1 62 40 3d 92 28 17 3d 4f ed a8 3d f4 88 f6 3d
       0.046969358 0.036903925 0.08248388 0.120378405
0001d0 2f c9 4e 3c 1d bd d2 3d 83 43 89 3d 9d ed 7e bd
       0.012621208 0.10289977 0.0670233 -0.062238324
0001e0 10 e1 02 bd 17 69 4e 3d 5d 04 91 3c f8 4c 7f 3d
       -0.031952918 0.05039319 0.017702276 0.062329262
0001f0 04 66 01 be 11 fc 36 3e 9f b7 c0 bc 98 27 cb 3b
       -0.12636572 0.17869593 -0.023525057 0.0061997883
000200 5a eb 87 bd 43 68 26 bd bd 43 f2 bd 99 ee 98 3d
       -0.066366866 -0.040626775 -0.11829326 0.07467384
000210 0a fc 0d bc fd 9d 5b 3d 3c f6 1f 3c 16 58 43 bd
       -0.008666048 0.053617466 0.009763297 -0.047691427
000220 14 2e 61 bd 8e c8 c0 3d 4c 1c d6 3d 5b 20 86 3d
       -0.054975584 0.09413253 0.10454616 0.0654914
000230 67 fd 19 be 72 49 aa bd f6 9f d7 3d 18 27 a9 3d
       -0.15038072 -0.0831479 0.10528557 0.0825941
000240 7b 2c c2 3d 97 c6 36 be bf b9 00 3e e5 00 ce 3d
       0.0948114 -0.17849194 0.12570857 0.10058764
000250 5f b2 78 bd 5b 6a 1a 3d dd 53 b3 3d cd 7c 90 3d
       -0.060716983 0.037699085 0.0875623 0.07055054
000260 38 90 b6 3d d5 d8 51 3d 4b 34 b8 bb 0d 6c 60 3b
       0.08914226 0.051232178 -0.005621468 0.003424409
000270 6f a8 08 3d 48 e1 11 3d e2 5b 99 bd 19 6d ac bd
       0.033363756 0.035615236 -0.074882284 -0.08419246
000280 ab 5a a9 bd e9 4b 31 bb 3a 85 cd bd 10 02 70 3d
       -0.08269247 -0.0027053303 -0.100351766 0.058595717
000290 6e 8c 7c 3d 0b 4b c7 3b c0 ae c2 3c ab 82 4b bd
       0.06165736 0.006081944 0.023764968 -0.04968516
0002a0 3f 91 90 3d 3a 8c e4 3d 26 69 f3 3c 1a 5c b3 3d
       0.070589535 0.111595586 0.029713225 0.08757801
0002b0 0d 38 57 bd d4 81 b1 bd d3 38 3e be 6d 3c c3 3b
       -0.05254369 -0.08667341 -0.18576364 0.005958131
0002c0 9c e7 d3 3d 71 6c 96 bd 6f 45 e6 bc 45 b2 2e be
       0.1034691 -0.07344902 -0.02810928 -0.17060192
0002d0 0d ae a9 bc 74 8e cf bd 1d a4 90 3d 31 f0 41 3c
       -0.020712877 -0.10134593 0.07062552 0.011837051
0002e0 fd 1c 76 3d a1 50 46 3d ca ac b0 bc a1 af 50 bd
       0.06008624 0.048416737 -0.021566767 -0.050948743
0002f0 da e2 2e 3c b1 83 f1 3d 3f 99 a5 3c 5f 99 f5 bd
       0.010674203 0.11792696 0.020214675 -0.11992144
000300 b7 45 27 3c a8 94 57 bc 8c 28 f6 3d 74 a4 db 3d
       0.010209492 -0.013158001 0.120194525 0.10724726
000310 02 9e 22 be 1c 84 e6 bd 82 23 d7 3d d4 ec bd 3c
       -0.15880588 -0.112556666 0.105048195 0.023184218
000320 b3 62 9c 3d 86 49 47 bc 7d 52 32 3d e5 ef 29 3d
       0.07636013 -0.012163525 0.0435357 0.041488547
000330 d6 ae e9 bd 61 2e a7 3d 47 a8 9a bd 15 55 65 be
       -0.114103004 0.08163143 -0.075516276 -0.22395737
000340 6b 72 08 bd 3f b4 25 3c 19 34 97 3d 1b 16 fa 3d
       -0.033312242 0.010113775 0.07382984 0.122112475
000350 02 05 16 3e 2a 29 89 3e 53 59 91 3d 90 52 d9 3c
       0.14650348 0.26789218 0.07097115 0.026528627
000360 3e a0 45 bd 95 ec 18 be f4 93 a3 3d a7 a0 4d 3e
       -0.048248522 -0.14933999 0.07987204 0.20080815
000370 d0 87 e6 ba 85 0b ed 3d 1e 0f 84 bc 6e e5 b2 3d
       -0.0017588083 0.11574463 -0.01612049 0.087351665
000380 49 25 f4 3d 59 be 46 3e 7b 1f 5e 3e 57 23 3e 3d
       0.11921174 0.1940855 0.21691696 0.04642042
000390 8b 3f d0 bd 0f 92 61 bd 9f c3 a9 3c 39 e1 7d bc
       -0.1016837 -0.055070933 0.020723162 -0.015495592
0003a0 e3 eb 2c 3d d7 36 cb 3d 69 06 98 3c f0 ea 07 3d
       0.042217147 0.09922569 0.018557744 0.03318304
0003b0 8a 28 fe 3d dd ac c7 3c 5f e3 e7 ba 83 81 64 3d
       0.12410076 0.02437442 -0.0017691663 0.055787574
0003c0 74 9c 48 bd 54 6b cf 3d 81 66 ba bc 2f 92 a3 bd
       -0.04897733 0.10127893 -0.022753956 -0.07986867
0003d0 1a 5d b0 3d 37 69 f4 bd 01 f2 a2 3c fb 07 b4 bd
       0.08611508 -0.11934131 0.019890787 -0.08790585
0003e0 de 10 e5 bc 9a 16 94 bd 29 99 be 3a 0d 33 09 3e
       -0.027962144 -0.072308734 0.0014541495 0.1339838
0003f0 40 15 39 3d fd 90 1a be ea b1 f0 3d 30 b9 3c 3e
       0.04518628 -0.15094371 0.117526844 0.18430018

network_body._body_endoder.seq_layers.0.bias f4 [256]
000000 00 00 00 00 00 00 00 00 00 00 00 00 00 00 00 00
       0.0 0.0 0.0 0.0
000010 00 00 00 00 00 00 00 00 00 00 00 00 00 00 00 00
       0.0 0.0 0.0 0.0
000020 00 00 00 00 00 00 00 00 00 00 00 00 00 00 00 00
       0.0 0.0 0.0 0.0
000030 00 00 00 00 00 00 00 00 00 00 00 00 00 00 00 00
       0.0 0.0 0.0 0.0
000040 00 00 00 00 00 00 00 00 00 00 00 00 00 00 00 00
       0.0 0.0 0.0 0.0
000050 00 00 00 00 00 00 00 00 00 00 00 00 00 00 00 00
       0.0 0.0 0.0 0.0
000060 00 00 00 00 00 00 00 00 00 00 00 00 00 00 00 00
       0.0 0.0 0.0 0.0
000070 00 00 00 00 00 00 00 00 00 00 00 00 00 00 00 00
       0.0 0.0 0.0 0.0
000080 00 00 00 00 00 00 00 00 00 00 00 00 00 00 00 00
       0.0 0.0 0.0 0.0
000090 00 00 00 00 00 00 00 00 00 00 00 00 00 00 00 00
       0.0 0.0 0.0 0.0
0000a0 00 00 00 00 00 00 00 00 00 00 00 00 00 00 00 00
       0.0 0.0 0.0 0.0
0000b0 00 00 00 00 00 00 00 00 00 00 00 00 00 00 00 00
       0.0 0.0 0.0 0.0
0000c0 00 00 00 00 00 00 00 00 00 00 00 00 00 00 00 00
       0.0 0.0 0.0 0.0
0000d0 00 00 00 00 00 00 00 00 00 00 00 00 00 00 00 00
       0.0 0.0 0.0 0.0
0000e0 00 00 00 00 00 00 00 00 00 00 00 00 00 00 00 00
       0.0 0.0 0.0 0.0
0000f0 00 00 00 00 00 00 00 00 00 00 00 00 00 00 00 00
       0.0 0.0 0.0 0.0
000100 00 00 00 00 00 00 00 00 00 00 00 00 00 00 00 00
       0.0 0.0 0.0 0.0
000110 00 00 00 00 00 00 00 00 00 00 00 00 00 00 00 00
       0.0 0.0 0.0 0.0
000120 00 00 00 00 00 00 00 00 00 00 00 00 00 00 00 00
       0.0 0.0 0.0 0.0
000130 00 00 00 00 00 00 00 00 00 00 00 00 00 00 00 00
       0.0 0.0 0.0 0.0
000140 00 00 00 00 00 00 00 00 00 00 00 00 00 00 00 00
       0.0 0.0 0.0 0.0
000150 00 00 00 00 00 00 00 00 00 00 00 00 00 00 00 00
       0.0 0.0 0.0 0.0
000160 00 00 00 00 00 00 00 00 00 00 00 00 00 00 00 00
       0.0 0.0 0.0 0.0
000170 00 00 00 00 00 00 00 00 00 00 00 00 00 00 00 00
       0.0 0.0 0.0 0.0
000180 00 00 00 00 00 00 00 00 00 00 00 00 00 00 00 00
       0.0 0.0 0.0 0.0
000190 00 00 00 00 00 00 00 00 00 00 00 00 00 00 00 00
       0.0 0.0 0.0 0.0
0001a0 00 00 00 00 00 00 00 00 00 00 00 00 00 00 00 00
       0.0 0.0 0.0 0.0
0001b0 00 00 00 00 00 00 00 00 00 00 00 00 00 00 00 00
       0.0 0.0 0.0 0.0
0001c0 00 00 00 00 00 00 00 00 00 00 00 00 00 00 00 00
       0.0 0.0 0.0 0.0
0001d0 00 00 00 00 00 00 00 00 00 00 00 00 00 00 00 00
       0.0 0.0 0.0 0.0
0001e0 00 00 00 00 00 00 00 00 00 00 00 00 00 00 00 00
       0.0 0.0 0.0 0.0
0001f0 00 00 00 00 00 00 00 00 00 00 00 00 00 00 00 00
       0.0 0.0 0.0 0.0
000200 00 00 00 00 00 00 00 00 00 00 00 00 00 00 00 00
       0.0 0.0 0.0 0.0
000210 00 00 00 00 00 00 00 00 00 00 00 00 00 00 00 00
       0.0 0.0 0.0 0.0
000220 00 00 00 00 00 00 00 00 00 00 00 00 00 00 00 00
       0.0 0.0 0.0 0.0
000230 00 00 00 00 00 00 00 00 00 00 00 00 00 00 00 00
       0.0 0.0 0.0 0.0
000240 00 00 00 00 00 00 00 00 00 00 00 00 00 00 00 00
       0.0 0.0 0.0 0.0
000250 00 00 00 00 00 00 00 00 00 00 00 00 00 00 00 00
       0.0 0.0 0.0 0.0
000260 00 00 00 00 00 00 00 00 00 00 00 00 00 00 00 00
       0.0 0.0 0.0 0.0
000270 00 00 00 00 00 00 00 00 00 00 00 00 00 00 00 00
       0.0 0.0 0.0 0.0
000280 00 00 00 00 00 00 00 00 00 00 00 00 00 00 00 00
       0.0 0.0 0.0 0.0
000290 00 00 00 00 00 00 00 00 00 00 00 00 00 00 00 00
       0.0 0.0 0.0 0.0
0002a0 00 00 00 00 00 00 00 00 00 00 00 00 00 00 00 00
       0.0 0.0 0.0 0.0
0002b0 00 00 00 00 00 00 00 00 00 00 00 00 00 00 00 00
       0.0 0.0 0.0 0.0
0002c0 00 00 00 00 00 00 00 00 00 00 00 00 00 00 00 00
       0.0 0.0 0.0 0.0
0002d0 00 00 00 00 00 00 00 00 00 00 00 00 00 00 00 00
       0.0 0.0 0.0 0.0
0002e0 00 00 00 00 00 00 00 00 00 00 00 00 00 00 00 00
       0.0 0.0 0.0 0.0
0002f0 00 00 00 00 00 00 00 00 00 00 00 00 00 00 00 00
       0.0 0.0 0.0 0.0
000300 00 00 00 00 00 00 00 00 00 00 00 00 00 00 00 00
       0.0 0.0 0.0 0.0
000310 00 00 00 00 00 00 00 00 00 00 00 00 00 00 00 00
       0.0 0.0 0.0 0.0
000320 00 00 00 00 00 00 00 00 00 00 00 00 00 00 00 00
       0.0 0.0 0.0 0.0
000330 00 00 00 00 00 00 00 00 00 00 00 00 00 00 00 00
       0.0 0.0 0.0 0.0
000340 00 00 00 00 00 00 00 00 00 00 00 00 00 00 00 00
       0.0 0.0 0.0 0.0
000350 00 00 00 00 00 00 00 00 00 00 00 00 00 00 00 00
       0.0 0.0 0.0 0.0
000360 00 00 00 00 00 00 00 00 00 00 00 00 00 00 00 00
       0.0 0.0 0.0 0.0
000370 00 00 00 00 00 00 00 00 00 00 00 00 00 00 00 00
       0.0 0.0 0.0 0.0
000380 00 00 00 00 00 00 00 00 00 00 00 00 00 00 00 00
       0.0 0.0 0.0 0.0
000390 00 00 00 00 00 00 00 00 00 00 00 00 00 00 00 00
       0.0 0.0 0.0 0.0
0003a0 00 00 00 00 00 00 00 00 00 00 00 00 00 00 00 00
       0.0 0.0 0.0 0.0
0003b0 00 00 00 00 00 00 00 00 00 00 00 00 00 00 00 00
       0.0 0.0 0.0 0.0
0003c0 00 00 00 00 00 00 00 00 00 00 00 00 00 00 00 00
       0.0 0.0 0.0 0.0
0003d0 00 00 00 00 00 00 00 00 00 00 00 00 00 00 00 00
       0.0 0.0 0.0 0.0
0003e0 00 00 00 00 00 00 00 00 00 00 00 00 00 00 00 00
       0.0 0.0 0.0 0.0
0003f0 00 00 00 00 00 00 00 00 00 00 00 00 00 00 00 00
       0.0 0.0 0.0 0.0

network_body._body_endoder.seq_layers.2.weight f4 [256, 256]
000000 28 80 98 3d 8c a2 9c 3d 54 6e d0 3c a9 17 9a bc
       0.07446319 0.07648191 0.025443234 -0.01881011
000010 f1 b9 ff 3c 87 93 09 be c4 8e 1a bd 56 2c a4 3d
       0.031216593 -0.13435183 -0.03773381 0.08016269
000020 e6 f2 1a 3e c2 17 af bc 27 8d a7 bd 73 18 0f bd
       0.15131721 -0.021373633 -0.081812195 -0.034935426
000030 30 01 ec bd d6 cd 5b 3d 0e ab 67 3d 06 e5 0f bd
       -0.11523664 0.053663097 0.056559615 -0.035130523
000040 29 41 aa bc c2 0a 2d bc fb 2e be bd 3e 35 0f bd
       -0.020783024 -0.010561647 -0.092863046 -0.034962885
000050 7a 40 e7 bd 32 0a 06 bd 22 07 8b bd a1 2b 8c 3c
       -0.11291595 -0.032724567 -0.0678847 0.017110648
000060 26 43 42 3d 36 f0 69 bd d8 d1 88 bd cb 60 46 3d
       0.04742732 -0.05711385 -0.066806495 0.048432153
000070 6c fb 81 bd f4 87 43 3d dd 00 9a 3c f1 40 bd 3c
       -0.06346783 0.047737077 0.01879924 0.023102256
000080 33 3c b5 bc e6 aa 08 3d 4e da 49 3c fd 8c 9e bb
       -0.022123432 0.033366106 0.012320114 -0.0048385845
000090 72 91 2c 3e f0 d4 4a 3d 68 43 ae bc ab 4b 6e bd
       0.16852358 0.04951948 -0.021272376 -0.05817763
0000a0 c2 62 ab 3c f9 08 9d bc 95 36 c0 bd 13 15 79 bd
       0.020921115 -0.019169318 -0.09385411 -0.060811114
0000b0 9c d2 c9 3d b0 9c b2 3d f1 52 34 bd 7d e2 05 be
       0.09854624 0.08721292 -0.04402441 -0.1307468
0000c0 b9 4f 67 bd ba 09 63 bd e3 73 1b bd 7a 8e 8e 3d
       -0.056472514 -0.055429198 -0.037952315 0.06960769
0000d0 71 e9 ee bc 85 44 89 3d a1 92 b7 3c 3b 78 53 3d
       -0.029164048 0.06702522 0.022408785 0.051628333
0000e0 68 94 9e 3d 7c 9b 65 3d f4 67 cb bd 66 8f 16 3c
       0.0774315 0.056056485 -0.09931937 0.009189462
0000f0 a2 b0 d2 3d 77 b2 ef 3c a3 94 bb bc 97 29 b7 3d
       0.10287596 0.029259903 -0.022898024 0.089434795
000100 25 94 5d 3b 0c 6f 5f bc f9 91 5f bc af 62 90 3a
       0.0033810225 -0.0136373155 -0.013645642 0.0011015738
000110 5d 5f e4 bc 73 da 83 3b 23 ff 87 3d a0 54 97 3c
       -0.027877504 0.004023844 0.0664046 0.01847297
000120 d9 bd 4c 3d 35 71 96 bd bc 0c c5 3d 62 c7 0b 3d
       0.04998574 -0.07345811 0.096215695 0.034125693
000130 36 e6 88 3d 70 d2 2b 3d e5 a4 09 3c 36 5c 91 bb
       0.06684534 0.041948736 0.00840113 -0.004436041
000140 5a f9 c8 3d 11 ca 75 3d fb c6 01 be 38 34 14 3d
       0.09813185 0.06000716 -0.12673561 0.036182612
000150 7b de 30 3d 6e 99 bd bd 5a 20 ca bd 69 34 a5 bd
       0.043180924 -0.0925778 -0.09869452 -0.08066637
000160 f7 bc 3e 3e 9e 0c f5 bd 6b 4d 9c bb 75 eb 62 bd
       0.18626772 -0.11965297 -0.004769971 -0.05540033
000170 20 06 e0 bd ee ff 80 bc 79 be ff 3d 8e 83 71 bd
       -0.10938668 -0.015747037 0.12487502 -0.05896335
000180 e8 3c a5 bc 4a 1e 64 3d cc db 6c bd 81 fd 28 3d
       -0.020170644 0.05569295 -0.057826802 0.041257385
000190 e1 9f 61 3d d7 b3 40 3d a7 e4 81 bb 77 3f a7 3d
       0.055084113 0.04704651 -0.003964025 0.08166402
0001a0 6a 0b 8c 3d a0 bb 2b bc 48 8c 20 3d 40 3c c4 3a
       0.068381146 -0.010481745 0.039196283 0.0014971569
0001b0 d0 88 99 bc a8 e1 8c bc 0b e8 ac 3a 21 f3 43 bb
       -0.018741995 -0.017197445 0.0013191713 -0.0029899555
0001c0 36 53 d6 3c 8e d9 aa bc 13 70 89 bd 97 ec cb bb
       0.026162725 -0.020855691 -0.067108296 -0.006223272
0001d0 e0 8f c1 3c 09 be a3 3c ae 03 c1 bd ea 16 7b 3d
       0.023628175 0.019988077 -0.0942453 0.06130115
0001e0 60 01 bf ba 84 fa 3b bd c5 7e 2f 3d b1 8d b1 3d
       -0.0014572553 -0.045893207 0.042845506 0.086696036
0001f0 fb cf c8 3d 71 10 86 bd 94 18 8e bd c9 94 e3 bc
       0.09805294 -0.06546105 -0.06938282 -0.027780907
000200 62 e4 03 3d 02 2f a1 3d 50 d6 03 3d 24 11 40 bc
       0.032200225 0.07870294 0.032186806 -0.011722837
000210 33 4f 8d 3d 1a f0 45 3c d8 b1 86 3d 1b b1 b1 bb
       0.06899872 0.01208117 0.0657689 -0.005422724
000220 43 4c f5 3a f2 8c 14 3d a0 81 2c bd 62 76 b3 3d
       0.0018714744 0.03626723 -0.042115808 0.08762814
000230 71 9f 34 3c f6 bb 6f 3d 27 c0 ab bd ad 36 b6 3d
       0.011024342 0.058528863 -0.083862595 0.08897147
000240 45 bb b3 bd 11 bf dc bc e6 92 50 bc ea a2 af bb
       -0.08775953 -0.026946576 -0.012730336 -0.005359997
000250 f1 d1 9f 3c da 7b d9 bd 95 03 92 3d f6 c4 c9 bd
       0.019509288 -0.10619326 0.071295895 -0.098520204
000260 d5 f3 a1 3d ee 64 1b 3c b9 f6 14 bc 78 61 ac 3c
       0.079078354 0.009484513 -0.009092026 0.02104257
000270 57 01 94 3d c4 b1 1b 3b ca b3 e8 bc 5d 99 93 bc
       0.07226818 0.002375708 -0.028406043 -0.018017465
000280 81 2b da bd b7 f8 ab bd 0a 50 44 3c 7b 06 90 3d
       -0.10652829 -0.08397048 0.011981973 0.07032486
000290 a6 ca b0 bc 15 8d 87 bd de a0 f1 3d 51 18 58 bc
       -0.021581005 -0.06618706 0.11798261 -0.013189391
0002a0 22 82 bc 3d 96 01 a6 3d fb d5 b5 bc 7c 4d 73 bc
       0.09204508 0.08105771 -0.02219676 -0.014850017
0002b0 dd d3 a6 3b 1b d6 2b 3d df a1 33 3d 86 28 8c bc
       0.005091174 0.041952234 0.043855544 -0.017109167
0002c0 87 b1 2f bd 40 5c 2c 3d 2d 68 8d bd 86 04 cb bc
       -0.042893913 0.042080164 -0.069046356 -0.02478243
0002d0 b2 bf 5a 3d 26 3d 76 bd 7c 6d 8e bd c2 31 a3 bc
       0.05340547 -0.06011691 -0.06954476 -0.019921187
0002e0 82 b9 cf bd d3 c2 4e bc e1 21 8f bc e0 e8 bd bd
       -0.10142805 -0.012619692 -0.01747221 -0.09272933
0002f0 b0 40 35 bb 0a 4d 23 3a 42 7e b1 3c 20 4a 66 3c
       -0.0027656965 0.0006229436 0.02166665 0.014055759
000300 9c 7c 1a 3c c7 c3 7f bd 2a 65 d4 bd fa 8d 73 3d
       0.009429123 -0.062442567 -0.10370858 0.05946157
000310 68 95 78 bc 3a 02 ff 3c 04 d4 d8 bd 85 11 c7 bb
       -0.01517234 0.031128991 -0.10587314 -0.0060750865
000320 25 42 67 3d 7f a1 ea 3c d5 64 8a 3d 35 a7 a8 bd
       0.056459565 0.02864146 0.067575134 -0.08235017
000330 93 01 20 bb 3f 01 ea bc 31 c1 2b 3d e4 47 1c bd
       -0.0024415 -0.028565047 0.04193229 -0.038154498
000340 ae 17 e9 bc c8 e6 1f bd f1 37 21 bd 6b 83 71 3d
       -0.028453674 -0.03903845 -0.03935999 0.05896322
000350 05 6a 77 bb c0 ca cd 3d dc 1e d3 3b f3 22 7d 3c
       -0.0037752402 0.10048437 0.0064428877 0.015450227
000360 b0 0d ed bd 51 15 84 bc 4d 05 1b 3d 9d 84 21 3d
       -0.11574876 -0.016123446 0.037846852 0.03943311
000370 3d 03 02 be af 3e d5 3c f2 31 a8 bd 37 ac 89 bc
       -0.12696548 0.026030866 -0.08212651 -0.016805751
000380 8c 29 20 3d 35 94 30 bc 9b 6c cc 3c c8 a2 11 bd
       0.039102122 -0.010777523 0.02495413 -0.03555563
000390 7b da 90 3d d3 b2 f4 bb 56 f1 ee bd 7c d1 3d bc
       0.07072922 -0.0074676066 -0.11667125 -0.0115855895
0003a0 19 25 7f bc cc 8a 23 be 8f a1 a0 3d 08 d4 2c bc
       -0.01557281 -0.15970916 0.07843315 -0.010548599
0003b0 8d 7f de bb 3f 5e 0d be 6e c7 9f 3d 5a 30 b4 bd
       -0.0067901076 -0.13805483 0.0780171 -0.08798285
0003c0 11 a7 f5 bc e1 33 74 3d 6f 24 f8 3c 0b bc dc 3d
       -0.02998689 0.059619788 0.03029081 0.10778054
0003d0 06 da 37 3e 8a 34 d1 3a 01 ca 26 3c dc 1e 35 3d
       0.17954263 0.0015961092 0.010179997 0.044218883
0003e0 17 f7 0e 3d f6 ea 86 bb 20 10 aa 3d 68 7a a9 3c
       0.034903612 -0.004117365 0.08303857 0.02068825
0003f0 7e 94 ce 3d 87 6f d0 bd c9 1d 03 3e 30 46 4d bd
       0.100869164 -0.10177522 0.12804331 -0.050115764

network_body._body_endoder.seq_layers.4.weight f4 [256, 256]
000000 08 c4 d3 3d a4 d5 c0 3d af cb c6 3d 44 88 75 3d
       0.10340124 0.09415749 0.09706818 0.059944406
000010 f7 e9 9e bc 25 f7 51 3c 2c 21 ce 3d 8e 81 57 3d
       -0.019398673 0.0128152715 0.10064921 0.052613787
000020 50 91 65 bd 1c 33 4f bc d6 fe c8 3d 55 ec 9b bc
       -0.056046784 -0.012646463 0.09814231 -0.01903359
000030 89 77 1e bd cc bc f4 3d b2 08 0c 3c 87 4c be 3a
       -0.038688216 0.11950073 0.008546995 0.0014518657
000040 c2 1b a7 3c 9a 09 a5 bd b1 43 ae bc 5a bb 8d 3d
       0.020398978 -0.08058472 -0.021272512 0.069205
000050 79 42 c9 3b 29 56 95 bd 1b c9 e3 3b 02 9e 90 3c
       0.0061419574 -0.07291824 0.006951464 0.017653469
000060 3f cf c7 bd 79 76 cc bb f0 c5 80 bd a6 e3 8e 3c
       -0.09756326 -0.006239709 -0.062877536 0.017442536
000070 fc fd d0 3c e0 82 47 3d 4f 91 8c bd df 29 83 3c
       0.025511734 0.048708797 -0.06863653 0.016011177
000080 a1 ae 39 3d d8 bf 49 bd 7c b5 1a 3d a9 5b 96 3c
       0.045332555 -0.049255222 0.037770733 0.018354254
000090 c3 74 71 3d 31 67 04 3e 39 6a 12 bd fc 32 7a bc
       0.058949243 0.1292999 -0.035745833 -0.015270945
0000a0 a3 23 9f 3b ac 16 aa 3d 61 a5 4b 3d 82 48 2d 3d
       0.004856543 0.083051056 0.049718264 0.042305477
0000b0 57 3b a0 3d d4 8f 4e bd 16 c0 44 3c 3f 11 2b bd
       0.07823818 -0.050430134 0.0120086875 -0.041764494
0000c0 cd 34 1d 3d 82 10 16 be dd af 94 3c 82 b7 c6 bc
       0.038380433 -0.14654735 0.018150264 -0.024257425
0000d0 ce ea 0f 3c 70 33 69 3d bf 09 1c bd 2a cc 25 be
       0.008784009 0.05693382 -0.038095232 -0.16191164
0000e0 3f f9 07 3d 68 cb 9c bd 26 57 24 bd f1 40 10 bd
       0.033196684 -0.07655984 -0.040122174 -0.035218183
0000f0 87 2f 09 3d c9 98 72 3d 1f cf 90 3d 34 c7 3f 3d
       0.03349259 0.05922774 0.07070755 0.046820834
000100 f9 5c 47 bd 86 f9 b2 3d f3 c7 fa 3c f8 71 87 3d
       -0.04867265 0.08738999 0.030612921 0.06613535
000110 26 ff 23 bd 1a 93 4b 3d 9c 92 0c 3c 4b bc 9f 3d
       -0.04003825 0.049700834 0.008579876 0.07799586
000120 2a 14 bb bd 1c b7 6a 3d e2 8a d8 bd 51 1b c7 3b
       -0.09134705 0.057303533 -0.10573365 0.0060762544
000130 6d 54 2c 3c 32 b1 18 3d cb 96 70 3d 64 74 7f 3d
       0.010518176 0.03727836 0.058737557 0.062366858
000140 2f b7 9f bc 30 c0 a6 3c 7c bc cb bc b1 31 0c 3c
       -0.019496528 0.020355314 -0.02487015 0.008556769
000150 6b ba fc 3b 5e d5 f0 bc 02 3a 86 3c b9 f0 c0 3d
       0.0077126524 -0.029398616 0.016385082 0.09420914
000160 a1 2f 0e be 89 aa 9d 3b d7 87 94 3d 81 e3 46 3d
       -0.13885356 0.004811589 0.07252472 0.04855681
000170 6c 10 d4 bb 19 f4 90 3d 77 fb 5b 3d c9 e0 06 3d
       -0.006471684 0.07077808 0.053706612 0.032929216
000180 aa af b9 bd f7 e9 2d 3d a3 fa e3 bc 61 56 fe bc
       -0.090667084 0.042459454 -0.027829474 -0.031047048
000190 2c 7a b8 3c 97 8c b9 bd a6 fe 97 3c f0 ac 87 3d
       0.022519194 -0.090600185 0.018554043 0.06624782
0001a0 c0 2b 03 3d ec 33 fc bd 20 0e 93 3c 5e c0 05 3e
       0.032024145 -0.12314591 0.017951071 0.13061664
0001b0 c6 cf cf bc 79 32 70 3c 88 b8 78 3d f6 3c ac bd
       -0.025367629 0.014660471 0.060722858 -0.08410065
0001c0 a7 cc 31 3a 56 8b 00 bd 55 6c 02 3e 8f da b9 3c
       0.000678251 -0.03138288 0.12736638 0.022687225
0001d0 2e af 95 3d 79 b6 b2 3d 8e 18 c0 bc 94 63 01 3d
       0.073088035 0.0872621 -0.023449209 0.031589106
0001e0 51 bf 1a bd c0 a9 aa 3c ca 2e 10 3d a7 58 03 3d
       -0.03778011 0.020832896 0.03520087 0.032066967
0001f0 8c 2a 80 3c dc 5d 38 3c 99 d0 0b 3d 4a d6 1b bd
       0.015645288 0.011252847 0.03413448 -0.03804616
000200 5b 21 90 3d 9c df ac bd 00 dd 7d 3d 29 a8 cf 3c
       0.07037612 -0.084410876 0.06197834 0.02534874
000210 31 c1 1b 3d ba b8 1a bd a1 2e 84 3d 3a c0 a9 3d
       0.03802604 -0.037773825 0.06454206 0.082886174
000220 d0 e5 89 bd ff d8 09 bc 55 23 20 3d af 02 6d 3b
       -0.067332864 -0.008413552 0.039096195 0.003616493
000230 1d b6 92 3d 26 63 e0 bd 82 2b ba bd f4 80 9b bd
       0.071636416 -0.10956411 -0.0909033 -0.07592955
000240 91 a3 03 3d 4d bd d3 3d 5d db 2b 3d de b4 29 bd
       0.03213841 0.10338841 0.041957248 -0.041432254
000250 32 87 d7 3d 1f a6 d6 bd f8 63 eb bd 9c 49 17 3d
       0.10523833 -0.10480904 -0.11493677 0.036935434
000260 d9 19 37 3d 7e 4f c1 3d c5 50 90 bc 80 01 78 3b
       0.044702385 0.0943899 -0.017616639 0.003784269
000270 d1 61 f2 bc 3e 1f d8 bb 31 26 d3 3d 09 02 39 3c
       -0.029587658 -0.0065955212 0.10310019 0.011291989
000280 b6 a7 10 3d 4f b0 ff bc 87 a2 83 3d 68 9e 87 bd
       0.03531619 -0.031212 0.06427484 -0.066220105
000290 56 02 6a bd e6 db 8b 3d 56 15 af bd 9b 0d 95 3d
       -0.057131134 0.06829052 -0.085489914 0.07277986
0002a0 91 b6 6b 3c b3 68 cb 3d 65 83 55 3d 60 14 cc bd
       0.014386789 0.09932079 0.05212726 -0.09964824
0002b0 41 9e 00 3c d4 51 19 3e f3 5b 0a 3c 2d ad 89 bd
       0.007850231 0.14972621 0.008444774 -0.06722484
0002c0 27 24 36 3d 62 5f e6 3c fc b4 be bd 1c c5 aa 3b
       0.04446807 0.028121654 -0.09311864 0.0052114855
0002d0 9e 21 c7 bd 03 ff e1 3d 4d 06 c6 bc 46 40 93 bc
       -0.09723209 0.11034968 -0.024172926 -0.017974984
0002e0 82 9b 12 bc 09 29 27 bd f3 b8 66 3d 25 d3 ad bc
       -0.008948209 -0.04081062 0.056328725 -0.021218846
0002f0 d0 8d 21 bd 41 90 87 3d f7 b4 28 3c 74 18 a1 3d
       -0.039441884 0.06619311 0.010297052 0.07865992
000300 58 80 c6 bd 60 20 16 bd 47 d6 a5 3c 41 59 41 3c
       -0.096924484 -0.03665197 0.020243777 0.011801065
000310 8e ea aa 3d da 1d 7c bc be c9 9a bc b7 12 00 bc
       0.08345519 -0.015387977 -0.018895026 -0.007816962
000320 72 d1 62 3c 62 f4 b1 bb 8a 45 9f bd 74 33 32 3d
       0.013843881 -0.005430744 -0.077769354 0.0435061
000330 49 f9 85 bd 92 fe 15 3d 51 fb 6a 3d d9 00 2b bd
       -0.06541688 0.03661973 0.05736858 -0.041748855
000340 53 bc 7e 3d fb 61 88 3d fd bd 2d 3d b8 47 0c bc
       0.06219132 0.06659313 0.042417515 -0.008562021
000350 92 1f 84 3d 4a 4b 9d 3d 1f 39 b5 3c 9e 53 5e bc
       0.06451334 0.07680376 0.022121964 -0.013569741
000360 c1 50 ba 3d 31 39 b1 bd d1 c6 7f bd 25 ad 92 3d
       0.09097434 -0.086534865 -0.062445465 0.07161931
000370 8a 84 14 3e 81 e5 19 bd 23 72 87 bc 77 71 82 3c
       0.14503685 -0.037572388 -0.016533917 0.015923245
000380 1a db 9e 3a 38 27 0f 3d 30 3a b9 bd 32 7e 98 bd
       0.0012119741 0.03494951 -0.090443015 -0.07445945
000390 b9 74 18 3e 9a d7 cb 3d fb 01 54 3c c8 95 fc 3d
       0.14888276 0.09953232 0.012939925 0.12333256
0003a0 15 5c a6 3d e3 31 d8 bc d9 de 4d 3d 70 79 d2 bd
       0.08123032 -0.026390975 0.050261352 -0.102770686
0003b0 92 c0 1c bd b8 55 84 3d bf 3e 51 3d f0 d0 7e bd
       -0.038269587 0.06461662 0.05108523 -0.062210977
0003c0 43 96 d4 bc 6e ce 1c bd 9d cc 61 bd 09 da df 3d
       -0.025950557 -0.038282804 -0.055126775 0.10930259
0003d0 97 1c 54 3c 93 14 c2 3c 4c fb 60 be 50 5e c7 3d
       0.0129462695 0.023691451 -0.21970862 0.097347856
0003e0 c0 48 a3 3d d1 8c 18 be 54 bb 73 bd 88 5e 1b bc
       0.0797286 -0.14897467 -0.059504822 -0.009482987
0003f0 84 36 ab 3d f9 8e 91 bd 94 83 09 3d c6 07 dd 3c
       0.083600074 -0.07107348 0.03357275 0.026981246

action_model._continuous_distribution.log_sigma f4 [1, 2]
000000 00 00 00 00 00 00 00 00
       0.0 0.0

action_model._continuous_distribution.mu.weight f4 [2, 256]
000000 55 1f c0 3c 23 6d 0b 3c bb 0b 39 39 d2 35 d0 3b
       0.02345244 0.008509907 0.00017647345 0.006354072
000010 4b 99 c6 bc 20 cd c8 bc 78 76 1a bc 54 07 11 3b
       -0.024243018 -0.024511874 -0.009427659 0.0022129612
000020 df 2f 8d bc 95 fc 38 bc ac d8 8a 3c 7b df e8 bb
       -0.01723474 -0.011290689 0.01694902 -0.007106719
000030 33 6b 8f 3b ff 20 5f 3c d0 89 91 3a 6e e8 0f 3c
       0.004376793 0.013618707 0.0011103693 0.008783443
000040 0d 4d 8f bb 37 f1 96 39 00 0b e7 bb d8 2f 2a 3c
       -0.004373199 0.0002878995 -0.007050872 0.010387383
000050 f7 8f e5 bc 76 ec ad 3b fb 03 fd bb b5 2c be 3a
       -0.02802275 0.0053077294 -0.007721422 0.0014509173
000060 c2 57 a1 3b 6e 67 9f 3b af 29 61 bc ac ce a0 bc
       0.0049237916 0.0048646247 -0.013742848 -0.019629799
000070 99 f4 0d 3b 6a 44 7b b9 b0 2f 0f 3c 73 5d 57 3c
       0.0021660684 -0.00023962712 0.008739397 0.013144839
000080 34 e8 2a bc 2b 0b 2d 3c b5 46 ab 3c d9 64 14 bc
       -0.010431338 0.010561745 0.02090774 -0.009057247
000090 9f f6 9f bc 7d d5 32 bc 97 30 d0 3a 57 1f dc bc
       -0.019526778 -0.010915157 0.0015883622 -0.026870413
0000a0 8c fd a1 ba 60 44 13 3b ab 2f e4 3b 70 37 19 bb
       -0.0012358888 0.0022471175 0.0069636903 -0.002337899
0000b0 da 9f d2 b8 c5 2e 1b bd 08 33 3e 3b 4a 4e fd 3b
       -0.00010043355 -0.0378864 0.0029022116 0.00773028
0000c0 9a f4 98 3c 63 4e 42 bb 95 af 97 3b db dd a4 bc
       0.018671323 -0.0029648773 0.0046290853 -0.02012532
0000d0 73 54 39 3c 0a 0b f1 ba 9b b5 f0 39 ea 69 ae 3a
       0.011311638 -0.0018390131 0.00045911674 0.0013306711
0000e0 d6 23 39 bb 0b 7d aa bb f9 54 91 3b d5 36 e4 bb
       -0.002825012 -0.0052028946 0.0044351784 -0.0069645443
0000f0 ce 54 b4 bb ed 44 e1 bb fb 0a 65 bb 89 f3 8f 3c
       -0.0055032736 -0.0068746717 -0.0034949172 0.017572181
000100 b1 7d 32 3b 51 c4 a7 3c bb d1 75 bb 55 0c 10 3b
       0.0027235562 0.020479353 -0.0037509042 0.0021980007
000110 5b ce 8c bb a3 8a 6b bb bc 8a be bb 02 f0 83 3c
       -0.0042970604 -0.0035940788 -0.0058148783 0.016105656
000120 ba 61 15 3c 0d e4 7b bc 1b e5 a8 3c bd f6 0a 3c
       0.009117538 -0.015374196 0.020617059 0.008481679
000130 9f 7e f7 3b 43 82 73 39 11 03 b2 3b 6b a1 cf 3b
       0.007552936 0.00023222812 0.0054324945 0.006336381
000140 74 db c3 bc 8a ae 6f bc 83 a5 25 bc bb e9 3e 3c
       -0.023908354 -0.014629016 -0.010110262 0.011652405
000150 c1 fb 00 b9 e6 5a 8b 3c 65 3f f6 3c 1c 2c 1d bb
       -0.00012300817 0.017011117 0.030059526 -0.002398259
000160 c3 9f fc 3c c5 c4 5f bb 6b 94 af 3b 20 c4 3c 3c
       0.0308379 -0.0034144383 0.005358269 0.011521369
000170 70 e0 77 3b ea 36 90 3c d0 3a d5 3c ae c4 3a bb
       0.0037822984 0.01760431 0.02602902 -0.0028498578
000180 9b d3 66 3c cb b9 f7 3b ca 44 53 b9 fc ac 30 3c
       0.014088537 0.00755999 -0.00020148154 0.01078343
000190 25 c0 4f 3b 84 65 8b bc 4c 7c 3b 3c d5 a2 81 bb
       0.003170022 -0.01701618 0.011443209 -0.0039561787
0001a0 6d 90 82 3c 3e 28 bd bc 02 15 5d 3a 2b 05 5c 3a
       0.015938008 -0.023090478 0.00084336114 0.0008393104
0001b0 2f f5 83 bb 00 4c 2c ba 5b 7a 9c 3b db ce ad ba
       -0.004027031 -0.0006572604 0.004775328 -0.00132605
0001c0 e3 22 5f 3b 4e de 1d bc 0a 40 73 3c bf 5f 15 bd
       0.0034047894 -0.009635521 0.014846811 -0.036468264
0001d0 53 90 43 3c 53 9f 02 3b 0f d7 78 39 15 2b 85 3b
       0.011936265 0.001993139 0.00023731239 0.0040639737
0001e0 a5 33 fd ba c1 29 2f b9 40 1c 82 bb df 8c 8a ba
       -0.001931776 -0.00016704855 -0.003970653 -0.0010570547
0001f0 db 29 23 bc 07 29 4f 3c 10 b8 a2 bb eb c3 b3 bc
       -0.00995871 0.012644059 -0.0049657896 -0.021944007
000200 02 8b 85 ba 18 16 54 bc 23 88 d5 3b 1b d6 96 3c
       -0.0010188522 -0.012944721 0.006516473 0.01841264
000210 73 5f 61 3c a0 9c 74 bc d3 97 54 3c 3b d8 f7 ba
       0.013755667 -0.01492992 0.012975651 -0.0018909046
000220 fd b2 e6 3c d5 66 f1 3c 2d 10 00 bb 91 9e ae bb
       0.02816152 0.02946798 -0.0019540892 -0.005328961
000230 37 40 ef 3b 8e 07 3b bc 15 c5 c1 bc 64 e3 83 b9
       0.007301356 -0.011415375 -0.023653546 -0.00025155686
000240 a2 ed 89 bc d8 37 f7 bb 2a d5 a3 bc d8 ea f0 b9
       -0.016836945 -0.007544499 -0.019999105 -0.0004595134
000250 37 d9 d7 b9 53 20 be 3c eb ff 7e 3c 07 36 dd 38
       -0.00041169833 0.023208773 0.015563945 0.000105481646
000260 b4 c0 ab ba 7f 59 87 bb 12 52 a7 bb e0 6c 6c bc
       -0.0013103695 -0.004130542 -0.005106219 -0.014430255
000270 3a d7 bd bb 38 09 1b 3c 9c 8c 18 3c 50 07 c9 3a
       -0.0057934793 0.009462647 0.009310868 0.0015337262
000280 25 07 48 3b 59 f7 8a 3c 25 25 2c 3c f7 99 1d 3c
       0.0030521837 0.016963648 0.010506903 0.009619228
000290 0f 0f 5d bc 87 a2 13 3c a3 2c a6 3b f2 86 5f 39
       -0.01349236 0.0090109175 0.005071239 0.00021317208
0002a0 72 87 51 bb b7 4e 0c 3b f9 8a 47 3c 37 5d 2a 3b
       -0.00319716 0.0021409222 0.01217913 0.0025995502
0002b0 49 17 88 3b 73 6c b5 bc 8b d5 d5 3b 73 83 00 bc
       0.0041531664 -0.02214644 0.0065257004 -0.00784384
0002c0 f7 ee 9b 3b 42 c4 28 bc a3 06 c1 bb b0 9a eb b9
       0.0047587114 -0.010300698 -0.0058906837 -0.00044937944
0002d0 5b 93 a6 bc 2c 1c 09 3c 7b 03 a0 bb a2 c1 5f 3c
       -0.020333936 0.008368533 -0.0048832274 0.0136570055
0002e0 2e 49 ca 3b ab 85 85 3a 2e b6 8f bc c5 8a c4 3b
       0.0061732745 0.0010186931 -0.017542925 0.005997988
0002f0 4a d5 e7 bb 96 33 97 bc e8 6b e7 3c f7 5c 9d 3b
       -0.0070749866 -0.018457215 0.028249696 0.004802342
000300 fe 89 8f bc 51 dd 32 bc 48 ee 89 bb 3f f4 68 39
       -0.017521854 -0.010917024 -0.0042093135 0.00022216233
000310 2f 1f 27 3a 31 84 c8 bc 70 43 a6 3b e7 45 17 bc
       0.0006375191 -0.024477096 0.005073957 -0.009232975
000320 fc d6 c8 bc 25 09 1f bb 04 f2 3a 3b e6 9e 19 bb
       -0.024516575 -0.0024266925 0.00285256 -0.0023440658
000330 b3 23 24 3c 92 fc 85 3a 6a 10 f0 3c 36 9d b3 3a
       0.010018277 0.0010222367 0.029304702 0.0013703469
000340 b7 dc 80 bb d8 e1 db bc 76 03 1e 3c 1f e7 02 bc
       -0.0039325613 -0.02684109 0.00964438 -0.007989674
000350 80 48 cd bc 2a c5 5a b9 c6 14 30 ba 39 46 09 3d
       -0.025058985 -0.0002086355 -0.00067169627 0.033514235
000360 b2 b9 83 3c 1c bc 4b 3c ea 97 d9 3b f7 19 c1 bb
       0.016079757 0.0124349855 0.006640424 -0.005892988
000370 d0 81 c4 bb 42 2f a1 bb c2 7c df ba 35 75 e8 bc
       -0.00599692 -0.0049189636 -0.001705073 -0.028376201
000380 d3 62 a5 bc a9 3c c0 3b 33 e2 f7 39 8d 8e c7 bc
       -0.020188725 0.0058666063 0.00047280043 -0.024359966
000390 de f1 19 bc 75 88 dd bc c3 68 86 3b 07 a5 37 3c
       -0.009396045 -0.027042607 0.004101844 0.011208779
0003a0 2c 67 29 bc 4b 58 2e 3c a7 d3 d1 bb bb 93 59 3a
       -0.0103395395 0.010641168 -0.0064034048 0.00082999066
0003b0 9c d0 c7 3b 4f 7d 48 bc ae 2b b1 bb 27 00 be 3c
       0.006097866 -0.012236907 -0.0054068184 0.023193432
0003c0 9d fd 95 3b 5b 4b a3 bb 67 0e 0a bc e1 75 80 bb
       0.004577352 -0.0049833483 -0.008426285 -0.0039203023
0003d0 ed 82 1a 3a be ac a2 bb 58 ef 84 bc ff ef ef ba
       0.0005894143 -0.00496444 -0.01622741 -0.0018305777
0003e0 5b 64 61 bc 73 14 79 bb 0c fa 09 3c 90 68 63 3a
       -0.013756837 -0.0038006573 0.008421432 0.0008674944
0003f0 c1 f4 bc bb 88 24 58 bc cd 63 f5 3b 69 a4 1e bb
       -0.0057664816 -0.0131923035 0.007488704 -0.0024206883

action_model._continuous_distribution.mu.bias f4 [2]
000000 00 00 00 00 00 00 00 00
       0.0 0.0

onnx::Div_66 f4 [100]
000000 00 00 80 3f 00 00 80 3f 00 00 80 3f 00 00 80 3f
       1.0 1.0 1.0 1.0
000010 00 00 80 3f 00 00 80 3f 00 00 80 3f 00 00 80 3f
       1.0 1.0 1.0 1.0
000020 00 00 80 3f 00 00 80 3f 00 00 80 3f 00 00 80 3f
       1.0 1.0 1.0 1.0
000030 00 00 80 3f 00 00 80 3f 00 00 80 3f 00 00 80 3f
       1.0 1.0 1.0 1.0
000040 00 00 80 3f 00 00 80 3f 00 00 80 3f 00 00 80 3f
       1.0 1.0 1.0 1.0
000050 00 00 80 3f 00 00 80 3f 00 00 80 3f 00 00 80 3f
       1.0 1.0 1.0 1.0
000060 00 00 80 3f 00 00 80 3f 00 00 80 3f 00 00 80 3f
       1.0 1.0 1.0 1.0
000070 00 00 80 3f 00 00 80 3f 00 00 80 3f 00 00 80 3f
       1.0 1.0 1.0 1.0
000080 00 00 80 3f 00 00 80 3f 00 00 80 3f 00 00 80 3f
       1.0 1.0 1.0 1.0
000090 00 00 80 3f 00 00 80 3f 00 00 80 3f 00 00 80 3f
       1.0 1.0 1.0 1.0
0000a0 00 00 80 3f 00 00 80 3f 00 00 80 3f 00 00 80 3f
       1.0 1.0 1.0 1.0
0000b0 00 00 80 3f 00 00 80 3f 00 00 80 3f 00 00 80 3f
       1.0 1.0 1.0 1.0
0000c0 00 00 80 3f 00 00 80 3f 00 00 80 3f 00 00 80 3f
       1.0 1.0 1.0 1.0
0000d0 00 00 80 3f 00 00 80 3f 00 00 80 3f 00 00 80 3f
       1.0 1.0 1.0 1.0
0000e0 00 00 80 3f 00 00 80 3f 00 00 80 3f 00 00 80 3f
       1.0 1.0 1.0 1.0
0000f0 00 00 80 3f 00 00 80 3f 00 00 80 3f 00 00 80 3f
       1.0 1.0 1.0 1.0
000100 00 00 80 3f 00 00 80 3f 00 00 80 3f 00 00 80 3f
       1.0 1.0 1.0 1.0
000110 00 00 80 3f 00 00 80 3f 00 00 80 3f 00 00 80 3f
       1.0 1.0 1.0 1.0
000120 00 00 80 3f 00 00 80 3f 00 00 80 3f 00 00 80 3f
       1.0 1.0 1.0 1.0
000130 00 00 80 3f 00 00 80 3f 00 00 80 3f 00 00 80 3f
       1.0 1.0 1.0 1.0
000140 00 00 80 3f 00 00 80 3f 00 00 80 3f 00 00 80 3f
       1.0 1.0 1.0 1.0
000150 00 00 80 3f 00 00 80 3f 00 00 80 3f 00 00 80 3f
       1.0 1.0 1.0 1.0
000160 00 00 80 3f 00 00 80 3f 00 00 80 3f 00 00 80 3f
       1.0 1.0 1.0 1.0
000170 00 00 80 3f 00 00 80 3f 00 00 80 3f 00 00 80 3f
       1.0 1.0 1.0 1.0
000180 00 00 80 3f 00 00 80 3f 00 00 80 3f 00 00 80 3f
       1.0 1.0 1.0 1.0

onnx::Div_69 f4 [6]
000000 00 00 80 3f 00 00 80 3f 00 00 80 3f 00 00 80 3f
       1.0 1.0 1.0 1.0
000010 00 00 80 3f 00 00 80 3f
       1.0 1.0
