results/run2/CarAgent/checkpoint.pt (torch, 749602 bytes, 36 tensors)

network_body._body_endoder.seq_layers.0.weight f4 [128, 106]
0	0xbba3c2c7	-0.0049975845
1	0xbe58063d	-0.2109613
2	0xbdd54572	-0.10413636
3	0xbdd8c649	-0.10584695
4	0x3d7b02be	0.061281912
5	0x3dd7b81a	0.105331615
6	0x3deda91c	0.11604521
7	0xbdcaeee3	-0.09908845
8	0x3d11dfce	0.035613827
9	0xbd0d559c	-0.03450547
10	0xbe3342dd	-0.17505975
11	0xbe56c7dc	-0.20974678
12	0x3d98cf6f	0.0746144
13	0x393b24eb	0.00017847463
14	0x3cb76fa1	0.022392096
15	0xbda407c1	-0.080092914
16	0xbe09aa60	-0.13443899
17	0x3d9f564e	0.07780133
18	0xbe672b93	-0.22575216
19	0x3d3ef71b	0.046622377
20	0xbde1f365	-0.11032752
21	0xbe21d739	-0.15804757
22	0xbcb1309f	-0.02162963
23	0x3cfb45f1	0.030673
24	0x3dfbc132	0.122927085
25	0x3d19b60e	0.037527137
26	0xbcff062b	-0.03113087
27	0xbca69005	-0.020332346
28	0x3ddaecf3	0.10689726
29	0x3de568b5	0.11201612
30	0xbd8f7b85	-0.07005981
31	0xbbbdf96f	-0.005797557
32	0xbc1cf68b	-0.009580265
33	0xbd3ed38f	-0.046588477
34	0x3cfbfa5c	0.03075903
35	0xbba7ae7f	-0.005117237
36	0xbe024d33	-0.12724762
37	0xbda3405c	-0.0797126
38	0xbd220f46	-0.039565347
39	0x3d83e1bc	0.0643954
40	0xbd6ad0a3	-0.057327878
41	0xbdb38fcb	-0.08767661
42	0x3c822ab2	0.0158895
43	0xbd23fb3f	-0.04003453
44	0xb98d3617	-0.00026933916
45	0xbd76cb30	-0.06025237
46	0x3cfa5827	0.030559612
47	0xbc3abcc6	-0.011397546
48	0x3dbdc16f	0.0926541
49	0x3dc05719	0.093916126
50	0x3ded1197	0.115756206
51	0x3e3f9a72	0.1871126
52	0xbb69b70a	-0.0035662078
53	0x3da3374f	0.07969534
54	0xbe094aa2	-0.13407376
55	0x3dc39f8b	0.09551915
56	0x3d4ddaa3	0.050257336
57	0x3e06d435	0.13166888
58	0xbe54e4ee	-0.20790455
59	0x3d2de79b	0.042457204
60	0x3d885860	0.06657481
61	0x3d9d59ff	0.07683181
62	0xbdef99c5	-0.11699251
63	0x3bde2256	0.0067789955
64	0xbc854466	-0.016267966
65	0x3e5a9b4e	0.21348307
66	0xbe4eb8dc	-0.20187706
67	0x3d0525e0	0.032506824
68	0xbd3d9394	-0.04628332
69	0x3deb7ced	0.11498437
70	0x3d85634a	0.065130785
71	0x3d81af73	0.063322924
72	0x3b9b960f	0.004748113
73	0x3e2f2396	0.17103419
74	0xbdd17641	-0.10227633
75	0x3cca6a9c	0.024709038
76	0xbe11720a	-0.14203659
77	0x3d244ef0	0.040114343
78	0x3e03753b	0.12837689
79	0xbe134207	-0.14380656
80	0x3db7f516	0.08982293
81	0xbcb4555c	-0.022013359
82	0xbe083b6e	-0.1330392
83	0x3da25c1d	0.079277255
84	0xbcf6ddc5	-0.030135045
85	0x3e9fd2ac	0.31215417
86	0xbdf81eb2	-0.1211523
87	0x3db49db1	0.0881914
88	0x3d21f21e	0.03953754
89	0xbd327124	-0.04356493
90	0xbd6b58c9	-0.05745772
91	0xbc1bf205	-0.009518151
92	0x3d501cb3	0.05080862
93	0xbdff9b7a	-0.12480827
94	0xbda38952	-0.07985176
95	0xbdfd6cd4	-0.12374273
96	0xbe016c15	-0.12638886
97	0x3e010e85	0.12603195
98	0xbdcd65b1	-0.10029162
99	0xbccfa590	-0.025347501
100	0xbe4679c7	-0.19382392
101	0x3dae5491	0.085122235
102	0x3d1b2142	0.037873514
103	0xbe0e2d12	-0.1388438
104	0x3b9a76c2	0.004713864
105	0x3dbff7f4	0.09373465
106	0xbcd6597a	-0.026165713
107	0x3d046d93	0.03233106
108	0xbe2ba479	-0.1676196
109	0xbd9c532f	-0.076330535
110	0x3e1c1328	0.15241683
111	0x3d3fb5a0	0.04680407
112	0x3e2817dd	0.16415353
113	0xbd905abd	-0.07048557
114	0x3e0ba56c	0.13637322
115	0xbdee2bef	-0.116294734
116	0xbe1a89bb	-0.15091603
117	0x3c0b6808	0.00850869
118	0xba9fef1b	-0.0012201996
119	0xbd285064	-0.04109229
120	0x3dd30e88	0.10305506
121	0x3d82637f	0.063666336
122	0xbe022c42	-0.12712196
123	0x3cb81d29	0.022474842
124	0xbd22b8e8	-0.03972712
125	0xbdab06d5	-0.083509125
126	0x3d878084	0.06616309
127	0xbae2ce3e	-0.0017303897
128	0x3ce26e68	0.027640536
129	0xbd8059af	-0.06267106
130	0xbe190992	-0.14945057
131	0x3df8c2f9	0.12146563
132	0xbe15a34c	-0.14613074
133	0xbbc9e00b	-0.006160741
134	0xbc83ce30	-0.016089529
135	0x3d18696d	0.037209917
136	0xbb4e92a3	-0.0031520508
137	0xbd966ce7	-0.0734499
138	0x3dc01055	0.09378115
139	0xbdecf88a	-0.115708426
140	0xbcb9110e	-0.02259114
141	0x3b3bcee2	0.0028657247
142	0x3dac1ca1	0.08403898
143	0xbb4fcb4d	-0.003170687
144	0x3e0cfeaf	0.13769029
145	0x3d8e49ca	0.06947668
146	0x3e145e4f	0.14489101
147	0x3db9cbd6	0.09072082
148	0x3db14416	0.086555645
149	0xbdad5ae6	-0.08464603
150	0x3d22a5f0	0.03970903
151	0xbdc78c5d	-0.09743569
152	0xbde0d4f6	-0.10978119
153	0x3cf25536	0.029581647
154	0xbe51a328	-0.20472395
155	0xbe15bded	-0.14623232
156	0x3cf92886	0.03041483
157	0xbd3d1a0a	-0.04616741
158	0xbd9ba503	-0.07599833
159	0xbbdbfc98	-0.006713461
160	0x3dfa9aec	0.1223658
161	0xbc99c13a	-0.018768895
162	0xbd9b4841	-0.07582141
163	0xbe33a5fb	-0.17543785
164	0xbe2fc59c	-0.17165226
165	0x3d2d30b0	0.04228276
166	0xbd9bea83	-0.07613089
167	0xbddadc31	-0.106865294
168	0xbc0ca120	-0.008583337
169	0xbc88a938	-0.016682252
170	0x3d8798d7	0.06620949
171	0xbdb0676c	-0.08613476
172	0xbe02ccdc	-0.1277346
173	0xbd09da38	-0.033655375
174	0x3c763715	0.015027781
175	0x3d57204c	0.052521035
176	0x3d8c1bd4	0.06841245
177	0x3d1b2f1d	0.037886728
178	0x3c04a335	0.008095552
179	0xbdb83942	-0.08995296
180	0x3d14a611	0.036291186
181	0x3d3afeb3	0.045653056
182	0xbd635bc9	-0.055507455
183	0xbe011d46	-0.12608823
184	0xbd8327b3	-0.064040564
185	0x3e0bce20	0.13652849
186	0xbc28f9f9	-0.010313504
187	0xbe22e937	-0.15909277
188	0x3d9c61cc	0.07635841
189	0xbd785936	-0.060631953
190	0xbe89ef0a	-0.26940185
191	0x3c8889f7	0.01666735
192	0x3d7ab64f	0.06120902
193	0x3dea49b5	0.1143984
194	0xbd118141	-0.035523657
195	0xbe63d78e	-0.22250196
196	0x3cbbba86	0.02291609
197	0x3dde6342	0.10858776
198	0xbe2057c0	-0.15658474
199	0xbd910dc6	-0.07082705
200	0xbbc18364	-0.0059055556
201	0x3dfb8a1c	0.12282202
202	0x3deec93d	0.11659477
203	0xbded2b03	-0.115804695
204	0x3dca5545	0.09879545
205	0x3e5c53bf	0.21516322
206	0xbc8883b5	-0.016664365
207	0x3cb3cc9c	0.021948151
208	0xbd154f32	-0.03645248
209	0xbdcb0df5	-0.099147715
210	0x3e01e741	0.12685873
211	0x3cedc6d9	0.029025482
212	0x3dbef388	0.09323794
213	0x3e29dcba	0.16588107
214	0xbd26ef22	-0.0407554
215	0xbe2d8dd8	-0.1694864
216	0x3cef12fa	0.029183853
217	0xbe2f3e16	-0.17113528
218	0xbda4a3bb	-0.080390416
219	0xbde9bfd1	-0.11413539
220	0x3e862256	0.2619807
221	0xbdf1c49c	-0.118050784
222	0xbdc9d1a5	-0.0985444
223	0x3b9895ed	0.0046565444
224	0xbd466edf	-0.04844558
225	0x3da7a859	0.08186407
226	0x3d5b424e	0.05353003
227	0xbcc788b5	-0.02435718
228	0x3e043f53	0.12914781
229	0xbc73d642	-0.014882626
230	0x3e0a5fa8	0.13513052
231	0xba1160b5	-0.00055457215
232	0xbde93e27	-0.11388808
233	0x3c99feb0	0.018798202
234	0xbd593987	-0.053033378
235	0xbd962770	-0.07331741
236	0x3bfce350	0.0077175274
237	0x3b1ea2be	0.0024205889
238	0x3e40de82	0.1883488
239	0x3bbdc5ee	0.0057914173
240	0x3e2e0b3b	0.16996472
241	0xbb66d2ea	-0.003522093
242	0xbe1526d7	-0.14565597
243	0xbdb12185	-0.086489715
244	0xbc40a6ed	-0.011758548
245	0x3c77bc2b	0.015120546
246	0x3d82845a	0.063729
247	0x3d06bbcc	0.03289394
248	0x3dd69f86	0.104796454
249	0x3d4a6593	0.049413275
250	0xbd4e937b	-0.050433617
251	0x3cff5403	0.03116799
252	0xbd143445	-0.03618266
253	0x3e38ce5e	0.18047473
254	0x3cf153c7	0.029458893
255	0x3ca56e5e	0.020194229

network_body._body_endoder.seq_layers.0.bias f4 [128]
0	0x3a5fd937	0.00085391424
1	0xbc7e719f	-0.015530019
2	0xbc114a96	-0.00886788
3	0xbbc1fdc2	-0.005920143
4	0xbb5b7d4b	-0.0033491428
5	0xbc4b59e1	-0.0124115655
6	0xbb180951	-0.0023198912
7	0xbb1ccaa5	-0.0023924496
8	0x3ce5d14c	0.028053902
9	0x3bb8c95b	0.005639238
10	0xbc9060c8	-0.017624274
11	0x3d1cbc76	0.038265668
12	0xbc62e152	-0.013847666
13	0x3d58bc56	0.052913986
14	0x3c91174c	0.017711304
15	0x3c6003e5	0.0136728035
16	0x3b87b9ce	0.0041420227
17	0x3c31b23d	0.010845718
18	0x3c95a563	0.01826734
19	0xbc5575cb	-0.013028572
20	0x3b95b682	0.004568876
21	0x3c1849d5	0.009294947
22	0x3cb22d6a	0.02175017
23	0x3bebfaca	0.0072015272
24	0x3c66370a	0.014051208
25	0xbb0d89ea	-0.0021597096
26	0x3c883d1a	0.016630698
27	0x3c55d92a	0.013052264
28	0xbafc0717	-0.0019228187
29	0xbc5d22ef	-0.013497098
30	0x3c792eee	0.015208943
31	0x3cb24964	0.021763511
32	0xbc0c42ff	-0.008560895
33	0x3be06724	0.006848233
34	0x3c679ba4	0.014136229
35	0x3bbda203	0.0057871356
36	0xbca204ec	-0.019777738
37	0xbc23e3ea	-0.010003069
38	0x3c7db7a6	0.01548568
39	0x3d0334e2	0.032032855
40	0x3cc2b3b3	0.023767328
41	0x3d2ca66f	0.04215091
42	0x3cdeba58	0.027188465
43	0xbc09e67d	-0.008416769
44	0x3ab20c17	0.0013583925
45	0x3cc2e44f	0.023790507
46	0xbb53d793	-0.0032324537
47	0x3c666167	0.0140613085
48	0x3cc89b22	0.024488036
49	0x3cf388e7	0.029728366
50	0x3c3b529d	0.011433271
51	0x3cc1e39a	0.0236681
52	0x3c893e18	0.016753241
53	0xbc921b21	-0.017835202
54	0x3b8fca0b	0.004388099
55	0x3c90cd29	0.017675953
56	0x3a4a64ea	0.0007720726
57	0x3cc0ba1e	0.023526248
58	0xbc2faf23	-0.010722908
59	0xbc6b4c78	-0.014361493
60	0x3941dcc7	0.0001848816
61	0xbc4a2c01	-0.012339593
62	0xba72351f	-0.0009239483
63	0x3b8376c9	0.004011963
64	0xbca53ffc	-0.020172112
65	0x3c68a726	0.014200008
66	0xbb935bdc	-0.0044970345
67	0xbbf9946c	-0.00761657
68	0x3b6fb2ad	0.0036575005
69	0xbc6fdf2d	-0.014640612
70	0x3c0cd7ca	0.00859637
71	0xbc1ebdec	-0.009688836
72	0xbb8e7eb0	-0.0043485984
73	0x3c7928b5	0.015207459
74	0xbc88dc24	-0.016706534
75	0x3c2daf6e	0.010600908
76	0x3c3996d4	0.011327464
77	0x3bce3f6f	0.006294183
78	0x3cbd8d83	0.023138767
79	0x3cd37e60	0.025817096
80	0xbbcd228f	-0.006260223
81	0xbba2fbee	-0.00497388
82	0x3c5b5eef	0.013389333
83	0xbb70f234	-0.0036765458
84	0xbb9ee2ab	-0.0048487983
85	0xbc7df39b	-0.015499975
86	0xbc51353f	-0.0127690425
87	0xbc4cff39	-0.012512022
88	0x3ae5e123	0.001753841
89	0x3cb34813	0.021884954
90	0x3c97ef83	0.018546825
91	0x3c58fead	0.013244313
92	0x3c0c630b	0.008568536
93	0x3d0fcf9c	0.0351101
94	0x3cffee30	0.031241506
95	0xbc50ada2	-0.01273671
96	0xbc655abe	-0.013998685
97	0xbb0e1d3f	-0.0021684912
98	0xbb7a656d	-0.0038207427
99	0x3c154366	0.009110307
100	0x3be9ffc8	0.007141087
101	0x3c04fbc8	0.00811667
102	0x3c40d308	0.011769064
103	0x39a9ba70	0.000323731
104	0x3c8c1d59	0.017103838
105	0xbc84973c	-0.016185395
106	0x39e79fe7	0.0004417889
107	0x3b96d825	0.004603403
108	0x3c252e56	0.010081848
109	0x3ba2575e	0.0049542626
110	0xbc40b081	-0.011760832
111	0x3c855ad8	0.01627867
112	0x3ca26c97	0.01982717
113	0xbc3056f1	-0.010762916
114	0x3c7254db	0.014790739
115	0xbc83f38a	-0.01610734
116	0xbc602598	-0.013680838
117	0x3c6fff58	0.014648281
118	0x3cfcda25	0.030865738
119	0x3c544b27	0.012957371
120	0x3cde8e3a	0.027167428
121	0x3c645d35	0.013938238
122	0x3c25d47d	0.010121462
123	0x3c5f6b54	0.013636429
124	0x3aaec96c	0.0013335175
125	0x3bd7788c	0.0065756496
126	0x3c8ad4eb	0.01694723
127	0x3c3c2582	0.011483552

network_body._body_endoder.seq_layers.2.weight f4 [128, 128]
0	0x3de28c84	0.110619575
1	0xbdb34f70	-0.08755386
2	0xbd8b02ed	-0.067876674
3	0xbe717411	-0.23579432
4	0xbde27b3d	-0.11058662
5	0x3cc6b953	0.024258291
6	0xbe448d55	-0.19194539
7	0xbe708405	-0.23487861
8	0xbd8eb8c9	-0.06968839
9	0x3b54cf8b	0.0032472338
10	0xbe1906c9	-0.14943995
11	0xbc01e542	-0.0079281945
12	0xbd7cad2a	-0.06168858
13	0xbd1be280	-0.038057804
14	0xbd5f25b8	-0.05447933
15	0xbd531835	-0.051536757
16	0x3d8fa54b	0.07013949
17	0x3db5f90d	0.08885393
18	0x3e221eb9	0.15832032
19	0xbd7677e9	-0.06017295
20	0xbde3fbed	-0.111320354
21	0xbd3db5df	-0.046316024
22	0x3cace9fa	0.021107662
23	0x3da6c595	0.081431545
24	0xbc5eeed7	-0.013606749
25	0xbd28d5c6	-0.041219495
26	0xbdb92e34	-0.09042016
27	0xbc999773	-0.018748974
28	0x3d2f9bed	0.04287331
29	0xbd4778f1	-0.048699323
30	0x3d85d622	0.06534983
31	0x3da8dd0e	0.08245288
32	0x3c1a6f44	0.009425942
33	0xbdb60023	-0.08886745
34	0x3e2cf907	0.16891871
35	0x3df72563	0.12067678
36	0xbe078236	-0.13233265
37	0x3e0e302f	0.13885568
38	0x3e0a19ef	0.13486455
39	0x3e1b300c	0.15155047
40	0xbd6d742f	-0.05797213
41	0xbda4d9d9	-0.08049364
42	0x3c4e901f	0.012607603
43	0x3d8391ef	0.06424319
44	0xbdc1a388	-0.09455019
45	0x3d88821b	0.06665441
46	0xbe39c416	-0.18141207
47	0x3de280a0	0.110596895
48	0x3e6a4133	0.22876434
49	0x3d04ffde	0.032470576
50	0x3d63e6ef	0.055640157
51	0x3b369f26	0.0027865856
52	0x3cd4978a	0.025951166
53	0x3c1bdfeb	0.009513835
54	0xbdd9528c	-0.10611448
55	0x3da0e6d6	0.078565285
56	0xbc0ebe04	-0.008712295
57	0xbceea83d	-0.029132957
58	0xbe3e5dd5	-0.18590482
59	0x3bf68df7	0.0075242477
60	0x3e351987	0.17685519
61	0x3d5d9624	0.054098263
62	0x3e39ad19	0.18132438
63	0x3e173870	0.14767623
64	0xbda7115a	-0.081576064
65	0xbd115678	-0.035482854
66	0xbde00094	-0.1093761
67	0xbe246a8d	-0.16056271
68	0xbe256f0f	-0.16155647
69	0xbd83774a	-0.06419237
70	0xbd747cf8	-0.059689492
71	0xbd5a803e	-0.053344958
72	0x3d4b9b87	0.04970887
73	0x3dd7306c	0.105072826
74	0xbe7096dc	-0.23495048
75	0x3d208d20	0.039197087
76	0xbd2dc982	-0.0424285
77	0x3d805ac7	0.062673144
78	0x3bfbb6f9	0.007681724
79	0x3d30cc79	0.04316375
80	0xbd230feb	-0.039810102
81	0x3c67c435	0.0141459005
82	0x3d2f4a09	0.042795215
83	0x3c7ba22e	0.015358491
84	0x3e155834	0.14584428
85	0xbda51461	-0.080605276
86	0xbd6ecb0c	-0.05829911
87	0xbccdaed1	-0.025107773
88	0xbc33e87b	-0.010980721
89	0x3da1b6d0	0.07896197
90	0x3ce5b784	0.028041609
91	0x3d691f73	0.056914758
92	0x3d444f6b	0.0479273
93	0x3e09fd9e	0.13475654
94	0x3d39b031	0.045334045
95	0xbd996e4a	-0.07491739
96	0x3e3400f5	0.1757849
97	0xbdcea50e	-0.100900754
98	0x3e7ea1c0	0.2486639
99	0xbdb51266	-0.088414
100	0x3c54c420	0.012986213
101	0x3c99082b	0.018680653
102	0xbb6f62d7	-0.003652742
103	0x3d8db028	0.06918365
104	0xbcc8bdfa	-0.02450465
105	0x3ca6029d	0.020264918
106	0x3dad28c7	0.08455043
107	0x3e038675	0.1284426
108	0xbde5cf3c	-0.112211674
109	0x3d2aecbd	0.041729677
110	0xbdf86838	-0.12129253
111	0x3dd003d9	0.10156984
112	0x3dd1538a	0.10221012
113	0x3c114198	0.008865736
114	0x3dc7d461	0.09757305
115	0x3de8e950	0.11372626
116	0x38364771	4.3458716e-05
117	0xbd4d1624	-0.050069943
118	0x3e3633e2	0.17793229
119	0x3dfe985a	0.124314025
120	0x3d987aaf	0.07445275
121	0xbb5b3915	-0.0033450772
122	0x3da07177	0.07834142
123	0x3ddbecb2	0.107385054
124	0x3cf28d0f	0.029608278
125	0xbd922f06	-0.07137875
126	0x3e176273	0.14783649
127	0xbe1e6fee	-0.15472385
128	0x3c1863e0	0.009301156
129	0x3c3cd11a	0.011524463
130	0x3c026174	0.007957805
131	0x3db8bf23	0.090208314
132	0xbe0bd259	-0.1365446
133	0xbded4560	-0.11585498
134	0x3d2b3f63	0.041808497
135	0x3cab2d47	0.020895613
136	0x3d9cd1e6	0.076572224
137	0x3ded4dc8	0.11587101
138	0x3df0dee3	0.11761262
139	0x3e42f7f2	0.19039896
140	0xbcc26f3f	-0.023734687
141	0x3d92c6a4	0.07166794
142	0x3e135f79	0.14391889
143	0x3d20410a	0.039124526
144	0x3e05b2fb	0.13056557
145	0xbd0319a9	-0.032006893
146	0x3b8db442	0.004324467
147	0xbdc61638	-0.09672207
148	0x3d9392c2	0.07205726
149	0xbd8262b1	-0.0636648
150	0xbddcdc0a	-0.107841566
151	0xbe81030f	-0.25197646
152	0xbcbecefa	-0.023292053
153	0xbd6d7bf7	-0.05797955
154	0x3e099ab6	0.13437924
155	0xbdfb9e2d	-0.12286029
156	0x3cb5f942	0.022213582
157	0xbe228ed4	-0.15874797
158	0xbc895957	-0.016766233
159	0x3d429938	0.047509402
160	0xbac48864	-0.0014994261
161	0xbdd716b1	-0.10502375
162	0x3e5e25f0	0.2169416
163	0x3daee10a	0.085390165
164	0x3e3177bf	0.17330836
165	0xbd986a95	-0.07442204
166	0xbde79a5b	-0.11308738
167	0x3d8dc610	0.06922543
168	0x3ea990a4	0.33118165
169	0x3de30fae	0.11086975
170	0x3e012184	0.12610441
171	0x3c0eee44	0.008723799
172	0xbd25adc4	-0.04044892
173	0xbda6d5c1	-0.08146239
174	0xbbb7ff4a	-0.0056151496
175	0x3c9f7c1c	0.01946836
176	0xbc9f95af	-0.019480554
177	0xbcaf934d	-0.021432543
178	0x3d66d5ae	0.056356125
179	0x3e24d404	0.16096503
180	0x3d68667d	0.056738365
181	0xbe4ecd2f	-0.20195459
182	0x3934b663	0.00017234082
183	0xbdb2a8a2	-0.087235704
184	0xbd334e3b	-0.04377578
185	0x3de6eb79	0.112753816
186	0xbd934111	-0.07190145
187	0xbe0de3d1	-0.13856436
188	0x3bd5fc99	0.006530356
189	0xbc038f5f	-0.008029788
190	0x3ca8d94d	0.02061143
191	0xbd0bb078	-0.03410384
192	0xbc8c7fa2	-0.017150704
193	0x3d9b7c8a	0.07592113
194	0x3d8a413b	0.06750723
195	0xbc9ae2f3	-0.018907046
196	0xbcd94951	-0.026524218
197	0xbc2cbd15	-0.010543128
198	0x3ce15462	0.027506057
199	0xbe1f668c	-0.15566462
200	0xbdd743f9	-0.10511012
201	0x3dc70ac1	0.09718848
202	0xbc85ac95	-0.016317645
203	0xbc41f6d3	-0.011838633
204	0xbdcce65e	-0.100048766
205	0x3baa359f	0.0051943804
206	0x3c833248	0.016015187
207	0x3d0e261b	0.03470431
208	0x3d399cfe	0.045315735
209	0x3d376cad	0.044781376
210	0x3e158292	0.1460059
211	0xbe1f4640	-0.15554142
212	0xbe141cbd	-0.14464088
213	0x3bccb249	0.006246839
214	0xbda8534a	-0.08219011
215	0x3dbcb139	0.0921349
216	0xbce972d6	-0.02849714
217	0x3dd9a9b6	0.10628073
218	0x3d6ba31e	0.057528608
219	0x3c6f3fcf	0.0146026155
220	0x3d5f5ee1	0.054533843
221	0x3d6bcf89	0.057570968
222	0x3e2b6c9c	0.1674065
223	0xbd002992	-0.031289645
224	0xbc0730ba	-0.008251363
225	0x3db149c2	0.08656646
226	0x3d415af2	0.047205873
227	0xbdfb5291	-0.12271608
228	0xbd986095	-0.074402966
229	0x3c5fa388	0.013649829
230	0xbb8254c3	-0.0039773895
231	0xbd92b148	-0.0716272
232	0x3d55237f	0.052035805
233	0xbe8f715d	-0.28016177
234	0x3e26673a	0.16250315
235	0x3d2254a9	0.03963152
236	0xbda448d2	-0.08021702
237	0x3dcd4633	0.10023155
238	0x3b89c256	0.004204075
239	0x3c12cb4a	0.008959601
240	0x3e027da2	0.12743238
241	0xbd0b55c1	-0.03401733
242	0xbdf6ef83	-0.12057402
243	0xbd5f0f71	-0.054458085
244	0xbb7d496f	-0.0038648506
245	0x3ba5225c	0.0050394963
246	0x3d3ea4a2	0.046543725
247	0xbc541d9c	-0.012946513
248	0x3d1283c9	0.03577021
249	0xbe0a5a65	-0.13511045
250	0x3d9fd100	0.078035355
251	0x3d81deb1	0.06341303
252	0xbd84107a	-0.06448455
253	0x3de75a76	0.11296551
254	0x3e1bff66	0.15234146
255	0x3e0e1bdd	0.13877816

network_body._body_endoder.seq_layers.2.bias f4 [128]
0	0x3c9c84ec	0.01910635
1	0x3c8f623e	0.0175029
2	0xbc34a830	-0.011026427
3	0xbad8c876	-0.0016539234
4	0xbc2d4fb7	-0.0105780875
5	0xb916a02f	-0.00014364788
6	0x3c87c12b	0.016571602
7	0xbba3d58e	-0.004999823
8	0x39bde2fc	0.00036218006
9	0x3c8f3bff	0.017484663
10	0xbc3d0b70	-0.011538371
11	0x3bdcac8f	0.006734438
12	0xbc43ceaf	-0.011951133
13	0xbbcd9554	-0.006273905
14	0x3cb400c7	0.021973027
15	0x3ad7ad2c	0.0016454807
16	0x3ca48a2d	0.020085419
17	0xbc3be585	-0.011468296
18	0x3c641e85	0.013923292
19	0xbc6150b7	-0.013752154
20	0xbc215a9a	-0.009848261
21	0xbbff1332	-0.0077842707
22	0xbb368d5c	-0.0027855253
23	0x3b81e657	0.003964226
24	0x3b03da53	0.0020119145
25	0x3b7d79c2	0.003867731
26	0xbb36b4f2	-0.0027878848
27	0xbc08dc84	-0.008353356
28	0x3c13b07c	0.009014245
29	0xbbbb1c76	-0.00571018
30	0xbc01aaaa	-0.007914225
31	0x3bb15adb	0.005412442
32	0x3c9a3dca	0.018828291
33	0xbbe803c8	-0.007080529
34	0x3ca7ba3f	0.020474551
35	0x3c1f6472	0.009728538
36	0xb999f1f0	-0.00029362692
37	0x3c6a3da4	0.014296923
38	0xbc71c7ac	-0.014757078
39	0xbc626eba	-0.013820345
40	0x3c5c0275	0.01342832
41	0xbc83e51f	-0.016100464
42	0x3c9bbd63	0.019011205
43	0x3cbc6174	0.022995688
44	0x3c05fca2	0.008177908
45	0xbbcf457a	-0.006325421
46	0x3c0018ae	0.007818384
47	0x3a33c019	0.0006856933
48	0xbc12ec67	-0.0089674955
49	0x3c1a4da7	0.009417928
50	0x3cac7692	0.021052632
51	0x3ca07cc9	0.019590752
52	0x3ca3050f	0.019899873
53	0x3bf3974e	0.0074338084
54	0xbb23c101	-0.0024986865
55	0x3c86b34a	0.016442914
56	0x3caaef52	0.02086607
57	0xbc76408f	-0.01503004
58	0x39600c57	0.00021366902
59	0xbb96c19a	-0.004600716
60	0xbc24ca37	-0.010057977
61	0x3bfbfccf	0.0076900492
62	0x3c8df72b	0.017329773
63	0x3bb4c150	0.0055162087
64	0xbbeddea7	-0.0072592082
65	0xbbed1014	-0.0072345827
66	0x3cbaec35	0.02281771
67	0xbbe98641	-0.0071266
68	0xbc02e965	-0.007990216
69	0xbc25d783	-0.010122183
70	0xba70f3c2	-0.0009191596
71	0x3a4c6bde	0.0007798056
72	0xbc3bacf1	-0.011454807
73	0xbb77fe81	-0.0037840905
74	0x3c0f0a5a	0.008730495
75	0x3c241fbe	0.010017334
76	0x3aab1549	0.0013052608
77	0xbc3020a1	-0.010749967
78	0xbc14d7c1	-0.009084643
79	0xbc33a03c	-0.010963496
80	0x3c250ca7	0.010073817
81	0xbc3bdf00	-0.011466742
82	0x3c0a2608	0.008431919
83	0xbba22009	-0.0049476665
84	0xbc26e341	-0.0101860175
85	0x3c47ca72	0.012194263
86	0xbb987a42	-0.004653246
87	0x3c294503	0.010331395
88	0x3c89d9d2	0.016827498
89	0x3c667e5c	0.014068212
90	0x3caa9599	0.020823287
91	0x3c1e6a5a	0.009668911
92	0x3b29d52c	0.0025914414
93	0xbc160530	-0.00915651
94	0xbc1ccee0	-0.009570807
95	0x3c3af820	0.011411697
96	0xbbb3d63d	-0.0054881857
97	0x3c644dd5	0.013934572
98	0x3c5004ee	0.012696488
99	0xbbe9fea2	-0.0071409503
100	0xbb0b0aaa	-0.0021216073
101	0x3ad2a27d	0.0016070154
102	0x3c0f455c	0.008744564
103	0x3b2e2d93	0.0026577457
104	0xbc2a10c5	-0.010379975
105	0xbb86df92	-0.004116007
106	0xbbc4474c	-0.0059899446
107	0x3c5197d4	0.012792546
108	0x3bcc5c96	0.006236623
109	0xbc5553bc	-0.013020452
110	0x3c2c15a8	0.01050321
111	0x3b8dc87d	0.0043268786
112	0x3c338b55	0.010958512
113	0x3c21b05a	0.009868706
114	0x3ce26aac	0.027638756
115	0x3ca2859b	0.019839099
116	0x3c0a7f96	0.00845327
117	0xbc4355d2	-0.011922317
118	0x3c155ef0	0.009116873
119	0xbb934fcd	-0.004495597
120	0x3c9193a0	0.017770588
121	0x3cb3e271	0.021958562
122	0xbc09b1ba	-0.00840419
123	0x3ce7e18b	0.02830579
124	0x3cbc2dde	0.02297109
125	0xbc3ad524	-0.011403356
126	0xbbf49cef	-0.007464997
127	0x3b90d81e	0.0044202944

action_model._continuous_distribution.log_sigma f4 [1, 2]
0	0xbd36b2f8	-0.04460427
1	0xbcd9107f	-0.026497124

action_model._continuous_distribution.mu.weight f4 [2, 128]
0	0x3d779037	0.06044027
1	0x3d088b99	0.033336256
2	0xbd0d8935	-0.03455468
3	0x3a92c273	0.0011196866
4	0xbc8b1056	-0.016975563
5	0x3cb737ca	0.02236547
6	0x3d0217ee	0.031761102
7	0xbc48f691	-0.012265817
8	0xbd2890ae	-0.041153602
9	0x3d590a3c	0.052988276
10	0xbd217f5e	-0.039428107
11	0xbd4a03c0	-0.049319983
12	0xbcc73d0d	-0.024321103
13	0xbca5f35f	-0.02025765
14	0x3d31fe31	0.043455306
15	0x3ccfd8c1	0.025371911
16	0x3d310330	0.04321593
17	0xbcd53286	-0.026025068
18	0x3d2a6e93	0.041609358
19	0xbd01b96d	-0.031670976
20	0xbd3cedbb	-0.046125155
21	0xbb22faa4	-0.0024868632
22	0xbd05d413	-0.032672953
23	0x3d082e7d	0.03324746
24	0xbd43cab4	-0.047800735
25	0x3cf95899	0.030437754
26	0x3ce01e59	0.02735822
27	0xbd407f42	-0.046996363
28	0x3cdac223	0.0267039
29	0xbc8f01ac	-0.017456852
30	0xbd1d5550	-0.03841144
31	0x3cfdfadf	0.031003414
32	0xbc1fb00a	-0.009746561
33	0xbd69a830	-0.05704516
34	0x3d2acb98	0.04169807
35	0x3d270b27	0.04078212
36	0x3c1774b4	0.009244133
37	0x3d2ef2a2	0.04271186
38	0xbcd2de11	-0.025740655
39	0xbd35b3cd	-0.044360925
40	0x3b120c54	0.002228518
41	0xbcc7e935	-0.024403194
42	0x3c16e016	0.0092087
43	0x3d5d3e3b	0.054014426
44	0xbcdc666c	-0.026904307
45	0x3c021939	0.007940584
46	0x3cee8a3e	0.029118653
47	0xbd6710d3	-0.05641253
48	0x3c1af310	0.009457365
49	0xbc27158e	-0.01019801
50	0x3d00dc1f	0.031459924
51	0x3c7123f1	0.014718042
52	0x3d4c8e66	0.04994049
53	0x3cce9e0e	0.02522185
54	0xbd131ea6	-0.0359179
55	0x3d33d101	0.043900494
56	0x3d49c5e7	0.049261
57	0xbcd2ebad	-0.025747145
58	0xbc71d779	-0.014760845
59	0xbda3c3d8	-0.079963386
60	0xbd46cd62	-0.048535712
61	0x3c2254ce	0.009907914
62	0x3ca11dd8	0.01966755
63	0x3d03915b	0.032121044
64	0xbce39c08	-0.027784362
65	0xbd535e3d	-0.051603545
66	0x3d33161d	0.04372226
67	0xbc8fba9a	-0.017545033
68	0xbdc5e6ec	-0.096631855
69	0xbd2336c9	-0.03984717
70	0x3c555ab3	0.013022113
71	0x3bcce049	0.006252323
72	0xbd64ac77	-0.055828538
73	0xbc6592a8	-0.014012016
74	0x3b78abb6	0.0037944145
75	0x3c061552	0.008183794
76	0xbb9f77a2	-0.0048665563
77	0xbd5d74d3	-0.05406649
78	0xbd0775d4	-0.033071354
79	0xbca32247	-0.019913806
80	0x3b8e80b5	0.004348839
81	0xbbda76c6	-0.006666991
82	0xbc293092	-0.0103265215
83	0x3bdf38dc	0.006812198
84	0xbd210605	-0.03931238
85	0x3d2bad3e	0.041913263
86	0xbcac40fe	-0.021027084
87	0xbc8cb15b	-0.017174413
88	0x3cdefbe8	0.027219728
89	0x3d3ae28e	0.045626216
90	0x3d4c74c5	0.049916048
91	0x3c696113	0.014244336
92	0xbd916797	-0.07099836
93	0xbb3cbcaf	-0.0028798988
94	0x3c6d1ac2	0.014471712
95	0x3bdd238f	0.0067486237
96	0xbd8c5239	-0.0685162
97	0x3d5e1803	0.054222118
98	0x3cd86a9f	0.026418028
99	0xbcc8f207	-0.02452947
100	0xbc0cdbb0	-0.008597299
101	0xbc6edeb3	-0.014579463
102	0x3d5a0b96	0.053233705
103	0xbb058969	-0.0020376092
104	0xbd085b11	-0.033289973
105	0xbd140a15	-0.036142427
106	0xbd0af0ed	-0.03392117
107	0xbc39043e	-0.011292515
108	0x3c29a16a	0.0103534255
109	0xbd22581a	-0.0396348
110	0xbcfdb935	-0.030972103
111	0xbd2cdd11	-0.042203013
112	0x3d011329	0.031512413
113	0x3d153011	0.036422793
114	0x3d8b355d	0.067972876
115	0x3beabfc0	0.0071639717
116	0xbd0d14b0	-0.034443557
117	0xbd0e1d47	-0.03469589
118	0xbcffa238	-0.031205282
119	0xbd385d1b	-0.045010667
120	0x3d8cd675	0.06876842
121	0xbcd7cf57	-0.026343985
122	0xbc9da98e	-0.019245889
123	0x3daa6c4d	0.08321438
124	0x3da50ba2	0.080588594
125	0xbc498b9d	-0.012301353
126	0xbc95eec7	-0.018302334
127	0xbc12bd3e	-0.008956252
128	0xbd807010	-0.06271374
129	0xbdb29f6d	-0.08721814
130	0x3cb72008	0.02235414
131	0xbbfe1b22	-0.0077546993
132	0x3c4e6841	0.012598098
133	0x3d17d4f3	0.03706832
134	0xba7c44c0	-0.00096232817
135	0x3d086b39	0.03330538
136	0xbc9d593c	-0.01920759
137	0xbc83f5f1	-0.016108485
138	0x3cd5e241	0.026108863
139	0xbd684eff	-0.05671596
140	0x3be4c474	0.006981427
141	0x3d719e04	0.058988586
142	0xbc419145	-0.01181442
143	0x3d04b4a6	0.032398842
144	0xbc6d7d96	-0.014495274
145	0x3c7a99c8	0.015295453
146	0x3c2f58c3	0.010702315
147	0x37e3033e	2.7062018e-05
148	0x3c7b8394	0.015351195
149	0x3ca81112	0.020515952
150	0xbc86cdbb	-0.016455522
151	0x3cfb5de4	0.030684419
152	0xbcd07c4b	-0.025449893
153	0x3d855ccd	0.06511841
154	0x3cd72e34	0.026267149
155	0xbc66ac14	-0.014079113
156	0x3c44cb15	0.012011309
157	0x3cdd4150	0.027008682
158	0xbb495bf6	-0.003072498
159	0x3d0b598c	0.034020945
160	0xbd738c77	-0.05946013
161	0x3b7e7aa9	0.0038830435
162	0xbd2d77d3	-0.0423506
163	0x3d2e3d0b	0.042538684
164	0x3981495c	0.00024659454
165	0x3d13e264	0.036104575
166	0x3cc73214	0.024315871
167	0x3cdf881e	0.027286585
168	0xbd5d831c	-0.054080114
169	0x3cc33fe8	0.023834184
170	0xbd15ce1e	-0.03657352
171	0xbc2a5a88	-0.010397561
172	0xbd78c3a0	-0.060733438
173	0x3d4f132d	0.050555397
174	0x3d643d50	0.055722535
175	0xbca3f71a	-0.020015288
176	0x3d049f8e	0.032378726
177	0xbd2b9756	-0.041892372
178	0xbcc98812	-0.024601016
179	0xbd0940f3	-0.033509206
180	0x3d4fbe50	0.050718606
181	0x3cce33fa	0.025171269
182	0xbbd628b0	-0.006535612
183	0x3b221bec	0.002473588
184	0xbd19c2c7	-0.03753927
185	0x3c7782cb	0.015106867
186	0xbc6b4955	-0.014360745
187	0x3be85bce	0.007091022
188	0x3c468210	0.01211597
189	0x3cb65953	0.02225939
190	0xbd0c00d4	-0.034180477
191	0x3cba307f	0.022728203
192	0x3b91a877	0.0044451314
193	0xbc94aff4	-0.018150307
194	0xbc79b32a	-0.01524047
195	0x3c56c71b	0.013108994
196	0xbc982861	-0.018573942
197	0xba5429cc	-0.00080933864
198	0x3d278c71	0.04090542
199	0x3c6fde23	0.014640364
200	0xbc214dfc	-0.009845253
201	0x3cd259f5	0.02567766
202	0xbd1e092a	-0.03858296
203	0xbcc0654f	-0.023485808
204	0x3d2d5315	0.04231556
205	0xbc449103	-0.011997464
206	0x3d0e397f	0.0347228
207	0x3cea98c5	0.0286373
208	0x3c996934	0.018726923
209	0x3c86d22e	0.016457643
210	0xbd3f418f	-0.04669338
211	0x3c969b89	0.018384712
212	0x3c24417b	0.010025377
213	0x3cf535fe	0.029932972
214	0x3d10295c	0.035195693
215	0xbc00a149	-0.007850953
216	0x3cb88e9f	0.022528945
217	0x3ae69e1f	0.0017594731
218	0xbc82e785	-0.015979538
219	0xbb9d5bc7	-0.0048022005
220	0xbd6e9418	-0.058246702
221	0x3d644c1b	0.055736642
222	0x3c9c6952	0.01909319
223	0xbd5fa05f	-0.0545963
224	0x3b306e73	0.0026921302
225	0x3b64718f	0.0034857725
226	0xbccd5b5f	-0.025067983
227	0xbc22e72e	-0.009942813
228	0x3ca05fa9	0.019576864
229	0x3cf7be00	0.030241966
230	0x3d112a07	0.03544047
231	0x3d194127	0.03741565
232	0x3ca9c5ea	0.020724256
233	0x3ba29a35	0.0049622306
234	0xbb9431e3	-0.0045225485
235	0xbce4b15a	-0.027916599
236	0xbcc9ab1a	-0.02461772
237	0x3d38395a	0.04497657
238	0xbd2bde33	-0.041959953
239	0xbc88329d	-0.016625697
240	0x3c1ff547	0.0097630685
241	0x3c744784	0.014909629
242	0x3b63e9ac	0.003477673
243	0xbd323895	-0.043510992
244	0xbcf6184c	-0.030040883
245	0x3c8d5e26	0.017256808
246	0xbd6e932f	-0.058245834
247	0x3be06252	0.006847658
248	0xbcecaf0c	-0.028892063
249	0xbd9f70e2	-0.077852026
250	0x3d03fb4b	0.032222074
251	0xbcfa81c1	-0.03057945
252	0x3cc206a4	0.023684807
253	0x3c9b66cd	0.018969918
254	0x3ac7fdc9	0.0015258129
255	0x3cbe28c8	0.023212805

action_model._continuous_distribution.mu.bias f4 [2]
0	0x3c8197f5	0.01581953
1	0xbc065fe1	-0.00820157

exp_avg f4 [128, 106]
0	0x3740caba	1.1491293e-05
1	0x38b8c9c0	8.8113826e-05
2	0x00000000	0.0
3	0x37cb6d00	2.4250243e-05
4	0xb6ba65df	-5.5550913e-06
5	0x38dc8974	0.0001051602
6	0x00000000	0.0
7	0x37c2f309	2.3239774e-05
8	0xb685b7a1	-3.985086e-06
9	0x38d93e91	0.0001035902
10	0x00000000	0.0
11	0x37ca5608	2.4120338e-05
12	0x37853739	1.588055e-05
13	0x38af954b	8.372458e-05
14	0x00000000	0.0
15	0x37c473a8	2.3418877e-05
16	0x380df57d	3.384565e-05
17	0x3889e858	6.5759465e-05
18	0x00000000	0.0
19	0x37d34e0d	2.5189505e-05
20	0x37720e4d	1.4427654e-05
21	0x38b2a14f	8.5177475e-05
22	0x00000000	0.0
23	0x37c3893d	2.3309718e-05
24	0x37da8e29	2.6053824e-05
25	0x389a3f8e	7.35513e-05
26	0x00000000	0.0
27	0x37d22304	2.5050256e-05
28	0x37458965	1.1774105e-05
29	0x38b831ed	8.783103e-05
30	0x00000000	0.0
31	0x37c5e11e	2.3589058e-05
32	0x37f44215	2.9117838e-05
33	0x3893d294	7.0487295e-05
34	0x00000000	0.0
35	0x37cd57f6	2.4478864e-05
36	0x37aa80e6	2.0325602e-05
37	0x38a642df	7.9279525e-05
38	0x00000000	0.0
39	0x37cc994f	2.4390085e-05
40	0x38105496	3.4411052e-05
41	0x3888b8cf	6.5194086e-05
42	0x00000000	0.0
43	0x37c74d5c	2.3758672e-05
44	0x37f5ff40	2.9325136e-05
45	0x38936349	7.0279995e-05
46	0x00000000	0.0
47	0x37d706b2	2.5633115e-05
48	0x385d2a27	5.2729763e-05
49	0x38449c0e	4.687538e-05
50	0x00000000	0.0
51	0x37bc1dad	2.2425165e-05
52	0x37d34757	2.518638e-05
53	0x389c1141	7.4418735e-05
54	0x00000000	0.0
55	0x37ddf77f	2.6460502e-05
56	0x3892f956	7.008265e-05
57	0x37f7a70f	2.9522487e-05
58	0x00000000	0.0
59	0x37acd621	2.060371e-05
60	0x38301810	4.198408e-05
61	0x3871ae23	5.7621055e-05
62	0x00000000	0.0
63	0x37e983ff	2.783723e-05
64	0x384be4a6	4.8611917e-05
65	0x3855e18f	5.0993225e-05
66	0x00000004	6e-45
67	0x379ba095	1.8552217e-05
68	0x386f2748	5.7018624e-05
69	0x38329ee5	4.258649e-05
70	0x00000000	0.0
71	0x37ff24d2	3.0415515e-05
72	0x3784066a	1.5738613e-05
73	0x38afe180	8.386653e-05
74	0x00000004	6e-45
75	0x379a6546	1.840539e-05
76	0x38b0d4f8	8.4320025e-05
77	0x37803882	1.5285103e-05
78	0x00000000	0.0
79	0x380393f5	3.137063e-05
80	0x37b4fd23	2.1575548e-05
81	0x38a3a3d1	7.802959e-05
82	0x00000004	6e-45
83	0x37a228a5	1.9330831e-05
84	0x38f74ef8	0.00011792587
85	0xb799af85	-1.8320754e-05
86	0x00000000	0.0
87	0x3802fc3c	3.1229327e-05
88	0x37b9c731	2.2146474e-05
89	0x38a2714d	7.745866e-05
90	0x00000004	6e-45
91	0x37a6a063	1.9863428e-05
92	0x392ab8df	0.00016281333
93	0xb8848ea4	-6.3208194e-05
94	0x00000000	0.0
95	0x37fbf23a	3.0034327e-05
96	0x38918de8	6.940571e-05
97	0x37fd54c6	3.0199426e-05
98	0x00000004	6e-45
99	0x37b99cf3	2.2126804e-05
100	0x38b72bf6	8.734308e-05
101	0x382c1f62	4.1037223e-05
102	0x3b2bb606	0.0026201024
103	0xb8e87b70	-0.00011085614
104	0x00000000	0.0
105	0x3891e605	6.956983e-05
106	0xb70951d9	-8.184893e-06
107	0xb841b5d5	-4.618413e-05
108	0x00000000	0.0
109	0xb732d8ea	-1.0660131e-05
110	0xb678d67f	-3.7079733e-06
111	0xb8547ce0	-5.0661038e-05
112	0x00000000	0.0
113	0xb730b352	-1.0532169e-05
114	0xb6f171c7	-7.195605e-06
115	0xb845dc12	-4.7173417e-05
116	0x00000000	0.0
117	0xb72fe3c2	-1.0483842e-05
118	0xb6bf239a	-5.696388e-06
119	0xb84c25d6	-4.8672628e-05
120	0x00000000	0.0
121	0xb7324e42	-1.0627848e-05
122	0xb7827f2c	-1.5556427e-05
123	0xb822cab3	-3.8812588e-05
124	0x00000000	0.0
125	0xb72e3c3e	-1.0385234e-05
126	0xb71dcf48	-9.406191e-06
127	0xb83c9679	-4.496283e-05
128	0x00000000	0.0
129	0xb733c55f	-1.0715185e-05
130	0xb72ad9a5	-1.0183464e-05
131	0xb83953e0	-4.418555e-05
132	0x00000000	0.0
133	0xb72a543c	-1.0152402e-05
134	0xb6e011cf	-6.6777934e-06
135	0xb8480811	-4.769123e-05
136	0x00000000	0.0
137	0xb7358dff	-1.0821502e-05
138	0xb766c5c4	-1.3755114e-05
139	0xb82a58d8	-4.06139e-05
140	0x00000000	0.0
141	0xb7277d9d	-9.983222e-06
142	0xb6f7678a	-7.373227e-06
143	0xb8451d58	-4.699579e-05
144	0x00000000	0.0
145	0xb73bcad8	-1.1193297e-05
146	0xb78afad7	-1.6567688e-05
147	0xb81e8cde	-3.780133e-05
148	0x00000000	0.0
149	0xb7244800	-9.791926e-06
150	0xb7641186	-1.3593939e-05
151	0xb82b05e9	-4.077508e-05
152	0x00000000	0.0
153	0xb745b78c	-1.178485e-05
154	0xb7b1bf8b	-2.1189238e-05
155	0xb80b2a85	-3.3179782e-05
156	0x00000000	0.0
157	0xb71dbd40	-9.401992e-06
158	0xb7647a88	-1.3618388e-05
159	0xb82aeba8	-4.075063e-05
160	0x00000000	0.0
161	0xb74c248a	-1.2167855e-05
162	0xb7dcc7f8	-2.6319161e-05
163	0xb7eb4c9c	-2.8049857e-05
164	0x00000000	0.0
165	0xb7158d2c	-8.913961e-06
166	0xb79c5384	-1.863554e-05
167	0xb815e089	-3.5733483e-05
168	0x00000000	0.0
169	0xb7539c90	-1.2613033e-05
170	0xb7af2e2f	-2.0883132e-05
171	0xb80c7333	-3.348589e-05
172	0x80000004	-6e-45
173	0xb70fb32c	-8.565181e-06
174	0xb7d84f48	-2.5786125e-05
175	0xb7efc54e	-2.8582897e-05
176	0x00000000	0.0
177	0xb76144fb	-1.3427106e-05
178	0xb75eef86	-1.32879995e-05
179	0xb82c4e69	-4.108102e-05
180	0x80000004	-6e-45
181	0xb711bda9	-8.686832e-06
182	0xb80d3b1b	-3.3672066e-05
183	0xb7ad9e5d	-2.069695e-05
184	0x00000000	0.0
185	0xb76869f2	-1.3852945e-05
186	0xb79e84ea	-1.889696e-05
187	0xb814c7d8	-3.547207e-05
188	0x80000004	-6e-45
189	0xb71aac12	-9.2191785e-06
190	0xb8370a77	-4.3640346e-05
191	0xb733ff4b	-1.0728671e-05
192	0x00000000	0.0
193	0xb76ac12e	-1.3992465e-05
194	0xb7b7925b	-2.1883452e-05
195	0xb808411d	-3.248557e-05
196	0x80000004	-6e-45
197	0xb71cfcb0	-9.357158e-06
198	0xb84d0578	-4.8880902e-05
199	0xb6b8269f	-5.4881234e-06
200	0x00000000	0.0
201	0xb76b289b	-1.4016546e-05
202	0xb82bd7a7	-4.097042e-05
203	0xb760ca93	-1.3398606e-05
204	0x80000004	-6e-45
205	0xb727450a	-9.97005e-06
206	0xb85448ff	-5.061272e-05
207	0xb7210898	-9.598349e-06
208	0xbac6fdff	-0.0015181898
209	0x379106f7	1.728859e-05
210	0x00000000	0.0
211	0xb7849b61	-1.580798e-05
212	0x36cbc391	6.0726384e-06
213	0xb7a30e78	-1.9437852e-05
214	0x00000000	0.0
215	0xb5cdf4ac	-1.5344899e-06
216	0x36447e87	2.9279925e-06
217	0xb788ad64	-1.6293205e-05
218	0x00000000	0.0
219	0xb55a8cf1	-8.1416425e-07
220	0x3723336b	9.727529e-06
221	0xb7c1b74a	-2.3092744e-05
222	0x00000000	0.0
223	0xb5f41fc8	-1.8188666e-06
224	0xb62c5c8a	-2.5683862e-06
225	0xb7352403	-1.0796825e-05
226	0x00000000	0.0
227	0xb584a74c	-9.883456e-07
228	0x37454791	1.1758778e-05
229	0xb7d2c15e	-2.5123994e-05
230	0x00000000	0.0
231	0xb616b1c8	-2.2455224e-06
232	0xb6b4963f	-5.381909e-06
233	0xb705f006	-7.983303e-06
234	0x00000000	0.0
235	0xb5a97601	-1.2625825e-06
236	0x3771189d	1.437045e-05
237	0xb7e8a9e3	-2.7735665e-05
238	0x00000000	0.0
239	0xb6317e93	-2.6448731e-06
240	0xb67256d4	-3.611135e-06
241	0xb723a571	-9.754077e-06
242	0x00000000	0.0
243	0xb5c86545	-1.4930635e-06
244	0x3793c487	1.761528e-05
245	0xb801f10e	-3.0980496e-05
246	0x00000000	0.0
247	0xb63ea196	-2.8406262e-06
248	0xb663a80a	-3.3923448e-06
249	0xb7275121	-9.972865e-06
250	0x00000000	0.0
251	0xb5f5688b	-1.8284348e-06
252	0x379a0f7f	1.8365447e-05
253	0xb805168a	-3.1730662e-05
254	0x00000000	0.0
255	0xb64ec3de	-3.0810402e-06

exp_avg_sq f4 [128, 106]
0	0x326ebcff	1.3896396e-08
1	0x3405731d	1.2428468e-07
2	0x00000000	0.0
3	0x31432142	2.839514e-09
4	0x326593f7	1.3363198e-08
5	0x340494ab	1.2347543e-07
6	0x00000000	0.0
7	0x31402eda	2.796631e-09
8	0x3256282f	1.2465576e-08
9	0x34091314	1.276606e-07
10	0x00000000	0.0
11	0x314c3116	2.971381e-09
12	0x327880dd	1.44648e-08
13	0x3401101e	1.2019925e-07
14	0x00000000	0.0
15	0x313e329d	2.767741e-09
16	0x3241c686	1.1279218e-08
17	0x340a41af	1.2876147e-07
18	0x00000000	0.0
19	0x3159bb7b	3.1684226e-09
20	0x328cf979	1.6411592e-08
21	0x33f566b0	1.142738e-07
22	0x00000000	0.0
23	0x313b268e	2.7233997e-09
24	0x321a3bef	8.977607e-09
25	0x340da204	1.3190589e-07
26	0x00000000	0.0
27	0x3165a834	3.3419498e-09
28	0x32a2b474	1.8941343e-08
29	0x33e8a557	1.0833417e-07
30	0x00000000	0.0
31	0x313a1195	2.7076557e-09
32	0x31ec76ba	6.8820016e-09
33	0x340eb6f2	1.3291336e-07
34	0x00000000	0.0
35	0x316ec3a9	3.4744778e-09
36	0x32c3d3d9	2.2797325e-08
37	0x33db5770	1.0213887e-07
38	0x00000000	0.0
39	0x313b79ec	2.7281386e-09
40	0x31d95a86	6.3258225e-09
41	0x340d1bdf	1.3141788e-07
42	0x00000000	0.0
43	0x3172773d	3.5283414e-09
44	0x32eaaead	2.7320619e-08
45	0x33c9989b	9.387551e-08
46	0x00000000	0.0
47	0x313f1f93	2.7812106e-09
48	0x31f8d773	7.2422437e-09
49	0x3409a008	1.2817338e-07
50	0x00000000	0.0
51	0x3179ee63	3.6369776e-09
52	0x33128e31	3.4122596e-08
53	0x33b65562	8.4905665e-08
54	0x00000000	0.0
55	0x314588be	2.8745002e-09
56	0x320ccaa4	8.195148e-09
57	0x3404bd9d	1.2362439e-07
58	0x00000000	0.0
59	0x3183387c	3.8190233e-09
60	0x333e1a3e	4.426169e-08
61	0x339e80a4	7.380848e-08
62	0x00000000	0.0
63	0x314ee08d	3.0104588e-09
64	0x322c649d	1.00345945e-08
65	0x33fc8342	1.175854e-07
66	0x28bdc5d0	2.1069003e-14
67	0x318bdb9d	4.0703996e-09
68	0x336593d1	5.3452656e-08
69	0x338bf4d9	6.5172294e-08
70	0x00000000	0.0
71	0x31596069	3.1632459e-09
72	0x3259806d	1.2660263e-08
73	0x33eeb609	1.11158506e-07
74	0x28bdc5d0	2.1069003e-14
75	0x31974dff	4.4035455e-09
76	0x338e9d94	6.6410536e-08
77	0x335bc436	5.1168364e-08
78	0x00000000	0.0
79	0x316821bf	3.3779626e-09
80	0x3293ba4e	1.7197774e-08
81	0x33db9dea	1.02267066e-07
82	0x28bdc5d0	2.1069003e-14
83	0x31a5f51d	4.829998e-09
84	0x33adac8d	8.087327e-08
85	0x33209305	3.7386616e-08
86	0x00000000	0.0
87	0x3179d8cb	3.6357501e-09
88	0x32d21708	2.4457691e-08
89	0x33c9db2f	9.399661e-08
90	0x28bdc5d0	2.1069003e-14
91	0x31ba5b42	5.4236873e-09
92	0x33dff986	1.0429635e-07
93	0x32c134f7	2.2492243e-08
94	0x00000000	0.0
95	0x3183d0c4	3.8363357e-09
96	0x331364fe	3.4317956e-08
97	0x33aee074	8.143334e-08
98	0x28bdc5d0	2.1069003e-14
99	0x31d7ef25	6.284511e-09
100	0x3392fc78	6.8445786e-08
101	0x31d2f623	6.139787e-09
102	0x388126db	6.158437e-05
103	0x3299b46b	1.7893589e-08
104	0x00000000	0.0
105	0x338ef4f7	6.656949e-08
106	0x2faf381f	3.187219e-10
107	0x31aab4de	4.9682134e-09
108	0x00000000	0.0
109	0x2edd44da	1.0062147e-10
110	0x2fbe3978	3.4601633e-10
111	0x31ab2511	4.980969e-09
112	0x00000000	0.0
113	0x2edf28a8	1.0148088e-10
114	0x2fa2a42b	2.9584277e-10
115	0x31ac5cc9	5.0164073e-09
116	0x00000000	0.0
117	0x2ee0ec6e	1.0228339e-10
118	0x2fdd4f16	4.025586e-10
119	0x31a79784	4.877565e-09
120	0x00000000	0.0
121	0x2ee1385b	1.0241826e-10
122	0x2fb37389	3.2642003e-10
123	0x31a7a1fa	4.8787543e-09
124	0x00000000	0.0
125	0x2eea438e	1.0653088e-10
126	0x300224d5	4.7346066e-10
127	0x31a055cf	4.666368e-09
128	0x00000000	0.0
129	0x2ee4d2cc	1.04056846e-10
130	0x2fa0e60c	2.9267289e-10
131	0x31ace3d9	5.031762e-09
132	0x00000000	0.0
133	0x2ef2251a	1.10114765e-10
134	0x30215fac	5.8707417e-10
135	0x3199430b	4.460508e-09
136	0x00000000	0.0
137	0x2eeb8cd2	1.07115775e-10
138	0x2f70fa3a	2.1916771e-10
139	0x31b04783	5.130404e-09
140	0x00000000	0.0
141	0x2ef6aa62	1.1217051e-10
142	0x3043b2d6	7.119473e-10
143	0x3194c622	4.329892e-09
144	0x00000000	0.0
145	0x2ef5e742	1.118239e-10
146	0x2f73aa55	2.2161235e-10
147	0x31ad0f94	5.0367337e-09
148	0x00000000	0.0
149	0x2ef6b8fb	1.1219644e-10
150	0x306d04f5	8.622714e-10
151	0x3189c8d5	4.0100567e-09
152	0x00000000	0.0
153	0x2f01624f	1.1767408e-10
154	0x2f975ba7	2.7531863e-10
155	0x31a8c7a9	4.9121422e-09
156	0x00000000	0.0
157	0x2efa1b19	1.1373497e-10
158	0x309e2940	1.1507737e-09
159	0x31772ee5	3.5969887e-09
160	0x00000000	0.0
161	0x2f0870b3	1.2409167e-10
162	0x2fab8bc1	3.120402e-10
163	0x31a560b1	4.8131246e-09
164	0x00000000	0.0
165	0x2f019a62	1.178733e-10
166	0x30d26559	1.5308316e-09
167	0x315599f9	3.1083103e-09
168	0x00000000	0.0
169	0x2f100098	1.3096935e-10
170	0x2fd68c7f	3.9026202e-10
171	0x31a13e29	4.6927835e-09
172	0x27cf3e21	5.75214e-15
173	0x2f09f788	1.2548018e-10
174	0x3107304a	1.9672535e-09
175	0x3135af22	2.6438518e-09
176	0x00000000	0.0
177	0x2f1875b3	1.3866135e-10
178	0x30063868	4.8829074e-10
179	0x3198c3d7	4.4460466e-09
180	0x27cf3e21	5.75214e-15
181	0x2f15863f	1.3599165e-10
182	0x3129fa4d	2.4735016e-09
183	0x310e25b6	2.0685156e-09
184	0x00000000	0.0
185	0x2f21c899	1.4714131e-10
186	0x3034c7f0	6.5767747e-10
187	0x318e0b9d	4.134064e-09
188	0x27cf3e21	5.75214e-15
189	0x2f24d7d3	1.4992389e-10
190	0x315e3cea	3.2339877e-09
191	0x30c4e9a0	1.4327277e-09
192	0x00000000	0.0
193	0x2f2c0351	1.5644487e-10
194	0x307d63e7	9.2182834e-10
195	0x31838c2c	3.8285375e-09
196	0x27cf3e21	5.75214e-15
197	0x2f3a3f9a	1.6939197e-10
198	0x318624be	3.9040904e-09
199	0x3087e9b1	9.888962e-10
200	0x00000000	0.0
201	0x2f3358ea	1.6311544e-10
202	0x30b2837b	1.2988574e-09
203	0x316546b2	3.3364072e-09
204	0x27cf3e21	5.75214e-15
205	0x2f597f3a	1.9781235e-10
206	0x31556668	3.105379e-09
207	0x2fcd18f8	3.7307024e-10
208	0x363b84c8	2.794246e-06
209	0x3059fb7d	7.9301526e-10
210	0x00000000	0.0
211	0x31318946	2.583492e-09
212	0x30040e1b	4.8041365e-10
213	0x30c43476	1.4275787e-09
214	0x00000000	0.0
215	0x2e28b0d4	3.8355832e-11
216	0x300e3e0d	5.174748e-10
217	0x30c0d353	1.4029901e-09
218	0x00000000	0.0
219	0x2e1eb42d	3.608507e-11
220	0x2ff79bb8	4.5039683e-10
221	0x30cd32b9	1.4930129e-09
222	0x00000000	0.0
223	0x2e40d4f0	4.3844872e-11
224	0x30115462	5.287061e-10
225	0x30bc7176	1.3711048e-09
226	0x00000000	0.0
227	0x2e17e8a3	3.4540048e-11
228	0x2fb2f19b	3.2549682e-10
229	0x30df98e0	1.6268835e-09
230	0x00000000	0.0
231	0x2e62de3a	5.1583827e-11
232	0x301705b8	5.4941607e-10
233	0x30b3d561	1.308461e-09
234	0x00000000	0.0
235	0x2e15b0e0	3.4035774e-11
236	0x2f18853b	1.3871652e-10
237	0x30f0777f	1.7496261e-09
238	0x00000000	0.0
239	0x2e76ac20	5.6086802e-11
240	0x301d9ecd	5.7341937e-10
241	0x30a878f7	1.2257989e-09
242	0x00000000	0.0
243	0x2e160e7e	3.4118923e-11
244	0x2ed6f96e	9.775901e-11
245	0x30fbc359	1.8318175e-09
246	0x00000000	0.0
247	0x2e7b635b	5.7159038e-11
248	0x302895dc	6.1331007e-10
249	0x309c9d19	1.1395144e-09
250	0x00000000	0.0
251	0x2e184c7b	3.4628727e-11
252	0x2ee43c3a	1.0378938e-10
253	0x30fa6660	1.8218991e-09
254	0x00000000	0.0
255	0x2e7e6481	5.784218e-11

exp_avg f4 [128]
0	0x38d0e31c	9.960515e-05
1	0xb8640a4a	-5.436902e-05
2	0xb7603b28	-1.3365214e-05
3	0xb7be1043	-2.2657337e-05
4	0x39b9ce69	0.00035439737
5	0x392a2be2	0.00016228811
6	0x37769a65	1.469869e-05
7	0xb6ec2284	-7.0373662e-06
8	0xba492e9b	-0.0007674486
9	0xba00ca21	-0.0004912932
10	0x390075c7	0.00012250907
11	0x37ca4e00	2.4116598e-05
12	0xb7f47ca8	-2.9145114e-05
13	0xb9abe12b	-0.00032783425
14	0xba2740b9	-0.0006380189
15	0xb9907393	-0.0002755193
16	0x38b3aef1	8.5679705e-05
17	0xb9af4aa9	-0.00033434227
18	0xb87bf133	-6.0067698e-05
19	0xb989a471	-0.00026253195
20	0xb6ad176e	-5.1585293e-06
21	0x363cb3af	2.8118773e-06
22	0x3915ee24	0.00014298462
23	0x365897cb	3.2274863e-06
24	0xb9f479b6	-0.00046629988
25	0xb688150a	-4.055565e-06
26	0xb9e2223b	-0.00043131583
27	0x37140afc	8.824045e-06
28	0x3a1ae8df	0.0005909334
29	0x380810b1	3.2440472e-05
30	0xb7ebbcdc	-2.8102128e-05
31	0xba5495e4	-0.00081094936
32	0xb7e4e99d	-2.7288503e-05
33	0xb80b73f9	-3.324819e-05
34	0xb928f7bf	-0.00016114021
35	0x39729de7	0.00023137742
36	0xb91b37a2	-0.00014802677
37	0x38c57513	9.415499e-05
38	0xba33e4c1	-0.0006862395
39	0xb7fcfdb3	-3.0158879e-05
40	0xba173771	-0.0005768454
41	0x379935ad	1.8264016e-05
42	0x381fcca6	3.8099148e-05
43	0xb7d46a17	-2.5321771e-05
44	0xb8c58e73	-9.420225e-05
45	0xba481f45	-0.0007634054
46	0x39e9a9e1	0.00044567793
47	0xba09d204	-0.000525743
48	0xba270791	-0.0006371672
49	0xb6e97721	-6.9578095e-06
50	0xb9c998bc	-0.00038451503
51	0x390ea068	0.00013601931
52	0xb93df644	-0.00018116186
53	0xb851a2d7	-4.998114e-05
54	0x345435d2	1.9763618e-07
55	0xba225393	-0.0006192263
56	0xb8c0aad0	-9.18709e-05
57	0xb99c510e	-0.0002981503
58	0x3a5a052c	0.00083168107
59	0xb83fac73	-4.5698554e-05
60	0xb7904639	-1.7198838e-05
61	0xb8051590	-3.1729753e-05
62	0xb5f71e62	-1.8411777e-06
63	0x37046c5c	7.8930425e-06
64	0xb708e82b	-8.1602875e-06
65	0xba30345c	-0.00067216693
66	0x3a624aff	0.0008632391
67	0xb89d1e52	-7.491991e-05
68	0xb8adc4c3	-8.2859326e-05
69	0xb72e596e	-1.039203e-05
70	0xb78e7443	-1.6981858e-05
71	0xb86f50cf	-5.70573e-05
72	0xb97badf5	-0.0002400203
73	0xb8bbd923	-8.9573e-05
74	0x395a7c01	0.00020836295
75	0xb9b2d8c4	-0.0003411231
76	0x36e240d8	6.7428737e-06
77	0xb98493ad	-0.0002528703
78	0xb918782b	-0.00014540616
79	0xba2c1f1b	-0.00065659144
80	0xb908c2ac	-0.00013042492
81	0x39031980	0.00012502633
82	0xba21e4d6	-0.0006175762
83	0xb8cfcec1	-9.90904e-05
84	0x39855be5	0.00025436204
85	0x390352cf	0.00012523982
86	0xb8dac266	-0.000104312596
87	0x382ad6a9	4.0731076e-05
88	0xb9b2f5b8	-0.0003413388
89	0xb91b255a	-0.00014795866
90	0x390f230c	0.00013650599
91	0xb9fa7a1c	-0.00047774694
92	0xb9b123a9	-0.0003378664
93	0x38ad4d3e	8.26367e-05
94	0xb9ac732b	-0.00032892203
95	0x3a101eeb	0.0005497771
96	0xb7729bb5	-1.4460577e-05
97	0x3856f4ee	5.1249684e-05
98	0xb7bbac15	-2.2372269e-05
99	0xba2e9fea	-0.00066614023
100	0x38beb837	9.094219e-05
101	0xb9f20aab	-0.00046165785
102	0xb7421d3e	-1.157011e-05
103	0x393842dc	0.00017572514
104	0x38a603bb	7.916192e-05
105	0xb81c5a9a	-3.7277678e-05
106	0xb5670eea	-8.607591e-07
107	0x38759ee0	5.8560516e-05
108	0xb8c28dfb	-9.277087e-05
109	0xb8000471	-3.0521715e-05
110	0x3958c555	0.00020672877
111	0xba11bb63	-0.0005559234
112	0xb7e2be1c	-2.7029826e-05
113	0xb7e537da	-2.7324935e-05
114	0xb9d5ad2b	-0.00040755546
115	0x398015db	0.00024430346
116	0xb88b477d	-6.641352e-05
117	0xb90234f7	-0.00012417497
118	0xba27f6ee	-0.000640734
119	0x3746e9ed	1.1856185e-05
120	0xb986af9d	-0.00025689314
121	0xb94116d9	-0.00018414426
122	0xb9da4bd1	-0.00041636688
123	0xb9df042f	-0.00042536992
124	0xb9271c23	-0.00015936843
125	0xb9c79a08	-0.00038071
126	0xb994209d	-0.0002825306
127	0xb7816e21	-1.5429281e-05

exp_avg_sq f4 [128]
0	0x341d8968	1.4671753e-07
1	0x31c11334	5.6192224e-09
2	0x3101683e	1.8831225e-09
3	0x30f847f0	1.8064821e-09
4	0x3582baa1	9.740071e-07
5	0x357155c4	8.99043e-07
6	0x338f2377	6.6654074e-08
7	0x31537a1b	3.077395e-09
8	0x35ceb836	1.5401808e-06
9	0x3691ba90	4.3430555e-06
10	0x3419a104	1.4307813e-07
11	0x3216ad1e	8.770511e-09
12	0x31cedd7a	6.020568e-09
13	0x34ac2e2b	3.2071088e-07
14	0x36654db5	3.416889e-06
15	0x35422a61	7.23323e-07
16	0x369a54eb	4.5994434e-06
17	0x357d8ca8	9.4454526e-07
18	0x331335ba	3.427497e-08
19	0x3584fa38	9.90759e-07
20	0x33be4246	8.8596195e-08
21	0x30be6a35	1.3854505e-09
22	0x346c92eb	2.2032661e-07
23	0x30a9b9e5	1.2349203e-09
24	0x35904607	1.0749217e-06
25	0x31012b20	1.8796484e-09
26	0x3547a9c3	7.438031e-07
27	0x32be2197	2.2134186e-08
28	0x363469a0	2.6883572e-06
29	0x32d89dbb	2.5217437e-08
30	0x35a2e78d	1.2137331e-06
31	0x36b4c63e	5.3874965e-06
32	0x3140f350	2.8077984e-09
33	0x323ad281	1.0874488e-08
34	0x347963b8	2.322621e-07
35	0x356f63d6	8.917972e-07
36	0x32cad155	2.3611088e-08
37	0x347f56f2	2.3780356e-07
38	0x3687bc37	4.0452246e-06
39	0x329e0adf	1.8398564e-08
40	0x3667ff0e	3.4570144e-06
41	0x31bb7fa4	5.4569274e-09
42	0x3366c1c5	5.372728e-08
43	0x322fdf43	1.02371045e-08
44	0x322fa759	1.0224391e-08
45	0x3653661e	3.150089e-06
46	0x35bf4285	1.4249969e-06
47	0x35a68d58	1.24091e-06
48	0x36742b9d	3.638422e-06
49	0x3257ed75	1.2568639e-08
50	0x35dad8c2	1.630535e-06
51	0x35029391	4.864351e-07
52	0x3486b4e5	2.5091063e-07
53	0x35c30a6d	1.4531666e-06
54	0x30f581a4	1.7862942e-09
55	0x36565f00	3.1943782e-06
56	0x338dda9a	6.6055875e-08
57	0x3516c3d8	5.6164345e-07
58	0x36b9e26f	5.53979e-06
59	0x311b5a62	2.2606845e-09
60	0x3094586f	1.0793552e-09
61	0x31c80b01	5.822017e-09
62	0x30eb9a59	1.7142369e-09
63	0x32a68d61	1.9389235e-08
64	0x32e58acb	2.6722224e-08
65	0x3655eb66	3.1876493e-06
66	0x3699714e	4.5729457e-06
67	0x3364f4dc	5.3308085e-08
68	0x33addf90	8.096606e-08
69	0x3057d4dc	7.8519036e-10
70	0x34044022	1.231679e-07
71	0x32705f37	1.3991488e-08
72	0x34ac1322	3.2051418e-07
73	0x35b4d63c	1.3473395e-06
74	0x34bc31d8	3.5053995e-07
75	0x34ac31b6	3.2073666e-07
76	0x351e088b	5.887202e-07
77	0x35316865	6.608955e-07
78	0x34833a1a	2.4442926e-07
79	0x361cbd56	2.335602e-06
80	0x34229e58	1.5145031e-07
81	0x34bc02b1	3.5019687e-07
82	0x36214306	2.4029882e-06
83	0x3686c10d	4.0159853e-06
84	0x34f91100	4.6392233e-07
85	0x35689059	8.663679e-07
86	0x32a143f1	1.8773763e-08
87	0x32a0ad36	1.8705219e-08
88	0x359dc764	1.1755442e-06
89	0x35b89197	1.375144e-06
90	0x3603ff97	1.9669294e-06
91	0x361c7a16	2.3316875e-06
92	0x35d2cd25	1.5705924e-06
93	0x335d4622	5.1519358e-08
94	0x368db6d9	4.2234137e-06
95	0x361934e6	2.2829568e-06
96	0x3201ac6c	7.5479925e-09
97	0x350869ff	5.081819e-07
98	0x322517f5	9.609711e-09
99	0x3638e8c0	2.7553615e-06
100	0x35ebf9a2	1.7581517e-06
101	0x3620e87a	2.3977177e-06
102	0x324f190e	1.2054683e-08
103	0x34b301f0	3.3342758e-07
104	0x35d7ac2b	1.6068856e-06
105	0x32030ae6	7.627682e-09
106	0x3166abfc	3.3567167e-09
107	0x3616501d	2.2398374e-06
108	0x33f5cf80	1.14464456e-07
109	0x32508be2	1.2138999e-08
110	0x344962d5	1.8755539e-07
111	0x36956eb6	4.4534345e-06
112	0x360044c2	1.9113509e-06
113	0x34c8580d	3.7316968e-07
114	0x3569119d	8.6824895e-07
115	0x352c50ef	6.4192767e-07
116	0x324c6268	1.1896738e-08
117	0x3600a501	1.9169531e-06
118	0x36003f4c	1.911033e-06
119	0x363861cb	2.747506e-06
120	0x35a81e1e	1.2525741e-06
121	0x3515b489	5.576954e-07
122	0x3637d3b1	2.7392346e-06
123	0x353a4b6d	6.940016e-07
124	0x33fea0c8	1.18570426e-07
125	0x35b21737	1.326879e-06
126	0x354f57d7	7.7241333e-07
127	0x31ef3823	6.9621975e-09
