results/run7/CarAgent.onnx (onnx, 644027 bytes, 11 tensors)

network_body.observation_encoder.processors.0.normalizer.running_mean f4 [100]
0.0 0.0 0.0 0.0 0.0 0.0 0.0 0.0
0.0 0.0 0.0 0.0 0.0 0.0 0.0 0.0
0.0 0.0 0.0 0.0 0.0 0.0 0.0 0.0
0.0 0.0 0.0 0.0 0.0 0.0 0.0 0.0
0.0 0.0 0.0 0.0 0.0 0.0 0.0 0.0
0.0 0.0 0.0 0.0 0.0 0.0 0.0 0.0
0.0 0.0 0.0 0.0 0.0 0.0 0.0 0.0
0.0 0.0 0.0 0.0 0.0 0.0 0.0 0.0
0.0 0.0 0.0 0.0 0.0 0.0 0.0 0.0
0.0 0.0 0.0 0.0 0.0 0.0 0.0 0.0
0.0 0.0 0.0 0.0 0.0 0.0 0.0 0.0
0.0 0.0 0.0 0.0 0.0 0.0 0.0 0.0
0.0 0.0 0.0 0.0
00000000: 0000 0000 0000 0000 0000 0000 0000 0000
00000010: 0000 0000 0000 0000 0000 0000 0000 0000
00000020: 0000 0000 0000 0000 0000 0000 0000 0000
00000030: 0000 0000 0000 0000 0000 0000 0000 0000
00000040: 0000 0000 0000 0000 0000 0000 0000 0000
00000050: 0000 0000 0000 0000 0000 0000 0000 0000
00000060: 0000 0000 0000 0000 0000 0000 0000 0000
00000070: 0000 0000 0000 0000 0000 0000 0000 0000
00000080: 0000 0000 0000 0000 0000 0000 0000 0000
00000090: 0000 0000 0000 0000 0000 0000 0000 0000
000000a0: 0000 0000 0000 0000 0000 0000 0000 0000
000000b0: 0000 0000 0000 0000 0000 0000 0000 0000
000000c0: 0000 0000 0000 0000 0000 0000 0000 0000
000000d0: 0000 0000 0000 0000 0000 0000 0000 0000
000000e0: 0000 0000 0000 0000 0000 0000 0000 0000
000000f0: 0000 0000 0000 0000 0000 0000 0000 0000
00000100: 0000 0000 0000 0000 0000 0000 0000 0000
00000110: 0000 0000 0000 0000 0000 0000 0000 0000
00000120: 0000 0000 0000 0000 0000 0000 0000 0000
00000130: 0000 0000 0000 0000 0000 0000 0000 0000
00000140: 0000 0000 0000 0000 0000 0000 0000 0000
00000150: 0000 0000 0000 0000 0000 0000 0000 0000
00000160: 0000 0000 0000 0000 0000 0000 0000 0000
00000170: 0000 0000 0000 0000 0000 0000 0000 0000
00000180: 0000 0000 0000 0000 0000 0000 0000 0000

network_body.observation_encoder.processors.1.normalizer.running_mean f4 [6]
0.0 0.0 0.0 0.0 0.0 0.0
00000000: 0000 0000 0000 0000 0000 0000 0000 0000
00000010: 0000 0000 0000 0000

network_body._body_endoder.seq_layers.0.weight f4 [256, 106]
0.06267279 -0.016464861 0.008070262 0.11826588 -0.027143622 0.114517 0.13860464 -0.08125626
0.07449466 0.048007492 0.042333327 0.050919537 -0.120548576 0.0285695 -0.010625851 -0.11549913
-0.09355509 -0.10480279 0.21467772 0.016567929 0.08851967 0.01386611 -0.025266113 -0.011322472
0.17703362 0.05613449 0.11542172 -0.014744036 -0.06573126 0.12826072 0.013125138 -0.20856771
-0.019419083 0.4173148 -0.015033419 -0.059949297 0.08579499 0.05645523 -0.06651069 0.0069512674
-0.053681012 0.12438602 0.07114933 0.08438246 -0.03872517 -0.020059917 -0.016555196 0.0256055
-0.09232099 -0.033673923 0.13479583 -0.0050747283 -0.08554608 -0.08352997 0.05660002 -0.059959568
-0.040902752 0.051842995 0.02441594 0.2042932 -0.08374275 -0.0037880475 0.15114062 -0.045217384
-0.011998059 -0.004999162 0.040432673 -0.084803976 0.0691421 0.10216644 -0.04501331 0.114588186
-0.1361129 -0.07888469 0.0711521 -0.06286001 -0.041557055 0.008006313 -0.03769643 -0.013386029
0.04764841 0.16792981 0.0961716 0.17160903 -0.099183954 0.018741868 -0.08943937 -0.0027046304
-0.11890896 -0.09652563 0.025350582 -0.021728713 0.25452307 0.06771723 0.040553156 -0.067051314
0.16897853 0.09702369 0.037431773 -0.099526994 -0.0015184077 -0.01596367 -0.043006673 -0.12681438
0.1084384 0.06362161 0.11334365 -0.07115242 0.20969461 -0.2295718 -0.07267951 0.092236266
0.010366124 0.09598779 0.062726066 -0.022452004 -0.11046861 -0.05183575 -0.06736354 0.116835274
-0.23728201 -0.09622851 -0.05643191 0.12286377 0.13977769 0.0445655 -0.062516324 0.07476958
0.0048772064 0.09165837 -0.029190816 0.002291219 0.0024140305 -0.0034323602 0.12421533 0.11068965
-0.05051769 0.041639443 0.013306352 0.051640004 0.21645778 -0.041566893 0.08726657 0.02128598
0.04068937 -0.017830815 0.043711595 -0.023978679 -0.105533525 -0.2115059 -0.07859711 -0.039746895
0.025170734 0.039088167 0.097209044 -0.03770573 -0.13973212 0.02816363 0.077077314 0.13520476
0.06304678 0.031186119 -0.025591748 -0.0041259993 0.079485044 0.1372008 -0.066311695 -0.0447805
-0.11819777 -0.10961046 -0.122918904 0.07047515 -0.00033623865 -0.023728063 0.099801846 0.059612036
-0.17539123 -0.053451516 -0.10857978 -0.15966697 -0.12534599 -0.14345786 0.009195552 -0.109346814
-0.05018036 0.12364556 -0.12436886 0.071643144 0.096097 -0.19817156 0.114820406 -0.024200033
-0.2991725 -0.04646264 0.12142602 0.003670511 -0.24968775 0.021638226 -0.0001301628 0.0467518
-0.063615285 0.06880259 -0.053753216 -0.15681642 -0.091381766 0.01808713 -0.07245539 0.023133973
-0.0572489 0.020912057 -0.045447852 0.1332576 0.110623315 -0.0005815631 0.12142767 -0.10956093
-0.21096367 0.014107959 -0.034434535 0.0038639044 0.088537395 -0.059237 0.16402876 -0.07229171
-0.036356363 -0.014238064 -0.055304028 -0.12313281 0.1517115 0.05024141 0.09341196 -0.032147195
0.06732457 0.08357485 -0.0380866 0.049386624 -0.08973807 0.09573975 -0.18196134 0.11542003
0.067853704 0.026955603 -0.0007296308 0.0067706876 0.24631138 -0.122710735 0.03606125 0.09645088
0.0693367 0.05170261 0.15322001 -0.07656441 -0.07118409 0.0882307 -0.024063392 -0.17179286
00000000: 975a 803d 51e1 86bc 2239 043c 6235 f23d
00000010: 4d5c debc e487 ea3d 60ee 0d3e af69 a6bd
00000020: a890 983d 81a3 443d b665 2d3d 0191 503d
00000030: 2ce2 f6bd 960a ea3c 0d18 2ebc cf8a ecbd
00000040: d099 bfbd d8a2 d6bd 7ad4 5b3e 77b9 873c
00000050: cd49 b53d ae2e 633c e1fa cebc e481 39bc
00000060: 4d48 353e 47ed 653d 3962 ec3d f890 71bc
00000070: 1c9e 86bd c756 033e d20a 573c c692 55be
00000080: c514 9fbc 49aa d53e bb4e 76bc 658d 75bd
00000090: 49b5 af3d 993d 673d c236 88bd 75c7 e33b
000000a0: 9fe0 5bbd 19be fe3d bdb6 913d b6d0 ac3d
000000b0: 499e 1ebd b254 a4bc c39e 87bc a0c2 d13c
000000c0: ca12 bdbd abed 09bd eb07 0a3e e849 a6bb
000000d0: c832 afbd c311 abbd 6cd5 673d 2a98 75bd
000000e0: a589 27bd 5259 543d f003 c83c 3d32 513e
000000f0: 5281 abbd e440 78bb 9bc4 1a3e dd35 39bd
00000100: 8293 44bc 03d0 a3bb bb9c 253d b5ad adbd
00000110: 609a 8d3d a33c d13d e05f 38bd 36ad ea3d
00000120: 2e61 0bbe 4c8e a1bd 31b8 913d c0bc 80bd
00000130: bb37 2abd e92c 033c 9267 1abd 1351 5bbc
00000140: fb2a 433d cbf5 2b3e 9ef5 c43d 47ba 2f3e
00000150: f520 cbbd 8c88 993c fd2b b7bd 2b40 31bb
00000160: 8a86 f3bd 3baf c5bd 06ac cf3c 6a00 b2bc
00000170: d950 823e 55af 8a3d 111b 263d 3352 89bd
00000180: b508 2d3e 5bb4 c63d 0f52 193d cfd4 cbbd
00000190: 4f05 c7ba 3ec6 82bc c427 30bd a1db 01be
000001a0: f414 de3d 0c4c 823d b720 e83d 5cb8 91bd
000001b0: 2fba 563e df14 6bbe ffd8 94bd 5ee6 bc3d
000001c0: add6 293c 3f95 c43d 8676 803d 44ed b7bc
000001d0: 5e3d e2bd b951 54bd e5f5 89bd 5547 ef3d
000001e0: 0efa 72be 7413 c5bd 2525 67bd 00a0 fb3d
000001f0: e221 0f3e 508a 363d 8f08 80bd cb20 993d
00000200: f9d0 9f3b 62b7 bb3d 9421 efbc 4728 163b
00000210: b634 1e3b 73f1 60bb 9b64 fe3d 41b1 e23d
00000220: a3eb 4ebd 1f8e 2a3d e302 5a3c 7884 533d
00000230: 1ca7 5d3e 0c42 2abd d1b8 b23d ef5f ae3c
00000240: e6a9 263d ee11 92bc ee0a 333d ef6e c4bc
00000250: f621 d8bd 0195 58be 86f7 a0bd a4cd 22bd
00000260: db32 ce3c ea1a 203d 8915 c73d 5371 1abd
00000270: f015 0fbe 6ab7 e63c b6da 9d3d 1e73 0a3e
00000280: ac1e 813d 087a ff3c c9a5 d1bc 6433 87bb
00000290: 0ec9 a23d 5e7e 0c3e 6dce 87bd c26b 37bd
000002a0: ac11 f2bd 737b e0bd e8bc fbbd 4755 903d
000002b0: 3049 b0b9 5b61 c2bc e964 cc3d c02b 743d
000002c0: c299 33be faef 5abd 135f debd bd7f 23be
000002d0: b35a 00be 9ee6 12be f1a8 163c 39f1 dfbd
000002e0: ec89 4dbd e239 fd3d 1ab5 febd a4b9 923d
000002f0: 81ce c43d 7ced 4abe f626 eb3d 263f c6bc
00000300: 232d 99be 9c4f 3ebd 35ae f83d f58c 703b
00000310: 25ae 7fbe a642 b13c 507c 08b9 d17e 3f3d
00000320: bb48 82bd 5fe8 8c3d 552c 5cbd 7c94 20be
00000330: 5d26 bbbd 762b 943c 7e63 94bd 7583 bd3c
00000340: d37d 6abd c34f ab3c 8727 3abd ae74 083e
00000350: 7a8e e23d 0a74 18ba 12af f83d 7b61 e0bd
00000360: dc06 58be 1225 673c 3a0b 0dbd 8f39 7d3b
00000370: 1853 b53d 7fa2 72bd 28f7 273e ad0d 94bd
00000380: 69ea 14bd c546 69bc 7a86 62bd 0e2d fcbd
00000390: 425a 1b3e f0c9 4d3d c54e bf3d c7ac 03bd
000003a0: 77e1 893d 4a29 ab3d b200 1cbd a149 4a3d
000003b0: 98c8 b7bd 3413 c43d 1354 3abe 5661 ec3d
000003c0: e2f6 8a3d ffd1 dc3c b244 3fba a5dc dd3b
000003d0: 0d39 7c3e c44f fbbd f6b4 133d 0a88 c53d
000003e0: 6600 8e3d 1ec6 533d b5e5 1c3e cdcd 9cbd
000003f0: f7c8 91bd 4cb2 b43d 9720 c5bc 78ea 2fbe

network_body._body_endoder.seq_layers.0.bias f4 [256]
0.0 0.0 0.0 0.0 0.0 0.0 0.0 0.0
0.0 0.0 0.0 0.0 0.0 0.0 0.0 0.0
0.0 0.0 0.0 0.0 0.0 0.0 0.0 0.0
0.0 0.0 0.0 0.0 0.0 0.0 0.0 0.0
0.0 0.0 0.0 0.0 0.0 0.0 0.0 0.0
0.0 0.0 0.0 0.0 0.0 0.0 0.0 0.0
0.0 0.0 0.0 0.0 0.0 0.0 0.0 0.0
0.0 0.0 0.0 0.0 0.0 0.0 0.0 0.0
0.0 0.0 0.0 0.0 0.0 0.0 0.0 0.0
0.0 0.0 0.0 0.0 0.0 0.0 0.0 0.0
0.0 0.0 0.0 0.0 0.0 0.0 0.0 0.0
0.0 0.0 0.0 0.0 0.0 0.0 0.0 0.0
0.0 0.0 0.0 0.0 0.0 0.0 0.0 0.0
0.0 0.0 0.0 0.0 0.0 0.0 0.0 0.0
0.0 0.0 0.0 0.0 0.0 0.0 0.0 0.0
0.0 0.0 0.0 0.0 0.0 0.0 0.0 0.0
0.0 0.0 0.0 0.0 0.0 0.0 0.0 0.0
0.0 0.0 0.0 0.0 0.0 0.0 0.0 0.0
0.0 0.0 0.0 0.0 0.0 0.0 0.0 0.0
0.0 0.0 0.0 0.0 0.0 0.0 0.0 0.0
0.0 0.0 0.0 0.0 0.0 0.0 0.0 0.0
0.0 0.0 0.0 0.0 0.0 0.0 0.0 0.0
0.0 0.0 0.0 0.0 0.0 0.0 0.0 0.0
0.0 0.0 0.0 0.0 0.0 0.0 0.0 0.0
0.0 0.0 0.0 0.0 0.0 0.0 0.0 0.0
0.0 0.0 0.0 0.0 0.0 0.0 0.0 0.0
0.0 0.0 0.0 0.0 0.0 0.0 0.0 0.0
0.0 0.0 0.0 0.0 0.0 0.0 0.0 0.0
0.0 0.0 0.0 0.0 0.0 0.0 0.0 0.0
0.0 0.0 0.0 0.0 0.0 0.0 0.0 0.0
0.0 0.0 0.0 0.0 0.0 0.0 0.0 0.0
0.0 0.0 0.0 0.0 0.0 0.0 0.0 0.0
00000000: 0000 0000 0000 0000 0000 0000 0000 0000
00000010: 0000 0000 0000 0000 0000 0000 0000 0000
00000020: 0000 0000 0000 0000 0000 0000 0000 0000
00000030: 0000 0000 0000 0000 0000 0000 0000 0000
00000040: 0000 0000 0000 0000 0000 0000 0000 0000
00000050: 0000 0000 0000 0000 0000 0000 0000 0000
00000060: 0000 0000 0000 0000 0000 0000 0000 0000
00000070: 0000 0000 0000 0000 0000 0000 0000 0000
00000080: 0000 0000 0000 0000 0000 0000 0000 0000
00000090: 0000 0000 0000 0000 0000 0000 0000 0000
000000a0: 0000 0000 0000 0000 0000 0000 0000 0000
000000b0: 0000 0000 0000 0000 0000 0000 0000 0000
000000c0: 0000 0000 0000 0000 0000 0000 0000 0000
000000d0: 0000 0000 0000 0000 0000 0000 0000 0000
000000e0: 0000 0000 0000 0000 0000 0000 0000 0000
000000f0: 0000 0000 0000 0000 0000 0000 0000 0000
00000100: 0000 0000 0000 0000 0000 0000 0000 0000
00000110: 0000 0000 0000 0000 0000 0000 0000 0000
00000120: 0000 0000 0000 0000 0000 0000 0000 0000
00000130: 0000 0000 0000 0000 0000 0000 0000 0000
00000140: 0000 0000 0000 0000 0000 0000 0000 0000
00000150: 0000 0000 0000 0000 0000 0000 0000 0000
00000160: 0000 0000 0000 0000 0000 0000 0000 0000
00000170: 0000 0000 0000 0000 0000 0000 0000 0000
00000180: 0000 0000 0000 0000 0000 0000 0000 0000
00000190: 0000 0000 0000 0000 0000 0000 0000 0000
000001a0: 0000 0000 0000 0000 0000 0000 0000 0000
000001b0: 0000 0000 0000 0000 0000 0000 0000 0000
000001c0: 0000 0000 0000 0000 0000 0000 0000 0000
000001d0: 0000 0000 0000 0000 0000 0000 0000 0000
000001e0: 0000 0000 0000 0000 0000 0000 0000 0000
000001f0: 0000 0000 0000 0000 0000 0000 0000 0000
00000200: 0000 0000 0000 0000 0000 0000 0000 0000
00000210: 0000 0000 0000 0000 0000 0000 0000 0000
00000220: 0000 0000 0000 0000 0000 0000 0000 0000
00000230: 0000 0000 0000 0000 0000 0000 0000 0000
00000240: 0000 0000 0000 0000 0000 0000 0000 0000
00000250: 0000 0000 0000 0000 0000 0000 0000 0000
00000260: 0000 0000 0000 0000 0000 0000 0000 0000
00000270: 0000 0000 0000 0000 0000 0000 0000 0000
00000280: 0000 0000 0000 0000 0000 0000 0000 0000
00000290: 0000 0000 0000 0000 0000 0000 0000 0000
000002a0: 0000 0000 0000 0000 0000 0000 0000 0000
000002b0: 0000 0000 0000 0000 0000 0000 0000 0000
000002c0: 0000 0000 0000 0000 0000 0000 0000 0000
000002d0: 0000 0000 0000 0000 0000 0000 0000 0000
000002e0: 0000 0000 0000 0000 0000 0000 0000 0000
000002f0: 0000 0000 0000 0000 0000 0000 0000 0000
00000300: 0000 0000 0000 0000 0000 0000 0000 0000
00000310: 0000 0000 0000 0000 0000 0000 0000 0000
00000320: 0000 0000 0000 0000 0000 0000 0000 0000
00000330: 0000 0000 0000 0000 0000 0000 0000 0000
00000340: 0000 0000 0000 0000 0000 0000 0000 0000
00000350: 0000 0000 0000 0000 0000 0000 0000 0000
00000360: 0000 0000 0000 0000 0000 0000 0000 0000
00000370: 0000 0000 0000 0000 0000 0000 0000 0000
00000380: 0000 0000 0000 0000 0000 0000 0000 0000
00000390: 0000 0000 0000 0000 0000 0000 0000 0000
000003a0: 0000 0000 0000 0000 0000 0000 0000 0000
000003b0: 0000 0000 0000 0000 0000 0000 0000 0000
000003c0: 0000 0000 0000 0000 0000 0000 0000 0000
000003d0: 0000 0000 0000 0000 0000 0000 0000 0000
000003e0: 0000 0000 0000 0000 0000 0000 0000 0000
000003f0: 0000 0000 0000 0000 0000 0000 0000 0000

network_body._body_endoder.seq_layers.2.weight f4 [256, 256]
0.028562292 -0.07268772 0.09450487 -0.08395974 -0.057811394 -0.00465096 0.021190718 -0.00795833
-0.08148165 -0.039867904 0.016863469 0.09492259 0.034728922 -0.062244333 -0.032917917 -0.029686155
-0.045023788 -0.018912785 0.009368727 0.085369356 -0.052209765 -0.053476382 0.032404922 0.107138045
-0.021859564 -0.0031335375 -0.006542673 -0.07712222 -0.011661252 0.05123872 0.01844115 -0.08835023
-0.024363048 -0.040041894 -0.014950683 0.07844338 -0.06759717 0.062114608 -0.040880267 -0.028318439
-0.03059764 -0.10158359 0.028726984 0.029201614 -0.040271644 0.19045179 0.09857976 0.07098291
0.043422457 0.083287574 -0.06828085 -0.1553022 -0.012383769 -0.019848643 0.07359182 0.016768185
-0.08866124 0.019639177 -0.03593908 -0.04248722 0.07096805 0.024229871 -0.03545286 -0.031392027
-0.072525576 -0.06518011 0.032528605 0.022961436 0.015881725 -0.041493293 -0.1389414 0.039577782
0.073073395 -0.03750694 0.11787015 0.028822167 0.009376591 -0.027514663 0.07992155 -0.07079757
-0.07957487 0.09233045 -0.023452979 0.11483184 -0.0042073335 0.008771621 0.0060601304 -0.045601178
-0.024420984 -0.02485853 0.018383896 -0.0053225285 0.002919944 -0.09121337 -0.034275606 0.08873093
0.10349068 0.066392004 -0.14749777 -0.017032234 0.12343887 -0.111280456 0.023082564 0.025287693
-0.04298309 0.076026455 0.030766364 0.053618826 0.007818904 0.036539126 0.0056267227 0.010163584
-0.056933835 0.07792026 -0.04757665 0.023360781 0.015612983 0.116591215 0.033929143 0.039592907
-0.004812828 0.06753756 -0.11395888 0.04265136 0.054140538 0.012860632 -0.1114218 0.021138538
0.024925172 0.028724153 0.07339501 -0.0387956 -0.058617875 -0.12769718 -0.06271555 0.07431869
-0.014075927 0.06045305 -0.06406666 -0.03362324 -0.06070582 -0.022130042 -0.05442952 0.03440553
-0.090634674 0.12935987 0.013868848 -0.049405593 -0.03615074 -0.018219195 0.06714926 -0.11475249
-0.051509872 -0.06484651 0.005182194 0.098091476 -0.0928825 -0.03762953 0.008393309 -0.0068952395
-0.11402063 -0.0018278714 0.060419142 0.01977878 -0.12850711 0.07029096 0.028044326 -0.0071275677
0.023632048 -0.023341026 -0.0047601997 0.06936417 0.07195032 -0.07992266 0.11964107 -0.01072127
-0.037071843 -0.049220502 -0.03291496 0.012822046 0.08765858 0.09708624 -0.042106308 0.054673795
0.007055045 -0.026920678 -0.026967432 0.0040269545 -0.066198975 -0.021131748 0.103871614 0.09506376
0.04645347 -0.03467421 0.12617603 -0.00013400611 -0.011610012 -0.021221923 -0.03489014 -0.016540175
0.06611005 0.0108011495 0.009074005 -0.025707273 0.006815912 0.10537336 -0.002781671 0.054998428
0.004145527 0.06563876 -0.066361055 -0.11716271 -0.03499628 0.015548363 0.01351504 -0.06831217
-0.0040016193 0.025129732 -0.050763965 -0.02762606 -0.025613047 -0.024293026 -0.023812536 0.044287916
-0.0007499741 -0.08815367 0.027165908 -0.08173915 0.0003098933 -0.044401396 -0.036249876 -0.015009984
0.049033564 -0.051662493 0.051099785 0.02739482 0.08286955 -0.013365167 -0.10277324 -0.0035310006
0.058524806 0.018708104 -0.05051207 -0.016629532 0.055131074 0.052098684 0.055067934 -0.020865906
-0.09576369 0.11617248 -0.06927112 -0.01121131 0.070012055 -0.04119469 0.045618225 -0.035008453
00000000: 78fb e93c 4ddd 94bd c58b c13d 16f3 abbd
00000010: a4cb 6cbd 1567 98bb 2898 ad3c a863 02bc
00000020: dadf a6bd 874c 23bd 4225 8a3c c666 c23d
00000030: ea3f 0e3d eaf3 7ebd f0d4 06bd 6130 f3bc
00000040: dd6a 38bd fcee 9abc 4a7f 193c 21d6 ae3d
00000050: e8d9 55bd 0d0a 5bbd 06bb 043d 316b db3d
00000060: d412 b3bc 095c 4dbb eb63 d6bb 41f2 9dbd
00000070: d60e 3fbc b1df 513d e511 973c f7f0 b4bd
00000080: 0495 c7bc f802 24bd b6f3 74bc eca6 a03d
00000090: 6370 8abd e36b 7e3d 1172 27bd 12fc e7bc
000000a0: e7a7 fabc 0f0b d0bd da54 eb3c 3938 ef3c
000000b0: e1f3 24bd cb05 433e 2fe4 c93d 7d5f 913d
000000c0: bfdb 313d ad92 aa3d d5d6 8bbd 8a07 1fbe
000000d0: 4be5 4abc 9f99 a2bc 4fb7 963d 6f5d 893c
000000e0: 0694 b5bd 57e2 a03c db34 13bd 1407 2ebd
000000f0: b257 913d b97d c63c 0537 11bd ed94 00bd
00000100: 4a88 94bd 267d 85bd b73c 053d 9f19 bc3c
00000110: 641a 823c dff4 29bd a846 0ebe 501c 223d
00000120: 81a7 953d e1a0 19bd e865 f13d 771c ec3c
00000130: 46a0 193c 6e66 e1bc e9ad a33d 51fe 90bd
00000140: 26f8 a2bd bf17 bd3d 7620 c0bc f52c eb3d
00000150: acdd 89bb d8b6 0f3c 0f94 c63b 4dc8 3abd
00000160: 840e c8bc 1ea4 cbbc d399 963c 9b68 aebb
00000170: 885c 3f3b 13ce babd 9464 0cbd 90b8 b53d
00000180: ecf2 d33d 88f8 873d a809 17be 2f87 8bbc
00000190: 85cd fc3d 02e7 e3bd a517 bd3c 2328 cf3c
000001a0: 090f 30bd c2b3 9b3d be09 fc3c 6a9f 5b3d
000001b0: dc1a 003c 0daa 153d 5f60 b83b 2985 263c
000001c0: 7433 69bd a894 9f3d bcdf 42bd 1c5f bf3c
000001d0: 99cd 7f3c 60c7 ee3d 49f9 0a3d 2c2c 223d
000001e0: edb4 9dbb 2251 8a3d 4663 e9bd 31b3 2e3d
000001f0: 78c2 5d3d 66b5 523c 1d31 e4bd ba2a ad3c
00000200: e02f cc3c ea4e eb3c 1f50 963d 23e8 1ebd
00000210: 4c19 70bd 0dc3 02be 0371 80bd 6634 983d
00000220: b89e 66bc 9e9d 773d 6235 83bd 86b8 09bd
00000230: aaa6 78bd 104a b5bc 7df1 5ebd d0ec 0c3d
00000240: ac9e b9bd ea76 043e 2a3a 633c 855d 4abd
00000250: cc12 14bd 6c40 95bc 8d85 893d 5a03 ebbd
00000260: 04fc 52bd 3fce 84bd 65cf a93b 2fe4 c83d
00000270: 2e39 bebd 6c21 1abd 1784 093c 76f1 e1bb
00000280: a683 e9bd 3095 efba 107a 773d 1c07 a23c
00000290: 5e97 03be b5f4 8f3d 37bd e53c 5f8e e9bb
000002a0: ff97 c13c ae35 bfbc 73fb 9bbb cd0e 8e3d
000002b0: b05a 933d 7eae a3bd 6106 f53d 44a8 2fbc
000002c0: a5d8 17bd 709b 49bd d6d1 06bd 8f13 523c
000002d0: 5786 b33d 27d5 c63d aa77 2cbd a1f1 5f3d
000002e0: 022e e73b c188 dcbc ceea dcbc 8bf4 833b
000002f0: 5493 87bd 7d1c adbc a4ba d43d cab0 c23d
00000300: fe45 3e3d 8b06 0ebd 4a34 013e fe83 0cb9
00000310: eb37 3ebc 99d9 adbc f7e8 0ebd 437f 87bc
00000320: b564 873d 4ef7 303c 23ab 143c 0f98 d2bc
00000330: 0458 df3b fdcd d73d b24c 36bb 0846 613d
00000340: 33d7 873b 9d6d 863d 4ee8 87bd 01f3 efbd
00000350: 4258 0fbd 90be 7e3c 306e 5d3c 40e7 8bbd
00000360: 0420 83bb dedc cd3c e0ed 4fbd 0c50 e2bc
00000370: 74d2 d1bc 2b02 c7bc 8212 c3bc 3f67 353d
00000380: e999 44ba e989 b4bd 0a8b de3c db66 a7bd
00000390: 2d79 a239 3dde 35bd c07a 14bd 70ec 75bc
000003a0: 6bd7 483d 0d9c 53bd 024e 513d 1a6b e03c
000003b0: 83b7 a93d 93f9 5abc c77a d2bd 5c68 67bb
000003c0: b5b7 6f3d bd41 993c bfe5 4ebd a83a 88bc
000003d0: 1fd1 613d 6e65 553d ea8e 613d faee aabc
000003e0: c11f c4bd d6eb ed3d 04de 8dbd a4af 37bc
000003f0: 7b62 8f3d c3bb 28bd 2dda 3a3d 0665 0fbd

network_body._body_endoder.seq_layers.4.weight f4 [256, 256]
-0.020779125 -0.023260865 -0.056748495 0.06807746 -0.02763253 -0.011810163 -0.047202885 -0.094574496
-0.041683387 0.018754251 -0.052803382 -0.038842797 -0.03049142 -0.016645651 0.040680557 -0.12429865
0.0149574205 -0.008946967 -0.056621533 0.028709367 0.040574025 -0.037197918 0.13170922 0.006864873
0.0900074 -0.16537969 -0.073895 -0.04671493 0.081434675 0.031869203 -0.03960228 0.017952977
-0.012710852 0.13055347 0.029066196 -0.009902919 0.051139854 0.0769169 -0.037633706 -0.06394872
-0.0035311114 -0.05663282 -0.024535686 0.048133582 0.055089027 -0.11455619 -0.044599175 0.04283503
-0.067667626 -0.035206072 -0.06073037 -0.016340638 -0.06605966 -0.05417678 0.0031534154 0.082827
-0.07166461 0.035147004 0.013994393 -0.09363045 -0.095364265 -0.08007714 -0.080214635 0.063538894
0.01380469 -0.084170915 0.0019350308 -0.01415716 -0.0022756034 0.06692945 -0.02599512 0.0527074
-0.05615547 -0.036732934 0.011790064 -0.035077885 0.028666949 0.0113676535 0.09865804 0.0837709
-0.05202681 -0.0025163698 0.1126666 0.0030083533 0.095011786 0.08533005 -0.019451212 0.0047594435
-0.024544386 0.090406425 -0.06703454 -0.018296892 0.08114508 -0.0047289515 -0.09186435 -0.014661962
-0.06469405 -0.005050802 -0.034976844 -0.09325993 0.006877501 0.04633757 -0.060819354 0.038733985
-0.047480553 -0.0014002514 0.050997287 -0.060110755 0.034089405 -0.06880976 -0.030248897 -0.017936867
-0.033433996 -0.060503807 -0.014051998 0.034987792 0.059031885 -0.15721436 0.11516299 -0.05798619
-0.07601451 0.030535422 -0.04152605 -0.10530763 0.076264426 0.029163117 -0.054134887 -0.014964562
0.004127589 -0.08196871 0.021041559 0.051429518 -0.07075179 -0.062042188 0.113569394 0.02404042
0.01568178 0.044003025 -0.054855384 0.055531118 0.0065430566 0.010829378 0.0265099 0.007585755
-0.014274939 -0.007346404 0.12339505 -0.045747142 -0.025476351 -0.009817748 -0.107115 -0.08263239
-0.054452583 -0.008243781 0.0060027386 0.04451409 0.012152496 -0.051534332 0.009178024 -0.06615727
0.013270542 -0.103486285 -0.056916893 -0.061728235 0.14365298 0.07740388 0.06008278 -0.00974843
0.054047406 -0.027470313 0.0033437056 -0.06884254 -0.007760162 0.009706925 -0.033123124 -0.059607834
-0.055049807 0.044615086 -0.06592157 0.032570854 -0.13584813 0.0055389837 0.0732058 0.07529753
0.08147814 0.00016009068 -0.06375791 0.0035121806 -0.06110721 -0.09118814 -0.018549241 0.06544671
-0.013826404 0.10098996 -0.08097241 -0.027059501 -0.02408482 -0.055831317 -0.0325805 0.060485177
0.078578524 -0.12841193 0.041278623 -0.03385617 -0.069446996 -0.022730783 0.05609445 -0.100165874
-0.020804 0.012987537 0.01677941 -0.027108027 -0.023022076 0.001527417 -0.05613666 -0.031300414
0.04113899 0.040218826 -0.17514051 0.15063515 -0.025889264 0.07872226 0.09059035 0.0067727813
-0.05746813 -0.013889086 -0.006251822 -0.055188708 0.009168802 0.034779307 -0.0032387073 0.070926614
0.03641477 0.060552783 0.030399742 0.07674349 0.005217598 -0.0626572 -0.16543625 0.035311136
-0.04531131 0.07025407 0.08289594 0.047129497 0.02664629 0.05856754 0.035150018 0.020050053
0.07878136 0.06723992 0.103250675 -0.05741923 -0.032217745 0.0556426 0.049789228 -0.081936605
00000000: fc38 aabc 928d bebc 1c71 68bd 326c 8b3d
00000010: 9e5d e2bc 6a7f 41bc d057 41bd 46b0 c1bd
00000020: 33bc 2abd 84a2 993c 5c48 58bd a019 1fbd
00000030: 24c9 f9bc 765c 88bc a8a0 263d 4a90 febd
00000040: f80f 753c 4d96 12bc fbeb 67bd e82f eb3c
00000050: f330 263d d85c 18bd c8de 063e bbf2 e03b
00000060: cd55 b83d 4b59 29be 4356 97bd 2858 3fbd
00000070: 39c7 a63d 4889 023d 0036 22bd 1f12 933c
00000080: 2d41 50bc cfaf 053e 3b1c ee3c da3f 22bc
00000090: 0678 513d 9c86 9d3d cd25 1abd 8cf7 82bd
000000a0: 386a 67bb d1f7 67bd 10ff c8bc b827 453d
000000b0: 08a5 613d 709c eabd a0ad 36bd c973 2f3d
000000c0: 5395 8abd 3e34 10bd 69c0 78bd cddc 85bc
000000d0: 494a 87bd 79e8 5dbd 88a9 4e3b 34a1 a93d
000000e0: e5c4 92bd 4ef6 0f3d bd48 653c 52c1 bfbd
000000f0: 574e c3bd 7cff a3bd 9247 a4bd ae20 823d
00000100: 112d 623c cd61 acbd dca0 fd3a 6ff3 67bc
00000110: 4a22 15bb 4f12 893d b8f3 d4bc b7e3 573d
00000120: 4703 66bd 4675 16bd 1d2b 413c d4ad 0fbd
00000130: f3d6 ea3c 653f 3a3c 3a0d ca3d 1490 ab3d
00000140: 101a 55bd aee9 24bb bfbd e63d cb27 453b
00000150: 8a95 c23d 85c1 ae3d 2658 9fbc 1bf5 9b3b
00000160: 4f11 c9bc 0127 b93d 6849 89bd 5de3 95bc
00000170: 642f a63d 52f5 9abb 6023 bcbd ba38 70bc
00000180: 507e 84bd 3381 a5bb e143 0fbd 10ff bebd
00000190: a95c e13b 77cc 3d3d b71d 79bd 87a7 1e3d
000001a0: f87a 42bd a488 b7ba 88e2 503d b236 76bd
000001b0: 55a1 0b3d 22ec 8cbd 89cc f7bc 56f0 92bc
000001c0: 16f2 08bd d7d2 77bd 5a3a 66bc 5c4f 0f3d
000001d0: 6bcb 713d cdfc 20be 93da eb3d ed82 6dbd
000001e0: 7fad 9bbd 6c25 fa3c 3817 2abd 87ab d7bd
000001f0: 8630 9c3d 7de7 ee3c 8bbc 5dbd ec2d 75bc
00000200: ba40 873b 36df a7bd 595f ac3c c2a7 523d
00000210: 51e6 90bd f31f 7ebd 1297 e83d 6af0 c43c
00000220: 1477 803c 843c 343d 0ab0 60bd 9974 633d
00000230: 2367 d63b b46d 313c 4a2b d93c ed91 f83b
00000240: 6fe1 69bc 1aba f0bb 8bb6 fc3d 5b61 3bbd
00000250: c8b3 d0bc 9fda 20bc 1c5f dbbd 2c3b a9bd
00000260: ac09 5fbd ec10 07bc 9fb2 c43b 6854 363d
00000270: 431b 473c aa15 53bd 6c5f 163c 767d 87bd
00000280: b06c 593c 9ef0 d3bd b021 69bd bfd6 7cbd
00000290: c419 133e ed85 9e3d 5c19 763d e1b7 1fbc
000002a0: d060 5d3d 6c09 e1bc 1222 5b3b 51fd 8cbd
000002b0: f548 febb cb09 1f3c 1dac 07bd 5827 74bd
000002c0: e87b 61bd 4fbe 363d e301 87bd 0469 053d
000002d0: c61b 0bbe 5d80 b53b ecec 953d 9735 9a3d
000002e0: 03de a63d 04de 2739 8293 82bd 9d2c 663b
000002f0: 8e4b 7abd d9c0 babd 94f4 97bc ed08 863d
00000300: 2488 62bc d3d3 ce3d ddd4 a5bd e3ab ddbc
00000310: 874d c5bc 61af 64bd 2173 05bd 4ebf 773d
00000320: c7ed a03d 6b7e 03be c613 293d c4ac 0abd
00000330: 3a3a 8ebd e835 babc 4bc3 653d c423 cdbd
00000340: 266d aabc aec9 543c f974 893c a711 debc
00000350: cb98 bcbc 9c33 c83a 8eef 65bd dd34 00bd
00000360: 5c81 283d 7fbc 243d 0958 33be 1a40 1a3e
00000370: b915 d4bc 2339 a13d 6f87 b93d 35ee dd3b
00000380: b463 6bbd 0d8f 63bc 16dc ccbb 8e0d 62bd
00000390: be38 163c bf74 0e3d 7e40 54bb f941 913d
000003a0: a727 153d 3206 783d e108 f93c b12b 9d3d
000003b0: 62f8 aa3b 6b52 80bd 1f68 29be 69a2 103d
000003c0: 5a98 39bd 5ee1 8f3d 59c5 a93d dc0a 413d
000003d0: 5249 da3c 84e4 6f3d 77f9 0f3d 0240 a43c
000003e0: 1f58 a13d 15b5 893d 1775 d33d 6d30 6bbd
000003f0: c1f6 03bd 7fe9 633d caef 4b3d 61ce a7bd

action_model._continuous_distribution.log_sigma f4 [1, 2]
0.0 0.0
00000000: 0000 0000 0000 0000

action_model._continuous_distribution.mu.weight f4 [2, 256]
-0.0036669292 0.003915416 0.026148368 0.007179824 -0.01534529 -0.0034091969 0.009678369 0.010867295
0.0019662068 0.0038193979 0.021518258 -0.008955798 -0.015677981 -0.003345139 -0.0029299513 -0.005844117
-0.006669906 0.010414031 0.015133932 0.005849176 -0.0013723318 0.014009929 -0.009738432 -0.0018265073
0.011287425 -0.022056727 -0.022093631 -0.0100793345 0.0051766704 -0.0040518097 -0.008798222 0.00690346
-0.012196413 -0.012690305 -0.015229197 -0.019002508 0.009758945 0.0035829672 -0.005926604 0.014799619
0.015020161 -0.025531573 0.0043571023 0.0005490912 -0.02342329 -0.004527482 -0.011685965 -0.005422741
-0.0037677602 -0.017097967 -0.023767805 -0.008188966 0.00022744949 -0.007634956 -0.0067981007 0.004985669
-0.0069406196 -0.013170271 -0.013335069 -0.0062988997 0.0036092184 -0.007820933 0.011598276 0.0038931349
0.0056092804 -0.0027688234 0.008167648 0.0024545598 0.01861648 -0.022814617 -0.018515592 0.013847048
-0.0020882364 0.013427331 -0.012980356 -0.0003649797 -0.0015692313 -0.013015381 0.002707406 0.010443862
0.0067360275 -0.00017190087 0.03173226 -0.0013923489 -0.014627829 -0.006968101 -0.017173355 0.0017015919
-0.011396567 -0.01088971 -0.018277436 0.018099828 0.0037633148 0.016897107 -0.011347268 0.004148545
0.009146261 0.019288108 0.0025595452 -0.0134348795 -0.012027885 0.0028041357 -0.011517571 0.0034471476
0.005045787 0.016836477 0.0069153267 0.00990907 0.014288512 -0.010083664 0.016280118 0.024175473
-0.008075418 0.0027659452 -0.016495842 -0.00682214 0.04108567 -0.029935164 -0.0052987947 0.00496606
-0.00026786604 -0.010254822 -0.009590334 0.010416276 0.0058164233 -0.004379832 -0.009233533 -0.025664518
0.0010690041 0.014481731 -0.013525409 -0.0006311007 -0.0039789993 0.0018671191 -0.01597796 -0.0075684185
-0.004941511 -0.01115699 0.009081946 -0.0046837623 0.0122275455 0.023111505 -0.0014689591 -0.023207938
-0.0018687055 -0.006328364 -0.0027190298 0.014148441 0.009862448 0.01203391 -0.014627831 -0.011284144
0.021608686 0.0007156576 -0.0048453864 0.010073467 -0.012889582 -0.009282652 0.0034253576 0.005839669
0.011529821 -0.0020203278 0.031106023 0.008787834 -0.0059218383 -0.010114642 0.0033916638 0.017670227
0.0058400594 0.008906428 0.008974939 0.019164464 0.006535878 -0.0030200563 -0.012747546 -0.0037317672
-0.019755518 -0.0029646298 0.017969824 0.019392012 -0.019920437 -0.019321943 -0.0058857584 -0.0203786
-0.019332739 0.009031833 0.004536006 -0.0014171657 -0.012204857 0.012106366 -0.008797381 -0.012174741
0.0033269522 -0.005257215 -0.0017420225 0.0086180465 -0.0024083673 0.01569096 0.015003483 0.006756934
-0.008282653 0.003698228 0.008524482 0.008269164 -0.010936069 -0.003938366 -0.026932001 0.0016048234
-0.005057753 0.0090385135 -0.003239757 -0.0101862075 0.010798098 0.01812869 -0.010241808 0.0054868376
-0.0032106359 -0.008431269 -0.0061157476 0.0011107317 0.003624592 0.0068730763 -0.0066977027 0.007286942
0.0017473156 0.0074889734 -0.008444808 -0.0038395505 0.015395365 0.011769577 0.005149053 -0.0010726021
-0.025686536 0.021859428 0.0060213646 0.018665783 -0.013831533 0.00947594 0.016070861 -0.018571751
-0.0034131855 0.020869987 0.0029352994 -0.008721282 0.0019885614 -0.0068702297 -0.011389397 0.0030910557
-0.009398541 -0.023076557 0.0056733335 -0.013813803 0.0030029952 -0.0103708645 0.009014237 0.004010041
00000000: dd50 70bb e44c 803b 1a35 d63c bb44 eb3b
00000010: d06a 7bbc d56c 5fbb 0692 1e3c bd0c 323c
00000020: 7adb 003b dd4e 7a3b 0f47 b03c 57bb 12bc
00000030: 1c6f 80bc 1f3a 5bbb 6d04 40bb 0280 bfbb
00000040: 3a8f dabb 9d9f 2a3c 50f4 773c 72aa bf3b
00000050: d0df b3ba e789 653c f28d 1fbc 6a67 efba
00000060: e4ee 383c 4fb0 b4bc b4fd b4bc cb23 25bc
00000070: 0fa1 a93b 0bc5 84bb 6b26 10bc 6b36 e23b
00000080: 77d3 47bc ffea 4fbc e283 79bc 26ab 9bbc
00000090: fbe3 1f3c 37d0 6a3b f533 c2bb 1a7a 723c
000000a0: 1f17 763c 9727 d1bc 06c6 8e3b e3f0 0f3a
000000b0: 33e2 bfbc 465b 94bb 7d76 3fbc 40b1 b1bb
000000c0: 87ec 76bb 0911 8cbc b3b4 c2bc 032b 06bc
000000d0: 827f 6e39 a72e fabb 9ac2 debb d35e a33b
000000e0: 236e e3bb 1fc8 57bc 557b 5abc 0067 cebb
000000f0: a388 6c3b 5f23 00bc b206 3e3c f723 7f3b
00000100: 0ece b73b 2675 35bb 99d1 053c aedc 203b
00000110: 9781 983c b8e5 babc 03ae 97bc bbde 623c
00000120: cbda 08bb 4ffe 5b3c 8fab 54bc bf5a bfb9
00000130: aaae cdba 773e 55bc bc6e 313b bb1c 2b3c
00000140: e5b9 dc3b 4a40 34b9 b0f9 013d 7a7f b6ba
00000150: 90a9 6fbc ab54 e4bb 23af 8cbc f307 df3a
00000160: abb8 3abc c16a 32bc 90ba 95bc 1746 943c
00000170: f2a1 763b cd6b 8a3c e4e9 39bc 85f0 873b
00000180: 33da 153c 1802 9e3c 0bbe 273b f81d 5cbc
00000190: 9b10 45bc 97c5 373b 32b4 3cbc 8ae9 613b
000001a0: 2157 a53b a7ec 893c f799 e23b a759 223c
000001b0: 5d1a 6a3c f435 25bc e25d 853c a40b c63c
000001c0: c24e 04bc dc44 353b 4a22 87bc 428c dfbb
000001d0: 7349 283d 973a f5bc 83a1 adbb 55ba a23b
000001e0: 5f70 8cb9 d703 28bc c720 1dbc 07a9 2a3c
000001f0: b297 be3b b284 8fbb 3f48 17bc 653e d2bc
00000200: d31d 8c3a c844 6d3c ad99 5dbc 7370 25ba
00000210: 4462 82bb 1fba f43a 36e4 82bc 7f00 f8bb
00000220: 66ec a1bb cfcb 36bc 71cc 143c 3f7a 99bb
00000230: 0b56 483c 5754 bd3c 178a c0ba 931e bebc
00000240: 5aef f4ba 2a5e cfbb c031 32bb ddce 673c
00000250: 1b96 213c e029 453c 92a9 6fbc 21e1 38bc
00000260: b304 b13c f89a 3b3a 0cc6 9ebb 2f0b 253c
00000270: d32e 53bc 4416 18bc f77b 603b b25a bf3b
00000280: 93e7 3c3c 7a67 04bb 0fd2 fe3c d9fa 0f3c
00000290: fb0b c2bb e2b7 25bc ad46 5e3b 27c1 903c
000002a0: f85d bf3b 44ec 113c 9f0b 133c cbfe 9c3c
000002b0: eb2a d63b 23ec 45bb 15db 50bc aa90 74bb
000002c0: 53d6 a1bc 3c4a 42bb 7435 933c ffdb 9e3c
000002d0: 2f30 a3bc 0d49 9ebc 52dd c0bb 06f1 a6bc
000002e0: b15f 9ebc 41fa 133c c7a2 943b 31c0 b9ba
000002f0: e1f6 47bc c859 463c e422 10bc 9178 47bc
00000300: ff08 5a3b b744 acbb 9354 e4ba b532 0d3c
00000310: b3d5 1dbb 548a 803c 2bd1 753c 4569 dd3b
00000320: f7b3 07bc f85d 723b 45aa 0b3c 637b 073c
00000330: 332d 33bc 690d 81bb 80a0 dcbc f058 d23a
00000340: 82bb a5bb 4616 143c 1a52 54bb 0de4 26bc
00000350: 81ea 303c 9e82 943c 42cd 27bc eeca b33b
00000360: 8869 52bb 4e23 0abc 9c66 c8bb f995 913a
00000370: 908a 6d3b 8b37 e13b 6778 dbbb 4dc7 ee3b
00000380: 2f06 e53a 1066 f53b 185c 0abc f8a0 7bbb
00000390: d73c 7c3c 2fd5 403c 63b9 a83b 8e96 8cba
000003a0: 926c d2bc 8b12 b33c de4e c53b fce8 983c
000003b0: a79d 62bc f940 1b3c 0aa7 833c c923 98bc
000003c0: c0af 5fbb 89f7 aa3c 275e 403b b5e3 0ebc
000003d0: 8652 023b aa1f e1bb 989a 3abc 4f93 4a3b
000003e0: 57fc 19bc 0c0b bdbc 5fe7 b93b 4a53 62bc
000003f0: e6cd 443b 8fea 29bc 73b0 133c a966 833b

action_model._continuous_distribution.mu.bias f4 [2]
0.0 0.0
00000000: 0000 0000 0000 0000

onnx::Div_66 f4 [100]
1.0 1.0 1.0 1.0 1.0 1.0 1.0 1.0
1.0 1.0 1.0 1.0 1.0 1.0 1.0 1.0
1.0 1.0 1.0 1.0 1.0 1.0 1.0 1.0
1.0 1.0 1.0 1.0 1.0 1.0 1.0 1.0
1.0 1.0 1.0 1.0 1.0 1.0 1.0 1.0
1.0 1.0 1.0 1.0 1.0 1.0 1.0 1.0
1.0 1.0 1.0 1.0 1.0 1.0 1.0 1.0
1.0 1.0 1.0 1.0 1.0 1.0 1.0 1.0
1.0 1.0 1.0 1.0 1.0 1.0 1.0 1.0
1.0 1.0 1.0 1.0 1.0 1.0 1.0 1.0
1.0 1.0 1.0 1.0 1.0 1.0 1.0 1.0
1.0 1.0 1.0 1.0 1.0 1.0 1.0 1.0
1.0 1.0 1.0 1.0
00000000: 0000 803f 0000 803f 0000 803f 0000 803f
00000010: 0000 803f 0000 803f 0000 803f 0000 803f
00000020: 0000 803f 0000 803f 0000 803f 0000 803f
00000030: 0000 803f 0000 803f 0000 803f 0000 803f
00000040: 0000 803f 0000 803f 0000 803f 0000 803f
00000050: 0000 803f 0000 803f 0000 803f 0000 803f
00000060: 0000 803f 0000 803f 0000 803f 0000 803f
00000070: 0000 803f 0000 803f 0000 803f 0000 803f
00000080: 0000 803f 0000 803f 0000 803f 0000 803f
00000090: 0000 803f 0000 803f 0000 803f 0000 803f
000000a0: 0000 803f 0000 803f 0000 803f 0000 803f
000000b0: 0000 803f 0000 803f 0000 803f 0000 803f
000000c0: 0000 803f 0000 803f 0000 803f 0000 803f
000000d0: 0000 803f 0000 803f 0000 803f 0000 803f
000000e0: 0000 803f 0000 803f 0000 803f 0000 803f
000000f0: 0000 803f 0000 803f 0000 803f 0000 803f
00000100: 0000 803f 0000 803f 0000 803f 0000 803f
00000110: 0000 803f 0000 803f 0000 803f 0000 803f
00000120: 0000 803f 0000 803f 0000 803f 0000 803f
00000130: 0000 803f 0000 803f 0000 803f 0000 803f
00000140: 0000 803f 0000 803f 0000 803f 0000 803f
00000150: 0000 803f 0000 803f 0000 803f 0000 803f
00000160: 0000 803f 0000 803f 0000 803f 0000 803f
00000170: 0000 803f 0000 803f 0000 803f 0000 803f
00000180: 0000 803f 0000 803f 0000 803f 0000 803f

onnx::Div_69 f4 [6]
1.0 1.0 1.0 1.0 1.0 1.0
00000000: 0000 803f 0000 803f 0000 803f 0000 803f
00000010: 0000 803f 0000 803f
