results/test1/My Behavior/checkpoint.pt (torch, 749602 bytes, 36 tensors)

network_body._body_endoder.seq_layers.0.weight f4 [128, 106]
0.04541968 0.012687452 0.10802462 -0.06803918 0.060465325 -0.048892293 0.009247314 -0.067238085
-0.2623562 0.18115766 0.061672658 0.1081368 0.03258091 -0.0074819117 0.1251987 -0.03270582
0.06353717 0.120250545 0.053412188 0.15771288 -0.039566416 0.070305526 -0.093391165 0.16786338
-0.066725 0.021653753 0.094480604 0.22425658 -0.08573379 -0.043213043 0.19839737 0.045622703
-0.022504777 -0.02366709 0.22686017 0.17373526 -0.033803 -0.045242485 0.0016398878 -0.13313565
-0.029793648 -0.11067926 -0.10730811 0.022204421 0.11678665 -0.016640933 0.0554004 -0.18773164
0.14627492 -0.14867555 -0.06503297 0.11276798 -0.19562064 0.054067273 -0.16577742 -0.07977499
0.13805519 0.07286955 0.08113424 -0.009255132 -0.09581884 -0.05799481 -0.21643125 0.029539129
-0.14978713 0.09910875 -0.039175812 -0.10219776 -0.003936759 -0.2551622 -0.08769532 0.0379212
-0.081899695 -0.059438463 0.04769446 -0.08145494 -0.17114326 -0.027341185 -0.074206255 0.057944953
0.1284983 -0.00083405594 -0.13250697 0.00823821 -0.059035853 0.14031576 0.07207384 0.08727238
-0.09804558 0.051031012 0.064953856 0.025247797 -0.053388055 0.12874013 0.18064931 -0.13939996
0.048187144 0.0011899953 0.006043202 0.043271642 0.0027979156 0.034745652 0.011579809 -0.15416142
0.070654824 -0.05064302 -0.14018133 -0.10257405 0.11567081 0.12458781 -0.066211544 0.03983729
0.0039822366 -0.033207934 0.031404406 0.06940713 -0.12148376 0.064602934 -0.07348814 0.10975177
0.04257265 -0.06238475 -0.0043294146 -0.14504777 -0.101720564 0.088375606 0.004688333 -0.16696921
-0.012529043 0.050090063 0.09973934 0.002269546 -0.108360715 0.17834525 -0.11901152 0.007599203
0.03228918 0.043671794 -0.15994671 -0.22856957 0.0060860272 -0.14381267 -0.053016704 -0.026636513
0.09446383 -0.017743306 -0.029139917 0.14982879 -0.09068028 0.0033127558 -0.047774848 -0.20688233
-0.035048883 0.09233643 -0.018945042 -0.042226013 -0.015986435 0.057849556 -0.1799531 0.0010454678
-0.014383211 -0.11905767 0.13656548 -0.07392876 -0.0113518555 -0.04525367 0.05739468 -0.08196825
-0.059952367 0.012063711 -0.083851226 -0.09512202 -0.031067148 -0.048278116 -0.028340464 0.03332629
-0.047113422 -0.17630386 -0.040230084 -0.046934586 -0.042592958 0.037092496 -0.028180603 -0.038112786
-0.11257123 -0.049622253 -0.074359365 -0.041487113 -0.03313414 0.080369785 -0.008796803 -0.04617885
-0.14264756 -0.122489385 0.040713836 0.092588626 -0.013760974 0.015381659 -0.05647916 -0.10089341
0.032201745 0.050490424 0.04586291 -0.106641665 0.05180104 0.051337987 -0.022298774 -0.076454155
-0.03798892 -0.06469711 0.062488094 -0.15026832 0.16945586 0.023458747 0.084106654 -0.052090812
-0.05446335 -0.26583517 0.04417452 -0.13361487 0.13841775 -0.031947825 0.06143803 -0.0022308626
0.1408808 0.10422763 0.10322259 -0.1398454 -0.10355426 -0.082430415 -0.026645055 0.07710645
-0.018962314 -0.0723976 -0.06951509 -0.056734927 0.023751916 0.1121136 0.21944883 0.030271607
0.1937497 -0.055543847 0.069200784 0.17019372 0.082375035 0.03851061 0.16333956 -0.03990377
0.056823153 0.07165067 -0.048751686 0.057876028 0.024066804 0.026625942 -0.05919603 0.16854058
00000000: fd09 3a3d 08df 4f3c 033c dd3d 2058 8bbd
00000010: 7daa 773d 4943 48bd 0c82 173c 1fb4 89bd
00000020: 8d53 86be 6581 393e 789c 7c3d d476 dd3d
00000030: 8f73 053d d32a f5bb 1734 003e 8af6 05bd
00000040: c71f 823d eb45 f63d bdc6 5a3d 7c7f 213e
00000050: 6510 22bd 58fc 8f3d de43 bfbd 61e4 2b3e
00000060: 1ea7 88bd 3663 b13c 0c7f c13d 84a3 653e
00000070: 3395 afbd 2900 31bd ae28 4b3e dfde 3a3d
00000080: f05b b8bc 7ce1 c1bc 084e 683e a8e7 313e
00000090: 0475 0abd 2f50 39bd 81f1 d63a b654 08be
000000a0: cf11 f4bc cfab e2bd 5bc4 dbbd 0ce6 b53c
000000b0: d72d ef3d 9152 88bc 88eb 623d b93c 40be
000000c0: 18c9 153e 673e 18be 0130 85bd e6f2 e63d
000000d0: c750 48be a575 5d3d 8ec1 29be 1261 a3bd
000000e0: 575e 0d3e a13c 953d b529 a63d d6a2 17bc
000000f0: ab3c c4bd f78b 6dbd 27a0 5dbe 0bfc f13c
00000100: cc61 19be 87f9 ca3d d176 20bd 0f4d d1bd
00000110: eeff 80bb 9fa4 82be 9b99 b3bd 4353 1b3d
00000120: 07bb a7bd bf75 73bd 445b 433d d9d1 a6bd
00000130: 2e40 2fbe 9ffa dfbc 73f9 97bd b057 6d3d
00000140: 0f95 033e 8ca4 5aba e8af 07be 8ff9 063c
00000150: 94cf 71bd efae 0f3e 739b 933d ddbb b23d
00000160: 1fcc c8bd e505 513d 8706 853d 78d4 ce3c
00000170: 6fad 5abd 74d4 033e 22fc 383e ddbe 0ebe
00000180: e25f 453d 9ef9 9b3a 0d06 c63b 9b3d 313d
00000190: 3c5d 373b 7551 0e3d 3db9 3d3c 7edc 1dbe
000001a0: 7ab3 903d 0e6f 4fbd b28b 0fbe 5812 d2bd
000001b0: d1e4 ec3d e527 ff3d eb99 87bd 6d2c 233d
000001c0: 6c7d 823b 0b05 08bd e8a1 003d 5325 8e3d
000001d0: 7acc f8bd 8b4e 843d f380 96bd 89c5 e03d
000001e0: a960 2e3d 2787 7fbd c3dd 8dbb 6787 14be
000001f0: df52 d0bd 45fe b43d 96a0 993b faf9 2abe
00000200: 9d46 4dbc 3d2b 4d3d 2444 cc3d aabc 143b
00000210: 39ec ddbd 23a0 363e 50bc f3bd bc02 f93b
00000220: a941 043d 32e1 323d 12c9 23be 240e 6abe
00000230: 4c6d c73b a143 13be 0b28 59bd d134 dabc
00000240: 4176 c13d 695a 91bc d6b6 eebc b86c 193e
00000250: 95b6 b9bd d21a 593b 8faf 43bd f6d8 53be
00000260: 6b8f 0fbd e21a bd3d a232 9bbc 2ff5 2cbd
00000270: fcf5 82bc a8f3 6c3d a045 38be 1408 893a
00000280: 8fa7 6bbc 82d4 f3bd d2d7 0b3e f667 97bd
00000290: 22fd 39bc ea5b 39bd af16 6b3d f8de a7bd
000002a0: 9d90 75bd dfa6 453c 31ba abbd 55cf c2bd
000002b0: 8880 febc 46bf 45bd 432a e8bc 2681 083d
000002c0: 01fa 40bd 0089 34be 4dc8 24bd 7b3e 40bd
000002d0: f475 2ebd 4dee 173d 02db e6bc 271c 1cbd
000002e0: bf8b e6bd b440 4bbd b949 98bd 64ee 29bd
000002f0: aab7 07bd ea98 a43d 7720 10bc 0926 3dbd
00000300: 3412 12be b7db fabd 8dc3 263d 1b9f bd3d
00000310: b575 61bc 5b03 7c3c b156 67bd 34a1 cebd
00000320: fae5 033d 0ccf 4e3d bfda 3b3d f266 dabd
00000330: 542d 543d c847 523d ebab b6bc ff93 9cbd
00000340: 459a 1bbd eb7f 84bd 84f3 7f3d f0df 19be
00000350: d685 2d3e 8f2c c03c 1c40 ac3d 2d5d 55bd
00000360: f614 5fbd 8c1b 88be 57f0 343d 56d2 08be
00000370: 62bd 0d3e b9db 02bd 72a6 7b3d aa33 12bb
00000380: 0e43 103e 4c75 d53d 5e66 d33d a233 0fbe
00000390: 4214 d4bd 47d1 a8bd bb46 dabc fde9 9d3d
000003a0: db56 9bbc 3145 94bd ed5d 8ebd e262 68bd
000003b0: 6193 c23c d19b e53d 32b7 603e 29fc f73c
000003c0: 5266 463e f281 63bd 24b9 8d3d 4347 2e3e
000003d0: 3eb4 a83d 4dbd 1d3d 7c42 273e 2372 23bd
000003e0: 65bf 683d 96bd 923d d9af 47bd 6a0f 6d3d
000003f0: bf27 c53c a61e da3c 8977 72bd e795 2c3e

network_body._body_endoder.seq_layers.0.bias f4 [128]
-0.0057616537 0.003858163 -0.00011860407 -3.670573e-05 0.0026379717 -0.0006708094 -0.0037414117 0.020754812
0.006420547 0.0050844722 -0.0041659726 0.004820202 -0.006248377 -0.01371771 -0.010593485 0.010495754
6.3161446e-05 0.0011794374 0.00019649675 0.0072975093 0.00019484792 0.012297078 -0.004998892 0.0012187484
-0.0033605434 -0.0062057064 -7.8932644e-05 0.0071494128 -0.0021543242 -0.0052681603 0.014608932 0.0047211484
0.0064522414 0.003381801 -0.0036368507 0.0055970554 0.00018153126 0.0043510343 0.0151245445 0.0035820643
-0.0038104341 0.0017544762 -0.0016588487 0.002345068 -0.0034063302 0.0021692468 4.9916775e-06 0.009104756
0.00012619383 0.0013279133 -0.005745168 0.013120702 0.0076565174 -0.010819511 0.023895135 0.003994618
-0.0011305503 -0.004346139 0.00079834776 0.007914069 0.0013330148 0.0011637197 0.00012483055 0.008661877
0.0056195157 0.016580867 0.013972485 0.0018625687 -0.0064131995 0.009848361 0.0023178617 0.00091564364
0.006304506 -0.00046952037 0.0007785533 0.0036278418 0.006738547 0.019081455 -0.0033580926 0.012382553
0.007955237 0.015727056 0.0011836791 0.0028287293 0.021022933 0.012372296 -0.0031556522 0.004752272
-0.004119987 0.0031480617 0.011175647 -0.0028937957 -0.004015812 -0.0033844442 0.0048404653 0.0047865473
-0.008013428 0.0022527392 0.0033383686 0.004591375 0.00027336614 0.0006368055 8.326589e-05 0.0062316465
0.009040567 0.0065987916 0.012933564 0.0056557134 0.014274919 0.004791568 3.0608255e-05 0.0109747825
-0.000667436 0.0025769386 -0.010231089 0.0053450093 -0.004753417 0.008412499 -0.005249739 0.0020638325
0.002881759 -0.0018856485 0.0072230413 -0.00015605628 -0.0021477495 -0.0035542003 0.0058744624 0.010728838
00000000: 41cc bcbb 3cd9 7c3b 13bb f8b8 7af4 19b8
00000010: d2e1 2c3b 42d9 2fba 7932 75bb ff05 aa3c
00000020: 7463 d23b a59b a63b b682 88bb c9f2 9d3b
00000030: 2fbf ccbb 3fc0 60bc 4c90 2dbc 62f6 2b3c
00000040: 8b75 8438 5a97 9a3a b20a 4e39 f21f ef3b
00000050: 1750 4c39 af79 493c bfcd a3bb 69be 9f3a
00000060: 903c 5cbb 3d59 cbbb a488 a5b8 9f45 ea3b
00000070: 902f 0dbb 88a0 acbb 4d5a 6f3c ddb3 9a3b
00000080: 536d d33b 35a1 5d3b 3b58 6ebb 8167 b73b
00000090: 6d59 3e39 1f93 8e3b f0cc 773c 11c1 6a3b
000000a0: 7ab8 79bb 74f6 e53a ba6d d9ba b6af 193b
000000b0: bd3c 5fbb ec29 0e3b 2f7e a736 1d2c 153c
000000c0: e652 0439 600d ae3a f641 bcbb 36f8 563c
000000d0: 86e3 fa3b 5144 31bc bbbf c33c 49e5 823b
000000e0: f92e 94ba 0e6a 8ebb 3648 513a 03aa 013c
000000f0: 8eb8 ae3a f487 983a f2e4 0239 8cea 0d3c
00000100: ea23 b83b 99d4 873c daec 643c 6f21 f43a
00000110: d125 d2bb 055b 213c 44e7 173b ce07 703a
00000120: 0896 ce3b f529 f6b9 d417 4c3a 16c1 6d3b
00000130: 07cf dc3b b650 9c3c 7213 5cbb 31e0 4a3c
00000140: af56 023c 07d6 803c ae25 9b3a 3462 393b
00000150: 4938 ac3c 2cb5 4a3c 0fcf 4ebb f2b8 9b3b
00000160: f500 87bb b64f 4e3b 101a 373c d6a5 3dbb
00000170: 1397 83bb 8dcd 5dbb c49c 9e3b 78d8 9c3b
00000180: c14a 03bc b1a2 133b 88c8 5a3b 3f73 963b
00000190: 9552 8f39 4bef 263a 099f ae38 d732 cc3b
000001a0: e31e 143c ad3a d83b 4de7 533c 9053 b93b
000001b0: 5ae1 693c 9602 9d3b 5d61 0038 93cf 333c
000001c0: dff6 2eba dbe1 283b 4ca0 27bc 3025 af3b
000001d0: 8dc2 9bbb 94d4 093c 0106 acbb 5d41 073b
000001e0: e5db 3c3b dd27 f7ba 43af ec3b 0aa3 23b9
000001f0: 42c1 0cbb 96ed 68bb 907e c03b 02c8 2f3c

network_body._body_endoder.seq_layers.2.weight f4 [128, 128]
-0.12849309 0.23890488 0.010366152 0.022176316 0.029523527 -0.03445483 0.03256352 0.040737186
0.059218362 -0.019116458 0.04556002 0.034877773 -0.0817776 -0.012366932 -0.09878338 0.065361686
0.049433015 0.01318111 -0.06717056 -0.04391411 -0.015490034 -0.115672566 0.05478903 0.054980323
-0.17149684 0.0732938 -0.009716581 0.11262173 0.11786359 -0.028828619 0.12898432 -0.017951686
-0.074620046 -0.06854323 -0.095904514 -0.051139522 0.015464799 -0.03688528 0.0047141467 0.041709848
-0.1149079 0.06234674 -0.060355693 -0.0924118 -0.054455437 0.12951574 -0.14398398 0.08007363
0.021631489 -0.08483313 -0.084839866 -0.025979277 0.13527158 -0.037992027 -0.012928556 -0.040437665
-0.03539888 -0.03282546 -0.019196112 -0.0081303 0.060945824 -0.008376748 0.062348105 0.09094591
-0.08583357 0.05420114 0.019158969 -0.10140138 0.01903882 -0.100834094 0.022988541 0.049833212
0.08872411 -0.047162544 0.025258806 0.1614241 -0.108517505 -0.09269895 0.045822594 0.05941724
0.087989084 0.058347993 0.123377115 -0.07520682 -0.057972167 -0.059077542 0.038471114 0.07337417
0.061378766 -0.16833378 0.039763115 0.12060344 -0.06799143 0.11076059 0.0068647116 -0.024201814
0.05805109 -0.12762144 0.07725976 -0.15208113 -0.06773997 0.03644765 0.12477101 0.07433975
-0.07179343 -0.08398834 0.024216473 0.038560804 -0.013415407 -0.09386834 0.12271702 -0.022073064
0.05134042 0.028237035 0.12020604 0.013944296 -0.1332448 -0.05619806 0.20674352 0.033891562
0.0012462607 -0.022298753 -0.06418432 -0.008766172 -0.075148106 0.018382972 -0.06523298 0.056676485
0.15353593 0.19080496 0.08929344 -0.18786761 0.037478935 0.04947998 -0.07289882 -0.008551787
-0.06471713 -0.14605226 -0.036284786 0.005364329 -0.059668913 0.028036695 0.124306954 -0.17024636
-0.13852872 -0.1802693 0.003025203 0.1592224 -0.033029955 0.017354378 0.008927376 -0.08782902
0.15749614 -0.14265558 -0.049426872 0.030396696 0.03107865 -0.103227675 0.05908774 0.042641137
-0.027816344 -0.04897974 0.042126738 -0.12949795 0.009736487 0.058414508 -0.02725638 0.09655429
0.00993667 -0.040725335 0.04251827 -0.046227507 0.23024645 0.15966395 0.08484381 -0.008414507
-0.070323795 0.009113032 -0.050506145 -0.069027156 -0.018275963 -0.07356052 0.0031244755 0.11749322
-0.029868439 -0.04315533 -0.12679191 0.035925824 -0.1339795 0.10234322 -0.010076033 -0.0737585
0.14896215 0.05925114 0.16746837 0.043179985 -0.074190624 0.15469223 0.013767028 -0.044957202
-0.084963426 -0.047633782 -0.15371655 0.111447334 0.00043265463 -0.08325081 -0.12894434 0.124362595
-0.17630747 -0.037209585 0.111538626 -0.08855127 0.14098433 -0.0503516 0.09566707 0.012891078
0.020586854 0.17881995 0.020138495 0.0013962556 0.1192471 0.017226234 0.016138949 0.0032090738
-0.054515418 -0.021964993 0.10701132 -0.0025891191 0.14895135 0.06745688 0.07598985 -0.18029128
-0.09156474 -0.04287409 -0.024575666 -0.028230984 -0.16255604 0.054144707 0.20475592 -0.034260977
0.10122314 0.031360857 0.07555965 -0.04620312 -0.0315327 0.051661793 0.08729903 0.045627374
-0.18765026 -0.05900301 0.060639724 0.0860033 0.16914243 -0.0029578812 -0.0606862 -0.008342333
00000000: b193 03be 7ba3 743e cbd6 293c 1bab b53c
00000010: 53db f13c 8220 0dbd 5361 053d 09dc 263d
00000020: f48e 723d 1e9a 9cbc 259d 3a3d ffdb 0e3d
00000030: 047b a7bd ac9e 4abc f14e cabd 59dc 853d
00000040: 467a 4a3d 95f5 573c b890 89bd 48df 33bd
00000050: e9c9 7dbc bde5 ecbd 766a 603d 0c33 613d
00000060: de9c 2fbe 0f1b 963d 4b32 1fbc 39a6 e63d
00000070: 7762 f13d ff29 ecbc 7714 043e 6a0f 93bc
00000080: 65d2 98bd 6560 8cbd 9669 c4bd ad77 51bd
00000090: 1160 7d3c 0515 17bd 2179 9a3b f2d7 2a3d
000000a0: d554 ebbd 4c5f 7f3d 8837 77bd 6642 bdbd
000000b0: aa0c 5fbd c69f 043e 8970 13be a5fd a33d
000000c0: 8534 b13c febc adbd 86c0 adbd 7ed2 d4bc
000000d0: a284 0a3e 879d 1bbd 4bd2 53bc f7a1 25bd
000000e0: 6afe 10bd fd73 06bd 2a41 9dbc f334 05bc
000000f0: 54a2 793d a13e 09bc ba60 7f3d d941 ba3d
00000100: 83c9 afbd 0402 5e3d 45f3 9c3c 87ab cfbd
00000110: 4df7 9b3c 1b82 cebd 7752 bc3c e91d 4c3d
00000120: fcb4 b53d 832d 41bd 8eeb ce3c 5c4c 253e
00000130: 6d3e debd f2d8 bdbd 79b0 3b3d 7e5f 733d
00000140: 9f33 b43d 4efe 6e3d 24ad fc3d 0906 9abd
00000150: 3974 6dbd 4bfb 71bd e393 1d3d 3245 963d
00000160: 4d68 7b3d b15f 2cbe a6de 223d f0fe f63d
00000170: 173f 8bbd 73d6 e23d 60f1 e03b e242 c6bc
00000180: fbc6 6d3d 32af 02be 5d3a 9e3d 28bb 1bbe
00000190: 41bb 8abd 224a 153d f187 ff3d 703f 983d
000001a0: 6f08 93bd 1402 acbd a061 c63c eff1 1d3d
000001b0: 4ccc 5bbc 0b3e c0bd 1053 fb3d 92d2 b4bc
000001c0: 554a 523d 5b51 e73c 962e f63d 9e76 643c
000001d0: 5371 08be f02f 66bd 93b4 533e e1d1 0a3d
000001e0: 9259 a33a e0ab b6bc 1273 83bd fe9f 0fbc
000001f0: 40e7 99bd e397 963c de98 85bd 9a25 683d
00000200: 8638 1d3e 6062 433e 7bdf b63d 5e60 40be
00000210: 8383 193d 85ab 4a3d fa4b 95bd cb1c 0cbc
00000220: 6a8a 84bd b98e 15be 5b9f 14bd 41c7 af3b
00000230: 6467 74bd 36ad e53c a594 fe3d 1055 2ebe
00000240: 79da 0dbe 8498 38be 7c42 463b 320b 233e
00000250: 6b4a 07bd c52a 8e3c 2144 123c b4df b3bd
00000260: ab46 213e 4e14 12be d573 4abd 7e02 f93c
00000270: a798 fe3c 0869 d3bd fc05 723d 79a8 2e3d
00000280: 1adf e3bc fb9e 48bd 168d 2c3d 1c9b 04be
00000290: c985 1f3c 0d44 6f3d c648 dfbc 41be c53d
000002a0: 6acd 223c 9ccf 26bd a327 2e3d 0e59 3dbd
000002b0: bac5 6b3e f27e 233e 97c2 ad3d 00dd 09bc
000002c0: ec05 90bd d44e 153c 88df 4ebd 1c5e 8dbd
000002d0: 79b7 95bc e6a6 96bd 00c4 4c3b 49a0 f03d
000002e0: a8ae f4bc a5c3 30bd bdd5 01be f526 133d
000002f0: ec31 09be 5299 d13d f215 25bc b20e 97bd
00000300: 8989 183e 53b1 723d d47c 2b3e 7fdd 303d
00000310: 41f1 97bd a467 1e3e 1a8f 613c 0b25 38bd
00000320: 4e01 aebd a41b 43bd df67 1dbe 803e e43d
00000330: ecd5 e239 677f aabd fc09 04be d1b1 fe3d
00000340: f289 34be 1469 18bd 5d6e e43d 5e5a b5bd
00000350: 325e 103e 7b3d 4ebd 19ed c33d 1a35 533c
00000360: c3a5 a83c 941c 373e 7cf9 a43c 9002 b73a
00000370: d337 f43d 081e 8d3c d435 843c 534f 523b
00000380: 8f4b 5fbd eeef b3bc c028 db3d 36ae 29bb
00000390: b486 183e d526 8a3d 91a0 9b3d 479e 38be
000003a0: 4b86 bbbd be9c 2fbd e852 c9bc aa44 e7bc
000003b0: 1775 26be d7c6 5d3d 89ab 513e 3d55 0cbd
000003c0: 144e cf3d 3e74 003d 05bf 9a3d 7c3f 3dbd
000003d0: 6f28 01bd 519b 533d d5c9 b23d c5e3 3a3d
000003e0: 6427 40be 24ad 71bd 5c61 783d 8022 b03d
000003f0: ac33 2d3e 03d9 41bb 1892 78bd 48ae 08bc

network_body._body_endoder.seq_layers.2.bias f4 [128]
0.00067904027 0.0024951992 0.00070421316 0.0014999713 -0.00048279107 0.0017299269 0.0028313086 0.002390788
-0.0007388864 0.0038385696 0.0030851848 0.00082539185 6.0587035e-06 -0.00101547 0.0008910485 0.0023817627
-0.00039538715 -0.0017380636 0.0032653443 0.0037373924 -0.0011530895 -0.0008814882 -0.0004994889 -0.002016267
0.0037823273 0.0016995639 0.008366687 -0.00076588267 0.0001560826 0.0043881214 0.009911146 -0.0029654084
0.00054696144 0.0009940716 0.0066291387 0.0030131082 0.0018956151 0.0016008455 0.004185883 -0.00071504863
0.004726606 0.009192947 -0.0019029638 0.0034457701 -0.0028996821 -0.00047817346 0.0061030216 0.00036420042
0.004142778 0.0027268939 0.0002406214 0.0048110234 7.753183e-05 0.0035477646 -0.002780368 -0.0051867054
0.00080262136 -0.0027975377 0.003274592 0.0015503309 0.0067837276 0.006333677 0.00033705763 -0.0033693984
0.0024266404 0.0046613137 0.0070446716 -0.0016595388 0.0015300094 0.0007537577 0.0013796015 0.0076683597
0.003563706 0.0033994776 0.004715996 -0.0041168183 0.0012622346 0.004398955 0.0046304585 0.0040094117
0.008312783 0.00025077307 -0.003733122 0.00025310664 0.0028131516 0.008876708 0.00048727207 -0.0013927338
0.00789943 -0.0018258262 -0.0010112211 0.0024563998 0.010856677 0.0053626024 0.002762244 0.0018695948
0.003444501 -0.00082502776 -0.001943804 0.0006694275 0.005021759 -0.0022505932 0.0032219274 -0.002305024
0.007921645 0.0046976823 0.0006314432 0.0123151895 0.0064247465 0.008566364 0.004403145 0.0065228143
0.0018016727 0.0014661342 0.004938388 0.0024896674 -0.00059818046 -0.0010337558 0.0041313064 -0.0024657927
0.005174898 -0.0003543209 0.0031186093 0.0030701212 0.0018998091 0.0058729686 -0.0016459308 -0.00032629512
00000000: 9f01 323a 7f86 233b f29a 383a af9a c43a
00000010: 1f1f fdb9 b7be e23a 7a8d 393b c4ae 1c3b
00000020: d4b1 41ba 8390 7b3b d030 4a3b 1c5f 583a
00000030: de4b cb36 8519 85ba 4195 693a 5917 1c3b
00000040: f74b cfb9 bdcf e3ba 63ff 553b 0aef 743b
00000050: 4323 97ba ac13 67ba 22f0 02ba 5923 04bb
00000060: ece0 773b e7c3 de3a 6e14 093c 84c5 48ba
00000070: 1baa 2339 3bca 8f3b 5c62 223c 4c57 42bb
00000080: f661 0f3a 824b 823a 3f39 d93b 9177 453b
00000090: 4a76 f83a 76d3 d13a bb29 893b 1a72 3bba
000000a0: a5e1 9a3b 049e 163c df6c f9ba 6ed2 613b
000000b0: 9808 3ebb 5bb3 fab9 dbfb c73b 27f2 be39
000000c0: 24c0 873b b0b5 323b 514f 7c39 caa5 9d3b
000000d0: 9698 a238 9d81 683b d636 36bb 3df5 a9bb
000000e0: 0267 523a e556 37bb 8a9a 563b 7934 cb3a
000000f0: 084a de3b bc8a cf3b 1cb7 b039 20d1 5cbb
00000100: 4508 1f3b efbd 983b fdd6 e63b e284 d9ba
00000110: 998a c83a d397 453a bfd3 b43a dd46 fb3b
00000120: 118d 693b c5c9 5e3b a488 9a3b 60e6 86bb
00000130: 9171 a53a 1c25 903b 1abb 973b 6261 833b
00000140: 5732 083c 317a 8339 65a7 74bb 66b3 8439
00000150: da5c 383b 9d6f 113c 8d78 ff39 648c b6ba
00000160: 9c6c 013c 9050 efba f38a 84ba 8dfb 203b
00000170: 34e0 313c c5b8 af3b c406 353b 310d f53a
00000180: 23bd 613b ad46 58ba 3dc7 feba 857c 2f3a
00000190: 918d a43b b07e 13bb f926 533b e30f 17bb
000001a0: cac9 013c 04ef 993b 7087 253a a6c5 493c
000001b0: ae86 d23b ef59 0c3c 4248 903b 55bd d53b
000001c0: 1b26 ec3a 4d2b c03a 33d2 a13b b029 233b
000001d0: 36cf 1cba 177f 87ba e95f 873b 2399 21bb
000001e0: 3192 a93b 25c4 b9b9 9561 4c3b 1634 493b
000001f0: 0403 f93a 0872 c03b 46bc d7ba 9712 abb9

action_model._continuous_distribution.log_sigma f4 [1, 2]
0.00526135 -0.019605944
00000000: 6767 ac3b a59c a0bc

action_model._continuous_distribution.mu.weight f4 [2, 128]
0.006099595 -0.005168271 0.02335791 0.035175305 0.034355883 -0.019056477 0.013355622 0.024376297
0.042563047 0.006919309 -0.0020258974 -0.018621666 -0.013150064 -0.0037613537 -0.00538421 -0.028216723
-0.0035241887 -0.00548863 0.044427224 -0.025007933 0.021591274 -0.009734225 -0.010024092 -0.014171141
0.011749059 0.028158644 0.0135103455 0.04123627 -0.0015873279 0.015262248 -0.005243121 0.014568002
-0.015044786 -0.012189744 0.0022345963 -0.030842654 -0.015681634 -0.024891868 -0.012393537 0.013726016
-0.02280961 -0.018077273 0.0065748347 -0.0048746443 -0.0090272 0.012422975 -0.002907196 -0.037938885
0.003028399 0.024571018 -0.004409575 -0.004320283 0.024168057 0.023472263 0.014837285 0.00062704156
0.016438058 0.025023779 0.005881698 -0.01375982 0.003528451 0.0073521314 0.040008307 -0.0010979514
-0.0038193704 -0.029238313 0.0229387 0.024417108 0.0035148063 -0.02252471 0.01742488 -0.0019045647
-0.014732811 0.01838502 0.0167325 -0.009920376 0.0064116325 -0.022224491 0.0116296895 -0.0042542815
-0.0005897798 0.011287915 0.004303052 -0.0033146918 -0.01905019 -0.0074369037 0.0076262257 -0.0008461289
-0.01540005 0.027132792 0.014459238 2.3454437e-05 -0.0014999777 -0.0017479268 0.04081653 -0.007690619
0.0027056616 -0.010357975 0.0043947124 0.01140315 0.0039870776 0.029448498 -0.0029644251 -0.03189935
0.00063855015 -0.009520332 -0.011052077 0.00075343245 0.023633286 -0.011326266 -0.010046876 0.00083284976
-0.00028723272 0.016564181 -0.002676419 0.011400223 -0.03716707 0.029732006 -0.018179176 -0.009848299
-0.011918563 -0.017791945 0.010024192 0.021419216 -0.03734902 -0.007242878 -0.005315484 -0.013820491
0.009457648 -0.02734071 0.019281907 0.03380985 0.007909426 0.02171953 -0.022668 0.00638702
0.016480874 0.040895738 -0.005106671 -0.008581828 -0.026171107 -0.008861341 0.029685915 0.02037559
0.017839149 -0.019507807 0.014938204 0.020084728 -0.0041963505 0.0061982875 0.006540698 -0.013872633
0.038687285 0.024288367 0.05389821 -0.0129208155 0.025484726 -0.03641259 -0.038134865 -0.0006536253
0.005950991 -0.002101077 0.030460885 -0.008540645 -0.010028467 -0.022610905 0.032505818 0.0027237365
0.009894234 -0.043651443 -0.0030950776 -0.04253867 0.012637509 0.0024131024 -0.05100717 -0.018675223
0.04180764 -0.0461384 0.010436463 0.046234068 0.00603517 0.020541722 0.00053382275 0.01019069
0.017122883 -0.021340335 0.012016339 0.014599871 -0.029777827 -0.006669461 -0.006680761 0.0012038826
0.024267854 0.024256064 -0.061116364 0.003802779 -0.009624472 -0.03460938 0.002341767 -0.024785712
0.036543924 -0.035500832 0.022148756 0.00045486478 -0.0016996425 -0.028012058 0.043791927 0.054532383
-0.02392122 0.029515848 0.0024345063 0.013950311 0.02469623 0.020962069 0.03259695 0.009984118
0.057572618 -0.014974614 0.00050634315 0.022984536 -0.025300942 -0.02488974 -0.04545126 -0.026095554
-0.070532724 -0.005429307 0.005416502 0.017884182 0.029808376 -0.012475613 0.049281973 -0.0025273112
-0.0101885395 0.027678315 -0.021872547 -0.027989145 0.036587 -0.012525201 -0.024764948 -0.023936722
-0.045570247 -0.019765755 -0.023516743 -0.01589924 -0.00863476 -0.011689261 -0.0042267 -0.00078182085
-0.03994666 0.015582117 -0.029191367 0.02513635 0.027146803 0.039121114 -0.01091784 0.0056883823
00000000: 1ddf c73b 995a a9bb 1659 bf3c fb13 103d
00000010: c1b8 0c3d 541c 9cbc 8ad1 5a3c cdb0 c73c
00000020: 9756 2e3d 5fbb e23b ebc4 04bb 778c 98bc
00000030: 5e73 57bc 0b81 76bb 076e b0bb c226 e7bc
00000040: 13f6 66bb f7d9 b3bb 52f9 353d 70dd ccbc
00000050: 2fe0 b03c 4d7c 1fbc 173c 24bc 132e 68bc
00000060: 207f 403c f5ac e63c 7f5a 5d3c 5de7 283d
00000070: e30d d0ba 820e 7a3c 7dce abbb a1ae 6e3c
00000080: 687e 76bc 7eb7 47bc 4e72 123b bca9 fcbc
00000090: c576 80bc 08ea cbbc 430e 4bbc 15e3 603c
000000a0: 38db babc ca16 94bc b671 d73b 7bbb 9fbb
000000b0: d2e6 13bc bc89 4b3c a886 3ebb ce65 1bbd
000000c0: 1b78 463b 2949 c93c 327e 90bb 2991 8dbb
000000d0: 17fc c53c e748 c03c 1518 733c 0c60 243a
000000e0: 1ba9 863c abfe cc3c 42bb c03b de70 61bc
000000f0: 963d 673b 26ea f03b c0df 233d 23e9 8fba
00000100: 674e 7abb 3085 efbc f1e9 bb3c 6306 c83c
00000110: aa58 663b be85 b8bc 9fbe 8e3c 96a2 f9ba
00000120: e361 71bc 2e9c 963c 9912 893c 1389 22bc
00000130: ac18 d23b 2310 b6bc 748a 3e3c 8067 8bbb
00000140: 749b 1aba f2f0 383c 9e00 8d3b 4d3b 59bb
00000150: 250f 9cbc 45b1 f3bb 6be5 f93b c0ce 5dba
00000160: 7e50 7cbc 9745 de3c 71e6 6c3c 05c0 c437
00000170: e69a c4ba b11a e5ba 3c2f 273d 9701 fcbb
00000180: 7851 313b 7fb4 29bc 8501 903b 47d4 3a3c
00000190: 08a6 823b fa3d f13c cd46 42bb e5a8 02bd
000001a0: 6064 273a 2bfb 1bbc c513 35bc ff81 453a
000001b0: 989a c13c ce91 39bc a79b 24bc 9a53 5a3a
000001c0: b997 96b9 9bb1 873c dc66 2fbb 00c8 3a3c
000001d0: 7f3c 18bd 8990 f33c 7fec 94bc c35a 21bc
000001e0: 1446 43bc 6ac0 91bc 823c 243c 5a77 af3c
000001f0: 49fb 18bd aa55 edbb 832d aebb 576f 62bc
00000200: 40f4 1a3c a0f9 dfbc 17f5 9d3c 337c 0a3d
00000210: 8a96 013c 28ed b13c 3eb2 b9bc 354a d13b
00000220: e602 873c 4a82 273d dc55 a7bb cc9a 0cbc
00000230: ca64 d6bc 282f 11bc e02f f33c b6ea a63c
00000240: 6823 923c d6ce 9fbc 5ebf 743c ba88 a43c
00000250: 8a81 89bb 011b cb3b 5a53 d63b 0a4a 63bc
00000260: 8f76 1e3d 66f8 c63c 5fc4 5c3d d4b1 53bc
00000270: 58c5 d03c 5e25 15bd 4e33 1cbd 0d58 2bba
00000280: 8800 c33b 39b2 09bb 1b89 f93c 10ee 0bbc
00000290: 704e 24bc 813a b9bc d224 053d b780 323b
000002a0: 6d1b 223c dbcb 32bd c9d6 4abb 073d 2ebd
000002b0: 8e0d 4f3c 2425 1e3b e5ec 50bd c8fc 98bc
000002c0: 7d3e 2b3d 9efb 3cbd b3fd 2a3c ef5f 3d3d
000002d0: adc2 c53b 1d47 a83c 3df0 0b3a daf6 263c
000002e0: 4a45 8c3c edd1 aebc 2ee0 443c 4c34 6f3c
000002f0: a1f0 f3bc 7e8b dabb 49ea dabb 99cb 9d3a
00000300: 61cd c63c a7b4 c63c 2755 7abd 0b38 793b
00000310: f6af 1dbc 91c2 0dbd 5578 193b 680b cbbc
00000320: 15af 153d 5269 11bd 4f71 b53c eb7a ee39
00000330: 8ac6 deba 8b79 e5bc 2a5f 333d 595d 5f3d
00000340: 6ff6 c3bc 38cb f13c 3d8c 1f3b d88f 643c
00000350: c04f ca3c a5b8 ab3c 6184 053d 6d94 233c
00000360: 44d1 6b3d 1558 75bc 1dbc 043a 114a bc3c
00000370: ec43 cfbc 91e5 cbbc 1a2b 3abd 58c6 d5bc
00000380: 7673 90bd 54e8 b1bb e97c b13b d981 923c
00000390: b230 f43c 8366 4cbc e5db 493d 3fa1 25bb
000003a0: d5ed 26bc a2bd e23c 0e2e b3bc 7e49 e5bc
000003b0: 40dc 153d 8036 4dbc dcdf cabc f216 c4bc
000003c0: dea7 3abd cbeb a1bc 2fa6 c0bc 1f3f 82bc
000003d0: cf78 0dbc 5084 3fbc 2180 8abb 1cf3 4cba
000003e0: 1c9f 23bd 234c 7f3c bc22 efbc bfea cd3c
000003f0: f962 de3c 763d 203d bde0 32bc 9c65 ba3b

action_model._continuous_distribution.mu.bias f4 [2]
-0.00023076625 7.716924e-05
00000000: d8f9 71b9 ecd5 a138

exp_avg f4 [128, 106]
1.1151507e-08 2.0238276e-05 0.0 -4.6964096e-06 9.319082e-07 1.675665e-05 0.0 -2.974878e-06
6.469418e-12 2.1129423e-05 0.0 -4.9769665e-06 4.094422e-06 8.880469e-06 0.0 -2.0523757e-06
-4.750824e-12 1.9134492e-05 0.0 -4.8591496e-06 -4.1072013e-07 -1.9572342e-07 0.0 -2.248352e-06
-1.3850719e-08 1.468979e-05 0.0 -4.6114346e-06 -1.559943e-05 8.91849e-12 0.0 -1.2388929e-06
-1.1947293e-06 1.2214983e-05 0.0 -3.97239e-06 -5.772057e-06 -1.925583e-12 0.0 -1.7674791e-06
-1.8328524e-06 2.052338e-05 0.0 -3.3531205e-06 -1.0909009e-05 0.0 0.0 -2.0008e-06
-3.6196466e-06 -6.5490935e-06 0.0 -2.9417502e-06 -1.2667098e-05 0.0 0.0 -1.8250618e-06
1.8064492e-06 -1.4327337e-07 0.0 -3.2005744e-06 -7.993284e-06 0.0 0.0 -1.73098e-06
1.7098364e-06 -4.6081615e-07 0.0 -4.0411865e-06 -4.521853e-06 0.0 0.0 -1.8431177e-06
1.2412484e-07 -1.6634682e-12 0.0 -3.6381043e-06 -4.5217175e-06 0.0 0.0 -1.9699864e-06
-1.0033734e-05 1.9158004e-12 0.0 -3.3541721e-06 -4.5217175e-06 0.0 0.0 -2.0927714e-06
-4.977257e-06 8.710037e-13 0.0 -2.6313496e-06 -4.5217175e-06 0.0 0.0 -2.2210215e-06
-4.234675e-06 1.2537253e-12 0.0 -2.099024e-06 3.221806e-07 3.5668666e-09 -8.642729e-08 -6.331842e-06
-2.3791937e-09 -3.330022e-06 5.1868025e-09 4.390337e-06 0.0 1.9952301e-06 1.8356565e-07 2.3854072e-06
0.0 2.1068768e-06 1.2340324e-12 2.5339946e-06 0.0 2.1496996e-06 -1.0468112e-06 2.0022846e-06
0.0 2.3142322e-06 3.040874e-12 3.0730732e-06 0.0 2.1073704e-06 9.4170055e-06 -4.297076e-08
0.0 2.1144263e-06 6.627495e-08 2.0959487e-06 0.0 2.1362189e-06 -5.717398e-07 1.9187954e-12
0.0 2.2021327e-06 7.892204e-08 4.051457e-06 0.0 2.2357513e-06 2.4402268e-06 6.4638117e-13
0.0 1.779873e-06 -1.9867693e-06 3.848911e-06 0.0 2.430758e-06 -1.4506231e-06 0.0
0.0 1.5855411e-06 -2.9505973e-06 -1.7583429e-06 0.0 2.5232741e-06 -2.1933572e-06 0.0
0.0 1.6951989e-06 2.4916224e-06 -1.2596706e-07 0.0 2.4109052e-06 1.7513894e-06 0.0
0.0 1.7058507e-06 2.1532758e-06 -7.675465e-09 0.0 2.1402186e-06 4.540519e-06 0.0
0.0 1.5858155e-06 2.371564e-06 1.1449269e-12 0.0 2.1585824e-06 4.5402776e-06 0.0
0.0 1.4738275e-06 -5.312199e-06 -3.8274364e-13 0.0 1.9688405e-06 4.5402776e-06 0.0
0.0 1.3887302e-06 5.4902694e-06 -3.2121346e-13 0.0 1.9787208e-06 4.5402776e-06 0.0
0.0 1.3247494e-06 4.5354564e-06 -3.7414036e-13 0.0 1.8701213e-06 4.2059148e-07 1.4111459e-08
2.2811662e-06 -6.0883345e-08 -9.152617e-10 4.612595e-06 -2.0743247e-08 -2.94186e-05 0.0 2.230671e-05
-1.0467991e-06 -2.8078857e-05 0.0 1.8760946e-05 -2.5586817e-11 -3.832663e-05 0.0 2.2748969e-05
-1.2464135e-05 -1.5750571e-05 0.0 1.6332597e-05 1.0135108e-11 -3.3957404e-05 0.0 2.242684e-05
-2.3659434e-06 -3.9267272e-07 0.0 1.6418619e-05 -1.7106314e-07 -2.479297e-05 0.0 2.1981637e-05
4.2170792e-05 -1.791401e-11 0.0 1.3865203e-05 3.461196e-06 -1.6964623e-05 0.0 2.0958438e-05
2.742097e-05 1.5372799e-12 0.0 1.3502469e-05 4.108701e-06 -3.2773525e-05 0.0 1.966272e-05
00000000: d994 3f32 5ec5 a937 0000 0000 da95 9db6
00000010: 3e28 7a35 a290 8c37 0000 0000 04a4 47b6
00000020: 569f e32c 173f b137 0000 0000 d1ff a6b6
00000030: d162 8936 53fd 1437 0000 0000 8cbb 09b6
00000040: 9e27 a7ac 0283 a037 0000 0000 c70b a3b6
00000050: f280 dcb4 0b28 52b4 0000 0000 65e2 16b6
00000060: 1bf4 6db2 2b74 7637 0000 0000 ecbb 9ab6
00000070: 85db 82b7 4fe5 1c2d 0000 0000 0948 a6b5
00000080: 965a a0b5 f4ee 4c37 0000 0000 924a 85b6
00000090: 98ad c1b6 3880 07ac 0000 0000 1f3a edb5
000000a0: 5400 f6b5 9f29 ac37 0000 0000 2c06 61b6
000000b0: d605 37b7 0000 0000 0000 0000 7b45 06b6
000000c0: 0ee9 72b6 49c0 dbb6 0000 0000 e26a 45b6
000000d0: c684 54b7 0000 0000 0000 0000 a5f4 f4b5
000000e0: 1f75 f235 afd6 19b4 0000 0000 73c9 56b6
000000f0: e51a 06b7 0000 0000 0000 0000 0554 e8b5
00000100: 887d e535 1766 f7b4 0000 0000 8799 87b6
00000110: 6cba 97b6 0000 0000 0000 0000 0b61 f7b5
00000120: 2d47 0534 c21c eaab 0000 0000 2826 74b6
00000130: 42b9 97b6 0000 0000 0000 0000 1c34 04b6
00000140: 8f56 28b7 fecf 062c 0000 0000 3d18 61b6
00000150: 42b9 97b6 0000 0000 0000 0000 8a71 0cb6
00000160: 5002 a7b6 6e2a 752b 0000 0000 3e96 30b6
00000170: 42b9 97b6 0000 0000 0000 0000 dc0c 15b6
00000180: 9517 8eb6 3772 b02b 0000 0000 f5dc 0cb6
00000190: 2af8 ac34 fb1c 7531 e899 b9b3 1c76 d4b6
000001a0: 387f 23b1 5879 5fb6 9937 b231 b550 9336
000001b0: 0000 0000 cbe5 0536 241a 4534 fc14 2036
000001c0: 0000 0000 de63 0d36 b4ac ad2b b20d 2a36
000001d0: 0000 0000 8f43 1036 2980 8cb5 fd5e 0636
000001e0: 0000 0000 354e 1b36 84fb 552c ff3a 4e36
000001f0: 0000 0000 596c 0d36 bbfd 1d37 da8e 38b3
00000200: 0000 0000 91e5 0d36 0a53 8e33 20a8 0c36
00000210: 0000 0000 f65b 0f36 a979 19b5 f205 072c
00000220: 0000 0000 5ac8 1336 da7b a933 c0f1 8736
00000230: 0000 0000 ea09 1636 c7c2 2336 acf0 352b
00000240: 0000 0000 f8e3 ee35 7054 05b6 e525 8136
00000250: 0000 0000 1b20 2336 08b3 c2b5 0000 0000
00000260: 0000 0000 c7ce d435 e002 46b6 3400 ecb5
00000270: 0000 0000 8555 2936 9731 13b6 0000 0000
00000280: 0000 0000 9786 e335 bf35 2736 9041 07b4
00000290: 0000 0000 09cb 2136 4811 eb35 0000 0000
000002a0: 0000 0000 95f4 e435 ff80 1036 0ddd 03b2
000002b0: 0000 0000 ada0 0f36 c35a 9836 0000 0000
000002c0: 0000 0000 35d8 d435 2927 1f36 5722 a12b
000002d0: 0000 0000 2adc 1036 b058 9836 0000 0000
000002e0: 0000 0000 54d0 c535 713f b2b6 2c77 d7aa
000002f0: 0000 0000 6c20 0436 b058 9836 0000 0000
00000300: 0000 0000 6864 ba35 0e39 b836 bdd3 b4aa
00000310: 0000 0000 2aca 0436 b058 9836 0000 0000
00000320: 0000 0000 0bce b135 462f 9836 4f9f d2aa
00000330: 0000 0000 e100 fb35 a7cd e134 da6e 7232
00000340: 2316 1936 f9be 82b3 d195 7bb0 e4c5 9a36
00000350: e22e b2b2 f6c7 f6b7 0000 0000 4c1f bb37
00000360: be7f 8cb5 e38a ebb7 0000 0000 d360 9d37
00000370: 6410 e1ad e8c0 20b8 0000 0000 0ad5 be37
00000380: 0d1d 51b7 1820 84b7 0000 0000 fc01 8937
00000390: 784c 322d 7c6d 0eb8 0000 0000 4621 bc37
000003a0: 99c6 1eb6 87d0 d2b4 0000 0000 b7ba 8937
000003b0: 7aad 37b4 7ffa cfb7 0000 0000 3565 b837
000003c0: 8be0 3038 c492 9dad 0000 0000 989e 6837
000003d0: e546 6836 404f 8eb7 0000 0000 e7cf af37
000003e0: 1606 e637 585a d82b 0000 0000 aa88 6237
000003f0: 79dd 8936 4e76 09b8 0000 0000 5ff1 a437

exp_avg_sq f4 [128, 106]
4.029928e-11 3.9932277e-10 0.0 6.2006694e-10 8.802528e-11 3.1899422e-10 0.0 5.9249056e-10
2.0741566e-11 4.7141835e-10 0.0 6.335045e-10 1.6029417e-10 2.2251262e-10 0.0 5.7175564e-10
1.8548524e-11 4.679037e-10 0.0 6.444118e-10 2.6057353e-10 1.6177541e-10 0.0 5.564082e-10
5.684383e-11 4.2918086e-10 0.0 6.5219935e-10 8.062135e-10 4.5430274e-12 0.0 4.8609544e-10
2.8488237e-10 2.430871e-10 0.0 5.656968e-10 1.041682e-09 9.697967e-13 0.0 3.8409015e-10
3.2770667e-10 2.0390273e-10 0.0 4.911956e-10 1.1041164e-09 0.0 0.0 3.0766398e-10
4.751429e-10 6.3897894e-11 0.0 4.425636e-10 1.1322848e-09 0.0 0.0 2.601589e-10
5.0878035e-10 5.028377e-11 0.0 4.0455123e-10 1.2852522e-09 0.0 0.0 2.2465803e-10
5.145941e-10 3.477027e-11 0.0 3.7337183e-10 1.2837431e-09 0.0 0.0 1.9755216e-10
5.418472e-10 3.5069725e-11 0.0 3.3398193e-10 1.3032402e-09 0.0 0.0 1.783981e-10
7.822401e-10 3.0566775e-11 0.0 2.966215e-10 1.310502e-09 0.0 0.0 1.6530605e-10
1.1067243e-09 2.442248e-11 0.0 2.5628852e-10 1.326306e-09 0.0 0.0 1.5681507e-10
1.1823598e-09 1.6730218e-11 0.0 2.2442521e-10 6.5341226e-12 5.8152153e-15 6.601262e-10 9.674246e-11
4.5225664e-15 1.2238267e-09 2.300391e-12 1.8719469e-11 0.0 1.2049378e-10 6.0358784e-12 1.1898931e-11
0.0 1.1261456e-10 1.2856333e-12 2.1968118e-11 0.0 1.239848e-10 2.5855856e-11 7.576317e-12
0.0 1.0602737e-10 1.1833597e-12 2.1226633e-11 0.0 1.2582985e-10 6.3552656e-11 3.81857e-12
0.0 1.018039e-10 3.5925152e-12 1.897544e-11 0.0 1.2596627e-10 1.632472e-10 6.8343383e-13
0.0 9.086099e-11 1.5493573e-11 1.4902118e-11 0.0 1.2220852e-10 1.9157599e-10 1.2693225e-13
0.0 7.66736e-11 2.483027e-11 1.3944293e-11 0.0 1.1468853e-10 1.9966767e-10 0.0
0.0 6.62009e-11 7.454233e-11 3.5560116e-12 0.0 1.06856815e-10 2.102576e-10 0.0
0.0 6.039602e-11 1.3155746e-10 1.7440431e-12 0.0 9.8403424e-11 2.9221137e-10 0.0
0.0 5.3562786e-11 1.3389329e-10 5.513517e-13 0.0 9.165678e-11 2.997415e-10 0.0
0.0 4.749764e-11 1.3887373e-10 4.4891383e-13 0.0 8.2086185e-11 3.0477434e-10 0.0
0.0 4.3182936e-11 1.7678367e-10 3.0986674e-13 0.0 7.258641e-11 3.0578354e-10 0.0
0.0 4.0269846e-11 2.5573826e-10 2.754627e-13 0.0 6.162097e-11 3.111814e-10 0.0
0.0 3.8412603e-11 2.7769798e-10 2.9424418e-13 0.0 5.2958183e-11 8.9790165e-13 8.7939416e-16
1.0981698e-10 2.5861636e-11 1.1450418e-16 2.8476044e-10 2.442182e-10 3.668112e-10 0.0 1.0700435e-09
4.1664228e-10 2.5922328e-10 0.0 9.74376e-10 1.5215731e-10 4.9504295e-10 0.0 1.1063266e-09
5.9685384e-10 1.3133744e-10 0.0 8.9395613e-10 1.1044567e-10 5.1209925e-10 0.0 1.1260941e-09
9.801229e-10 7.1296545e-11 0.0 8.561942e-10 7.179772e-11 5.2499977e-10 0.0 1.1413975e-09
2.2189877e-09 1.8761503e-12 0.0 7.2715256e-10 1.7934672e-10 4.2074055e-10 0.0 1.0865061e-09
2.4060216e-09 3.58765e-13 0.0 5.9205346e-10 2.378791e-10 3.7211736e-10 0.0 1.0307625e-09
00000000: f53c 312e af87 db2f 0000 0000 5571 2a30
00000010: d491 c12e 725e af2f 0000 0000 d1dc 2230
00000020: db71 b62d 1e95 0130 0000 0000 eb22 2e30
00000030: cc3e 302f bca7 742f 0000 0000 ba29 1d30
00000040: 9027 a32d cc9d 0030 0000 0000 7322 3130
00000050: 7740 8f2f bbdf 312f 0000 0000 bff1 1830
00000060: 7700 7a2e d6f1 eb2f 0000 0000 7346 3330
00000070: 3b9c 5d30 f4d7 9f2c 0000 0000 ed9d 0530
00000080: a19d 9c2f 78a3 852f 0000 0000 607f 1b30
00000090: ed2a 8f30 9c7c 882b 0000 0000 e227 d32f
000000a0: 9d28 b42f 8431 602f 0000 0000 d104 0730
000000b0: a4bf 9730 0000 0000 0000 0000 db23 a92f
000000c0: 369b 0230 5183 8c2e 0000 0000 4a4d f32f
000000d0: bb9e 9b30 0000 0000 0000 0000 1c06 8f2f
000000e0: 3cda 0b30 7e26 5d2e 0000 0000 8667 de2f
000000f0: cba4 b030 0000 0000 0000 0000 9d03 772f
00000100: 5773 0d30 d8eb 182e 0000 0000 6a43 cd2f
00000110: b26f b030 0000 0000 0000 0000 fd35 592f
00000120: 1bf1 1430 003d 1a2e 0000 0000 c79b b72f
00000130: b01d b330 0000 0000 0000 0000 9a26 442f
00000140: 4105 5730 216f 062e 0000 0000 c411 a32f
00000150: 311d b430 0000 0000 0000 0000 84c1 352f
00000160: 661b 9830 89d2 d62d 0000 0000 67e5 8c2f
00000170: 3e49 b630 0000 0000 0000 0000 856b 2c2f
00000180: 9680 a230 1a29 932d 0000 0000 15c2 762f
00000190: 25e6 e52c e583 d127 4074 3530 2abd d42e
000001a0: 50f1 a227 9333 a830 29e0 212c 7fa8 a42d
000001b0: 0000 0000 fc7b 042f 5c5e d42c 0554 512d
000001c0: 0000 0000 5ca4 f72e d2ef b42b ce3b c12d
000001d0: 0000 0000 9e52 082f 366e e32d b348 052d
000001e0: 0000 0000 1a28 e92e 078b a62b 21b6 ba2d
000001f0: 0000 0000 f459 0a2f f7c0 8b2e 9f5a 862c
00000200: 0000 0000 80de df2e 00cd 7c2c e4e8 a62d
00000210: 0000 0000 5a80 0a2f 007e 332f 995e 402b
00000220: 0000 0000 31ce c72e 6d48 882d 9614 832d
00000230: 0000 0000 a45e 062f d9a3 522f bbe9 0e2a
00000240: 0000 0000 669b a82e cc68 da2d 834f 752d
00000250: 0000 0000 e733 fc2e 7489 5b2f 0000 0000
00000260: 0000 0000 cb93 912e 9aeb a32e 693b 7a2c
00000270: 0000 0000 0afb ea2e 412e 672f 0000 0000
00000280: 0000 0000 f0cf 842e 22a6 102f c673 f52b
00000290: 0000 0000 3464 d82e 18a5 a02f 0000 0000
000002a0: 0000 0000 5692 6b2e 9c37 132f 1431 1b2b
000002b0: 0000 0000 2e8e c92e dec8 a42f 0000 0000
000002c0: 0000 0000 97e5 502e 7bb1 182f 4db7 fc2a
000002d0: 0000 0000 6a82 b42e 2d8d a72f 0000 0000
000002e0: 0000 0000 aaeb 3d2e 2e60 422f 8170 ae2a
000002f0: 0000 0000 849e 9f2e 351b a82f 0000 0000
00000300: 0000 0000 d11b 312e f697 8c2f 5c12 9b2a
00000310: 0000 0000 8681 872e e312 ab2f 0000 0000
00000320: 0000 0000 bff0 282e 84aa 982f 0ea5 a52a
00000330: 0000 0000 9de9 682e a2bc 7c2b d677 7d26
00000340: 777d f12e 3a7b e32d ab03 0425 788c 9c2f
00000350: a842 862f 16a8 c92f 0000 0000 cf10 9330
00000360: 300d e52f 6f82 8e2f 0000 0000 cfea 8530
00000370: 7a4c 272f 8d13 0830 0000 0000 680d 9830
00000380: db0f 2430 3468 102f 0000 0000 92ba 7530
00000390: 63df f22e c8c3 0c30 0000 0000 eac4 9a30
000003a0: 02b5 8630 63c8 9c2e 0000 0000 5059 6b30
000003b0: 86e2 9d2e 934f 1030 0000 0000 5bdf 9c30
000003c0: d87c 1831 b805 042c 0000 0000 d0e0 4730
000003d0: 9d31 452f f84d e72f 0000 0000 0954 9530
000003e0: 2e57 2531 7cf7 c92a 0000 0000 0fbe 2230
000003f0: 82c6 822f dd92 cc2f 0000 0000 bbaa 8d30

exp_avg f4 [128]
-4.490709e-06 4.5491292e-06 2.9951347e-05 1.5409001e-05 1.2142279e-05 5.062182e-06 -3.0651027e-08 -1.2684269e-05
-1.5071413e-05 -8.9246646e-07 -2.3396551e-05 -3.7432732e-05 3.4758068e-06 3.0239276e-05 -7.0850894e-07 -1.3070784e-05
5.6268195e-06 -1.7897379e-05 -5.1632014e-05 -3.3721426e-06 6.308607e-06 -1.1350574e-05 -2.483776e-06 1.4426031e-06
2.7000422e-05 -5.5607863e-05 1.3887474e-05 -1.7076762e-05 -1.1463664e-05 3.7333457e-06 -7.920294e-06 -2.1404683e-05
1.2834764e-06 -3.7474765e-05 -3.8820913e-06 -8.114261e-06 1.5428877e-05 1.3740589e-05 -1.1789718e-05 -1.3576405e-05
8.463714e-07 -4.437865e-06 -2.2497157e-05 -5.6070923e-05 -1.4561602e-05 1.4977856e-05 3.269283e-05 -1.5766187e-05
2.74104e-05 -1.0518574e-05 7.59593e-06 7.345868e-05 -3.240745e-05 -1.0957826e-05 -3.595541e-06 -2.8021932e-05
3.3823455e-06 6.6441876e-06 -2.9948322e-05 1.5285988e-05 1.0499554e-05 4.49662e-05 -1.1213947e-05 -1.1554859e-05
3.8408718e-05 -2.9060278e-05 -7.969779e-06 3.7789735e-06 3.151526e-05 -3.8988314e-06 2.3452687e-05 -1.6656297e-05
7.15835e-06 -2.2470509e-05 1.1105464e-05 -1.835846e-05 -1.0006059e-05 -5.7662957e-05 2.1642318e-05 -3.7303998e-06
3.5647327e-06 -2.4184103e-05 3.226588e-05 2.7766899e-05 -4.0181217e-06 4.425084e-05 -1.023617e-05 2.0545911e-05
4.436381e-05 1.3678701e-05 -3.4303233e-05 -1.1402115e-05 -6.219915e-05 -2.707241e-06 1.3265789e-05 -5.3491738e-05
1.8598917e-05 -2.2194496e-05 1.1020712e-05 -3.5719055e-05 4.7594076e-05 -6.3179446e-06 5.984879e-05 -3.11993e-05
-5.460431e-05 -3.768766e-05 -5.0566152e-05 -4.182005e-06 -7.195395e-05 1.5646066e-05 5.5615386e-05 -3.3502038e-05
-4.212392e-06 7.791892e-05 -3.0014667e-07 -7.1467207e-06 -8.934703e-06 2.2904205e-05 2.072026e-05 1.2699139e-05
-5.4248536e-05 -1.7011198e-05 5.4062668e-05 3.8012895e-06 2.3615865e-05 -8.3250425e-06 1.0367301e-05 -6.365237e-05
00000000: e6ae 96b6 b9a4 9836 0740 fb37 9442 8137
00000010: b1b6 4b37 d0db a936 29a5 03b3 85ce 54b7
00000020: 3adb 7cb7 d491 6fb5 b643 c4b7 1701 1db8
00000030: e841 6936 5aaa fd37 5d30 3eb5 974a 5bb7
00000040: 03ce bc36 5422 96b7 748f 58b8 f84c 62b6
00000050: 86ae d336 586e 3eb7 f2ae 26b6 779f c135
00000060: f77e e237 7d3c 69b8 3ffe 6837 1140 8fb7
00000070: 1054 40b7 648a 7a36 67e1 04b7 358e b3b7
00000080: ea43 ac35 392e 1db8 e942 82b6 7c22 08b7
00000090: 436d 8137 6187 6637 74cc 45b7 37c6 63b7
000000a0: 3332 6335 f8e8 94b6 47b8 bcb7 b22d 6bb8
000000b0: 9b4d 74b7 6749 7b37 a91f 0938 a141 84b7
000000c0: 63ef e537 ee78 30b7 8be0 fe36 d40d 9a38
000000d0: 3ced 07b8 81d7 37b7 ed4a 71b6 a410 ebb7
000000e0: 41fc 6236 23f1 de36 8839 fbb7 693a 8037
000000f0: 3e27 3037 179a 3c38 8923 3cb7 bedb 41b7
00000100: 0c19 2138 79c6 f3b7 f1b5 05b7 459a 7d36
00000110: 412f 0438 b5d2 82b6 43bc c437 20b9 8bb7
00000120: c231 f036 0d7f bcb7 9b51 3a37 7e00 9ab7
00000130: b2df 27b7 21db 71b8 868c b537 c857 7ab6
00000140: a439 6f36 f7de cab7 3a55 0738 f6ec e837
00000150: 67d3 86b6 fa99 3938 04bc 2bb7 025a ac37
00000160: 4713 3a38 937d 6537 d1e0 0fb8 b64b 3fb7
00000170: ea70 82b8 0cae 35b6 2190 5e37 515c 60b8
00000180: df04 9c37 512e bab7 99e5 3837 0bd1 15b8
00000190: c09f 4738 bbfe d3b6 2606 7b38 fedb 02b8
000001a0: ee06 65b8 d112 1eb8 fe16 54b8 2653 8cb6
000001b0: fce5 96b8 ac3f 8337 9144 6938 8a84 0cb8
000001c0: 2c58 8db6 6768 a338 d823 a1b4 ddcd efb6
000001d0: 42e6 15b7 6822 c037 6bd0 ad37 630e 5537
000001e0: ec88 63b8 45b3 8eb7 59c1 6238 a819 7f36
000001f0: af1a c637 c9ab 0bb7 38ef 2d37 1b7d 85b8

exp_avg_sq f4 [128]
1.3279288e-09 3.1177555e-10 2.7488278e-09 1.3771992e-09 1.0100702e-08 1.2129069e-09 2.8720464e-09 5.5303956e-10
4.1539936e-09 1.907626e-08 3.4572902e-09 2.0781371e-08 9.72036e-10 5.117062e-09 1.114248e-09 6.568606e-10
1.7282743e-09 7.647351e-10 1.25239445e-08 1.5991201e-08 9.9298285e-09 6.369588e-10 4.0830606e-09 1.0810287e-09
3.2657739e-09 4.132667e-09 6.311059e-09 9.37425e-10 5.1757837e-10 1.511653e-08 2.6584063e-10 7.1843305e-09
8.177825e-09 3.221095e-09 9.912117e-11 5.40523e-09 2.339752e-09 1.3628146e-09 1.2749563e-08 8.610579e-09
5.0199804e-09 6.5913537e-09 4.635572e-09 9.1441255e-09 3.993831e-09 3.923806e-09 6.52728e-09 9.974698e-10
6.59308e-09 4.0213652e-10 2.0590052e-09 4.5402427e-08 3.5128622e-08 2.072417e-09 1.6890512e-09 4.8128777e-09
4.808187e-09 3.5709644e-09 3.890147e-09 4.7054574e-09 8.186124e-09 1.5987608e-08 5.067565e-09 1.632296e-08
1.342118e-08 3.4736214e-09 4.924205e-10 6.29392e-10 4.277577e-09 1.1835555e-09 1.9828093e-09 1.9723392e-09
2.7838893e-09 2.911525e-09 1.1720277e-08 8.0824264e-10 3.7307103e-08 7.841901e-09 9.005975e-09 2.9408187e-10
6.1075425e-09 3.7947903e-09 7.935995e-09 3.2416319e-09 4.5543917e-08 4.499698e-08 5.34359e-09 7.541379e-09
2.3067573e-08 6.272112e-09 2.5708882e-08 3.3399972e-09 1.0060117e-08 3.7580916e-10 5.6870486e-09 2.2918469e-08
2.31869e-09 3.5246592e-09 1.2681675e-08 1.0325927e-08 1.3587248e-08 5.246964e-09 1.4105818e-08 1.893685e-09
1.869082e-08 5.431237e-09 6.350788e-08 8.992675e-10 3.9226023e-08 6.46514e-08 2.096203e-08 9.532322e-09
2.0393054e-09 1.3947134e-08 1.8113566e-10 1.7603005e-08 3.307072e-10 2.0111045e-08 3.1179919e-09 1.375583e-09
1.0023422e-08 4.283395e-09 7.160931e-08 9.903627e-09 3.04009e-09 1.3193566e-09 2.732372e-09 9.494812e-09
00000000: 5782 b630 8266 ab2f e4e5 3c31 e447 bd30
00000010: 5b87 2d32 5eb3 a630 935d 4531 b304 1830
00000020: eaba 8e31 24dd a332 4b95 6d31 b882 b232
00000030: 7a98 8530 27d2 af31 1e24 9930 758e 3430
00000040: 3f88 ed30 7335 5230 e428 5732 065d 8932
00000050: d997 2a32 fe15 2f30 fb4a 8c31 5193 9430
00000060: 1a6c 6031 53ff 8d31 a9d8 d831 b6d6 8030
00000070: 5745 0e30 9ad9 8132 be25 922f 0ada f631
00000080: 747e 0c32 1a5a 5d31 42f8 d92e e8b8 b931
00000090: 5ac9 2031 c74d bb30 2c09 5b32 baed 1332
000000a0: 377c ac31 297a e231 ec46 9f31 4a18 1d32
000000b0: 1c3a 8931 2ad2 8631 9046 e031 5917 8930
000000c0: 5889 e231 af13 dd2f 677e 0d31 7f00 4333
000000d0: 54e0 1633 586a 0e31 3524 e830 855e a531
000000e0: 4335 a531 1265 7531 18aa 8531 a4ad a131
000000f0: f4a2 0c32 1f55 8932 c61e ae31 9236 8c32
00000100: f992 6632 98b4 6e31 035b 0730 8601 2d30
00000110: f7f9 9231 a8aa a230 f341 0831 c289 0731
00000120: b34e 3f31 1714 4831 535a 4932 052b 5e30
00000130: 983b 2033 0cb9 0632 b2b8 1a32 58ac a12f
00000140: 83da d131 5463 8231 e056 0832 64c3 5e31
00000150: 119c 4333 b442 4133 b79a b731 568f 0132
00000160: 2126 c632 1582 d731 6ed6 dc32 da85 6531
00000170: ddd4 2c32 709a ce2f cf67 c331 3fde c432
00000180: d356 1f31 7636 7231 99de 5932 e865 3132
00000190: 596d 6932 c948 b431 0b56 7232 0f22 0231
000001a0: 8c8d a032 aa9d ba31 d461 8833 5330 7730
000001b0: 7879 2833 7cd6 8a33 fe0f b432 98c3 2332
000001c0: d723 0c31 259c 6f32 2829 472f 6b35 9732
000001d0: e7ce b52f a8c0 ac32 4b44 5631 060f bd30
000001e0: 7a33 2c32 242d 9331 a2c7 9933 9d24 2a32
000001f0: d4e9 5031 bc54 b530 66c4 3b31 a01e 2332
