results/test2/My Behavior/checkpoint.pt (torch, 749602 bytes, 36 tensors)

network_body._body_endoder.seq_layers.0.weight f4 [128, 106]
0.08150003 0.07155886 0.114158764 -0.12752908 0.077206865 -0.0059562023 -0.1427885 -0.0523974
0.02168995 -0.012768013 -0.024796275 0.035441462 0.07383091 -0.19445357 0.0006939109 -0.03182935
-0.18813178 -0.16236411 0.15175341 -0.09728648 -0.020060793 -0.008692766 0.114069566 0.1115205
-0.16265137 -0.024666272 0.011682526 -0.027273577 -0.039020047 -0.18628488 -0.15437949 0.02307522
-0.050598573 0.03826574 -0.14330868 -0.022949371 -0.13451208 -0.019307403 -0.018055348 -0.13231304
-0.032729052 -0.061071623 -0.1287586 -0.02923738 -0.14180784 -0.0346111 0.011972692 -0.030566154
0.01558422 -0.06914081 -0.0054735322 -0.1238692 0.02634597 0.11185084 -0.012372391 -0.05005008
0.060262956 0.16528961 0.041376494 -0.12623821 -0.05239536 0.11978707 0.046022642 0.022387074
0.0006378024 -0.034762334 -0.046778407 0.01689044 -0.15869257 -0.04084144 -0.111430846 0.09282407
-0.016563563 -0.061126284 -0.110543594 0.07373306 -0.07202974 -0.17345911 -0.027382392 -0.06782218
-0.15748653 -0.14795892 0.13443694 -0.114545695 -0.112227276 -0.021369033 0.034437876 0.010345585
0.080001436 -0.10433283 -0.004691146 -0.07701208 0.020139363 0.046123184 -0.010291275 -0.17765275
-0.16761799 0.0831997 0.046546854 -0.121376604 0.09047183 0.062713005 0.082348816 -0.0764656
0.017118547 -0.17135961 0.07166314 -0.10436956 0.1075228 0.06593917 -0.019652678 0.095965765
0.08776464 -0.0038630443 -0.015187146 0.028246155 0.096840076 0.011794421 0.017581679 0.049127355
-0.21648917 0.14738733 0.08922081 0.01898622 0.009907325 0.17548706 0.071644254 0.017051658
-0.1314469 -0.23853883 -0.12584096 -0.094396606 -0.0035677287 0.00504886 -0.009121419 0.06660566
-0.058710746 0.100950465 -0.037580572 -0.01613089 -0.08468421 0.13630992 -0.13603501 0.015138496
0.0792033 0.031630486 0.10295657 0.08256121 -0.13163018 0.000879809 -0.24330585 0.07227561
-0.1772949 -0.071184315 -0.02365038 0.14532137 -0.20413013 0.057149775 -0.12190154 -0.06123735
-0.040855628 -0.1446174 -0.0741804 -0.024243169 -0.23018624 0.15154144 0.07700329 -0.17314069
-0.05383723 0.029059542 0.03805537 0.15277442 -0.14407648 -0.021613028 0.055152405 0.066354804
-0.15537709 0.087557934 -0.071590945 0.011742679 0.06611575 0.092290334 0.09994007 -0.021693552
-0.017445568 -0.12634286 -0.14731666 -0.10003178 -0.11951117 0.021244477 -0.028444326 0.06637648
-0.0937109 0.0847401 -0.019457838 0.106775664 0.03808047 0.039846048 0.1270817 -0.22947223
0.04139786 -0.07731839 0.23743801 0.05615967 -0.2563736 0.06806844 0.02583032 0.011321839
0.088187985 -0.13069049 0.110667005 0.006305104 0.0035497532 -0.021347363 0.10086788 -0.12838435
0.055051066 0.00478502 0.013382823 0.0816499 0.08429561 -0.050594036 0.09286716 -0.13200186
0.07208557 0.0997583 0.023622882 0.04907761 -0.06234169 -0.05672362 -0.010463383 -0.17823787
-0.10969297 0.05108455 -0.058001466 -0.06818358 -0.039878692 -0.010020932 -0.22604857 0.061993755
-0.026136564 -0.03533697 0.035392724 -0.108302265 -0.007728627 0.043209035 -0.073733516 0.08611423
-0.07664353 -0.08786069 0.121552035 0.18586478 -0.04030814 -0.056221254 0.081042215 -0.12162613
00000000: 7de9 a63d 748d 923d 12cc e93d fc96 02be
00000010: a21e 9e3d 3f2c c3bb 2637 12be a89e 56bd
00000020: 1faf b13c ee30 51bc 8f21 cbbc 112b 113d
00000030: a934 973d d61e 47be 92e7 353a 7e5f 02bd
00000040: 9ea5 40be c742 26be 3f65 1b3e 223e c7bd
00000050: 8856 a4bc 1a6c 0ebc 4e9d e93d dc64 e43d
00000060: 158e 26be ec10 cabc 1168 3f3c d66c dfbc
00000070: 7cd3 1fbd 77c1 3ebe a815 1ebe 3e08 bd3c
00000080: 7340 4fbd 89bc 1c3d 83bf 12be 5200 bcbc
00000090: 89bd 09be 8f2a 9ebc cfe8 93bc 127d 07be
000000a0: e60e 06bd 3d26 7abd 4bd9 03be 3b83 efbc
000000b0: 1336 11be 5ec4 0dbd 1c29 443c df65 fabc
000000c0: f554 7f3c b299 8dbd 515b b3bb 23af fdbd
000000d0: 81d3 d73c 0e12 e53d 92b5 4abc 5001 4dbd
000000e0: 4ad6 763d ae41 293e 667a 293d 9744 01be
000000f0: 849c 56bd ec52 f53d 3d82 3c3d 1965 b73c
00000100: 3232 273a f362 0ebd b79a 3fbd d25d 8a3c
00000110: 4e80 22be 5b49 27bd db35 e4bd 8c1a be3d
00000120: 4fb0 87bc 8e5f 7abd ae64 e2bd 5c01 973d
00000130: 5484 93bd 449f 31be 0a51 e0bc 5be6 8abd
00000140: 2644 21be 8b82 17be d6a9 093e ef96 eabd
00000150: 6ad7 e5bd 1c0e afbc bb0e 0d3d 8780 293c
00000160: cbd7 a33d 73ac d5bd 2fb8 99bb 82b8 9dbd
00000170: 4efb a43c aaeb 3c3d bc9c 28bc 9aea 35be
00000180: 0da4 2bbe 9b64 aa3d eaa7 3e3d 4c94 f8bd
00000190: 4b49 b93d ad6f 803d 7fa6 a83d ff99 9cbd
000001a0: 323c 8c3c e578 2fbe 20c4 923d b5bf d5bd
000001b0: ea34 dc3d 1e0b 873d a7fe a0bc b389 c43d
000001c0: f3bd b33d 212b 7dbb 82d3 78bc 7b64 e73c
000001d0: 1754 c63d 633d 413c 7407 903c c439 493d
000001e0: 56af 5dbe b4ec 163e 66b9 b63d fd88 9b3c
000001f0: 5552 223c e1b2 333e 39ba 923d ebaf 8b3c
00000200: 049a 06be 8643 74be 74dc 00be 0253 c1bd
00000210: 8ed0 69bb e870 a53b 0172 15bc 8c68 883d
00000220: ae7a 70bd 1ebf ce3d 16ee 19bd ee24 84bc
00000230: ea6e adbd d494 0b3e c34c 0bbe 7407 783c
00000240: 5735 a23d f88e 013d e5da d23d da15 a93d
00000250: 10ca 06be fca2 663a 2b25 79be 3c05 943d
00000260: cb8c 35be 15c9 91bd 71be c1bc 20cf 143e
00000270: 7d07 51be e215 6a3d 84a7 f9bd 04d4 7abd
00000280: 3b58 27bd 9516 14be e5eb 97bd 9c99 c6bc
00000290: f1b5 6bbe ae2d 1b3e e7b3 9d3d cb4b 31be
000002a0: 6d84 5cbd 470e ee3c f3df 1b3d e670 1c3e
000002b0: c988 13be ce0d b1bc 7de7 613d 07e5 873d
000002c0: 2c1b 1fbe 9351 b33d 469e 92bd 5e64 403c
000002d0: b267 873d b702 bd3d 61ad cc3d adb6 b1bc
000002e0: 02ea 8ebc 0660 01be 2eda 16be 76dd ccbd
000002f0: 46c2 f4bd e608 ae3c 1304 e9bc 64f0 873d
00000300: 80eb bfbd 388c ad3d 0b66 9fbc 33ad da3d
00000310: 44fa 1b3d 9c35 233d b521 023e c5fa 6abe
00000320: cd90 293d 1b59 9ebd f322 733e af07 663d
00000330: 6743 83be 7767 8b3d 1b9a d33c 3c7f 393c
00000340: e79b b43d bad3 05be 62a5 e23d 0c9b ce3b
00000350: faa2 683b aae0 aebc d293 ce3d 3077 03be
00000360: 3a7d 613d a8cb 9c3b a143 5b3c 1038 a73d
00000370: 2da3 ac3d b13b 4fbd 2331 be3d 7f2b 07be
00000380: 99a1 933d 144e cc3d c684 c13c 9b05 493d
00000390: 005a 7fbd 0757 68bd 9c6e 2bbc fd83 36be
000003a0: b5a6 e0bd 083e 513d f292 6dbd d5a3 8bbd
000003b0: d757 23bd d62e 24bc 4779 67be 2aed 7d3d
000003c0: 591c d6bc 80bd 10bd f6f7 103d 94cd ddbd
000003d0: 6c40 fdbb f5fb 303d 9901 97bd a85c b03d
000003e0: 48f7 9cbd 4ef0 b3bd 46f0 f83d 5653 3e3e
000003f0: 261a 25bd 4248 66bd 76f9 a53d 1f17 f9bd

network_body._body_endoder.seq_layers.0.bias f4 [128]
-0.015637254 -0.004353499 -0.015106941 -0.011153651 -0.003400111 0.028500684 0.02101631 -0.010597964
-0.009797491 -0.012677546 -0.0052249036 0.029786881 -0.0007868624 -0.0022722362 -0.0004101404 -0.001781858
-0.008801191 -0.0014406921 -0.011033828 -0.007875171 0.049085006 0.015281137 -0.0041409773 0.015850397
0.012406771 -0.000712092 0.03660812 -0.010311001 -0.0016682949 0.040853094 0.0039431797 0.005424897
0.01753282 0.0336097 -0.015167393 -0.015193028 0.010245025 0.029595744 0.010405905 0.054220963
0.0346943 -0.022318704 -0.012333057 -0.010623528 -0.0026431417 0.00068724155 -0.007090701 0.010464697
-0.013657169 -0.019451782 0.019645391 -0.006216119 -0.00446075 0.012242297 -0.016176738 0.007169128
0.018646173 0.0042851204 0.010217972 0.010034287 0.0028615166 0.03814303 0.047629125 0.033820003
-0.0061454494 0.015107075 0.009834965 0.018144349 0.014485519 0.0023787122 0.0076849614 0.011045109
-0.005065805 0.01958943 -0.008126302 0.01288984 -0.008117632 0.023075344 -0.025863197 -0.011877102
0.024784235 -0.0048079947 -0.012607074 -0.010164746 0.0011996779 -0.032186992 -0.019128323 0.018369723
-0.009646431 0.008810367 0.0011203694 0.016396686 -0.008745543 -0.019203538 0.012593918 -0.013041095
-0.0012593501 0.003943574 0.000989216 -0.009723196 -0.010158069 -0.009185518 -0.0075593237 -0.013669848
0.007750014 0.0200965 0.036270082 0.0145192705 0.016906904 0.012541687 0.01757145 0.010369905
0.0033835885 0.0016957204 -0.004255585 -0.011967804 0.0011109603 0.005805227 0.0143543845 0.017564984
0.00018186135 -0.014416247 0.0075114756 0.014532773 -0.0006182284 0.02199112 0.000992399 -0.01358779
00000000: b319 80bc cca7 8ebb 1a83 77bc cebd 36bc
00000010: 66d4 5ebb 447a e93c 662a ac3c 15a3 2dbc
00000020: a885 20bc 7bb5 4fbc ab35 abbb 9e03 f43c
00000030: 7145 4eba cce9 14bb 1d08 d7b9 3c8d e9ba
00000040: df32 10bc 9bd5 bcba 3bc7 34bc dc06 01bc
00000050: 5c0d 493d bc5d 7a3c 09b1 87bb b1d8 813c
00000060: c545 4b3c afab 3aba 65f2 153d 79ef 28bc
00000070: b0aa daba 9355 273d ca35 813b 56c3 b13b
00000080: fda0 8f3c 53aa 093d a880 78bc 2eec 78bc
00000090: c0da 273c c672 f23c 877d 2a3c cd16 5e3d
000000a0: 9c1b 0e3d b7d5 b6bc 9710 4abc 4e0e 2ebc
000000b0: 8f38 2dbb 0028 343a 1c59 e8bb 1f74 2b3c
000000c0: 52c2 5fbc 5859 9fbc 5fef a03c 96b0 cbbb
000000d0: 7c2b 92bb ea93 483c 1485 84bc 01eb ea3b
000000e0: dcbf 983c 326a 8c3b 4869 273c da66 243c
000000f0: 4888 3b3b de3b 1c3d c216 433d d886 0a3d
00000100: c45f c9bb aa83 773c d522 213c 75a3 943c
00000110: ac54 6d3c 2be4 1b3b 21d2 fb3b 8bf6 343c
00000120: 0dff a5bb 037a a03c 2e24 05bc e82f 533c
00000130: d1ff 04bc 8108 bd3c 0edf d3bc 2d98 42bc
00000140: 4f08 cb3c 628c 9dbb e78d 4ebc 098a 26bc
00000150: 833e 9d3a 82d6 03bd 00b3 9cbc 1a7c 963c
00000160: 100c 1ebc 5c59 103c 5cd9 923a 5852 863c
00000170: 7749 0fbc bd50 9dbc b856 4e3c 51aa 55bc
00000180: c710 a5ba 1939 813b 95a8 813a 0a4e 1fbc
00000190: 086e 26bc db7e 16bc 34b4 f7bb 80f7 5fbc
000001a0: d4f3 fd3b 6aa1 a43c f08f 143d 3ce2 6d3c
000001b0: 5980 8a3c a67b 4d3c 00f2 8f3c 89e6 293c
000001c0: 32bf 5d3b ef42 de3a 6f72 8bbb 9c14 44bc
000001d0: a49d 913a c639 be3b a72e 6b3c 71e4 8f3c
000001e0: 09b2 3e39 1f32 6cbc d322 f63b de1a 6e3c
000001f0: 9b10 22ba b926 b43c 6213 823a 529f 5ebc

network_body._body_endoder.seq_layers.2.weight f4 [128, 128]
0.18011697 0.20768562 -0.040638514 -0.002854766 -0.06678543 0.08880351 0.12948282 -0.020307845
-0.081408374 0.09114025 0.03546979 -0.0038069552 -0.06161215 0.02874627 -0.070378356 0.03302786
-0.06701618 -0.042815596 -0.032951903 -0.03489014 -0.10682205 0.06619295 -0.1797578 -0.14325494
0.03504466 -0.15044658 -0.06335125 -0.03225464 0.08658222 0.06074252 0.0594653 -0.10852404
0.09463467 -0.09704783 0.026418783 -0.10169532 -0.07787136 -0.034030568 -0.06611524 0.124928325
0.17522304 -0.026275605 -0.04690363 0.00154132 0.009198936 -0.010639638 0.06335509 -0.2278496
-0.06629443 0.08496661 -0.032105565 0.068739966 0.08623342 -0.022568079 -0.15910025 -0.046799403
0.051455352 0.02588877 0.1319176 -0.120379716 0.1767021 0.06273701 0.1487421 -0.03083862
0.12821412 -0.060985796 0.018804993 -0.23494913 0.07274011 -0.07195076 -0.08872079 -0.059356246
-0.106192626 0.051351994 -0.15170142 -0.05937544 0.12105541 0.0513002 -0.16769299 0.1018029
-0.13088481 0.01947386 0.050596025 -0.010193058 -0.09482033 0.040428832 -0.02988656 0.119542755
-0.1414282 0.096822925 0.019899612 -0.03448486 0.029376665 -0.06481927 -0.10396208 -0.039738856
0.06793006 -0.21619333 -0.09816547 0.002992536 -0.01471017 -0.02706159 0.004496032 -0.15573429
-0.02232363 -0.020607146 0.038150676 -0.18331318 -0.017278325 -0.16338734 0.0891412 0.041940387
-0.16591737 0.13152213 -0.15297201 -0.04271971 -0.086031586 -0.052582875 -0.020806717 -0.1253653
-0.04332337 -0.11240808 0.056874827 -0.20271936 -0.13407245 0.011117365 -0.14469998 -0.04457825
0.09766291 0.09544832 -0.058798634 -0.08947797 -0.03934513 0.09508849 -0.019741863 0.16196555
0.08222508 -0.030274972 -0.13171782 0.13749164 0.14501505 -0.003921683 0.23659104 -0.042767547
0.054706905 0.121986516 -0.077893205 0.057524018 -0.022928925 -0.046804283 -0.079158835 -0.08320626
-0.062112052 0.060487702 -0.04060262 -0.13337435 0.010576511 0.14755338 -0.10589706 0.008419678
0.0016403411 -0.0009862757 0.06338277 -0.06954728 0.08132684 0.031581245 0.04887975 0.0673318
0.017867262 0.11041249 0.004538797 0.088211544 0.23381595 0.05968262 0.1681691 -0.073793866
0.051200643 0.043665323 -0.14010587 -0.020946618 0.0018255039 0.067565136 -0.14064458 -0.034112547
-0.093039535 -0.022035152 -0.060695406 -0.21366082 -0.0073351953 -0.053071458 -0.060427293 -0.038096935
0.037458293 -0.024835877 -0.06700604 0.14036694 -0.12148278 -0.0762855 0.08329996 -0.037857894
0.118413 -0.013554361 0.013925298 -0.12035994 -0.01844442 0.039036833 0.10687689 -0.0034667188
0.11730792 0.004995599 0.058490667 -0.084135674 0.096550986 0.06214867 -0.010002956 -0.082494184
-0.14765282 -0.048647795 0.009586836 -0.050561093 0.05812924 0.0786245 -0.1178383 -0.117704816
-0.0011866395 0.043113362 -0.06156579 0.011003117 0.09144631 -0.03299458 -0.03042981 -0.05304246
0.06556305 -0.044312995 -0.094026595 0.04899366 -0.053268805 -0.012892406 0.057503454 -0.022024726
-0.019116418 -0.016054617 -0.034583785 -0.018974816 -0.04135262 -0.06795132 0.10053977 0.06284472
0.020862563 -0.15411729 -0.028389322 -0.031636253 -0.16210756 -0.06516388 0.031240681 0.13181402
00000000: 9570 383e 8aab 543e 9274 26bd 0717 3bbb
00000010: cdc6 88bd 9dde b53d 2597 043e a35c a6bc
00000020: 6fb9 a6bd bda7 ba3d c548 113d 1c7e 79bb
00000030: 065d 7cbd 4c7d eb3c 8722 90bd 3948 073d
00000040: c73f 89bd 685f 2fbd 93f8 06bd f7e8 0ebd
00000050: 85c5 dabd 2b90 873d 6e12 38be 6cb1 12be
00000060: fd8a 0f3d ab0e 1abe 4dbe 81bd 711d 04bd
00000070: 0552 b13d 26cd 783d e391 733d da41 debd
00000080: d2cf c13d 03c1 c6bd 346c d83c a345 d0bd
00000090: 057b 9fbd a363 0bbd 6d67 87bd 6cda ff3d
000000a0: ab6d 333e f03f d7bc 051e 40bd 1e06 ca3a
000000b0: 22b7 163c e051 2ebc 50c0 813d 6851 69be
000000c0: 60c5 87bd f902 ae3d 2081 03bd 8ac7 8c3d
000000d0: 269b b03d b1e0 b8bc 2deb 22be bbb0 3fbd
000000e0: d9c2 523d b014 d43c 6815 073e a489 f6bd
000000f0: 65f1 343e 437c 803d d94f 183e 46a1 fcbc
00000100: 904a 033e 3ecc 79bd ee0c 9a3c 8196 70be
00000110: c4f8 943d ec5a 93bd 3fb3 b5bd 891f 73bd
00000120: 857b d9bd 7856 523d 9e57 1bbe a933 73bd
00000130: e6eb f73d 2920 523d b6b7 2bbe 0a7e d03d
00000140: ab06 06be a587 9f3c c73d 4f3d c900 27bc
00000150: 2931 c2bd b498 253d a9d4 f4bc d5d2 f43d
00000160: 8ed2 10be 194b c63d 8304 a33c ff3f 0dbd
00000170: 55a7 f03c f7bf 84bd 12ea d4bd 36c5 22bd
00000180: ea1e 8b3d c961 5dbe fa0a c9bd 6c1e 443b
00000190: ed02 71bc 45b0 ddbc 7353 933b cf78 1fbe
000001a0: 0ce0 b6bc 51d0 a8bc e243 1c3d 73b6 3bbe
000001b0: 468b 8dbc 034f 27be a98f b63d afc9 2b3d
000001c0: 3ee6 29be bdad 063e b2a4 1cbe ddfa 2ebd
000001d0: 5431 b0bd 2461 57bd d972 aabc c35f 00be
000001e0: d973 31bd 3536 e6bd 94f5 683d aa95 4fbe
000001f0: 4a4a 09be 9c25 363c 3b2c 14be af97 36bd
00000200: 7e03 c83d 697a c33d d6d6 70bd 3a40 b7bd
00000210: 5c28 21bd c1bd c23d b0b9 a1bc 4cda 253e
00000220: 9f65 a83d 3803 f8bc 09e1 06be 9cca 0c3e
00000230: d37e 143e 7681 80bb ec44 723e 062d 2fbd
00000240: 5914 603d 11d4 f93d 7986 9fbd 4e9e 6b3d
00000250: 71d5 bbbc d9b5 3fbd 071e a2bd 0b68 aabd
00000260: 3569 7ebd f4c1 773d ef4e 26bd 4993 08be
00000270: 1a49 2d3c 3c18 173e 8fe0 d8bd b0f2 093c
00000280: b700 d73a ec45 81ba d3ce 813d ce6e 8ebd
00000290: b08e a63d 565b 013d 2236 483d 41e5 893d
000002a0: 5d5e 923c f21f e23d 30ba 943b 41a8 b43d
000002b0: 736d 6f3e c375 743d 8534 2c3e 3d21 97bd
000002c0: c4b7 513d 69da 323d ea77 0fbe 3e98 abbc
000002d0: bf45 ef3a 975f 8a3d 2205 10be 99b9 0bbd
000002e0: 838b bebd 1083 b4bc bf9b 78bd e7c9 5abe
000002f0: 145c f0bb 7561 59bd 9c82 77bd 880b 1cbd
00000300: de6d 193d 9c74 cbbc 763a 89bd 5abc 0f3e
00000310: f7cb f8bd 923b 9cbd 2b99 aa3d e110 1bbd
00000320: 8482 f23d 1c13 5ebc ef26 643c 467f f6bd
00000330: c118 97bc 16e5 1f3d 45e2 da3d e431 63bb
00000340: 223f f03d 1fb2 a33b e993 6f3d 534f acbd
00000350: 86bc c53d 9b8f 7e3d 70e3 23bc b6f2 a8bd
00000360: 4d32 17be e942 47bd 1b12 1d3c 2619 4fbd
00000370: ed18 6e3d e205 a13d 3555 f1bd 390f f1bd
00000380: 0489 9bba a397 303d 692c 7cbd 6b46 343c
00000390: 3448 bb3d 5325 07bd f047 f9bc 0d43 59bd
000003a0: ec45 863d 8b81 35bd 0491 c0bd 93ad 483d
000003b0: 6430 5abd ac3a 53bc be88 6b3d 336d b4bc
000003c0: 099a 9cbc f984 83bc baa7 0dbd 1371 9bbc
000003d0: 5d61 29bd 102a 8bbd cce7 cd3d bcb4 803d
000003e0: f7e7 aa3c ecd0 1dbe b990 e8bc 0495 01bd
000003f0: 86ff 25be a474 85bd 75ec ff3c 41fa 063e

network_body._body_endoder.seq_layers.2.bias f4 [128]
0.015279519 -0.019239858 -0.0033934212 0.028787393 0.020877259 0.019726023 -0.0074761366 -0.00040050794
-0.010335948 0.020906372 -0.01060276 0.014952734 0.0170641 0.024091415 0.024842301 -0.011142769
0.03232901 0.013490648 -0.003088465 -0.0028155448 8.1679915e-05 0.0076821833 0.022733552 0.0065382808
-0.002045501 -0.0035705294 0.021984031 0.012433403 0.009572834 0.017962571 0.012151861 -0.016274892
0.007831924 0.009629466 0.0076501886 0.00020861 -0.0018093064 0.01975958 -0.012699536 0.012185462
-0.020350972 0.012990894 0.036969475 0.016277244 0.0065678027 0.022653794 0.02348912 -0.019923044
0.023287123 0.011174991 -0.005582353 -0.0016739661 0.011235143 0.0028645003 -0.011356853 -0.008368903
-0.013896611 0.0143747125 -0.00038833913 -0.008466991 0.004449375 0.02151511 -0.008093443 0.02614441
0.0062492015 -0.008793696 -0.004274814 -0.010706149 0.0051292083 0.019444354 -0.006746146 0.0056797555
0.019373115 0.021404173 0.009606073 0.0073082643 -0.0048990725 -0.012133258 -0.006082116 -0.011014158
0.0013720967 0.03361378 -0.005856614 -0.004357969 0.03890144 -0.012297616 -0.0078842 0.011721922
0.00822419 -0.005591961 0.02250483 0.016688688 -0.0045157205 0.020211918 0.0051865275 0.01679139
0.010455266 0.013893068 0.01286362 0.013061122 0.008882173 0.004273989 0.009859195 -0.0049077347
0.026751015 0.0043016304 -0.013939881 0.001221612 0.026851865 0.0020675366 0.003080871 -0.0034908268
-0.0013903785 0.009924045 -0.001334305 0.020800756 0.012085949 0.011981341 -0.015314945 0.0068146614
-0.0072374856 -0.004443326 -0.0038941097 -0.01921255 -0.009706295 0.013461559 0.022040334 0.0124153765
00000000: f356 7a3c e89c 9dbc 2964 5ebb 8ad3 eb3c
00000010: c906 ab3c 7898 a13c 61fa f4bb 44fb d1b9
00000020: 1c58 29bc d743 ab3c 33b7 2dbc 50fc 743c
00000030: 03ca 8b3c 5c5b c53c 1582 cb3c 2990 36bc
00000040: 6d6b 043d e107 5d3c d867 4abb 0185 38bb
00000050: 924b ab38 d3ba fb3b b73b ba3c 133f d63b
00000060: d00d 06bb 8bff 69bb db17 b43c 79b5 4b3c
00000070: 60d7 1c3c 3e26 933c 9918 473c ec52 85bc
00000080: 7851 003c e8c4 1d3c 6fae fa3b 52be 5a39
00000090: 4026 edba d8de a13c b711 50bc 88a5 473c
000000a0: 15b7 a6bc c2d7 543c 4e6d 173d db57 853c
000000b0: b936 d73b 7394 b93c 416c c03c a735 a3bc
000000c0: a3c4 be3c 4f17 373c 2cec b6bb fb68 dbba
000000d0: 9b13 383c 57ba 3b3b 1812 3abc b91d 09bc
000000e0: 9cae 63bc ea83 6b3c ff99 cbb9 22b9 0abc
000000f0: 10cc 913b 7540 b03c 5c9a 04bc cd2c d63c
00000100: 1ac6 cc3b 6f13 10bc bd13 8cbb d868 2fbc
00000110: eb12 a83b c449 9f3c c60e ddbb 3e1d ba3b
00000120: 5eb4 9e3c ce57 af3c ca62 1d3c 2a7a ef3b
00000130: 6688 a0bb 93ca 46bc 7d4c c7bb ba74 34bc
00000140: edd7 b33a 9aae 093d d7e8 bfbb 4bcd 8ebb
00000150: 1e57 1f3d f17b 49bc bb2c 01bc 4e0d 403c
00000160: c1be 063c c53c b7bb 0d5c b83c b7b6 883c
00000170: 9cf8 93bb 7793 a53c bff3 a93b 198e 893c
00000180: 904c 2b3c c09f 633c efc1 523c 51fe 553c
00000190: 8986 113c d10c 8c3b 7688 213c 10d1 a0bb
000001a0: f224 db3c b1f4 8c3b 1964 64bc 7f1e a03a
000001b0: 71f8 db3c 827f 073b 70e8 493b 5bc6 64bb
000001c0: 5c3d b6ba 7698 223c d9e3 aeba 5966 aa3c
000001d0: 2504 463c 634d 443c 89eb 7abc 864d df3b
000001e0: 6e28 edbb 5299 91bb 5234 7fbb a363 9dbc
000001f0: 2707 1fbc df8d 5c3c ee8d b43c dd69 4b3c

action_model._continuous_distribution.log_sigma f4 [1, 2]
-0.06441866 -0.030969998
00000000: eeed 83bd cbb4 fdbc

action_model._continuous_distribution.mu.weight f4 [2, 128]
0.0006033646 -0.024273198 -0.012590869 0.03356192 0.032688446 0.024661303 -0.00028403985 -0.0032860914
-0.034152266 0.051221162 -0.028698625 -0.008697114 0.050560705 -0.0020119038 0.033076398 -0.026911791
0.078473024 -0.02398779 0.012742838 -0.0051651355 0.0113088805 0.008531738 0.012450147 0.02250293
-0.0009879398 -0.030303495 0.040397678 -0.022119457 0.005349749 0.030294022 -0.02030669 -0.027749227
0.012907963 0.0039715953 -0.05490523 0.0014453304 -0.013957638 0.020162791 -0.039468918 0.026644561
-0.024508793 0.051890466 0.04122135 0.01565322 0.017841674 0.07091926 0.049497288 -0.022872154
0.033516087 0.010270144 -0.05665164 -0.015700778 0.012757621 0.00040550545 -0.045312453 -0.017107598
-0.01385204 0.017083265 -0.0051159263 -0.025055746 -0.026806934 0.012175604 -0.03815163 0.046781454
0.00910931 -0.027567059 -0.020336645 -0.014255403 0.006382543 0.040384322 -0.0065506175 0.010857162
0.0016162315 0.027440952 0.03162054 -0.022488233 -0.0091609415 -0.016638393 -0.00071531197 -0.027792772
-0.016396668 0.05215116 -0.045056466 -0.0016450568 0.078778334 -0.00014654838 -0.041498363 0.00019576565
0.015389348 -0.01718425 0.03583795 -0.00040178717 -0.015627895 0.04682888 0.0049438025 0.02325228
0.046597086 0.016664455 0.011490173 0.0127478875 0.014420929 -0.0015236009 0.034328446 -0.004585419
0.04433333 0.030818313 -0.0056179734 -0.0061512096 0.021161009 0.011821866 0.0197938 -0.05204794
0.015404396 0.03250526 -0.039490536 0.020070449 0.010666714 0.010634947 -0.033862293 -0.030824807
-0.023987863 -0.03725275 -0.017461976 -0.025419699 -0.041481115 0.020084754 0.024310352 0.013834978
-0.03046601 0.00029337907 0.0053545428 0.031619973 -0.05934104 -0.019639552 -0.0113306865 0.027507592
-0.012381029 0.051723525 0.012298414 -0.023249518 0.052057352 -0.027974844 0.017136047 0.01632385
-0.010161064 -0.044170674 0.004893667 0.066748746 0.0217378 0.03333011 0.045466322 0.018513428
0.056903843 -0.036077883 -0.070329316 -0.01888413 -0.015590806 0.016799316 -0.055245776 5.1801526e-05
-0.0004556653 -0.01701615 -0.06422744 -0.020588882 -0.014429297 -0.044856463 0.015520003 -0.009759096
0.015612316 0.01647082 0.023115627 0.044534896 0.0018076532 0.06718534 -0.014093752 0.018339848
-0.06278097 -0.0060623125 -0.012071407 -0.034892354 0.048574887 -0.04239407 -0.017400036 0.019730711
-0.004913542 -0.046442587 -0.0177248 0.008451876 -0.06746195 0.024716288 -0.030841548 -0.05390812
0.028547948 -0.015215911 0.032287795 -0.010000259 -0.025703648 0.0044823866 0.022004437 0.048642628
-0.032859273 0.001605475 0.016903352 -0.04360959 0.016319009 0.011403202 0.014594882 -0.006661413
-0.026445564 0.025538675 0.007867142 0.006663192 0.010652989 -0.0069782753 -0.010058943 -0.04289763
-0.0011850921 -0.0019493124 -0.014968089 -0.037771188 0.0102174925 0.03409893 -0.009741235 -0.029971378
0.023002967 0.012615401 -0.014416371 -0.020113524 4.629698e-05 -0.025815796 -0.00700515 -0.010672916
0.019134084 0.063871875 0.005251334 -0.009914811 0.020730788 0.012064852 0.021859264 -0.036630344
0.043801833 0.046276033 -0.017910779 -0.05801316 -0.015182208 -0.018508429 -0.006287963 -0.028371373
-0.007213577 -0.02165206 0.025703218 0.013344371 -0.027932264 -0.038132083 -0.04763239 -0.0181369
00000000: 1d2b 1e3a 96d8 c6bc ef49 4ebc 3978 093d
00000010: 52e4 053d 8006 ca3c 2feb 94b9 775b 57bb
00000020: 3fe3 0bbd 48cd 513d 6119 ebbc 577e 0ebc
00000030: be18 4f3d 25da 03bb 1e7b 073d 1e76 dcbc
00000040: 77b6 a03d 0b82 c4bc 56c7 503c 4c40 a9bb
00000050: e248 393c b4c8 0b3c b4fb 4b3c 1158 b83c
00000060: c27d 81ba 093f f8bc 0978 253d dd33 b5bc
00000070: f24c af3b 2b2b f83c 375a a6bc 5952 e3bc
00000080: ec7b 533c 2824 823b 4ee4 60bd 3e71 bd3a
00000090: 94ae 64bc 702c a53c 29aa 21bd b245 da3c
000000a0: aac6 c8bc 198b 543d b8d7 283d 2e3b 803c
000000b0: b428 923c 1e3e 913d abbd 4a3d 625e bbbc
000000c0: 2a48 093d 1b44 283c 8d0b 68bd eb9e 80bc
000000d0: 5705 513c 059a d439 8d99 39bd 3c25 8cbc
000000e0: abf3 62bc 34f2 8b3c 80a3 a7bb b541 cdbc
000000f0: 379a dbbc 2f7c 473c e244 1cbd e99d 3f3d
00000100: 373f 153c 50d4 e1bc 0999 a6bc 7e8f 69bc
00000110: a724 d13b 086a 253d 90a6 d6bb 3de2 313c
00000120: bbd7 d33a d9cb e03c 8a84 013d 3e39 b8bc
00000130: c617 16bc 3d4d 88bc c683 3bba abad e3bc
00000140: 4e52 86bc 749c 553d 218d 38bd f29e d7ba
00000150: 8956 a13d c8aa 19b9 30fa 29bd 7146 4d39
00000160: 9b23 7c3c fcc5 8cbc d0ca 123d f6a6 d2b9
00000170: 1206 80bc a4cf 3f3d 9fff a13b 917b be3c
00000180: 96dc 3e3d e583 883c 4741 3c3c 84dc 503c
00000190: c345 6c3c 90b3 c7ba fc9b 0c3d 4841 96bb
000001a0: de96 353d b076 fc3c fa16 b8bb 1690 c9bb
000001b0: da59 ad3c 80b0 413c 9b26 a23c 3930 55bd
000001c0: b862 7c3c 3c24 053d d4c0 21bd c86a a43c
000001d0: 71c3 2e3c 333e 2e3c 30b3 0abd 4e84 fcbc
000001e0: 3282 c4bc 5796 18bd 6b0c 8fbc f93c d0bc
000001f0: 1ae8 29bd c888 a43c 8126 c73c 1bac 623c
00000200: db93 f9bc acd0 9939 2975 af3b f283 013d
00000210: 970f 73bd 20e3 a0bc 58a4 39bc 9a57 e13c
00000220: cdd9 4abc 0cdc 533d 497f 493c c675 bebc
00000230: 173a 553d 802b e5bc e560 8c3c 98b9 853c
00000240: 977a 26bc 4fec 34bd 0e5b a03b 91b3 883d
00000250: 7913 b23c 2785 083d e53a 3a3d 79a9 973c
00000260: 0114 693d 67c6 13bd d108 90bd e4b2 9abc
00000270: 9470 7fbc b89e 893c 6549 62bd 7745 5938
00000280: 5ce6 eeb9 7465 8bbc ad89 83bd 04aa a8bc
00000290: dc68 6cbc 69bb 37bd 9c47 7e3c 9ee4 1fbc
000002a0: cdca 7f3c d0ed 863c fc5c bd3c 396a 363d
000002b0: c7ee ec3a 7898 893d 7be9 66bc 733d 963c
000002c0: 4f93 80bd 5da6 c6bb 27c7 45bc 49eb 0ebd
000002d0: 76f6 463d 68a5 2dbd 858a 8ebc 4da2 a13c
000002e0: c701 a1bb 953a 3ebd 9a33 91bc bd79 0a3c
000002f0: 7e29 8abd d079 ca3c 6aa7 fcbc c3ce 5cbd
00000300: 63dd e93c 284c 79bc 3540 043d 20d8 23bc
00000310: 7590 d2bc fce0 923b a642 b43c 7e3d 473d
00000320: 7297 06bd cd6e d23a e678 8a3c f89f 32bd
00000330: 71af 853c 7fd4 3a3c 5f1f 6f3c fb47 dabb
00000340: 5ea4 d8bc 7c36 d13c 2fe5 003c e856 da3b
00000350: e089 2e3c 04aa e4bb 44ce 24bc 6db5 2fbd
00000360: 1855 9bba 1280 ffba b73c 75bc f6b5 1abd
00000370: 4567 273c 52ab 0b3d b399 1fbc 8986 f5bc
00000380: b870 bc3c d4b0 4e3c a432 6cbc 1ec5 a4bc
00000390: 012f 4238 a67b d3bc 758b e5bb 74dd 2ebc
000003a0: 15bf 9c3c 42cf 823d 6213 ac3b bb71 22bc
000003b0: 9dd3 a93c a8ab 453c 3312 b33c b309 16bd
000003c0: 8d69 333d f08b 3d3d a0b9 92bc 359f 6dbd
000003d0: ccbe 78bc fd9e 97bc 420b cebb 156b e8bc
000003e0: df5f ecbb a95f b1bc 8e8f d23c 59a2 5a3c
000003f0: 34d2 e4bc 6330 1cbd 2e1a 43bd d693 94bc

action_model._continuous_distribution.mu.bias f4 [2]
0.014562887 -0.0052745724
00000000: 2d99 6e3c 52d6 acbb

exp_avg f4 [128, 106]
5.1853156e-05 6.3816464e-05 -1.2061822e-06 -8.512376e-06 4.1565207e-05 8.202455e-05 -1.2084074e-06 -5.7081174e-06
-2.4755283e-05 0.00014538196 -1.2125768e-06 -2.50022e-07 2.4577843e-05 9.6637814e-05 -1.2179344e-06 -1.850503e-06
-1.178674e-05 0.00013241339 -1.2128063e-06 7.0056444e-06 -1.6789454e-05 0.00013802582 -1.2097328e-06 1.1178358e-06
5.634487e-05 6.331953e-05 -1.230897e-06 7.945721e-06 -4.5182882e-05 0.00016344302 -1.2096941e-06 3.977307e-06
3.7155147e-05 7.67381e-05 -1.232097e-06 6.3920484e-06 -6.307554e-05 0.00017898298 -1.2093824e-06 8.524472e-06
7.1475435e-05 4.2407966e-05 -1.2150944e-06 4.353906e-06 -5.6835932e-05 0.00017421893 -1.2106907e-06 1.33899175e-05
0.00011204228 1.0409346e-06 -1.1865002e-06 2.198832e-06 -6.014132e-05 0.00018093755 -1.2095297e-06 1.9906453e-05
0.00014372109 -3.0488049e-05 -1.1842216e-06 -1.1373439e-06 -5.248157e-05 0.00017091357 -1.207863e-06 2.6531616e-05
0.00014955334 -3.6630332e-05 -1.2203722e-06 -4.513579e-06 -8.6853746e-05 0.00020473909 -1.2091613e-06 3.5577712e-05
0.00013152536 -1.9332265e-05 -1.1937317e-06 -7.391894e-06 -8.717901e-05 0.0001987909 -1.1668204e-06 4.807215e-05
0.00013748535 -1.734407e-05 -1.2024587e-06 -1.119256e-05 -6.643808e-05 0.0001562243 -1.1675295e-06 6.0475206e-05
0.00014515284 -3.6349116e-05 -1.2023802e-06 -1.40873735e-05 -1.4756153e-05 9.648221e-05 -1.1835456e-06 6.6583234e-05
0.00014111708 -2.274365e-05 -1.1656211e-06 -2.383724e-05 6.338186e-05 -5.790688e-05 0.004984541 -9.097994e-06
-7.5836697e-06 4.4034405e-05 -6.2625775e-05 0.00010012232 7.9788805e-07 3.220186e-05 -6.177487e-05 0.00011074246
7.989511e-07 2.9487122e-05 -3.6002373e-05 6.270102e-05 8.082519e-07 2.2322374e-05 -8.653401e-05 0.00013122936
7.8726396e-07 2.9418858e-05 -2.1689455e-05 4.838658e-05 8.101083e-07 1.4024389e-05 -2.828414e-05 7.300804e-05
7.853458e-07 2.6517655e-05 -3.448122e-05 6.53487e-05 7.915776e-07 9.233227e-06 -3.0227371e-05 6.1875624e-05
7.890301e-07 2.450924e-05 5.163605e-05 -1.4337893e-05 7.891461e-07 7.6608485e-06 -3.2255848e-05 6.7072695e-05
7.8582326e-07 2.4535067e-05 7.691532e-05 -3.9601073e-05 7.7666033e-07 5.114273e-06 -1.4468055e-05 4.8227812e-05
7.8869346e-07 2.2594273e-05 2.9381885e-05 9.973666e-06 7.98502e-07 5.0906397e-06 -6.079516e-05 9.6950534e-05
7.868363e-07 2.2718255e-05 1.0588732e-05 3.0919386e-05 7.899484e-07 7.568671e-06 -8.882431e-05 0.00012768204
7.8323035e-07 1.9570476e-05 2.5921985e-05 1.7201834e-05 7.6330633e-07 1.1410511e-05 -4.702648e-05 8.918208e-05
7.8710866e-07 2.3165096e-05 6.594657e-05 -1.9787825e-05 7.6859885e-07 1.437069e-05 -7.7227105e-06 7.223246e-05
7.873335e-07 2.207633e-05 5.5145334e-05 -1.1239699e-05 7.33608e-07 1.5940475e-05 -1.5825333e-05 8.281106e-05
7.8595053e-07 1.8775014e-05 2.2792983e-05 1.5660526e-05 7.490317e-07 1.8998182e-05 -7.183246e-05 0.00016911913
7.746525e-07 2.5630126e-05 6.985636e-05 -2.7224207e-05 7.1928025e-07 2.4504789e-05 1.2619773e-06 5.1932453e-05
4.4266526e-05 1.655182e-05 -1.7656133e-05 -1.6253985e-05 0.00010032052 0.00016465024 -3.0037693e-06 -6.2145635e-05
7.435349e-05 0.00022094687 -3.00829e-06 -5.5355136e-05 -0.00012098322 0.0003979852 -3.0822841e-06 -3.5839254e-05
-1.0439831e-05 0.00029591128 -3.090212e-06 -4.3919892e-05 -8.1059465e-05 0.00035806332 -3.084767e-06 -1.257222e-05
-0.000113334616 0.00039882708 -3.0578751e-06 -3.705222e-05 0.00014843726 0.00012742473 -3.2043274e-06 -1.0403809e-05
-0.0002617615 0.00053241727 -3.0493745e-06 -2.7721031e-05 0.00012749633 0.00013464745 -3.2201947e-06 -1.52012035e-05
-0.0003458528 0.0006119225 -3.052797e-06 -1.1283714e-05 0.00023897387 2.3148003e-05 -3.1753293e-06 -2.123845e-05
00000000: e77c 5938 34d5 8538 1be4 a1b5 60d0 0eb7
00000010: 4d56 2e38 9804 ac38 9030 a2b5 5b88 bfb6
00000020: 91a9 cfb7 ac71 1839 d2bf a2b5 c33a 86b4
00000030: 842c ce37 08aa ca38 e877 a3b5 cd5e f8b5
00000040: aabf 45b7 73d8 0a39 b5c7 a2b5 0712 eb36
00000050: 14d7 8cb7 06bb 1039 1a5e a2b5 8c08 9635
00000060: d853 6c38 6aca 8438 4d35 a5b5 9d4e 0537
00000070: c082 3db8 e761 2b39 c65c a2b5 cf74 8536
00000080: 09d7 1b38 74ee a038 885e a5b5 477b d636
00000090: 6c47 84b8 61ad 3b39 1052 a2b5 5404 0f37
000000a0: 15e5 9538 35df 3138 5316 a3b5 c517 9236
000000b0: 1e63 6eb8 8aae 3639 047f a2b5 42a5 6037
000000c0: 3ef8 ea38 3eb6 8b35 d63f 9fb5 a58f 1336
000000d0: 4040 7cb8 0eba 3d39 2057 a2b5 c8fc a637
000000e0: d6b3 1639 96c0 ffb7 8bf1 9eb5 d7a6 98b5
000000f0: a81f 5cb8 4337 3339 db1d a2b5 3690 de37
00000100: 6bd1 1c39 85a3 19b8 abcb a3b5 5973 97b6
00000110: 4025 b6b8 3baf 5639 774a a2b5 4739 1538
00000120: 12ea 0939 b92b a2b7 4f38 a0b5 e307 f8b6
00000130: e0d3 b6b8 8772 5039 a59b 9cb5 14a1 4938
00000140: f129 1039 1b7e 91b7 2b64 a1b5 aec7 3bb7
00000150: ac54 8bb8 24d0 2339 02b4 9cb5 c2a6 7d38
00000160: 2b34 1839 9175 18b8 7861 a1b5 cf58 6cb7
00000170: 3291 77b7 7e56 ca38 51da 9eb5 9aa2 8b38
00000180: d4f8 1339 9ec9 beb7 7072 9cb5 15f6 c7b7
00000190: e1eb 8438 0ae1 72b8 5c55 a33b 96a3 18b7
000001a0: 3a77 feb6 95b1 3838 f555 83b8 c3f8 d138
000001b0: 732e 5635 7c10 0738 218d 81b8 683e e838
000001c0: 8077 5635 1d5b f737 4101 17b8 5b7e 8338
000001d0: a6f6 5835 ef40 bb37 9879 b5b8 9d9a 0939
000001e0: 5e54 5335 84c8 f637 c0f1 b5b7 b2f2 4a38
000001f0: 3876 5935 4b4a 6b37 ba43 edb7 e51b 9938
00000200: 8dd0 5235 3b72 de37 ee9f 10b8 d10b 8938
00000210: cc7c 5435 68e8 1a37 c990 fdb7 39c3 8138
00000220: bccd 5335 3199 cd37 c993 5838 c88c 70b7
00000230: b5d5 5335 1887 0037 744a 07b8 61a9 8c38
00000240: 5df1 5235 a8d0 cd37 994d a138 5419 26b8
00000250: b17b 5035 459b ab36 d3bb 72b7 3848 4a38
00000260: 9ab6 5335 d588 bd37 1e79 f637 9254 2737
00000270: a458 5635 43d0 aa36 4efe 7eb8 ec51 cb38
00000280: fb36 5335 1593 be37 42a6 3137 70af 0138
00000290: d70c 5435 64f6 fd36 3047 bab8 63e2 0539
000002a0: 2e3f 5235 472b a437 0a73 d937 a84c 9037
000002b0: 03e6 4c35 c66f 3f37 4c3e 45b8 4407 bb38
000002c0: b249 5335 aa52 c237 cc4c 8a38 08fe a5b7
000002d0: b651 4e35 a519 7137 ca90 01b7 827b 9738
000002e0: 2559 5335 8f30 b937 da4b 6738 2492 3cb7
000002f0: 28ed 4435 e9b7 8537 a5c0 84b7 d9aa ad38
00000300: 1cfa 5235 097f 9d37 8f33 bf37 b95e 8337
00000310: 1111 4935 495e 9f37 c2a4 96b8 9255 3139
00000320: b7f1 4f35 4700 d737 d97f 9238 8a5f e4b7
00000330: 9014 4135 a28f cd37 3661 a935 0cd2 5938
00000340: d2aa 3938 c3d8 8a37 421c 94b7 2b59 88b7
00000350: 2b63 d238 f6a5 2c39 5d94 49b6 2f54 82b8
00000360: 3aee 9b38 f9ad 6739 07e2 49b6 202d 68b8
00000370: 5fb8 fdb8 aba8 d039 3dd9 4eb6 1b52 16b8
00000380: bc26 2fb7 8a24 9b39 7061 4fb6 a036 38b8
00000390: 78fe a9b8 72ba bb39 e503 4fb6 46ed 52b7
000003a0: 0fae edb8 aa19 d139 e535 4db6 8568 1bb8
000003b0: d3a5 1b39 519d 0539 ed09 57b6 058c 2eb7
000003c0: 093d 89b9 eb91 0b3a dba3 4cb6 768a e8b7
000003d0: 89b0 0539 2630 0d39 861a 58b6 ac08 7fb7
000003e0: 9453 b5b9 6d69 203a a7de 4cb6 2f4f 3db7
000003f0: 0f95 7a39 f52d c237 be17 55b6 3929 b2b7

exp_avg_sq f4 [128, 106]
2.8091904e-09 1.1518345e-07 3.877177e-09 1.27618955e-08 2.0647446e-09 1.1578388e-07 3.8836987e-09 1.2888528e-08
8.687091e-09 1.0849388e-07 3.895946e-09 1.1869348e-08 2.658783e-09 1.14952265e-07 3.906092e-09 1.3162208e-08
1.2048526e-08 1.0192043e-07 3.8908485e-09 1.0971114e-08 3.0211005e-09 1.149896e-07 3.8790926e-09 1.3595407e-08
1.6274415e-08 9.122457e-08 3.9265635e-09 1.0256104e-08 3.5530847e-09 1.14494874e-07 3.871169e-09 1.4302036e-08
2.5158537e-08 8.055382e-08 3.9154644e-09 9.495586e-09 4.1301904e-09 1.1316897e-07 3.8719388e-09 1.5396493e-08
3.336534e-08 7.2726195e-08 3.919079e-09 8.862566e-09 5.193281e-09 1.1098252e-07 3.891525e-09 1.7038362e-08
4.0538982e-08 6.373336e-08 3.9322816e-09 8.366917e-09 8.052047e-09 1.0360571e-07 3.883871e-09 1.9125215e-08
4.7265704e-08 6.060693e-08 3.9266324e-09 8.0106375e-09 1.47016825e-08 9.106499e-08 3.900247e-09 2.1417794e-08
5.2392057e-08 5.5487273e-08 3.9841477e-09 7.848392e-09 3.0562394e-08 7.4869455e-08 3.895194e-09 2.312749e-08
5.717012e-08 5.182627e-08 3.994023e-09 7.792122e-09 4.6020403e-08 5.9077102e-08 3.917749e-09 2.4146157e-08
6.207306e-08 4.8229715e-08 4.003793e-09 7.8539095e-09 6.051058e-08 4.6703207e-08 3.9097903e-09 2.5190108e-08
6.705849e-08 4.454246e-08 4.2197166e-09 8.127813e-09 7.551322e-08 3.4699827e-08 3.9466e-09 2.6408605e-08
7.029158e-08 4.078012e-08 4.2362522e-09 8.27744e-09 1.8215614e-08 7.133198e-06 9.376153e-05 6.702725e-09
1.8492662e-09 1.1549223e-07 5.4599107e-09 1.7168026e-07 1.859371e-09 1.44729855e-08 3.849499e-09 1.7512713e-07
1.8660398e-09 1.4769487e-08 1.719934e-08 1.5908572e-07 1.8485053e-09 1.2542058e-08 4.5627893e-09 1.7385132e-07
1.8622993e-09 1.5089661e-08 2.5129342e-08 1.5073586e-07 1.8755018e-09 1.0998079e-08 5.0269326e-09 1.7047567e-07
1.8295432e-09 1.5698314e-08 3.452239e-08 1.4452114e-07 1.9132251e-09 9.8995185e-09 5.880017e-09 1.6903662e-07
1.845572e-09 1.6652594e-08 4.380929e-08 1.3749575e-07 1.9209423e-09 9.036444e-09 7.3617072e-09 1.6767018e-07
1.8270582e-09 1.8073044e-08 5.2546284e-08 1.2628729e-07 1.933368e-09 8.328368e-09 9.6539345e-09 1.6322036e-07
1.8240864e-09 2.0111568e-08 5.986856e-08 1.1624082e-07 1.9248565e-09 7.805687e-09 1.4787055e-08 1.5567868e-07
1.8091925e-09 2.2818574e-08 6.695949e-08 1.09920215e-07 1.922462e-09 7.3319963e-09 2.7120496e-08 1.4104798e-07
1.8142337e-09 2.5559311e-08 7.273024e-08 1.0190261e-07 2.2259279e-09 7.508998e-09 4.482746e-08 1.2610603e-07
1.8005499e-09 2.7420462e-08 7.8382e-08 9.2286555e-08 2.1652504e-09 7.579816e-09 6.0976035e-08 1.1105686e-07
1.8120436e-09 2.8988476e-08 8.710223e-08 8.3909875e-08 2.2976163e-09 7.850691e-09 7.9329794e-08 8.937885e-08
1.773387e-09 3.0657855e-08 9.632669e-08 7.550948e-08 2.3799265e-09 8.116047e-09 9.960659e-08 6.963978e-08
1.840888e-09 3.3079754e-08 1.0366577e-07 6.823995e-08 2.3743445e-09 8.38866e-09 2.0146725e-08 2.1094618e-06
0.00012499595 1.0328697e-08 1.656303e-09 1.711684e-07 2.7420041e-08 1.0445119e-06 1.2382853e-08 1.0097213e-07
1.7139838e-08 1.0607749e-06 1.2163402e-08 1.02480776e-07 9.8107996e-08 9.667059e-07 1.2785397e-08 9.093093e-08
2.0512315e-08 1.0537024e-06 1.2066099e-08 1.05744405e-07 1.3674833e-07 8.8067543e-07 1.2493921e-08 8.074464e-08
2.4886742e-08 1.0553036e-06 1.20939765e-08 1.0985907e-07 1.8261389e-07 7.8224275e-07 1.3027532e-08 7.2179695e-08
3.233052e-08 1.0549738e-06 1.208638e-08 1.1708299e-07 2.6076756e-07 6.8185705e-07 1.2708605e-08 6.382206e-08
4.1340236e-08 1.0322066e-06 1.19625545e-08 1.2769573e-07 3.2740104e-07 6.076052e-07 1.2972087e-08 5.730257e-08
00000000: cd0b 4131 c55a f733 0238 8531 693f 5b32
00000010: 5fe3 0d31 dca4 f833 6071 8531 586c 5d32
00000020: 3b3e 1532 24fd e833 1add 8531 f2e9 4b32
00000030: ceb5 3631 addb f633 5936 8631 0120 6232
00000040: fafd 4e32 59df da33 44b0 8531 787b 3c32
00000050: c39b 4f31 33f0 f633 dc48 8531 3b91 6932
00000060: d1cb 8b32 3de7 c333 6bea 8631 d332 3032
00000070: 872a 7431 39e0 f533 2a03 8531 05b5 7532
00000080: 351c d832 eefc ac33 ca88 8631 0722 2332
00000090: 8ae9 8d31 4d07 f333 ef09 8531 3f41 8432
000000a0: 944d 0f33 a62d 9c33 95a8 8631 fa41 1832
000000b0: 9570 b231 4955 ee33 37b6 8531 c15b 9232
000000c0: 151d 2e33 c9dd 8833 b71c 8731 17be 0f32
000000d0: 4755 0a32 d77d de33 e472 8531 cb48 a432
000000e0: 3101 4b33 0327 8233 06eb 8631 289f 0932
000000f0: af92 7c32 828f c333 ef02 8631 3afa b732
00000100: ad05 6133 e750 6e33 efe4 8831 98d5 0632
00000110: b543 0333 ebc7 a033 7dd6 8531 e3a9 c632
00000120: 368b 7533 9697 5e33 cc3b 8931 1dde 0532
00000130: f8a7 4533 f6bb 7d33 e29c 8631 f669 cf32
00000140: 074d 8533 2225 4f33 bc91 8931 dced 0632
00000150: 0bf2 8133 b896 4833 e156 8631 a261 d832
00000160: cb01 9033 f44e 3f33 05fd 9031 80a2 0b32
00000170: d529 a233 dd08 1533 a99a 8731 23d9 e232
00000180: 34f3 9633 3726 2f33 788e 9131 9134 0e32
00000190: 8f78 9c32 b459 ef36 d7a1 c438 cb4d e631
000001a0: 4529 fe30 8604 f833 e299 bb31 1c57 3834
000001b0: cd8c ff30 dda4 7832 8d44 8431 940a 3c34
000001c0: b83b 0031 e4bc 7d32 c0bd 9332 26d1 2a34
000001d0: 800e fe30 8e78 5732 b8c6 9c31 e3ab 3a34
000001e0: d5f3 ff30 849e 8132 02dc d732 f5d9 2134
000001f0: 2de2 0031 10f2 3c32 5eb9 ac31 ff0b 3734
00000200: 5473 fb30 f5d8 8632 c545 1433 ab2d 1b34
00000210: d079 0331 8b12 2a32 2d09 ca31 6f80 3534
00000220: 4ba7 fd30 710b 8f32 d328 3c33 8ba2 1334
00000230: 9301 0431 b33e 1b32 43f2 fc31 d408 3434
00000240: e51b fb30 0b3f 9b32 40af 6133 9699 0734
00000250: 2bdc 0431 8d14 0f32 74da 2532 ac41 2f34
00000260: 56b3 fa30 cec1 ac32 1791 8033 11a0 f933
00000270: 6f46 0431 c619 0632 280a 7e32 a128 2734
00000280: 4da7 f830 9302 c432 5ecb 8f33 470d ec33
00000290: 4f1c 0431 ecec fb31 9af6 e832 f972 1734
000002a0: ac58 f930 858d db32 df2f 9c33 8dd5 da33
000002b0: f0f6 1831 ec00 0132 5088 4033 c367 0734
000002c0: 3877 f730 3c8a eb32 f652 a833 122f c633
000002d0: 7dcb 1431 6238 0232 eef1 8233 287e ee33
000002e0: 9e0b f930 5502 f932 f50c bb33 f131 b433
000002f0: 18e4 1d31 b4df 0632 045c aa33 8bf0 bf33
00000300: 82bb f330 abac 0333 28dc ce33 c727 a233
00000310: 1c8c 2331 c16e 0b32 4de7 d533 e08c 9533
00000320: 7d02 fd30 9313 0e33 dc9e de33 4f8b 9233
00000330: e929 2331 b81d 1032 1e0f ad32 4790 0d36
00000340: 5811 0339 1772 3132 fba3 e330 69ca 3734
00000350: 4f89 eb32 2831 8c35 5dbc 5432 04d6 d833
00000360: e73a 9332 f35f 8e35 35f7 5032 6713 dc33
00000370: 71af d233 c3bf 8135 c5a6 5b32 cf45 c333
00000380: 0f33 b032 f06c 8d35 444b 4f32 9a15 e333
00000390: 18d5 1234 8e67 6c35 d8a4 5632 d665 ad33
000003a0: 86c6 d532 f5a3 8d35 dfc5 4f32 aaeb eb33
000003b0: 8614 4434 50fb 5135 b1cf 5f32 3501 9b33
000003c0: c8db 0a33 a098 8d35 76a4 4f32 0e6f fb33
000003d0: 9fff 8b34 dc08 3735 0955 5a32 8c0e 8933
000003e0: 128e 3133 598a 8a35 df83 4d32 bc1c 0934
000003f0: a8c5 af34 501a 2335 d8db 5e32 d81c 7633

exp_avg f4 [128]
0.00011702696 6.1012062e-05 0.00027805803 0.00023008302 2.2151464e-06 -0.00025135087 -0.00024223627 1.3678314e-05
-2.780522e-05 -8.990886e-05 1.1284999e-06 0.00014427966 4.827688e-05 -3.2045078e-05 -5.6950837e-05 -9.663055e-05
-3.5408057e-06 -0.000111444984 0.00013319787 -4.5365937e-06 0.0002902408 0.00021278451 5.201739e-09 -0.00012513266
0.00029536386 -0.00028011476 9.033144e-05 9.816003e-05 0.000309267 3.330168e-05 0.00038478596 -0.00015542998
2.7115597e-05 -1.9005766e-06 -3.870894e-05 0.00011899273 -0.00016085834 -0.00044500126 -0.00045098033 0.000517034
0.00013911171 0.00035119595 0.00031638276 0.00020631046 -0.00014081686 -0.00025506222 0.00020290958 -0.00043305114
3.6527847e-05 -3.4625095e-06 -0.00075846876 1.5976041e-06 -0.00019065976 -0.00016266899 -4.702995e-06 0.00012288263
-0.00010769746 -0.0001429148 -6.835296e-05 0.0001222396 -0.00023005047 -0.00016826163 -2.1139173e-05 -0.00044436922
0.0001728147 -5.3288863e-05 -0.00042331047 -0.00060426455 -0.00052888755 -1.1010815e-05 -0.0005070419 -0.000383707
-3.5731915e-05 3.300214e-05 0.00011049721 6.601091e-07 -3.0401034e-05 -0.0002107297 9.8723955e-05 1.0012227e-05
-0.00035942555 -7.791554e-06 -5.1208546e-05 0.0003520533 4.601256e-05 0.00010389206 0.00013349165 -0.00028175945
7.134033e-05 8.87175e-05 -8.9433364e-05 8.651642e-05 0.00010082038 -1.2072026e-06 -7.310253e-05 0.00024698125
0.00022071498 -6.8607083e-06 -9.159081e-06 0.00010202546 -5.5793986e-05 7.388334e-05 -3.4346517e-06 -2.2874345e-05
-1.3874962e-05 5.54988e-05 9.7008095e-05 -1.1398629e-06 -0.00013704144 -9.076756e-06 3.3301614e-05 0.00021909577
-6.718896e-05 0.00032449243 -3.5378747e-05 -8.275286e-06 6.0331964e-05 5.6370296e-05 1.6227503e-05 -8.403782e-05
3.7121292e-05 -3.673309e-05 -0.00018407614 -0.00012783582 -4.4160017e-05 9.490683e-06 -7.444299e-06 -4.08269e-06
00000000: 5f6c f538 34e7 7f38 51c8 9139 7142 7139
00000010: eda7 1436 bec7 83b9 ce00 7eb9 e97b 6537
00000020: 413f e9b7 748d bcb8 f676 9735 c749 1739
00000030: e87c 4a38 2468 06b8 7fde 6eb8 22a6 cab8
00000040: 949e 6db6 92b7 e9b8 08ab 0b39 0b39 98b6
00000050: 762b 9839 e81e 5f39 fbba b231 0b36 03b9
00000060: 11db 9a39 5edc 92b9 5370 bd38 44db cd38
00000070: 1d25 a239 68ad 0b38 19bd c939 ebfa 22b9
00000080: 4d76 e337 5117 ffb5 685b 22b8 bc8b f938
00000090: 15ac 28b9 0f4f e9b9 8e71 ecb9 9089 073a
000000a0: 84de 1139 b920 b839 2de0 a539 0b55 5839
000000b0: 3da8 13b9 dfb9 85b9 20c4 5439 240b e3b9
000000c0: 7a35 1938 765d 68b6 fad3 46ba 426d d635
000000d0: d7eb 47b9 2092 2ab9 6bce 9db6 0eda 0039
000000e0: a2db e1b8 66db 15b9 b758 8fb8 712d 0039
000000f0: b439 71b9 636f 30b9 0754 b1b7 3afa e8b9
00000100: 9835 3539 7b82 5fb8 c5ef ddb9 8267 1eba
00000110: 0ba5 0aba 17bb 38b7 02eb 04ba 482c c9b9
00000120: dade 15b8 c76b 0a38 bdba e738 5a32 3135
00000130: b905 ffb7 53f7 5cb9 050a cf38 30fa 2737
00000140: 4871 bcb9 78b8 02b7 c2c8 56b8 cb93 b839
00000150: 9cfd 4038 a0e0 d938 e4f9 0b39 1db9 93b9
00000160: 8c9c 9538 d80d ba38 2c8e bbb8 2670 b538
00000170: 886f d338 2a07 a2b5 9f4e 99b8 437d 8139
00000180: ba6f 6739 0935 e6b6 f4a9 19b7 80f6 d538
00000190: 5604 6ab8 d1f1 9a38 de7e 66b6 48e2 bfb7
000001a0: 82c8 68b7 62c7 6838 d370 cb38 64fd 98b5
000001b0: c8b2 0fb9 5f48 18b7 56ad 0b38 13bd 6539
000001c0: cce7 8cb8 a320 aa39 a463 14b8 15d6 0ab7
000001d0: f40c 7d38 256f 6c38 4c20 8837 763d b0b8
000001e0: afb2 1b38 db11 1ab8 9004 41b9 ab0b 06b9
000001f0: 7538 39b8 2c3a 1f37 0bca f9b6 0afe 88b6

exp_avg_sq f4 [128]
1.2693988e-07 1.8323071e-07 1.1043745e-06 6.7041816e-07 7.1056756e-09 7.476174e-08 1.1672522e-06 1.053264e-08
4.6519304e-09 1.43241765e-08 5.29537e-09 5.852162e-07 4.072831e-08 1.2150496e-06 9.216604e-07 2.4464386e-08
4.1172536e-09 2.3397634e-08 2.2203696e-07 9.756201e-10 2.815949e-07 3.6759278e-07 1.737166e-09 4.4415336e-07
8.1677695e-07 1.1700029e-06 1.3359678e-08 1.0936723e-07 1.048191e-06 3.7009403e-07 1.4212455e-06 4.99776e-08
5.871123e-07 1.6465045e-09 2.2665667e-07 8.971387e-08 8.522735e-08 4.0096958e-07 1.6352396e-06 1.2579333e-06
3.847365e-08 1.399693e-06 2.3689805e-07 9.552942e-07 1.2113146e-07 4.6328043e-07 4.9061083e-07 1.4453993e-06
9.888881e-09 3.1538985e-09 2.458846e-06 2.7706843e-09 5.768437e-07 1.5099663e-07 3.9995776e-09 5.1471876e-08
1.1957827e-07 3.0195287e-07 7.227498e-08 2.653702e-07 9.692536e-07 2.316179e-07 3.552216e-07 1.0965273e-06
3.942901e-07 3.186218e-07 1.1664805e-06 1.7198998e-06 1.1927419e-06 7.051145e-08 3.5641963e-06 8.9155e-07
1.1398938e-09 6.2395955e-09 9.9556345e-08 1.9400173e-09 6.6820056e-09 4.469055e-07 6.5539285e-07 6.3737513e-09
2.0513227e-07 7.3454953e-09 3.2620056e-09 1.6977718e-06 1.8778054e-07 7.12019e-08 9.0668834e-08 1.461657e-06
7.5876216e-07 1.1548271e-07 1.3691134e-07 5.1261e-08 5.613104e-08 3.356035e-09 2.3543205e-07 5.1838805e-07
4.4317406e-07 1.5293632e-09 6.7491975e-08 2.4879932e-07 7.42202e-08 7.5633594e-08 1.5327814e-06 3.405415e-09
9.382628e-10 5.5941405e-07 1.3798418e-08 2.0209623e-09 1.1340198e-08 1.853085e-08 1.008439e-06 8.046239e-07
4.45766e-09 1.4046637e-06 3.106776e-09 5.2816054e-09 2.3408563e-07 4.7351467e-08 9.868125e-09 4.635667e-07
2.2462024e-07 2.6467186e-09 1.3534009e-07 1.0560614e-06 1.1992837e-08 4.300183e-09 2.4590892e-09 3.7657553e-09
00000000: f84c 0834 13be 4434 053a 9435 c9f6 3335
00000010: 2f26 f431 b48c a033 7baa 9c35 0af3 3432
00000020: d0d6 9f31 6516 7632 91f2 b531 c017 1d35
00000030: 40ed 2e33 c914 a335 0568 7735 c125 d232
00000040: bf77 8d31 f1fb c832 0e69 6e34 9516 8630
00000050: 1c2e 9734 9159 c534 18c1 ee30 f973 ee34
00000060: 7c40 5b35 fe08 9d35 7c84 6532 45dd ea33
00000070: 92af 8c35 56b1 c634 a0c1 be35 f4a6 5633
00000080: 0d9a 1d35 3a4b e230 e95e 7334 b9a8 c033
00000090: 3b06 b733 d744 d734 687a db35 42d6 a835
000000a0: 3a3e 2533 16dd bb35 0a5e 7e34 a937 8035
000000b0: 5d10 0234 c7b8 f834 85b2 0335 8bff c135
000000c0: c2e3 2932 f8bb 5831 a702 2536 6566 3e31
000000d0: 66d8 1a35 a321 2234 a86c 8931 ed11 5d33
000000e0: 6d65 0034 161c a234 9735 9b33 3478 8e34
000000f0: 4d17 8235 a5b2 7834 49b5 be34 642c 9335
00000100: d2ae d334 0c0f ab34 f78f 9c35 4fd7 e635
00000110: 4d16 a035 146c 9733 6d30 6f36 d952 6f35
00000120: 73aa 9c30 1064 d631 aecb d533 2551 0531
00000130: 8b97 e531 39ee ef34 41ee 2f35 1c00 db31
00000140: 5442 5c34 a963 fc31 cf29 6031 ffde e335
00000150: b9a0 4934 a9e7 9833 b8b5 c233 272e c435
00000160: bdad 4b35 4bff f733 e701 1334 112a 5c33
00000170: bb14 7133 fe9f 6631 12cb 7c34 5b27 0b35
00000180: 61ed ed34 af31 d230 1bf0 9033 b892 8534
00000190: fd62 9f33 026c a233 f8b9 cd35 b204 6a31
000001a0: 30f4 8030 a42a 1635 160e 6d32 25e1 0a31
000001b0: b8d2 4232 c52d 9f32 b359 8735 55fd 5735
000001c0: fe29 9931 e187 bc35 fb7e 5531 7e79 b531
000001d0: f858 7b34 7d5f 4b33 7988 2932 1fe0 f834
000001e0: 242f 7134 91e1 3531 0052 1134 febd 8d35
000001f0: 0e09 4e32 cfc0 9331 c1fc 2831 ef63 8131
