results/test2/My Behavior.onnx (onnx, 126338 bytes, 7 tensors)

network_body._body_endoder.seq_layers.0.weight f4 [128, 106]
0.08150003 0.07155886 0.114158764 -0.12752908 0.077206865 -0.0059562023 -0.1427885 -0.0523974
0.02168995 -0.012768013 -0.024796275 0.035441462 0.07383091 -0.19445357 0.0006939109 -0.03182935
-0.18813178 -0.16236411 0.15175341 -0.09728648 -0.020060793 -0.008692766 0.114069566 0.1115205
-0.16265137 -0.024666272 0.011682526 -0.027273577 -0.039020047 -0.18628488 -0.15437949 0.02307522
-0.050598573 0.03826574 -0.14330868 -0.022949371 -0.13451208 -0.019307403 -0.018055348 -0.13231304
-0.032729052 -0.061071623 -0.1287586 -0.02923738 -0.14180784 -0.0346111 0.011972692 -0.030566154
0.01558422 -0.06914081 -0.0054735322 -0.1238692 0.02634597 0.11185084 -0.012372391 -0.05005008
0.060262956 0.16528961 0.041376494 -0.12623821 -0.05239536 0.11978707 0.046022642 0.022387074
0.0006378024 -0.034762334 -0.046778407 0.01689044 -0.15869257 -0.04084144 -0.111430846 0.09282407
-0.016563563 -0.061126284 -0.110543594 0.07373306 -0.07202974 -0.17345911 -0.027382392 -0.06782218
-0.15748653 -0.14795892 0.13443694 -0.114545695 -0.112227276 -0.021369033 0.034437876 0.010345585
0.080001436 -0.10433283 -0.004691146 -0.07701208 0.020139363 0.046123184 -0.010291275 -0.17765275
-0.16761799 0.0831997 0.046546854 -0.121376604 0.09047183 0.062713005 0.082348816 -0.0764656
0.017118547 -0.17135961 0.07166314 -0.10436956 0.1075228 0.06593917 -0.019652678 0.095965765
0.08776464 -0.0038630443 -0.015187146 0.028246155 0.096840076 0.011794421 0.017581679 0.049127355
-0.21648917 0.14738733 0.08922081 0.01898622 0.009907325 0.17548706 0.071644254 0.017051658
-0.1314469 -0.23853883 -0.12584096 -0.094396606 -0.0035677287 0.00504886 -0.009121419 0.06660566
-0.058710746 0.100950465 -0.037580572 -0.01613089 -0.08468421 0.13630992 -0.13603501 0.015138496
0.0792033 0.031630486 0.10295657 0.08256121 -0.13163018 0.000879809 -0.24330585 0.07227561
-0.1772949 -0.071184315 -0.02365038 0.14532137 -0.20413013 0.057149775 -0.12190154 -0.06123735
-0.040855628 -0.1446174 -0.0741804 -0.024243169 -0.23018624 0.15154144 0.07700329 -0.17314069
-0.05383723 0.029059542 0.03805537 0.15277442 -0.14407648 -0.021613028 0.055152405 0.066354804
-0.15537709 0.087557934 -0.071590945 0.011742679 0.06611575 0.092290334 0.09994007 -0.021693552
-0.017445568 -0.12634286 -0.14731666 -0.10003178 -0.11951117 0.021244477 -0.028444326 0.06637648
-0.0937109 0.0847401 -0.019457838 0.106775664 0.03808047 0.039846048 0.1270817 -0.22947223
0.04139786 -0.07731839 0.23743801 0.05615967 -0.2563736 0.06806844 0.02583032 0.011321839
0.088187985 -0.13069049 0.110667005 0.006305104 0.0035497532 -0.021347363 0.10086788 -0.12838435
0.055051066 0.00478502 0.013382823 0.0816499 0.08429561 -0.050594036 0.09286716 -0.13200186
0.07208557 0.0997583 0.023622882 0.04907761 -0.06234169 -0.05672362 -0.010463383 -0.17823787
-0.10969297 0.05108455 -0.058001466 -0.06818358 -0.039878692 -0.010020932 -0.22604857 0.061993755
-0.026136564 -0.03533697 0.035392724 -0.108302265 -0.007728627 0.043209035 -0.073733516 0.08611423
-0.07664353 -0.08786069 0.121552035 0.18586478 -0.04030814 -0.056221254 0.081042215 -0.12162613
00000000: 7de9 a63d 748d 923d 12cc e93d fc96 02be
00000010: a21e 9e3d 3f2c c3bb 2637 12be a89e 56bd
00000020: 1faf b13c ee30 51bc 8f21 cbbc 112b 113d
00000030: a934 973d d61e 47be 92e7 353a 7e5f 02bd
00000040: 9ea5 40be c742 26be 3f65 1b3e 223e c7bd
00000050: 8856 a4bc 1a6c 0ebc 4e9d e93d dc64 e43d
00000060: 158e 26be ec10 cabc 1168 3f3c d66c dfbc
00000070: 7cd3 1fbd 77c1 3ebe a815 1ebe 3e08 bd3c
00000080: 7340 4fbd 89bc 1c3d 83bf 12be 5200 bcbc
00000090: 89bd 09be 8f2a 9ebc cfe8 93bc 127d 07be
000000a0: e60e 06bd 3d26 7abd 4bd9 03be 3b83 efbc
000000b0: 1336 11be 5ec4 0dbd 1c29 443c df65 fabc
000000c0: f554 7f3c b299 8dbd 515b b3bb 23af fdbd
000000d0: 81d3 d73c 0e12 e53d 92b5 4abc 5001 4dbd
000000e0: 4ad6 763d ae41 293e 667a 293d 9744 01be
000000f0: 849c 56bd ec52 f53d 3d82 3c3d 1965 b73c
00000100: 3232 273a f362 0ebd b79a 3fbd d25d 8a3c
00000110: 4e80 22be 5b49 27bd db35 e4bd 8c1a be3d
00000120: 4fb0 87bc 8e5f 7abd ae64 e2bd 5c01 973d
00000130: 5484 93bd 449f 31be 0a51 e0bc 5be6 8abd
00000140: 2644 21be 8b82 17be d6a9 093e ef96 eabd
00000150: 6ad7 e5bd 1c0e afbc bb0e 0d3d 8780 293c
00000160: cbd7 a33d 73ac d5bd 2fb8 99bb 82b8 9dbd
00000170: 4efb a43c aaeb 3c3d bc9c 28bc 9aea 35be
00000180: 0da4 2bbe 9b64 aa3d eaa7 3e3d 4c94 f8bd
00000190: 4b49 b93d ad6f 803d 7fa6 a83d ff99 9cbd
000001a0: 323c 8c3c e578 2fbe 20c4 923d b5bf d5bd
000001b0: ea34 dc3d 1e0b 873d a7fe a0bc b389 c43d
000001c0: f3bd b33d 212b 7dbb 82d3 78bc 7b64 e73c
000001d0: 1754 c63d 633d 413c 7407 903c c439 493d
000001e0: 56af 5dbe b4ec 163e 66b9 b63d fd88 9b3c
000001f0: 5552 223c e1b2 333e 39ba 923d ebaf 8b3c
00000200: 049a 06be 8643 74be 74dc 00be 0253 c1bd
00000210: 8ed0 69bb e870 a53b 0172 15bc 8c68 883d
00000220: ae7a 70bd 1ebf ce3d 16ee 19bd ee24 84bc
00000230: ea6e adbd d494 0b3e c34c 0bbe 7407 783c
00000240: 5735 a23d f88e 013d e5da d23d da15 a93d
00000250: 10ca 06be fca2 663a 2b25 79be 3c05 943d
00000260: cb8c 35be 15c9 91bd 71be c1bc 20cf 143e
00000270: 7d07 51be e215 6a3d 84a7 f9bd 04d4 7abd
00000280: 3b58 27bd 9516 14be e5eb 97bd 9c99 c6bc
00000290: f1b5 6bbe ae2d 1b3e e7b3 9d3d cb4b 31be
000002a0: 6d84 5cbd 470e ee3c f3df 1b3d e670 1c3e
000002b0: c988 13be ce0d b1bc 7de7 613d 07e5 873d
000002c0: 2c1b 1fbe 9351 b33d 469e 92bd 5e64 403c
000002d0: b267 873d b702 bd3d 61ad cc3d adb6 b1bc
000002e0: 02ea 8ebc 0660 01be 2eda 16be 76dd ccbd
000002f0: 46c2 f4bd e608 ae3c 1304 e9bc 64f0 873d
00000300: 80eb bfbd 388c ad3d 0b66 9fbc 33ad da3d
00000310: 44fa 1b3d 9c35 233d b521 023e c5fa 6abe
00000320: cd90 293d 1b59 9ebd f322 733e af07 663d
00000330: 6743 83be 7767 8b3d 1b9a d33c 3c7f 393c
00000340: e79b b43d bad3 05be 62a5 e23d 0c9b ce3b
00000350: faa2 683b aae0 aebc d293 ce3d 3077 03be
00000360: 3a7d 613d a8cb 9c3b a143 5b3c 1038 a73d
00000370: 2da3 ac3d b13b 4fbd 2331 be3d 7f2b 07be
00000380: 99a1 933d 144e cc3d c684 c13c 9b05 493d
00000390: 005a 7fbd 0757 68bd 9c6e 2bbc fd83 36be
000003a0: b5a6 e0bd 083e 513d f292 6dbd d5a3 8bbd
000003b0: d757 23bd d62e 24bc 4779 67be 2aed 7d3d
000003c0: 591c d6bc 80bd 10bd f6f7 103d 94cd ddbd
000003d0: 6c40 fdbb f5fb 303d 9901 97bd a85c b03d
000003e0: 48f7 9cbd 4ef0 b3bd 46f0 f83d 5653 3e3e
000003f0: 261a 25bd 4248 66bd 76f9 a53d 1f17 f9bd

network_body._body_endoder.seq_layers.0.bias f4 [128]
-0.015637254 -0.004353499 -0.015106941 -0.011153651 -0.003400111 0.028500684 0.02101631 -0.010597964
-0.009797491 -0.012677546 -0.0052249036 0.029786881 -0.0007868624 -0.0022722362 -0.0004101404 -0.001781858
-0.008801191 -0.0014406921 -0.011033828 -0.007875171 0.049085006 0.015281137 -0.0041409773 0.015850397
0.012406771 -0.000712092 0.03660812 -0.010311001 -0.0016682949 0.040853094 0.0039431797 0.005424897
0.01753282 0.0336097 -0.015167393 -0.015193028 0.010245025 0.029595744 0.010405905 0.054220963
0.0346943 -0.022318704 -0.012333057 -0.010623528 -0.0026431417 0.00068724155 -0.007090701 0.010464697
-0.013657169 -0.019451782 0.019645391 -0.006216119 -0.00446075 0.012242297 -0.016176738 0.007169128
0.018646173 0.0042851204 0.010217972 0.010034287 0.0028615166 0.03814303 0.047629125 0.033820003
-0.0061454494 0.015107075 0.009834965 0.018144349 0.014485519 0.0023787122 0.0076849614 0.011045109
-0.005065805 0.01958943 -0.008126302 0.01288984 -0.008117632 0.023075344 -0.025863197 -0.011877102
0.024784235 -0.0048079947 -0.012607074 -0.010164746 0.0011996779 -0.032186992 -0.019128323 0.018369723
-0.009646431 0.008810367 0.0011203694 0.016396686 -0.008745543 -0.019203538 0.012593918 -0.013041095
-0.0012593501 0.003943574 0.000989216 -0.009723196 -0.010158069 -0.009185518 -0.0075593237 -0.013669848
0.007750014 0.0200965 0.036270082 0.0145192705 0.016906904 0.012541687 0.01757145 0.010369905
0.0033835885 0.0016957204 -0.004255585 -0.011967804 0.0011109603 0.005805227 0.0143543845 0.017564984
0.00018186135 -0.014416247 0.0075114756 0.014532773 -0.0006182284 0.02199112 0.000992399 -0.01358779
00000000: b319 80bc cca7 8ebb 1a83 77bc cebd 36bc
00000010: 66d4 5ebb 447a e93c 662a ac3c 15a3 2dbc
00000020: a885 20bc 7bb5 4fbc ab35 abbb 9e03 f43c
00000030: 7145 4eba cce9 14bb 1d08 d7b9 3c8d e9ba
00000040: df32 10bc 9bd5 bcba 3bc7 34bc dc06 01bc
00000050: 5c0d 493d bc5d 7a3c 09b1 87bb b1d8 813c
00000060: c545 4b3c afab 3aba 65f2 153d 79ef 28bc
00000070: b0aa daba 9355 273d ca35 813b 56c3 b13b
00000080: fda0 8f3c 53aa 093d a880 78bc 2eec 78bc
00000090: c0da 273c c672 f23c 877d 2a3c cd16 5e3d
000000a0: 9c1b 0e3d b7d5 b6bc 9710 4abc 4e0e 2ebc
000000b0: 8f38 2dbb 0028 343a 1c59 e8bb 1f74 2b3c
000000c0: 52c2 5fbc 5859 9fbc 5fef a03c 96b0 cbbb
000000d0: 7c2b 92bb ea93 483c 1485 84bc 01eb ea3b
000000e0: dcbf 983c 326a 8c3b 4869 273c da66 243c
000000f0: 4888 3b3b de3b 1c3d c216 433d d886 0a3d
00000100: c45f c9bb aa83 773c d522 213c 75a3 943c
00000110: ac54 6d3c 2be4 1b3b 21d2 fb3b 8bf6 343c
00000120: 0dff a5bb 037a a03c 2e24 05bc e82f 533c
00000130: d1ff 04bc 8108 bd3c 0edf d3bc 2d98 42bc
00000140: 4f08 cb3c 628c 9dbb e78d 4ebc 098a 26bc
00000150: 833e 9d3a 82d6 03bd 00b3 9cbc 1a7c 963c
00000160: 100c 1ebc 5c59 103c 5cd9 923a 5852 863c
00000170: 7749 0fbc bd50 9dbc b856 4e3c 51aa 55bc
00000180: c710 a5ba 1939 813b 95a8 813a 0a4e 1fbc
00000190: 086e 26bc db7e 16bc 34b4 f7bb 80f7 5fbc
000001a0: d4f3 fd3b 6aa1 a43c f08f 143d 3ce2 6d3c
000001b0: 5980 8a3c a67b 4d3c 00f2 8f3c 89e6 293c
000001c0: 32bf 5d3b ef42 de3a 6f72 8bbb 9c14 44bc
000001d0: a49d 913a c639 be3b a72e 6b3c 71e4 8f3c
000001e0: 09b2 3e39 1f32 6cbc d322 f63b de1a 6e3c
000001f0: 9b10 22ba b926 b43c 6213 823a 529f 5ebc

network_body._body_endoder.seq_layers.2.weight f4 [128, 128]
0.18011697 0.20768562 -0.040638514 -0.002854766 -0.06678543 0.08880351 0.12948282 -0.020307845
-0.081408374 0.09114025 0.03546979 -0.0038069552 -0.06161215 0.02874627 -0.070378356 0.03302786
-0.06701618 -0.042815596 -0.032951903 -0.03489014 -0.10682205 0.06619295 -0.1797578 -0.14325494
0.03504466 -0.15044658 -0.06335125 -0.03225464 0.08658222 0.06074252 0.0594653 -0.10852404
0.09463467 -0.09704783 0.026418783 -0.10169532 -0.07787136 -0.034030568 -0.06611524 0.124928325
0.17522304 -0.026275605 -0.04690363 0.00154132 0.009198936 -0.010639638 0.06335509 -0.2278496
-0.06629443 0.08496661 -0.032105565 0.068739966 0.08623342 -0.022568079 -0.15910025 -0.046799403
0.051455352 0.02588877 0.1319176 -0.120379716 0.1767021 0.06273701 0.1487421 -0.03083862
0.12821412 -0.060985796 0.018804993 -0.23494913 0.07274011 -0.07195076 -0.08872079 -0.059356246
-0.106192626 0.051351994 -0.15170142 -0.05937544 0.12105541 0.0513002 -0.16769299 0.1018029
-0.13088481 0.01947386 0.050596025 -0.010193058 -0.09482033 0.040428832 -0.02988656 0.119542755
-0.1414282 0.096822925 0.019899612 -0.03448486 0.029376665 -0.06481927 -0.10396208 -0.039738856
0.06793006 -0.21619333 -0.09816547 0.002992536 -0.01471017 -0.02706159 0.004496032 -0.15573429
-0.02232363 -0.020607146 0.038150676 -0.18331318 -0.017278325 -0.16338734 0.0891412 0.041940387
-0.16591737 0.13152213 -0.15297201 -0.04271971 -0.086031586 -0.052582875 -0.020806717 -0.1253653
-0.04332337 -0.11240808 0.056874827 -0.20271936 -0.13407245 0.011117365 -0.14469998 -0.04457825
0.09766291 0.09544832 -0.058798634 -0.08947797 -0.03934513 0.09508849 -0.019741863 0.16196555
0.08222508 -0.030274972 -0.13171782 0.13749164 0.14501505 -0.003921683 0.23659104 -0.042767547
0.054706905 0.121986516 -0.077893205 0.057524018 -0.022928925 -0.046804283 -0.079158835 -0.08320626
-0.062112052 0.060487702 -0.04060262 -0.13337435 0.010576511 0.14755338 -0.10589706 0.008419678
0.0016403411 -0.0009862757 0.06338277 -0.06954728 0.08132684 0.031581245 0.04887975 0.0673318
0.017867262 0.11041249 0.004538797 0.088211544 0.23381595 0.05968262 0.1681691 -0.073793866
0.051200643 0.043665323 -0.14010587 -0.020946618 0.0018255039 0.067565136 -0.14064458 -0.034112547
-0.093039535 -0.022035152 -0.060695406 -0.21366082 -0.0073351953 -0.053071458 -0.060427293 -0.038096935
0.037458293 -0.024835877 -0.06700604 0.14036694 -0.12148278 -0.0762855 0.08329996 -0.037857894
0.118413 -0.013554361 0.013925298 -0.12035994 -0.01844442 0.039036833 0.10687689 -0.0034667188
0.11730792 0.004995599 0.058490667 -0.084135674 0.096550986 0.06214867 -0.010002956 -0.082494184
-0.14765282 -0.048647795 0.009586836 -0.050561093 0.05812924 0.0786245 -0.1178383 -0.117704816
-0.0011866395 0.043113362 -0.06156579 0.011003117 0.09144631 -0.03299458 -0.03042981 -0.05304246
0.06556305 -0.044312995 -0.094026595 0.04899366 -0.053268805 -0.012892406 0.057503454 -0.022024726
-0.019116418 -0.016054617 -0.034583785 -0.018974816 -0.04135262 -0.06795132 0.10053977 0.06284472
0.020862563 -0.15411729 -0.028389322 -0.031636253 -0.16210756 -0.06516388 0.031240681 0.13181402
00000000: 9570 383e 8aab 543e 9274 26bd 0717 3bbb
00000010: cdc6 88bd 9dde b53d 2597 043e a35c a6bc
00000020: 6fb9 a6bd bda7 ba3d c548 113d 1c7e 79bb
00000030: 065d 7cbd 4c7d eb3c 8722 90bd 3948 073d
00000040: c73f 89bd 685f 2fbd 93f8 06bd f7e8 0ebd
00000050: 85c5 dabd 2b90 873d 6e12 38be 6cb1 12be
00000060: fd8a 0f3d ab0e 1abe 4dbe 81bd 711d 04bd
00000070: 0552 b13d 26cd 783d e391 733d da41 debd
00000080: d2cf c13d 03c1 c6bd 346c d83c a345 d0bd
00000090: 057b 9fbd a363 0bbd 6d67 87bd 6cda ff3d
000000a0: ab6d 333e f03f d7bc 051e 40bd 1e06 ca3a
000000b0: 22b7 163c e051 2ebc 50c0 813d 6851 69be
000000c0: 60c5 87bd f902 ae3d 2081 03bd 8ac7 8c3d
000000d0: 269b b03d b1e0 b8bc 2deb 22be bbb0 3fbd
000000e0: d9c2 523d b014 d43c 6815 073e a489 f6bd
000000f0: 65f1 343e 437c 803d d94f 183e 46a1 fcbc
00000100: 904a 033e 3ecc 79bd ee0c 9a3c 8196 70be
00000110: c4f8 943d ec5a 93bd 3fb3 b5bd 891f 73bd
00000120: 857b d9bd 7856 523d 9e57 1bbe a933 73bd
00000130: e6eb f73d 2920 523d b6b7 2bbe 0a7e d03d
00000140: ab06 06be a587 9f3c c73d 4f3d c900 27bc
00000150: 2931 c2bd b498 253d a9d4 f4bc d5d2 f43d
00000160: 8ed2 10be 194b c63d 8304 a33c ff3f 0dbd
00000170: 55a7 f03c f7bf 84bd 12ea d4bd 36c5 22bd
00000180: ea1e 8b3d c961 5dbe fa0a c9bd 6c1e 443b
00000190: ed02 71bc 45b0 ddbc 7353 933b cf78 1fbe
000001a0: 0ce0 b6bc 51d0 a8bc e243 1c3d 73b6 3bbe
000001b0: 468b 8dbc 034f 27be a98f b63d afc9 2b3d
000001c0: 3ee6 29be bdad 063e b2a4 1cbe ddfa 2ebd
000001d0: 5431 b0bd 2461 57bd d972 aabc c35f 00be
000001e0: d973 31bd 3536 e6bd 94f5 683d aa95 4fbe
000001f0: 4a4a 09be 9c25 363c 3b2c 14be af97 36bd
00000200: 7e03 c83d 697a c33d d6d6 70bd 3a40 b7bd
00000210: 5c28 21bd c1bd c23d b0b9 a1bc 4cda 253e
00000220: 9f65 a83d 3803 f8bc 09e1 06be 9cca 0c3e
00000230: d37e 143e 7681 80bb ec44 723e 062d 2fbd
00000240: 5914 603d 11d4 f93d 7986 9fbd 4e9e 6b3d
00000250: 71d5 bbbc d9b5 3fbd 071e a2bd 0b68 aabd
00000260: 3569 7ebd f4c1 773d ef4e 26bd 4993 08be
00000270: 1a49 2d3c 3c18 173e 8fe0 d8bd b0f2 093c
00000280: b700 d73a ec45 81ba d3ce 813d ce6e 8ebd
00000290: b08e a63d 565b 013d 2236 483d 41e5 893d
000002a0: 5d5e 923c f21f e23d 30ba 943b 41a8 b43d
000002b0: 736d 6f3e c375 743d 8534 2c3e 3d21 97bd
000002c0: c4b7 513d 69da 323d ea77 0fbe 3e98 abbc
000002d0: bf45 ef3a 975f 8a3d 2205 10be 99b9 0bbd
000002e0: 838b bebd 1083 b4bc bf9b 78bd e7c9 5abe
000002f0: 145c f0bb 7561 59bd 9c82 77bd 880b 1cbd
00000300: de6d 193d 9c74 cbbc 763a 89bd 5abc 0f3e
00000310: f7cb f8bd 923b 9cbd 2b99 aa3d e110 1bbd
00000320: 8482 f23d 1c13 5ebc ef26 643c 467f f6bd
00000330: c118 97bc 16e5 1f3d 45e2 da3d e431 63bb
00000340: 223f f03d 1fb2 a33b e993 6f3d 534f acbd
00000350: 86bc c53d 9b8f 7e3d 70e3 23bc b6f2 a8bd
00000360: 4d32 17be e942 47bd 1b12 1d3c 2619 4fbd
00000370: ed18 6e3d e205 a13d 3555 f1bd 390f f1bd
00000380: 0489 9bba a397 303d 692c 7cbd 6b46 343c
00000390: 3448 bb3d 5325 07bd f047 f9bc 0d43 59bd
000003a0: ec45 863d 8b81 35bd 0491 c0bd 93ad 483d
000003b0: 6430 5abd ac3a 53bc be88 6b3d 336d b4bc
000003c0: 099a 9cbc f984 83bc baa7 0dbd 1371 9bbc
000003d0: 5d61 29bd 102a 8bbd cce7 cd3d bcb4 803d
000003e0: f7e7 aa3c ecd0 1dbe b990 e8bc 0495 01bd
000003f0: 86ff 25be a474 85bd 75ec ff3c 41fa 063e

network_body._body_endoder.seq_layers.2.bias f4 [128]
0.015279519 -0.019239858 -0.0033934212 0.028787393 0.020877259 0.019726023 -0.0074761366 -0.00040050794
-0.010335948 0.020906372 -0.01060276 0.014952734 0.0170641 0.024091415 0.024842301 -0.011142769
0.03232901 0.013490648 -0.003088465 -0.0028155448 8.1679915e-05 0.0076821833 0.022733552 0.0065382808
-0.002045501 -0.0035705294 0.021984031 0.012433403 0.009572834 0.017962571 0.012151861 -0.016274892
0.007831924 0.009629466 0.0076501886 0.00020861 -0.0018093064 0.01975958 -0.012699536 0.012185462
-0.020350972 0.012990894 0.036969475 0.016277244 0.0065678027 0.022653794 0.02348912 -0.019923044
0.023287123 0.011174991 -0.005582353 -0.0016739661 0.011235143 0.0028645003 -0.011356853 -0.008368903
-0.013896611 0.0143747125 -0.00038833913 -0.008466991 0.004449375 0.02151511 -0.008093443 0.02614441
0.0062492015 -0.008793696 -0.004274814 -0.010706149 0.0051292083 0.019444354 -0.006746146 0.0056797555
0.019373115 0.021404173 0.009606073 0.0073082643 -0.0048990725 -0.012133258 -0.006082116 -0.011014158
0.0013720967 0.03361378 -0.005856614 -0.004357969 0.03890144 -0.012297616 -0.0078842 0.011721922
0.00822419 -0.005591961 0.02250483 0.016688688 -0.0045157205 0.020211918 0.0051865275 0.01679139
0.010455266 0.013893068 0.01286362 0.013061122 0.008882173 0.004273989 0.009859195 -0.0049077347
0.026751015 0.0043016304 -0.013939881 0.001221612 0.026851865 0.0020675366 0.003080871 -0.0034908268
-0.0013903785 0.009924045 -0.001334305 0.020800756 0.012085949 0.011981341 -0.015314945 0.0068146614
-0.0072374856 -0.004443326 -0.0038941097 -0.01921255 -0.009706295 0.013461559 0.022040334 0.0124153765
00000000: f356 7a3c e89c 9dbc 2964 5ebb 8ad3 eb3c
00000010: c906 ab3c 7898 a13c 61fa f4bb 44fb d1b9
00000020: 1c58 29bc d743 ab3c 33b7 2dbc 50fc 743c
00000030: 03ca 8b3c 5c5b c53c 1582 cb3c 2990 36bc
00000040: 6d6b 043d e107 5d3c d867 4abb 0185 38bb
00000050: 924b ab38 d3ba fb3b b73b ba3c 133f d63b
00000060: d00d 06bb 8bff 69bb db17 b43c 79b5 4b3c
00000070: 60d7 1c3c 3e26 933c 9918 473c ec52 85bc
00000080: 7851 003c e8c4 1d3c 6fae fa3b 52be 5a39
00000090: 4026 edba d8de a13c b711 50bc 88a5 473c
000000a0: 15b7 a6bc c2d7 543c 4e6d 173d db57 853c
000000b0: b936 d73b 7394 b93c 416c c03c a735 a3bc
000000c0: a3c4 be3c 4f17 373c 2cec b6bb fb68 dbba
000000d0: 9b13 383c 57ba 3b3b 1812 3abc b91d 09bc
000000e0: 9cae 63bc ea83 6b3c ff99 cbb9 22b9 0abc
000000f0: 10cc 913b 7540 b03c 5c9a 04bc cd2c d63c
00000100: 1ac6 cc3b 6f13 10bc bd13 8cbb d868 2fbc
00000110: eb12 a83b c449 9f3c c60e ddbb 3e1d ba3b
00000120: 5eb4 9e3c ce57 af3c ca62 1d3c 2a7a ef3b
00000130: 6688 a0bb 93ca 46bc 7d4c c7bb ba74 34bc
00000140: edd7 b33a 9aae 093d d7e8 bfbb 4bcd 8ebb
00000150: 1e57 1f3d f17b 49bc bb2c 01bc 4e0d 403c
00000160: c1be 063c c53c b7bb 0d5c b83c b7b6 883c
00000170: 9cf8 93bb 7793 a53c bff3 a93b 198e 893c
00000180: 904c 2b3c c09f 633c efc1 523c 51fe 553c
00000190: 8986 113c d10c 8c3b 7688 213c 10d1 a0bb
000001a0: f224 db3c b1f4 8c3b 1964 64bc 7f1e a03a
000001b0: 71f8 db3c 827f 073b 70e8 493b 5bc6 64bb
000001c0: 5c3d b6ba 7698 223c d9e3 aeba 5966 aa3c
000001d0: 2504 463c 634d 443c 89eb 7abc 864d df3b
000001e0: 6e28 edbb 5299 91bb 5234 7fbb a363 9dbc
000001f0: 2707 1fbc df8d 5c3c ee8d b43c dd69 4b3c

action_model._continuous_distribution.log_sigma f4 [1, 2]
-0.06441866 -0.030969998
00000000: eeed 83bd cbb4 fdbc

action_model._continuous_distribution.mu.weight f4 [2, 128]
0.0006033646 -0.024273198 -0.012590869 0.03356192 0.032688446 0.024661303 -0.00028403985 -0.0032860914
-0.034152266 0.051221162 -0.028698625 -0.008697114 0.050560705 -0.0020119038 0.033076398 -0.026911791
0.078473024 -0.02398779 0.012742838 -0.0051651355 0.0113088805 0.008531738 0.012450147 0.02250293
-0.0009879398 -0.030303495 0.040397678 -0.022119457 0.005349749 0.030294022 -0.02030669 -0.027749227
0.012907963 0.0039715953 -0.05490523 0.0014453304 -0.013957638 0.020162791 -0.039468918 0.026644561
-0.024508793 0.051890466 0.04122135 0.01565322 0.017841674 0.07091926 0.049497288 -0.022872154
0.033516087 0.010270144 -0.05665164 -0.015700778 0.012757621 0.00040550545 -0.045312453 -0.017107598
-0.01385204 0.017083265 -0.0051159263 -0.025055746 -0.026806934 0.012175604 -0.03815163 0.046781454
0.00910931 -0.027567059 -0.020336645 -0.014255403 0.006382543 0.040384322 -0.0065506175 0.010857162
0.0016162315 0.027440952 0.03162054 -0.022488233 -0.0091609415 -0.016638393 -0.00071531197 -0.027792772
-0.016396668 0.05215116 -0.045056466 -0.0016450568 0.078778334 -0.00014654838 -0.041498363 0.00019576565
0.015389348 -0.01718425 0.03583795 -0.00040178717 -0.015627895 0.04682888 0.0049438025 0.02325228
0.046597086 0.016664455 0.011490173 0.0127478875 0.014420929 -0.0015236009 0.034328446 -0.004585419
0.04433333 0.030818313 -0.0056179734 -0.0061512096 0.021161009 0.011821866 0.0197938 -0.05204794
0.015404396 0.03250526 -0.039490536 0.020070449 0.010666714 0.010634947 -0.033862293 -0.030824807
-0.023987863 -0.03725275 -0.017461976 -0.025419699 -0.041481115 0.020084754 0.024310352 0.013834978
-0.03046601 0.00029337907 0.0053545428 0.031619973 -0.05934104 -0.019639552 -0.0113306865 0.027507592
-0.012381029 0.051723525 0.012298414 -0.023249518 0.052057352 -0.027974844 0.017136047 0.01632385
-0.010161064 -0.044170674 0.004893667 0.066748746 0.0217378 0.03333011 0.045466322 0.018513428
0.056903843 -0.036077883 -0.070329316 -0.01888413 -0.015590806 0.016799316 -0.055245776 5.1801526e-05
-0.0004556653 -0.01701615 -0.06422744 -0.020588882 -0.014429297 -0.044856463 0.015520003 -0.009759096
0.015612316 0.01647082 0.023115627 0.044534896 0.0018076532 0.06718534 -0.014093752 0.018339848
-0.06278097 -0.0060623125 -0.012071407 -0.034892354 0.048574887 -0.04239407 -0.017400036 0.019730711
-0.004913542 -0.046442587 -0.0177248 0.008451876 -0.06746195 0.024716288 -0.030841548 -0.05390812
0.028547948 -0.015215911 0.032287795 -0.010000259 -0.025703648 0.0044823866 0.022004437 0.048642628
-0.032859273 0.001605475 0.016903352 -0.04360959 0.016319009 0.011403202 0.014594882 -0.006661413
-0.026445564 0.025538675 0.007867142 0.006663192 0.010652989 -0.0069782753 -0.010058943 -0.04289763
-0.0011850921 -0.0019493124 -0.014968089 -0.037771188 0.0102174925 0.03409893 -0.009741235 -0.029971378
0.023002967 0.012615401 -0.014416371 -0.020113524 4.629698e-05 -0.025815796 -0.00700515 -0.010672916
0.019134084 0.063871875 0.005251334 -0.009914811 0.020730788 0.012064852 0.021859264 -0.036630344
0.043801833 0.046276033 -0.017910779 -0.05801316 -0.015182208 -0.018508429 -0.006287963 -0.028371373
-0.007213577 -0.02165206 0.025703218 0.013344371 -0.027932264 -0.038132083 -0.04763239 -0.0181369
00000000: 1d2b 1e3a 96d8 c6bc ef49 4ebc 3978 093d
00000010: 52e4 053d 8006 ca3c 2feb 94b9 775b 57bb
00000020: 3fe3 0bbd 48cd 513d 6119 ebbc 577e 0ebc
00000030: be18 4f3d 25da 03bb 1e7b 073d 1e76 dcbc
00000040: 77b6 a03d 0b82 c4bc 56c7 503c 4c40 a9bb
00000050: e248 393c b4c8 0b3c b4fb 4b3c 1158 b83c
00000060: c27d 81ba 093f f8bc 0978 253d dd33 b5bc
00000070: f24c af3b 2b2b f83c 375a a6bc 5952 e3bc
00000080: ec7b 533c 2824 823b 4ee4 60bd 3e71 bd3a
00000090: 94ae 64bc 702c a53c 29aa 21bd b245 da3c
000000a0: aac6 c8bc 198b 543d b8d7 283d 2e3b 803c
000000b0: b428 923c 1e3e 913d abbd 4a3d 625e bbbc
000000c0: 2a48 093d 1b44 283c 8d0b 68bd eb9e 80bc
000000d0: 5705 513c 059a d439 8d99 39bd 3c25 8cbc
000000e0: abf3 62bc 34f2 8b3c 80a3 a7bb b541 cdbc
000000f0: 379a dbbc 2f7c 473c e244 1cbd e99d 3f3d
00000100: 373f 153c 50d4 e1bc 0999 a6bc 7e8f 69bc
00000110: a724 d13b 086a 253d 90a6 d6bb 3de2 313c
00000120: bbd7 d33a d9cb e03c 8a84 013d 3e39 b8bc
00000130: c617 16bc 3d4d 88bc c683 3bba abad e3bc
00000140: 4e52 86bc 749c 553d 218d 38bd f29e d7ba
00000150: 8956 a13d c8aa 19b9 30fa 29bd 7146 4d39
00000160: 9b23 7c3c fcc5 8cbc d0ca 123d f6a6 d2b9
00000170: 1206 80bc a4cf 3f3d 9fff a13b 917b be3c
00000180: 96dc 3e3d e583 883c 4741 3c3c 84dc 503c
00000190: c345 6c3c 90b3 c7ba fc9b 0c3d 4841 96bb
000001a0: de96 353d b076 fc3c fa16 b8bb 1690 c9bb
000001b0: da59 ad3c 80b0 413c 9b26 a23c 3930 55bd
000001c0: b862 7c3c 3c24 053d d4c0 21bd c86a a43c
000001d0: 71c3 2e3c 333e 2e3c 30b3 0abd 4e84 fcbc
000001e0: 3282 c4bc 5796 18bd 6b0c 8fbc f93c d0bc
000001f0: 1ae8 29bd c888 a43c 8126 c73c 1bac 623c
00000200: db93 f9bc acd0 9939 2975 af3b f283 013d
00000210: 970f 73bd 20e3 a0bc 58a4 39bc 9a57 e13c
00000220: cdd9 4abc 0cdc 533d 497f 493c c675 bebc
00000230: 173a 553d 802b e5bc e560 8c3c 98b9 853c
00000240: 977a 26bc 4fec 34bd 0e5b a03b 91b3 883d
00000250: 7913 b23c 2785 083d e53a 3a3d 79a9 973c
00000260: 0114 693d 67c6 13bd d108 90bd e4b2 9abc
00000270: 9470 7fbc b89e 893c 6549 62bd 7745 5938
00000280: 5ce6 eeb9 7465 8bbc ad89 83bd 04aa a8bc
00000290: dc68 6cbc 69bb 37bd 9c47 7e3c 9ee4 1fbc
000002a0: cdca 7f3c d0ed 863c fc5c bd3c 396a 363d
000002b0: c7ee ec3a 7898 893d 7be9 66bc 733d 963c
000002c0: 4f93 80bd 5da6 c6bb 27c7 45bc 49eb 0ebd
000002d0: 76f6 463d 68a5 2dbd 858a 8ebc 4da2 a13c
000002e0: c701 a1bb 953a 3ebd 9a33 91bc bd79 0a3c
000002f0: 7e29 8abd d079 ca3c 6aa7 fcbc c3ce 5cbd
00000300: 63dd e93c 284c 79bc 3540 043d 20d8 23bc
00000310: 7590 d2bc fce0 923b a642 b43c 7e3d 473d
00000320: 7297 06bd cd6e d23a e678 8a3c f89f 32bd
00000330: 71af 853c 7fd4 3a3c 5f1f 6f3c fb47 dabb
00000340: 5ea4 d8bc 7c36 d13c 2fe5 003c e856 da3b
00000350: e089 2e3c 04aa e4bb 44ce 24bc 6db5 2fbd
00000360: 1855 9bba 1280 ffba b73c 75bc f6b5 1abd
00000370: 4567 273c 52ab 0b3d b399 1fbc 8986 f5bc
00000380: b870 bc3c d4b0 4e3c a432 6cbc 1ec5 a4bc
00000390: 012f 4238 a67b d3bc 758b e5bb 74dd 2ebc
000003a0: 15bf 9c3c 42cf 823d 6213 ac3b bb71 22bc
000003b0: 9dd3 a93c a8ab 453c 3312 b33c b309 16bd
000003c0: 8d69 333d f08b 3d3d a0b9 92bc 359f 6dbd
000003d0: ccbe 78bc fd9e 97bc 420b cebb 156b e8bc
000003e0: df5f ecbb a95f b1bc 8e8f d23c 59a2 5a3c
000003f0: 34d2 e4bc 6330 1cbd 2e1a 43bd d693 94bc

action_model._continuous_distribution.mu.bias f4 [2]
0.014562887 -0.0052745724
00000000: 2d99 6e3c 52d6 acbb
