results/run6/CarAgent.onnx (onnx, 644027 bytes, 11 tensors)

network_body.observation_encoder.processors.0.normalizer.running_mean f4 [100]
0.0 0.0 0.0 0.0 0.0 0.0 0.0 0.0
0.0 0.0 0.0 0.0 0.0 0.0 0.0 0.0
0.0 0.0 0.0 0.0 0.0 0.0 0.0 0.0
0.0 0.0 0.0 0.0 0.0 0.0 0.0 0.0
0.0 0.0 0.0 0.0 0.0 0.0 0.0 0.0
0.0 0.0 0.0 0.0 0.0 0.0 0.0 0.0
0.0 0.0 0.0 0.0 0.0 0.0 0.0 0.0
0.0 0.0 0.0 0.0 0.0 0.0 0.0 0.0
0.0 0.0 0.0 0.0 0.0 0.0 0.0 0.0
0.0 0.0 0.0 0.0 0.0 0.0 0.0 0.0
0.0 0.0 0.0 0.0 0.0 0.0 0.0 0.0
0.0 0.0 0.0 0.0 0.0 0.0 0.0 0.0
0.0 0.0 0.0 0.0
00000000: 0000 0000 0000 0000 0000 0000 0000 0000
00000010: 0000 0000 0000 0000 0000 0000 0000 0000
00000020: 0000 0000 0000 0000 0000 0000 0000 0000
00000030: 0000 0000 0000 0000 0000 0000 0000 0000
00000040: 0000 0000 0000 0000 0000 0000 0000 0000
00000050: 0000 0000 0000 0000 0000 0000 0000 0000
00000060: 0000 0000 0000 0000 0000 0000 0000 0000
00000070: 0000 0000 0000 0000 0000 0000 0000 0000
00000080: 0000 0000 0000 0000 0000 0000 0000 0000
00000090: 0000 0000 0000 0000 0000 0000 0000 0000
000000a0: 0000 0000 0000 0000 0000 0000 0000 0000
000000b0: 0000 0000 0000 0000 0000 0000 0000 0000
000000c0: 0000 0000 0000 0000 0000 0000 0000 0000
000000d0: 0000 0000 0000 0000 0000 0000 0000 0000
000000e0: 0000 0000 0000 0000 0000 0000 0000 0000
000000f0: 0000 0000 0000 0000 0000 0000 0000 0000
00000100: 0000 0000 0000 0000 0000 0000 0000 0000
00000110: 0000 0000 0000 0000 0000 0000 0000 0000
00000120: 0000 0000 0000 0000 0000 0000 0000 0000
00000130: 0000 0000 0000 0000 0000 0000 0000 0000
00000140: 0000 0000 0000 0000 0000 0000 0000 0000
00000150: 0000 0000 0000 0000 0000 0000 0000 0000
00000160: 0000 0000 0000 0000 0000 0000 0000 0000
00000170: 0000 0000 0000 0000 0000 0000 0000 0000
00000180: 0000 0000 0000 0000 0000 0000 0000 0000

network_body.observation_encoder.processors.1.normalizer.running_mean f4 [6]
0.0 0.0 0.0 0.0 0.0 0.0
00000000: 0000 0000 0000 0000 0000 0000 0000 0000
00000010: 0000 0000 0000 0000

network_body._body_endoder.seq_layers.0.weight f4 [256, 106]
-0.00042507355 0.06790269 -0.16282554 0.08817044 0.03068507 0.0385079 0.25416872 0.06342207
-0.020446781 -0.06537104 -0.0030867353 0.11179372 -0.0045526344 -0.1108143 0.21025993 0.15024962
-0.005790294 -0.06281219 0.03328192 -0.08799947 -0.1595456 0.08338148 -0.020176258 -0.016018027
-0.08418956 0.015766114 0.04190291 0.06653939 -0.0651381 0.15252915 0.021661764 0.080748715
0.042341594 -0.04657287 -0.04594681 0.08345263 0.036538318 0.10937146 0.077368736 0.0287863
0.0023248286 0.09769761 -0.15062244 0.069023415 0.056327887 -0.14923614 0.2639939 0.10579845
-0.024958981 -0.14291468 0.023463475 0.12378248 0.03269311 0.047632255 -0.019552482 0.09732797
0.056204908 0.04676242 -0.028148517 0.106379785 0.07829071 0.024339842 -0.11340887 -0.13524012
-0.002378806 -0.016713295 0.058144752 -0.084915884 0.0091774035 0.035929427 0.026940411 0.010147847
0.09695336 -0.018220775 -0.053947054 0.023501478 0.07978648 -0.110285856 0.028927892 -0.078804135
0.13573396 0.023214327 -0.1554559 -0.034002464 -0.1262328 0.015434652 0.037561893 -0.11728263
0.036685858 -0.024889654 0.057109073 0.033817615 0.0784576 0.049311403 -0.104235746 0.09225635
-0.010826014 0.13876256 -0.048214104 0.05691654 0.00040165303 0.11047855 -0.039897807 -0.07688
0.20437583 0.0733159 0.087673105 0.18693645 -0.1345893 0.088537574 -0.08929541 0.0510509
0.109073564 0.15431814 0.093876876 0.072576806 -0.17446698 -0.07601677 -0.09001515 -0.0028400293
-0.07406494 -0.16401273 -0.06622088 -0.03555764 -0.11755024 -0.07768355 -0.08849355 0.04502369
-0.0300933 0.054162208 -0.035796598 0.03440988 -0.07891989 0.029470257 0.04587861 -0.03688235
0.07411025 -0.0810707 0.015772026 0.07001266 0.060060296 -0.035900168 0.040483244 -0.04327469
0.0065381997 0.0333086 -0.08911121 0.044604022 0.11303347 -0.2673513 -0.07265161 0.1434384
0.06866651 0.065787934 -0.011196751 0.0017419992 -0.06457381 0.13675827 -0.025374329 0.2539987
-0.054445554 -0.00043685318 0.06643166 0.03561613 -0.06536478 0.1218474 0.07443969 -0.16955788
0.015181136 -0.004896256 -0.19665772 0.049706843 0.11848854 0.13450663 0.0068275183 0.058430783
-0.14591727 -0.122894056 -0.13158496 -0.12623326 0.050050154 -0.10618402 -0.036852654 -0.068164326
-0.07901848 -0.06931872 -0.06276133 0.046399754 -0.14963533 0.012701849 0.05345323 0.034215506
0.09418395 -0.15118101 0.015751256 0.01921156 0.11717207 0.032470103 -0.11252887 0.124144726
-0.06243296 -0.16035877 -0.073170446 -0.04961674 0.09888602 0.15443484 -0.046347097 0.08711623
-0.05461537 -0.12886868 0.0042696106 -0.115597874 0.07750392 0.0070552686 -0.20453142 0.0024379524
0.036243863 -0.0059972997 0.03537642 -0.14731787 -0.2628641 0.034559716 -0.016903637 -0.058485165
0.0055245045 0.048084438 -0.07929345 -0.10004321 -0.0014752859 -0.050120696 -0.15747817 0.04490493
0.077507176 -0.116354115 -0.14683759 0.02273181 -0.12256052 0.055828888 -0.12781075 0.037782807
0.121681996 0.037535105 0.011253623 -0.119592234 -0.13004084 0.026623221 0.036815416 0.11697757
-0.070500374 0.10583656 -0.070833854 -0.07232432 -0.008943938 -0.09990117 -0.12242745 -0.024704257
00000000: 68dc deb9 9110 8b3d bdbb 26be b492 b43d
00000010: 425f fb3c 76ba 1d3d 6722 823e 6ee3 813d
00000020: 0280 a7bc 40e1 85bd d34a 4abb 1bf4 e43d
00000030: 442e 95bb 9cf2 e2bd 614e 573e 09db 193e
00000040: 82bc bdbb ada3 80bd 9f52 083d 1139 b4bd
00000050: ec5f 23be e9c3 aa3d ae48 a5bc 3d38 83bc
00000060: 936b acbd f027 813c 63a2 2b3d ce45 883d
00000070: 2067 85bd 9a30 1c3e 0374 b13c 955f a53d
00000080: 616e 2d3d 32c3 3ebd b932 3cbd 36e9 aa3d
00000090: 34a9 153d 25fe df3d 8073 9e3d 3fd1 eb3c
000000a0: 275c 183b af15 c83d c53c 1abe 265c 8d3d
000000b0: 12b8 663d 5cd1 18be 352a 873e dcac d83d
000000c0: c776 ccbc 3a58 12be 7936 c03c ab81 fd3d
000000d0: 36e9 053d 0a1a 433d 872c a0bc e353 c73d
000000e0: 1e37 663d f489 3f3d b897 e6bc a5dd d93d
000000f0: e156 a03d 5964 c73c e942 e8bd 637c 0abe
00000100: bee5 1bbb 52ea 88bc 3129 6e3d 61e8 adbd
00000110: d25c 163c bc2a 133d 23b2 dc3c 2843 263c
00000120: 7c8f c63d bc43 95bc 96f7 5cbd 2c86 c03c
00000130: 1867 a33d 8ddd e1bd 30fa ec3c 1064 a1bd
00000140: d8fd 0a3e f92b be3c d52f 1fbe 2b46 0bbd
00000150: 2c43 01be 9fe1 7c3c 80da 193d e031 f0bd
00000160: e943 163d 63e5 cbbc 34eb 693d 5784 0a3d
00000170: 61ae a03d c1fa 493d 8d79 d5bd e6f0 bc3d
00000180: 985f 31bc c617 0e3e 277c 45bd 5121 693d
00000190: f594 d239 9442 e23d e26b 23bd 4373 9dbd
000001a0: e647 513e a626 963d f58d b33d 456c 3f3e
000001b0: c7d1 09be 3053 b53d 83e0 b6bd c01a 513d
000001c0: f661 df3d 9305 1e3e 8542 c03d 26a3 943d
000001d0: 79a7 32be aeae 9bbd dd59 b8bd c91f 3abb
000001e0: 5caf 97bd f4f2 27be d09e 87bd e3a4 11bd
000001f0: 2ebe f0bd 8e18 9fbd 1b3c b5bd c36a 383d
00000200: 3986 f6bc 31d9 5d3d 749f 12bd 60f1 0c3d
00000210: c0a0 a1bd 9c6b f13c 36eb 3b3d f211 17bd
00000220: 1dc7 973d 6508 a6bd 5634 813c cc62 8f3d
00000230: c901 763d 0e0c 13bd c2d1 253d cd40 31bd
00000240: 653e d63b 996e 083d f07f b6bd b5b2 363d
00000250: 187e e73d 45e2 88be 5eca 94bd 84e1 123e
00000260: 07a1 8c3d d3bb 863d 9472 37bc cb53 e43a
00000270: 463f 84bd 5c0a 0c3e d3dd cfbc 1e0c 823e
00000280: 4d02 5fbd 7109 e5b9 520d 883d 38e2 113d
00000290: f8dd 85bd 218b f93d d673 983d 95a0 2dbe
000002a0: 4dba 783c c670 a0bb a460 49be 6799 4b3d
000002b0: 1faa f23d 1bbc 093e 60b9 df3b 1e55 6f3d
000002c0: 566b 15be e1af fbbd 35be 06be 4b43 01be
000002d0: 6401 4d3d 0277 d9bd cff2 16bd bd99 8bbd
000002e0: 71d4 a1bd f9f6 8dbd 0389 80bd ab0d 3e3d
000002f0: 013a 19be 6b1b 503c c6f1 5a3d 8f25 0c3d
00000300: 84e3 c03d 32cf 1abe c708 813c 9061 9d3c
00000310: e9f7 ef3d 5fff 043d 8975 e6bd 973f fe3d
00000320: b4b9 7fbd 1735 24be 63da 95bd ec3a 4bbd
00000330: c184 ca3d 2b24 1e3e 74d6 3dbd fe69 b23d
00000340: 5eb4 5fbd 27f6 03be 17e8 8b3b 94be ecbd
00000350: 60ba 9e3d e22f e73b af70 51be 0ec6 1f3b
00000360: 7274 143d ff84 c4bb dde6 103d 7fda 16be
00000370: 2096 86be 7d8e 0d3d 7f79 8abc 248e 6fbd
00000380: e706 b53b 30f4 443d 9b64 a2bd 74e3 ccbd
00000390: 615e c1ba 5c4b 4dbd f541 21be 3bee 373d
000003a0: 15bc 9e3d 114b eebd 985c 16be 1038 ba3c
000003b0: 0301 fbbd d5ac 643d d2e0 02be 25c2 1a3d
000003c0: 6934 f93d 69be 193d 1e61 383c c6ec f4bd
000003d0: 6d29 05be f118 da3c c3cb 163d f091 ef3d
000003e0: 8062 90bd d7c0 d83d 5711 91bd c61e 94bd
000003f0: 9889 12bc fc98 ccbd 3ebb fabd 9560 cabc

network_body._body_endoder.seq_layers.0.bias f4 [256]
0.0 0.0 0.0 0.0 0.0 0.0 0.0 0.0
0.0 0.0 0.0 0.0 0.0 0.0 0.0 0.0
0.0 0.0 0.0 0.0 0.0 0.0 0.0 0.0
0.0 0.0 0.0 0.0 0.0 0.0 0.0 0.0
0.0 0.0 0.0 0.0 0.0 0.0 0.0 0.0
0.0 0.0 0.0 0.0 0.0 0.0 0.0 0.0
0.0 0.0 0.0 0.0 0.0 0.0 0.0 0.0
0.0 0.0 0.0 0.0 0.0 0.0 0.0 0.0
0.0 0.0 0.0 0.0 0.0 0.0 0.0 0.0
0.0 0.0 0.0 0.0 0.0 0.0 0.0 0.0
0.0 0.0 0.0 0.0 0.0 0.0 0.0 0.0
0.0 0.0 0.0 0.0 0.0 0.0 0.0 0.0
0.0 0.0 0.0 0.0 0.0 0.0 0.0 0.0
0.0 0.0 0.0 0.0 0.0 0.0 0.0 0.0
0.0 0.0 0.0 0.0 0.0 0.0 0.0 0.0
0.0 0.0 0.0 0.0 0.0 0.0 0.0 0.0
0.0 0.0 0.0 0.0 0.0 0.0 0.0 0.0
0.0 0.0 0.0 0.0 0.0 0.0 0.0 0.0
0.0 0.0 0.0 0.0 0.0 0.0 0.0 0.0
0.0 0.0 0.0 0.0 0.0 0.0 0.0 0.0
0.0 0.0 0.0 0.0 0.0 0.0 0.0 0.0
0.0 0.0 0.0 0.0 0.0 0.0 0.0 0.0
0.0 0.0 0.0 0.0 0.0 0.0 0.0 0.0
0.0 0.0 0.0 0.0 0.0 0.0 0.0 0.0
0.0 0.0 0.0 0.0 0.0 0.0 0.0 0.0
0.0 0.0 0.0 0.0 0.0 0.0 0.0 0.0
0.0 0.0 0.0 0.0 0.0 0.0 0.0 0.0
0.0 0.0 0.0 0.0 0.0 0.0 0.0 0.0
0.0 0.0 0.0 0.0 0.0 0.0 0.0 0.0
0.0 0.0 0.0 0.0 0.0 0.0 0.0 0.0
0.0 0.0 0.0 0.0 0.0 0.0 0.0 0.0
0.0 0.0 0.0 0.0 0.0 0.0 0.0 0.0
00000000: 0000 0000 0000 0000 0000 0000 0000 0000
00000010: 0000 0000 0000 0000 0000 0000 0000 0000
00000020: 0000 0000 0000 0000 0000 0000 0000 0000
00000030: 0000 0000 0000 0000 0000 0000 0000 0000
00000040: 0000 0000 0000 0000 0000 0000 0000 0000
00000050: 0000 0000 0000 0000 0000 0000 0000 0000
00000060: 0000 0000 0000 0000 0000 0000 0000 0000
00000070: 0000 0000 0000 0000 0000 0000 0000 0000
00000080: 0000 0000 0000 0000 0000 0000 0000 0000
00000090: 0000 0000 0000 0000 0000 0000 0000 0000
000000a0: 0000 0000 0000 0000 0000 0000 0000 0000
000000b0: 0000 0000 0000 0000 0000 0000 0000 0000
000000c0: 0000 0000 0000 0000 0000 0000 0000 0000
000000d0: 0000 0000 0000 0000 0000 0000 0000 0000
000000e0: 0000 0000 0000 0000 0000 0000 0000 0000
000000f0: 0000 0000 0000 0000 0000 0000 0000 0000
00000100: 0000 0000 0000 0000 0000 0000 0000 0000
00000110: 0000 0000 0000 0000 0000 0000 0000 0000
00000120: 0000 0000 0000 0000 0000 0000 0000 0000
00000130: 0000 0000 0000 0000 0000 0000 0000 0000
00000140: 0000 0000 0000 0000 0000 0000 0000 0000
00000150: 0000 0000 0000 0000 0000 0000 0000 0000
00000160: 0000 0000 0000 0000 0000 0000 0000 0000
00000170: 0000 0000 0000 0000 0000 0000 0000 0000
00000180: 0000 0000 0000 0000 0000 0000 0000 0000
00000190: 0000 0000 0000 0000 0000 0000 0000 0000
000001a0: 0000 0000 0000 0000 0000 0000 0000 0000
000001b0: 0000 0000 0000 0000 0000 0000 0000 0000
000001c0: 0000 0000 0000 0000 0000 0000 0000 0000
000001d0: 0000 0000 0000 0000 0000 0000 0000 0000
000001e0: 0000 0000 0000 0000 0000 0000 0000 0000
000001f0: 0000 0000 0000 0000 0000 0000 0000 0000
00000200: 0000 0000 0000 0000 0000 0000 0000 0000
00000210: 0000 0000 0000 0000 0000 0000 0000 0000
00000220: 0000 0000 0000 0000 0000 0000 0000 0000
00000230: 0000 0000 0000 0000 0000 0000 0000 0000
00000240: 0000 0000 0000 0000 0000 0000 0000 0000
00000250: 0000 0000 0000 0000 0000 0000 0000 0000
00000260: 0000 0000 0000 0000 0000 0000 0000 0000
00000270: 0000 0000 0000 0000 0000 0000 0000 0000
00000280: 0000 0000 0000 0000 0000 0000 0000 0000
00000290: 0000 0000 0000 0000 0000 0000 0000 0000
000002a0: 0000 0000 0000 0000 0000 0000 0000 0000
000002b0: 0000 0000 0000 0000 0000 0000 0000 0000
000002c0: 0000 0000 0000 0000 0000 0000 0000 0000
000002d0: 0000 0000 0000 0000 0000 0000 0000 0000
000002e0: 0000 0000 0000 0000 0000 0000 0000 0000
000002f0: 0000 0000 0000 0000 0000 0000 0000 0000
00000300: 0000 0000 0000 0000 0000 0000 0000 0000
00000310: 0000 0000 0000 0000 0000 0000 0000 0000
00000320: 0000 0000 0000 0000 0000 0000 0000 0000
00000330: 0000 0000 0000 0000 0000 0000 0000 0000
00000340: 0000 0000 0000 0000 0000 0000 0000 0000
00000350: 0000 0000 0000 0000 0000 0000 0000 0000
00000360: 0000 0000 0000 0000 0000 0000 0000 0000
00000370: 0000 0000 0000 0000 0000 0000 0000 0000
00000380: 0000 0000 0000 0000 0000 0000 0000 0000
00000390: 0000 0000 0000 0000 0000 0000 0000 0000
000003a0: 0000 0000 0000 0000 0000 0000 0000 0000
000003b0: 0000 0000 0000 0000 0000 0000 0000 0000
000003c0: 0000 0000 0000 0000 0000 0000 0000 0000
000003d0: 0000 0000 0000 0000 0000 0000 0000 0000
000003e0: 0000 0000 0000 0000 0000 0000 0000 0000
000003f0: 0000 0000 0000 0000 0000 0000 0000 0000

network_body._body_endoder.seq_layers.2.weight f4 [256, 256]
-0.062209807 0.08718625 -0.018401517 -0.043428972 -0.007845663 -0.035447665 -0.104868904 -0.021510849
0.09125989 0.0022254628 0.056068674 -0.08175801 -0.01868321 0.09605658 -0.05005137 -0.12141126
-0.04621148 -0.0037354634 -0.049740795 0.055847388 0.035833817 0.105989434 0.05827987 -0.020170793
-0.07782974 -0.056185417 -0.04784962 -0.05363039 0.041074086 -0.0141438665 -0.04259156 -0.019362835
-0.025029087 0.009683055 -0.06572773 -0.019471766 -0.06406448 0.059572116 0.025571479 0.08447481
-0.07078898 -0.0017662357 -0.060901042 0.01468027 0.013362624 0.08775727 0.020090824 -0.017956845
-0.04539426 -0.046465226 0.051035542 0.11233881 -0.013238189 0.095919475 0.03784658 0.054952234
-0.08655521 -0.017902592 0.12124794 0.034220245 0.08449061 -0.04742818 -0.04922407 0.11809537
-0.01631883 -0.032063097 0.0140637895 -0.07201512 -0.045200076 -0.007857168 0.09467685 0.03498247
-0.06112163 0.005895384 -0.009813731 0.0463629 0.031886104 0.08486437 0.0014206291 0.09625939
-0.031661265 0.09690252 -0.07914311 -0.05572899 -0.04493523 -0.040294055 0.025724614 0.06582023
-0.030498859 -0.035229504 0.04394562 -0.034223013 0.026548367 -0.11515731 0.01866472 -0.0028913792
-0.109952696 0.01427726 0.06926657 0.058931682 -0.04215622 -0.050924845 -0.030507056 0.11287805
0.002876533 0.15337685 0.06674511 -0.024606641 0.07309362 0.085143484 -0.043200705 0.06138967
0.013875237 -0.039132655 -0.14857978 -0.014756719 -0.023404198 -0.060832903 -0.014865456 0.004846024
-0.064292565 0.014807804 0.041863468 -0.025009368 -0.028588858 -0.09664457 0.1426686 -0.029233616
-0.016166475 -0.07933321 -0.013794802 0.041412037 -0.04397632 -0.020939985 -0.063927226 -0.04268678
-0.044484034 0.058834024 0.10746242 0.0005226296 0.09778959 -0.02092005 -0.053198785 -0.017818995
0.011635115 -0.14929163 -0.012978293 0.023372618 -0.012841831 0.10484693 -0.0022251832 -0.024368592
0.0733425 0.068029724 -0.009737538 0.058498032 0.044415668 -0.040756766 0.0072899503 -0.005064081
0.078009285 0.0023541378 -0.002751269 -0.022082549 -0.050896384 -0.00031936524 0.07367889 0.025917597
-0.0564439 0.05795928 0.0074245404 0.048417985 0.038014363 0.0014116862 0.033186045 0.0025593615
0.025396712 0.027457898 -0.0603553 -0.0396015 0.025423883 -0.059216045 -0.022972204 -0.04205076
-0.10699205 -0.09127373 0.029708967 -0.09782239 0.11525451 0.031715993 -0.029110685 0.04042139
0.06452301 0.024228638 -0.0413823 -0.021158738 -0.052472316 -0.029493364 0.101787895 -0.11051721
0.018417744 -0.013322714 -0.079854175 0.06411752 -0.012105777 0.031740025 0.040704206 -0.162342
-0.001774339 0.095586106 0.056794412 -0.0057750368 -0.0054855077 -0.09774081 -0.055045966 -0.044279344
-0.016055042 0.0019347932 0.03171966 -0.08014983 0.008097524 0.11671642 0.043322522 -0.00062919216
-0.086786106 0.08069455 -0.064732485 -0.0054573873 -0.051981118 -0.030934513 -0.033286504 -0.17919633
-0.03139469 -0.011498326 0.11067879 0.08645738 -0.007949405 0.0036043832 0.086472 -0.13641669
-0.01229445 -0.043445818 0.06177055 -0.02883758 -0.029177593 0.044285912 0.06564073 0.021252751
-0.02547835 0.008837282 -0.01982933 0.077527694 0.018724872 0.07001079 0.015844261 -0.07338313
00000000: b6cf 7ebd b48e b23d c7be 96bc 94e2 31bd
00000010: 198b 00bc 9231 11bd 82c5 d6bd 8537 b0bc
00000020: 77e6 ba3d 12d9 113b 44a8 653d be70 a7bd
00000030: 880d 99bc 50b9 c43d aa02 4dbd 77a6 f8bd
00000040: 4048 3dbd adce 74bb 01bd 4bbd 3bc0 643d
00000050: 7bc6 123d fd10 d93d dfb6 6e3d 383d a5bc
00000060: 3365 9fbd ae22 66bd f7fd 43bd 8aab 5bbd
00000070: 4d3d 283d adbb 67bc 7d74 2ebd cf9e 9ebc
00000080: cd09 cdbc ada5 1e3c 439c 86bd 4183 9fbc
00000090: 3d34 83bd e401 743d 477b d13c 2101 ad3d
000000a0: d0f9 90bd 0981 e7ba 5f73 79bd 8485 703c
000000b0: e8ee 5a3c 15ba b33d 8395 a43c 3c1a 93bc
000000c0: 55ef 39bd 5252 3ebd a50a 513d e411 e63d
000000d0: fde4 58bc 6e71 c43d 0405 1b3d 9815 613d
000000e0: dc43 b1bd 75a8 92bc d750 f83d 872a 0c3d
000000f0: 6a09 ad3d 0d44 42bd 2e9f 49bd fcdb f13d
00000100: 11af 85bc 9854 03bd cf6b 663c aa7c 93bd
00000110: b723 39bd 5abb 00bc f0e5 c13d c749 0f3d
00000120: ad5a 7abd 112e c13b c5c9 20bc 06e7 3d3d
00000130: 019b 023d 5fcd ad3d 6734 ba3a a523 c53d
00000140: 3eaf 01bd d474 c63d c815 a2bd 1544 64bd
00000150: 010e 38bd 610b 25bd 6dbc d23c c2cc 863d
00000160: bed8 f9bc d04c 10bd 5300 343d 6e2d 0cbd
00000170: f67b d93c 99d7 ebbd c1e6 983c 4b7d 3dbb
00000180: e12e e1bd 2beb 693c a2db 8d3d 5962 713d
00000190: 00ac 2cbd 9296 50bd efe9 f9bc 9b2c e73d
000001a0: 3784 3c3b d20e 1d3e a9b1 883d de93 c9bc
000001b0: 1cb2 953d b55f ae3d 39f3 30bd bc73 7b3d
000001c0: f654 633c 9049 20bd 4c25 18be 2ac6 71bc
000001d0: 29ba bfbc ec2b 79bd 3e8e 73bc 65cb 9e3b
000001e0: d2ab 83bd 6e9c 723c 0779 2b3d 72e0 ccbc
000001f0: 2e33 eabc 97ed c5bd b817 123e 567b efbc
00000200: 8e6f 84bc 7379 a2bd 9803 62bc ab9f 293d
00000210: 8420 34bd 558a abbc 47ec 82bd 55d8 2ebd
00000220: e434 36bd f2fb 703d 4215 dc3d 1401 093a
00000230: e945 c83d 8660 abbc f8e6 59bd 24f9 91bc
00000240: 36a1 3e3c e8df 18be e8a2 54bc ef77 bf3c
00000250: 8b66 52bc fdb9 d63d 61d4 11bb a4a0 c7bc
00000260: 9834 963d 2b53 8b3d 328a 1fbc a29b 6f3d
00000270: 34ed 353d 91f0 26bd 89e0 ee3b 97f0 a5bb
00000280: 55c3 9f3d e147 1a3b a24e 34bb 76e6 b4bc
00000290: ba78 50bd 7a70 a7b9 f5e4 963d 2451 d43c
000002a0: b831 67bd b666 6d3d 8f49 f33b f051 463d
000002b0: f3b4 1b3d 5408 b93a 17ee 073d f6ba 273b
000002c0: c40c d03c 63ef e03c 1e37 77bd 2f35 22bd
000002d0: bf45 d03c 868c 72bd 3430 bcbc 6b3d 2cbd
000002e0: a61e dbbd b9ed babd 3860 f33c 1b57 c8bd
000002f0: 8e0a ec3d a1e8 013d 8879 eebc e690 253d
00000300: a424 843d 237b c63c 7d80 29bd 1755 adbc
00000310: 36ed 56bd 119c f1bc 2c76 d03d d956 e2bd
00000320: cfe0 963c 8347 5abc 968a a3bd 0c50 833d
00000330: 4f57 46bc d401 023d 74b9 263d fb3c 26be
00000340: f090 e8ba a6c2 c33d 42a1 683d 853c bdbb
00000350: c6bf b3bb 552c c8bd e177 61bd 425e 35bd
00000360: dd85 83bc e398 fd3a 79ec 013d 9825 a4bd
00000370: 7aab 043c 0509 ef3d f572 313d 5ff0 24ba
00000380: eabc b1bd 2f43 a53d 7792 84bd e2d3 b2bb
00000390: 27ea 54bd 606a fdbc 6e57 08bd 3e7f 37be
000003a0: b897 00bd 7a63 3cbc 90ab e23d 9110 b13d
000003b0: 393e 02bc 8437 6c3b 3b18 b13d d1b0 0bbe
000003c0: a96e 49bc 3ef4 31bd 1e03 7d3d ca3c ecbc
000003d0: d905 efbc 2565 353d a66e 863d 401a ae3c
000003e0: f9b7 d0bc 3fca 103c 1e71 a2bc d7c6 9e3d
000003f0: e764 993c d161 8f3d d3cb 813c e549 96bd

network_body._body_endoder.seq_layers.4.weight f4 [256, 256]
-0.068504356 -0.09749037 -0.041978188 -0.0126436 -0.007236954 0.06293899 0.046273705 0.033367183
0.027124943 -0.03467881 -0.049040254 -0.055856433 0.009891809 0.0055877073 0.005105008 0.03153246
0.056003533 -0.038150672 0.11647201 -0.015945883 0.13615564 0.080021776 0.032393187 -0.03232077
0.13962764 0.05204153 -0.046489455 -0.03854251 0.110837474 0.09172357 0.027159031 0.17085814
0.06316256 -0.030165521 0.018101439 -0.019067507 0.036107473 0.022064094 0.050814454 -0.0027478817
0.0004428699 0.09918874 -0.054672204 -0.003959666 0.024855847 -0.01895569 -0.066102356 0.10809822
-0.039859697 -0.004151066 -0.105058394 -0.025054397 0.02982701 -0.04002415 -0.01383123 0.11041525
0.047256272 -0.008830443 0.06513188 0.08458988 -0.07070983 0.006045952 0.015350306 0.0041947393
-0.004557876 -0.06875164 -0.11449579 -0.07071067 -0.08870734 0.17652859 -0.079747856 -0.028202971
-0.07341672 -0.0768674 -0.106501296 0.087155834 -0.07503562 -0.030162444 -0.039550696 0.018340772
-0.041819308 -0.09260287 -0.0064556957 -0.07183607 0.059063405 0.053190127 0.08850616 0.052492347
-0.05261963 -0.021321276 0.04046943 -0.051010348 -0.07462388 -0.10536872 -0.04226281 0.029364446
0.047405392 0.08328355 -0.06500043 -0.057455033 0.023156112 0.06204397 0.075433694 0.028377496
0.10065084 -0.040273823 -0.027749525 -0.08898304 -0.020512978 -0.022259913 -0.0040945793 0.040166173
-0.09911452 0.028565958 0.040521834 0.12416828 0.015794056 -0.03190886 4.3244487e-05 0.058745705
0.045395773 -0.036864046 -0.017533308 -0.07281323 -0.13602374 -0.06327559 -0.036008503 0.05236336
-0.06241771 -0.024468757 -0.018981721 0.0088619925 0.041471127 -0.04808128 -0.045602385 0.01673623
0.0905197 -0.0032468813 -9.8410135e-05 0.021364281 -0.06864156 0.13679059 0.07080865 -0.036067765
0.077869624 -0.019915685 0.03931497 0.0040116264 -0.052259848 -0.013951048 0.0426346 0.09347252
-0.08926517 0.06828833 0.069107346 -0.041348588 -0.020107739 0.012211901 -0.08468477 -0.06009171
-0.054772526 -0.051233355 0.016577857 -0.019914832 0.042844795 0.0822694 -0.14151287 0.07092689
-0.05868758 0.12423228 0.06117198 -0.009575495 -0.06310091 0.081255324 0.060163714 0.060535472
0.008265439 0.034462944 0.013711723 -0.00022457085 0.13638987 -0.03853679 -0.008533605 0.103913315
0.025500651 -0.012856897 0.044526845 0.09739637 -0.06066153 -0.07512531 0.026473312 -0.12010187
0.017471185 -0.025084682 -0.114724405 0.09780226 0.045359477 -0.038698535 -0.110301435 0.09423539
-0.0634398 0.10865506 0.001135475 0.00955242 -0.025826927 0.004969304 -0.119414546 -0.04231652
-0.03376045 -0.07912357 -0.028561493 0.022949398 0.0037667232 -0.17813686 0.012194145 0.06629396
0.03993574 -0.15760504 -0.048545502 0.041054145 -0.04019398 -0.10326996 -0.04489745 0.0061521083
0.024894396 -0.027758181 -0.058617666 0.10045317 0.11604313 -0.0462209 0.03864994 0.08530482
-0.050437905 -0.017521027 0.023555279 0.0021318449 -0.08197704 0.13051091 0.01119133 -0.0052306782
0.024366265 -0.007624595 0.024009662 -0.04358045 0.0012753862 -0.00014007032 0.09108722 -0.076727554
-0.03418094 -0.040499896 -0.026502198 0.008405551 0.043107137 0.031930413 0.03547367 -0.07808862
00000000: 034c 8cbd 08a9 c7bd 52f1 2bbd 1a27 4fbc
00000010: f823 edbb 28e6 803d 7f89 3d3d 07ac 083d
00000020: 2135 de3c 5e0b 0ebd 6fde 48bd b7c9 64bd
00000030: 4111 223c 1619 b73b e947 a73b 2e28 013d
00000040: f663 653d e143 1cbd e188 ee3d f1a0 82bc
00000050: 626c 0b3e 75e2 a33d b8ae 043d c962 04bd
00000060: 8cfa 0e3e 8029 553d ba6b 3ebd c0de 1dbd
00000070: c2fe e23d 91d9 bb3d 9e7c de3c 70f5 2e3e
00000080: 5f5b 813d af1d f7bc 7849 943c 7633 9cbc
00000090: 6ee5 133d c2bf b43c d122 503d ce15 34bb
000000a0: fe30 e839 7723 cb3d f6ef 5fbd 16c0 81bb
000000b0: 7d9e cb3c f748 9bbc ac60 87bd 9962 dd3d
000000c0: ec43 23bd aa05 88bb db28 d7bd e13e cdbc
000000d0: c657 f43c 5df0 23bd 629c 62bc 6421 e23d
000000e0: cb8f 413d 90ad 10bc dd63 853d 763d ad3d
000000f0: 51d0 90bd 1f1d c63b da7f 7b3c 0674 893b
00000100: 3c5a 95bb a9cd 8cbd c57c eabd c1d0 90bd
00000110: 32ac b5bd e9c3 343e d852 a3bd eb09 e7bc
00000120: 815b 96bd a86c 9dbd 5a1d dabd c27e b23d
00000130: 46ac 99bd 3b17 f7bc e9ff 21bd 633f 963c
00000140: b94a 2bbd 93a6 bdbd 4d8a d3bb ca1e 93bd
00000150: 78ec 713d e4dd 593d b842 b53d 3702 573d
00000160: ae87 57bd f5a9 aebc 46c3 253d 3af0 50bd
00000170: 68d4 98bd 8ecb d7bd c51b 2dbd b58d f03c
00000180: 282c 423d 9190 aa3d f21e 85bd f855 6bbd
00000190: e3b1 bd3c d121 7e3d fb7c 9a3d ec77 e83c
000001a0: 0722 ce3d 2af6 24bd f952 e3bc bd3c b6bd
000001b0: d50a a8bc 6c5a b6bc d22b 86bb 4985 243d
000001c0: 8efc cabd 2803 ea3c 39fa 253d f04b fe3d
000001d0: 8962 813c ddb2 02bd 6a61 3538 569f 703d
000001e0: ebf0 393d c1fe 16bd 03a2 8fbc 1a1f 95bd
000001f0: cf49 0bbe a296 81bd a77d 13bd f67a 563d
00000200: b6a9 7fbd b472 c8bc 8e7f 9bbc e431 113c
00000210: a1dd 293d e0f0 44bd 91c9 3abd 6b1a 893c
00000220: 6462 b93d a1c9 54bb 8a61 ceb8 2504 af3c
00000230: f293 8cbd d512 0c3e 2004 913d cbbb 13bd
00000240: 1c7a 9f3d 3826 a3bc bc08 213d f673 833b
00000250: 6c0e 56bd f092 64bc 9ea1 2e3d 856e bf3d
00000260: a8d0 b6bd c1da 8b3d 2788 8d3d 235d 29bd
00000270: fcb8 a4bc 6d14 483c 356f adbd ba22 76bd
00000280: 2859 60bd 11da 51bd 49ce 873c 6e24 a3bc
00000290: 067e 2f3d dc7c a83d c0e8 10be 1e42 913d
000002a0: 6362 70bd 7e6d fe3d 788f 7a3d 89e2 1cbc
000002b0: 0d3b 81bd 3169 a63d 3a6e 763d 0bf4 773d
000002c0: c46b 073c 0429 0d3d 22a7 603c c77a 6bb9
000002d0: c9a9 0b3e c1d8 1dbd 89d0 0bbc 81d0 d43d
000002e0: bee6 d03c bca5 52bc c861 363d bf77 c73d
000002f0: 3978 78bd 4cdb 99bd 8fde d83c f8f7 f5bd
00000300: bb1f 8f3c 647e cdbc a1f4 eabd 8d4c c83d
00000310: dcca 393d 5b82 1ebd b8e5 e1bd 7cfe c03d
00000320: baec 81bd 8b86 de3d 38d4 943a c181 1c3c
00000330: fe92 d3bc 8bd5 a23b 9d8f f4bd 1654 2dbd
00000340: 6648 0abd 8a0b a2bd cbf9 e9bc 6000 bc3c
00000350: 21db 763b 8269 36be f3c9 473c 21c5 873d
00000360: a993 233d 3763 21be a6d7 46bd 6428 283d
00000370: 71a2 24bd 337f d3bd 63e6 37bd a097 c93b
00000380: 55ef cb3c 2065 e3bc 1419 70bd 64ba cd3d
00000390: 05a8 ed3d 2052 3dbd 664f 1e3d 4bb4 ae3d
000003a0: fa97 4ebd 4288 8fbc 00f7 c03c 6cb6 0b3b
000003b0: 94e3 a7bd a7a4 053e d75b 373c 1c66 abbb
000003c0: c39b c73c bdd7 f9bb e9af c43c 6a81 32bd
000003d0: dc2a a73a d7df 12b9 f08b ba3d 5623 9dbd
000003e0: 5001 0cbd 38e3 25bd 231b d9bc 70b7 093c
000003f0: 1c91 303d 77c9 023d d74c 113d edec 9fbd

action_model._continuous_distribution.log_sigma f4 [1, 2]
0.0 0.0
00000000: 0000 0000 0000 0000

action_model._continuous_distribution.mu.weight f4 [2, 256]
0.0047913035 0.0025909937 -0.010235708 0.012704096 0.0029937997 -0.0022187696 -0.012291088 -0.008191932
-0.0147107495 0.008354771 -0.013505951 0.0014289698 -0.0056691305 0.017687466 0.0016348318 0.012956882
0.0120678255 -0.015590942 -0.016614288 -0.005049994 0.008882301 -0.022707231 -0.0060112583 0.009948365
-0.0069287308 -0.0077657485 0.016607987 0.013338325 0.0062019518 -0.0055774967 0.0033856262 -0.0008554604
-0.008773567 0.0007647168 0.0071590515 0.004572091 -0.006172377 0.03120556 0.023713961 0.011730897
0.009315218 -0.020448988 0.012018758 -0.0065839016 0.010011176 0.012335388 -0.00763234 0.009850339
0.015085719 0.014884886 -0.0030818414 0.02695991 0.011795237 0.018940566 0.013193754 0.030608797
-0.0005904756 0.017441757 -0.0016478777 0.0031024078 0.010648711 0.011524941 0.0031321184 0.019463474
0.00039707767 0.0028231514 -0.0021246762 0.018230304 -0.012489424 -0.004276674 -0.003082811 -0.012792229
-0.0006934975 0.0042193965 0.00714834 -0.010128921 0.019678166 -0.03159712 0.0035382197 -0.00716296
-0.01742669 0.01570832 0.006608084 -0.0040445803 -0.001492934 0.0012292478 0.008827015 0.022595769
0.0035360511 -0.0070335963 -0.019908672 0.0044365022 0.008037383 0.0053626574 -0.025139904 0.008939132
0.014914125 -0.020607557 0.001206757 0.00624811 0.00053596875 0.006602205 0.0033896256 -0.00029616183
0.0048692455 0.009211038 -0.0074259536 -0.003058621 -0.010528733 -0.007532043 -0.012785946 0.00238083
-0.016872657 0.012434343 -0.0070256176 0.0039155697 -0.0040910733 -0.015656453 0.0006672155 -0.011274068
-0.019034175 -0.0011131779 -0.00619048 0.0014734868 0.012257797 0.015088955 -0.002928434 0.0068060975
0.0005378301 -0.0077437246 0.0072471253 -0.0055990256 0.0065597356 0.004444496 0.008943426 -0.01835929
-0.013918462 -0.010277256 0.004766423 -0.0073889964 -0.019437386 -0.013094703 0.006092659 0.0008000205
-0.01640831 -0.0037905113 -0.004123885 0.009697809 -0.02230685 -0.0006136718 0.024547046 0.023542894
-0.007918344 -0.011571287 0.0024774189 0.010228869 0.0039040719 0.018636081 0.01078502 -0.0027121955
-0.0031401736 -0.009092675 -0.00029067413 0.018364167 -0.013074006 -0.0158376 0.0007153188 0.01977813
-0.008441842 0.0420042 -0.0070258514 -0.003399744 -0.022651097 0.019837406 0.007188884 0.020857919
-0.0032131437 0.0028208226 -0.012010668 -0.010463744 0.009446991 -0.028148895 0.042253356 -0.017365003
0.006177408 -0.0007143395 0.0041834447 0.0019817736 0.01085368 0.0014227479 -0.0029568071 -0.003534006
-0.012128896 -0.016991703 0.010926212 0.0017093535 -0.011437734 0.011368074 0.0050861295 -0.0036278907
0.017077956 0.004604501 0.0024625903 -0.012638916 0.010319888 -0.0054016965 0.005724174 -0.015391595
-0.01133026 -0.016389355 0.010424358 -0.02131338 -0.014452698 0.018284002 -0.011793374 0.0021193647
-0.0017915874 0.012724551 0.007642235 -0.007980007 -2.8007638e-05 -0.004028445 0.009745157 -0.010974136
0.009904954 -0.0090868 -0.01034096 0.00061502575 -0.008251589 -0.008807986 0.0006007563 -0.012600054
-0.0036772192 -0.024872975 -0.015391472 -0.016406756 -0.011083829 0.018413078 0.024170246 -0.027717918
-0.031362306 0.022791376 0.0007593017 -0.0030710509 -0.028029134 0.014805702 0.0069560767 0.0014567883
0.01244048 0.003428821 -0.0036380466 0.014353941 -0.010251594 0.0007034557 0.009818519 -0.005861134
00000000: 5e00 9d3b a9cd 293b acb3 27bc d724 503c
00000010: a033 443b c768 11bb 8f60 49bc 7437 06bc
00000020: 5b05 71bc 73e2 083c 1048 5dbc 454c bb3a
00000030: 1dc4 b9bb 4ee5 903c da47 d63a 1a49 543c
00000040: 21b8 453c 2771 7fbc b01a 88bc 6c7a a5bb
00000050: 1287 113c 8404 babc 17fa c4bb 78fe 223c
00000060: 680a e3bb d277 febb 790d 883c fd88 5a3c
00000070: be39 cb3b 6fc3 b6bb 62e1 5d3b fa40 60ba
00000080: 02bf 0fbc 4777 483a 7a96 ea3b 7bd1 953b
00000090: a741 cabb cda2 ff3c c843 c23c f332 403c
000000a0: db9e 183c a384 a7bc 53ea 443c c5bd d7bb
000000b0: ea05 243c 5e1a 4a3c b518 fabb 5163 213c
000000c0: 172a 773c bddf 733c b8f8 49bb 07db dc3c
000000d0: cf40 413c 3f29 9b3c 9d2a 583c 4dbf fa3c
000000e0: 26ca 1aba 04e2 8e3c 9afd d7ba c451 4b3b
000000f0: ee77 2e3c 1bd3 3c3c 3a44 4d3b dd71 9f3c
00000100: dd2e d039 9f04 393b 273e 0bbb b857 953c
00000110: 71a0 4cbc 5723 8cbb fc08 4abb 7f96 51bc
00000120: d4cb 35ba dd42 8a3b 9f3c ea3b c6f3 25bc
00000130: 1b34 a13c fb6b 01bd 7ae1 673b 43b7 eabb
00000140: 6bc2 8ebc bcae 803c a088 d83b 6688 84bb
00000150: 8dae c3ba b61e a13a 2f9f 103c c31a b93c
00000160: 18bd 673b 157a e6bb 8317 a3bc 1460 913b
00000170: 3aaf 033c 3bb9 af3b 33f2 cdbc 7075 123c
00000180: 605a 743c 2ed1 a8bc 0c2c 9e3a f2bc cc3b
00000190: 4180 0c3a 4f57 d83b 7b24 5e3b 2b46 9bb9
000001a0: 318e 9f3b e5e9 163c 6a55 f3bb 2573 48bb
000001b0: b580 2cbc 5bcf f6bb 257c 51bc b307 1c3b
000001c0: 8738 8abc 6ab9 4b3c 2737 e6bb 2e4e 803b
000001d0: 690e 86bb f641 80bc 13e8 2e3a deb6 38bc
000001e0: 8fed 9bbc 0de8 91ba 83d9 cabb 0322 c13a
000001f0: edd4 483c aa37 773c f8ea 3fbb af05 df3b
00000200: 2bfd 0c3a 12bf fdbb 4b79 ed3b 0878 b7bb
00000210: 0df3 d63b 22a3 913b 7387 123c 3966 96bc
00000220: 430a 64bc f061 28bc a72f 9c3b 651f f2bb
00000230: 273b 9fbc 2a8b 56bc eea4 c73b 78b8 513a
00000240: b86a 86bc 3a6a 78bb a821 87bb 8fe3 1e3c
00000250: dbbc b6bc d1de 20ba e316 c93c 07dd c03c
00000260: f1bb 01bc 7f95 3dbc 315c 223b fc96 273c
00000270: 75db 7f3b b2aa 983c a7b3 303c 17bf 31bb
00000280: 5fcb 4dbb 71f9 14bc 9f65 98b9 7370 963c
00000290: 5b34 56bc dbbd 81bc 3b84 3b3a bf05 a23c
000002a0: a74f 0abc 990c 2c3d 1d39 e6bb 3dce 5ebb
000002b0: cb8e b9bc 0e82 a23c bb90 eb3b 3ade aa3c
000002c0: 9b93 52bb 8ddd 383b 65c8 44bc 2070 2bbc
000002d0: 8dc7 1a3c 8398 e6bc db11 2d3d 0d41 8ebc
000002e0: db6b ca3b 8342 3bba 4715 893b a5e0 013b
000002f0: a2d3 313c 7f7b ba3a fec6 41bb c89a 67bb
00000300: 47b8 46bc 2f32 8bbc db03 333c 630c e03a
00000310: 5565 3bbc 2941 3a3c 8ca9 a63b e8c1 6dbb
00000320: 12e7 8b3c 5be1 963b 6963 213b 7513 4fbc
00000330: bf14 293c b700 b1bb da91 bb3b 072d 7cbc
00000340: 8ea2 39bc f842 86bc edca 2a3c 6699 aebc
00000350: 02cb 6cbc 55c8 953c ff38 41bc 0ae5 0a3b
00000360: b3d3 eaba a37a 503c b76b fa3b 93be 02bc
00000370: f2f1 eab7 0c01 84bb 27aa 1f3c ddcc 33bc
00000380: 6348 223c cde0 14bc 216d 29bc ae39 213a
00000390: ac31 07bc 5f4f 10bc 137c 1d3a 7570 4ebc
000003a0: 80fd 70bb 69c2 cbbc 832c 7cbc 7667 86bc
000003b0: f398 35bc 06d7 963c ae00 c63c b010 e3bc
000003c0: c375 00bd fbb4 ba3c e00b 473a af43 49bb
000003d0: 5b9d e5bc 9d93 723c cdef e33b b4f1 be3a
000003e0: 28d3 4b3c 12b6 603b 4b6c 6ebb cb2c 6b3c
000003f0: 4df6 27bc 1d68 383a dbdd 203c c10e c0bb

action_model._continuous_distribution.mu.bias f4 [2]
0.0 0.0
00000000: 0000 0000 0000 0000

onnx::Div_66 f4 [100]
1.0 1.0 1.0 1.0 1.0 1.0 1.0 1.0
1.0 1.0 1.0 1.0 1.0 1.0 1.0 1.0
1.0 1.0 1.0 1.0 1.0 1.0 1.0 1.0
1.0 1.0 1.0 1.0 1.0 1.0 1.0 1.0
1.0 1.0 1.0 1.0 1.0 1.0 1.0 1.0
1.0 1.0 1.0 1.0 1.0 1.0 1.0 1.0
1.0 1.0 1.0 1.0 1.0 1.0 1.0 1.0
1.0 1.0 1.0 1.0 1.0 1.0 1.0 1.0
1.0 1.0 1.0 1.0 1.0 1.0 1.0 1.0
1.0 1.0 1.0 1.0 1.0 1.0 1.0 1.0
1.0 1.0 1.0 1.0 1.0 1.0 1.0 1.0
1.0 1.0 1.0 1.0 1.0 1.0 1.0 1.0
1.0 1.0 1.0 1.0
00000000: 0000 803f 0000 803f 0000 803f 0000 803f
00000010: 0000 803f 0000 803f 0000 803f 0000 803f
00000020: 0000 803f 0000 803f 0000 803f 0000 803f
00000030: 0000 803f 0000 803f 0000 803f 0000 803f
00000040: 0000 803f 0000 803f 0000 803f 0000 803f
00000050: 0000 803f 0000 803f 0000 803f 0000 803f
00000060: 0000 803f 0000 803f 0000 803f 0000 803f
00000070: 0000 803f 0000 803f 0000 803f 0000 803f
00000080: 0000 803f 0000 803f 0000 803f 0000 803f
00000090: 0000 803f 0000 803f 0000 803f 0000 803f
000000a0: 0000 803f 0000 803f 0000 803f 0000 803f
000000b0: 0000 803f 0000 803f 0000 803f 0000 803f
000000c0: 0000 803f 0000 803f 0000 803f 0000 803f
000000d0: 0000 803f 0000 803f 0000 803f 0000 803f
000000e0: 0000 803f 0000 803f 0000 803f 0000 803f
000000f0: 0000 803f 0000 803f 0000 803f 0000 803f
00000100: 0000 803f 0000 803f 0000 803f 0000 803f
00000110: 0000 803f 0000 803f 0000 803f 0000 803f
00000120: 0000 803f 0000 803f 0000 803f 0000 803f
00000130: 0000 803f 0000 803f 0000 803f 0000 803f
00000140: 0000 803f 0000 803f 0000 803f 0000 803f
00000150: 0000 803f 0000 803f 0000 803f 0000 803f
00000160: 0000 803f 0000 803f 0000 803f 0000 803f
00000170: 0000 803f 0000 803f 0000 803f 0000 803f
00000180: 0000 803f 0000 803f 0000 803f 0000 803f

onnx::Div_69 f4 [6]
1.0 1.0 1.0 1.0 1.0 1.0
00000000: 0000 803f 0000 803f 0000 803f 0000 803f
00000010: 0000 803f 0000 803f
