results/run3/CarAgent/CarAgent-499979.onnx (onnx, 126338 bytes, 7 tensors)

network_body._body_endoder.seq_layers.0.weight f4 [128, 106]
-0.00038690408 -0.13746953 -0.0858217 -0.020016119 -0.038856994 -0.040625434 0.27018636 0.052268263
-0.09238634 0.15489936 0.05505195 0.03145276 -0.069631666 0.08931874 0.07481344 -0.02421781
0.051130336 -0.1801292 -0.038861345 -0.10706032 -0.04919292 0.07120656 0.002810356 -0.083592825
-0.007757298 -0.049869083 -0.028441938 0.03058613 -0.00450611 -0.035043027 -0.16608256 0.019759502
-0.021501334 -0.0451971 0.21403979 0.17233214 -0.052691683 -0.07734741 0.10991959 -0.13869299
0.10919703 0.025611917 0.16109218 -0.07634346 0.1551262 0.07623247 -0.051571917 -0.08195143
0.108280055 0.04004592 -0.16657741 -0.11021775 -0.038565073 -0.02702486 -0.027474545 -0.101538904
-0.015714262 -0.23385116 0.11731979 0.0032710084 0.037943743 0.24845338 -0.048666544 -0.09743966
0.148568 -0.063377745 0.044031877 -0.01190979 -0.006019369 -0.037343733 -0.09576833 0.19704679
-0.060655408 -0.062256895 -0.15591402 -0.022693498 0.016576905 -0.035704568 -0.009068741 0.071042866
0.092520565 -0.16097923 -0.12224093 0.0663289 0.2249834 -0.023911064 0.090738215 -0.008474542
-0.022378953 -0.013161293 -0.05482132 -0.023704195 0.010833708 0.15137295 -0.20183842 -0.008838742
0.17144874 -0.08969819 -0.14363727 -0.16057903 -0.018084152 -0.04489897 0.07354667 0.016267026
-0.0876244 -0.07569661 -0.009234995 -0.16898088 -0.06653575 0.05683822 0.08305955 -0.043179527
0.044905096 0.10891672 0.06910902 0.14171727 0.117062345 0.022951279 -0.008632869 -0.027806692
-0.11539003 0.095689364 0.01667906 0.19601943 0.18553887 -0.02393235 0.16411914 0.08682241
-0.025816793 0.03550887 -0.10232057 0.07496149 0.17016312 0.205833 -0.06451539 -0.011634774
-0.068916075 -0.12665443 -0.11958917 -0.0150647 -0.02382853 0.04256686 0.028588373 0.0053532324
0.008807685 -0.11945988 -0.24181516 0.0791138 0.07056459 -0.101740435 0.27609676 -0.14194767
0.036340374 0.10896943 -0.25823265 0.028861614 -0.10912673 -0.08373798 0.2013902 -0.087606356
-0.07525051 -0.12368343 -0.119954586 0.033572417 -0.043930825 0.045682993 -0.13833441 -0.0497288
0.058071565 0.037793476 -0.12624873 -0.045428704 -0.21277359 0.27233446 0.045287825 -0.053944293
-0.07640605 0.056073185 0.0029418936 0.08132515 0.011663681 0.1576536 0.018731514 -0.17181605
-0.10070979 -0.09459758 -0.14725028 0.06186146 -0.03456817 0.07582689 -0.0073587676 -0.04286462
-0.01210037 -0.12469572 -0.058652 -0.0012903376 0.17658411 -0.037662856 0.14616123 0.029012484
0.061490044 -0.051644914 -0.034029827 0.03834903 -0.12901111 0.050767742 -0.024613045 0.03337797
0.1757552 0.0691339 0.026873486 0.032568242 -0.038385544 0.08250803 -0.032158945 0.08719149
0.07482221 0.029313784 -0.0064971535 0.19224592 -0.20254172 -0.07908197 0.10361366 0.10595153
-0.16214553 0.1777525 0.028246498 -0.07041375 -0.049871385 0.03777864 0.003043916 -0.03547766
-0.13242258 0.22066103 0.013274703 -0.11698197 0.06735548 0.14665857 -0.08553815 0.12505984
-0.0066317967 0.03620038 0.031060863 -0.18960021 -0.02016038 -0.04177416 0.17166209 -0.0047949404
0.02429692 0.04321926 -0.058872994 0.13830361 -0.0072716824 0.04288628 -0.011333217 -0.0013237437
00000000: 63d9 cab9 d0c4 0cbe 4ac3 afbd d8f8 a3bc
00000010: 8328 1fbd db66 26bd de55 8a3e 3f17 563d
00000020: 0d35 bdbd f09d 1e3e 277e 613d 9cd4 003d
00000030: 0c9b 8ebd beec b63d ca37 993d 6e64 c6bc
00000040: 0b6e 513d ca73 38be 132d 1fbd 7142 dbbd
00000050: 847e 49bd bfd4 913d f32d 383b b732 abbd
00000060: ef30 febb 8643 4cbd 11ff e8bc c48f fa3c
00000070: fea7 93bb 4789 0fbd 8c11 2abe aede a13c
00000080: 9123 b0bc 9820 39bd 3f2d 5b3e d677 303e
00000090: 3cd3 57bd 5268 9ebd 861d e13d 8905 0ebe
000000a0: b1a2 df3d 15d0 d13c 59f5 243e f659 9cbd
000000b0: 67d9 1e3e c51f 9c3d 133d 53bd 27d6 a7bd
000000c0: efc1 dd3d 3107 243d 4593 2abe d8b9 e1bd
000000d0: 69f6 1dbd 3d63 ddbc 4c12 e1bc a1f3 cfbd
000000e0: 32bb 80bc ae76 6fbe 5c45 f03d 6a5e 563b
000000f0: e66a 1b3d 906a 7e3e 9256 47bd 728e c7bd
00000100: 3622 183e 31cc 81bd c55a 343d 4821 43bc
00000110: 203e c5bb bef5 18bd 3022 c4bd a2c6 493e
00000120: ce71 78bd 1601 7fbd eda7 1fbe b7e7 b9bc
00000130: 4acc 873c f43e 12bd 0f95 14bc ec7e 913d
00000140: 6c7b bd3d bdd7 24be 7459 fabd 72d7 873d
00000150: 0c62 663e 23e1 c3bc f5d4 b93d ced8 0abc
00000160: 1154 b7bc 77a2 57bc 528c 60bd 4d2f c2bc
00000170: dd7f 313c 8301 1b3e bbae 4ebe 5fd0 10bc
00000180: 4290 2f3e afb3 b7bd a615 13be d46e 24be
00000190: 3725 94bc fbe7 37bd a39f 963d 6d42 853c
000001a0: 6c74 b3bd d306 9bbd 604e 17bc 5309 2dbe
000001b0: e543 88bd 32cf 683d 201b aa3d 04dd 30bd
000001c0: 68ee 373d bb0f df3d 0889 8d3d 551e 113e
000001d0: 62be ef3d 5204 bc3c e170 0dbc dcca e3bc
000001e0: 9c51 ecbd c9f8 c33d 86a2 883c 51b9 483e
000001f0: e7fd 3d3e c70d c4bc d90e 283e f3cf b13d
00000200: bd7d d3bc c071 113d 728d d1bd 6985 993d
00000210: 3e3f 2e3e e3c5 523e a520 84bd c79f 3ebc
00000220: df23 8dbd b3b1 01be 2beb f4bd eed1 76bc
00000230: 0d34 c3bc 965a 2e3d 2a32 ea3c 2b6a af3b
00000240: 1c4e 103c 62a7 f4bd 659e 77be 6a06 a23d
00000250: 2b84 903d 4a5d d0bd 8e5c 8d3e bb5a 11be
00000260: a5d9 143d 5d2b df3d 1237 84be 316f ec3c
00000270: d67d dfbd d17e abbd 3c39 4e3e f66a b3bd
00000280: f01c 9abd bd4d fdbd c0aa f5bd 3b83 093d
00000290: cff0 33bd 171e 3b3d 89a7 0dbe 6db0 4bbd
000002a0: 73dc 6d3d 55cd 1a3d 5947 01be 7313 3abd
000002b0: 52e1 59be 6c6f 8b3e ba7f 393d b1f4 5cbd
000002c0: c67a 9cbd ffac 653d c9cc 403b cd8d a63d
000002d0: 0619 3f3c f26f 213e d572 993c 8cf0 2fbe
000002e0: ef40 cebd 60bc c1bd c7c8 16be 7162 7d3d
000002f0: 5a97 0dbd 214b 9b3d d121 f1bb d092 2fbd
00000300: a140 46bc 7860 ffbd 143d 70bd 8c20 a9ba
00000310: 77d2 343e 5e44 1abd 4aab 153e 97ab ed3c
00000320: fcdc 7b3d 9e89 53bd dc62 0bbd df13 1d3d
00000330: 7d1b 04be d6f1 4f3d 4ca1 c9bc 57b7 083d
00000340: 2cf9 333e 1396 8d3d c925 dc3c 4766 053d
00000350: 293a 1dbd f8f9 a83d 19b9 03bd 7491 b23d
00000360: 633c 993d 7623 f03c 13e6 d4bb 1ddc 443e
00000370: 1967 4fbe baf5 a1bd 6633 d43d 1efd d83d
00000380: 7a09 26be c004 363e 3365 e73c 1635 90bd
00000390: f045 4cbd c6bd 1a3d 707c 473b 0651 11bd
000003a0: c999 07be f7f4 613e 247e 593c 3e94 efbd
000003b0: abf1 893d aa2d 163e a02e afbd b00f 003e
000003c0: 8b4f d9bb da46 143d 5a73 fe3c 8f26 42be
000003d0: 6227 a5bc 621b 2bbd 30c8 2f3e e01e 9dbb
000003e0: 560a c73c ae06 313d cf24 71bd 769f 0d3e
000003f0: 4b47 eebb 86a9 2f3d f5ae 39bc 7881 adba

network_body._body_endoder.seq_layers.0.bias f4 [128]
-0.017248616 0.013360782 0.025673645 0.027031105 -0.024446707 0.014251993 -0.0005324953 -0.00049558445
0.012943528 0.0044078208 -0.022504633 0.036839962 -0.021525562 0.0038752032 0.009797663 0.019953184
0.021588849 0.0131876655 0.002911557 -0.008429132 0.014109602 0.0024770494 0.026690997 0.031139238
0.0033234102 0.001041855 0.0020300813 0.015606356 -0.019438198 -0.0069145677 0.033854976 -0.0087306965
0.0009345205 0.014274797 -0.0014779778 0.012475126 -0.00018000796 -0.015206043 0.011496763 -0.014504949
-0.017873812 -0.0038210803 -0.0043275366 0.04382838 -0.0049918843 0.0052932715 -0.010159018 0.019661209
-0.0045157215 0.01957599 0.008465724 -0.0090356255 -0.014845955 -0.027512599 -0.00042888452 0.0041400436
0.019868214 -0.021785205 -0.01806229 0.009858145 -0.011801696 0.01965866 -0.0073362896 -0.0061664926
-0.011059498 0.01956659 0.011404915 0.019667292 -0.029609524 0.005931476 -0.0022597013 -0.0070583285
0.0027518112 0.012601868 0.021206884 -0.037857965 -0.009776606 -0.007982495 -0.0073707956 0.009300051
0.009194682 0.015122148 0.018440546 0.01834438 0.016699178 0.0141795995 0.011917889 0.013274484
-0.020495174 0.0074174716 -0.017472636 -0.007289534 0.00052976457 -0.025233798 -0.018635409 0.026119169
0.028391803 -0.0064274645 -0.0064241188 -0.008546964 -0.009522102 0.009365863 0.018200254 -0.020188333
0.02561968 0.025025155 -0.016778126 -0.001716846 -8.189223e-05 -0.019437108 0.008242772 0.050710447
0.0158619 0.012370954 -0.0043884087 0.0132852765 0.0014812393 0.0152659295 0.020442488 0.008181988
0.020240132 0.0029152504 0.037065063 -0.0024619426 0.008813394 -0.00512407 0.027486524 0.019020887
00000000: f84c 8dbc 2ee7 5a3c 8951 d23c 5670 dd3c
00000010: 7644 c8bc 3181 693c 2897 0bba 1cea 01ba
00000020: 1711 543c 7b6f 903b a35b b8bc 80e5 163d
00000030: 6056 b0bc 1ff7 7d3b 6186 203c dc74 a33c
00000040: 19db b03c 1411 583c d2cf 3e3b 581a 0abc
00000050: f62b 673c fe55 223b 14a7 da3c b717 ff3c
00000060: 92cd 593b da8e 883a 1d0b 053b cdb1 7f3c
00000070: db3c 9fbc 9993 e2bb 84ab 0a3d 320b 0fbc
00000080: 9cfa 743a d7e0 693c b5b8 c1ba 7964 4c3c
00000090: 85c0 3cb9 c422 79bc eb5c 3c3c 2aa6 6dbc
000000a0: 1a6c 92bc 176b 7abb 02ce 8dbb 6385 333d
000000b0: f692 a3bb 2e73 ad3b 0372 26bc 8b10 a13c
000000c0: 9ef8 93bb d45d a03c d2b3 0a3c 290a 14bc
000000d0: 733c 73bc 1a62 e1bc e8db e0b9 34a9 873b
000000e0: aac2 a23c e376 b2bc 5ef7 93bc 0f84 213c
000000f0: e75b 41bc 330b a13c 4265 f0bb 4a10 cabb
00000100: e632 35bc 1d4a a03c aedb 3a3c 4d1d a13c
00000110: ac8f f2bc d45c c23b 7f17 14bb 8d49 e7bb
00000120: bb57 343b 1178 4e3c 0fba ad3c f410 1bbd
00000130: 0f2e 20bc 03c9 02bc b786 f1bb 3e5f 183c
00000140: 4ba5 163c e3c2 773c a110 973c f446 963c
00000150: b7cc 883c 8d51 683c 4043 433c 397d 593c
00000160: 7fe5 a7bc 430e f33b c622 8fbc 0bdd eebb
00000170: e6df 0a3a 1cb7 cebc 49a9 98bc def7 d53c
00000180: ed95 e83c 7b9d d2bb 6a81 d2bb 9108 0cbc
00000190: 9702 1cbc 4773 193c b318 953c 0162 a5bc
000001a0: 5de0 d13c 8e01 cd3c 4872 89bc cb07 e1ba
000001b0: 8ebd abb8 923a 9fbc b10c 073c c2b5 4f3d
000001c0: d1f0 813c 8baf 4a3c a4cc 8fbb 7daa 593c
000001d0: 2526 c23a f31d 7a3c 0177 a73c bf0d 063c
000001e0: a2ce a53c c90d 3f3b 89d1 173d 8b58 21bb
000001f0: 0e66 103c d1e7 a7bb 6b2b e13c b1d1 9b3c

network_body._body_endoder.seq_layers.2.weight f4 [128, 128]
0.026148053 -0.0811332 -0.16561249 0.02686996 -0.037954845 -0.08157593 -0.0401663 -0.063218325
0.028544953 0.06234336 0.0069789942 0.049521297 -0.10962635 -0.01945778 -0.19350608 -0.014070517
-0.04497422 0.011983441 -0.12834203 0.027731292 0.0064742668 -0.08177962 -0.015831472 -0.0693113
0.27659383 0.09782905 0.097134575 0.16516025 -0.04082212 -0.0416487 -0.031033099 0.026751515
0.050751973 0.0012413128 0.0933849 -0.0033571164 0.022385236 -0.008512836 0.016826056 0.062058035
0.006861006 -0.1611095 0.062079187 0.12392956 -0.016914306 -0.124215364 0.12308923 -0.032785438
-0.0685235 0.1212561 0.13010162 0.048837263 0.10069198 0.036072772 0.27915606 -0.0592936
-0.05075726 0.027418315 -0.07365018 0.13006632 0.19664587 -0.030076563 -0.122917704 -0.007003287
-0.1208241 -0.12411012 -0.021507444 -0.06276455 0.04088854 0.016217036 0.05274223 -0.12901257
0.003985397 0.101591125 -0.11634343 -0.06908624 -0.0033628757 0.15073086 -0.115754455 -0.1415391
-0.0044741295 0.11524794 -0.15312341 0.007061057 -0.059481803 0.03153757 -0.012840541 -0.102879904
0.18178368 0.08710917 0.07139435 -0.025387991 -0.03189479 0.051299244 0.037093814 -0.17484444
-0.24013823 0.09027058 0.09007264 -0.02544019 0.05527189 -0.024308378 -0.037147284 -0.13644314
-0.050793067 0.05242467 0.024386145 0.060709745 -0.03484271 0.03435498 0.10730608 0.07193211
0.14491086 0.12883104 -0.005095162 0.0993697 -0.028935174 0.053663835 -0.022030547 0.012796423
0.019179462 -0.03352982 -0.02209664 -0.03030906 -0.1568187 0.08971719 0.0126254065 0.06706264
-0.17519015 0.04892318 -0.08667157 0.018599302 -0.0046067857 -0.059210923 -0.15504985 -0.08347222
0.03400899 -0.17514004 -0.021397566 0.08889495 -0.040965836 -0.07627093 0.014294955 0.17243952
-0.04392756 0.010968809 -0.08511659 -0.06226497 -0.124311015 -0.016777994 -0.014351393 -0.22598007
0.020572769 -0.017350407 -0.078144886 0.06565256 0.13926536 -0.009533549 -0.07410979 -0.092233464
-0.049324274 0.09558633 -0.17059493 0.040046386 -0.028439643 -0.11890482 0.10863331 0.024274642
0.03264196 -0.05156996 0.07585958 0.02415452 0.055201083 0.016561428 -0.0646708 0.020131461
-0.25177357 -0.00024193873 0.11484805 0.19379193 -0.012703328 -0.011185174 0.07520861 0.09404338
0.07280007 -0.065683246 0.03858855 0.03608932 -0.012992142 -0.112841755 0.019235922 -0.00011788434
-0.11235289 -0.14047886 -0.15357026 0.009680592 -0.10309316 0.047098465 0.14341183 0.03835616
-0.090081476 -0.06971516 -0.13376062 -0.03001286 0.14779933 -0.061774272 -0.05727431 -0.029963281
-0.015573577 0.014179504 0.006879658 0.009175572 0.04646096 -0.18156056 0.0040106154 -0.1413869
0.05269084 0.01799989 -0.008688035 0.026842238 0.00551912 -0.1158033 -0.10561162 -0.12744655
-0.12714575 -0.07427062 0.06482642 0.08111385 0.045535732 0.010960026 0.014151737 0.02778439
0.04254057 0.07998221 -0.07763008 0.014778982 -0.13474564 0.03172754 -0.039851733 -0.03305968
-0.06742521 0.062026132 0.0657995 0.1282224 0.060506206 -0.040646993 0.07214852 -0.0019913896
0.013491657 -0.011328373 -0.09082457 -0.05605435 -0.16190979 -0.10908073 0.0028868925 -0.051350817
00000000: 7134 d63c 2a29 a6bd 5296 29be 641e dc3c
00000010: 8a76 1bbd 4811 a7bd 6b85 24bd 9c78 81bd
00000020: 1bd7 e93c c05b 7f3d 0cb0 e43b d8d6 4a3d
00000030: c883 e0bd ec65 9fbc 7526 46be 0788 66bc
00000040: e336 38bd 3256 443c 186c 03be bc2c e33c
00000050: 1626 d43b 137c a7bd 01b1 81bc 15f3 8dbd
00000060: b59d 8d3e 995a c83d 7eee c63d c51f 293e
00000070: 1835 27bd d497 2abd 2039 febc fe25 db3c
00000080: 4de1 4f3d 8cb3 a23a 9540 bf3d 1103 5cbb
00000090: 3e61 b73c 6c79 0bbc ccd6 893c 9130 7e3d
000000a0: 4ad2 e03b e4f9 24be bf46 7e3d c8ce fd3d
000000b0: df8f 8abc a064 febd 3516 fc3d 064a 06bd
000000c0: 0c56 8cbd 1e55 f83d 5c39 053e 9509 483d
000000d0: 9937 ce3d 0bc1 133d 8bed 8e3e d9dd 72bd
000000e0: d8e6 4fbd 609c e03c e8d5 96bd 1b30 053e
000000f0: 895d 493e 2063 f6bc 47bc fbbd d47b e5bb
00000100: a072 f7bd 722d febd 6130 b0bc b38a 80bd
00000110: be7a 273d 97d9 843c 3d08 583d df1b 04be
00000120: ef97 823b 020f d03d 7745 eebd 167d 8dbd
00000130: b163 5cbb 3159 1a3e ac10 edbd a0ef 10be
00000140: b89b 92bb 1d07 ec3d 62cc 1cbe 7060 e73b
00000150: 31a3 73bd 8a2d 013d 2261 52bc b3b2 d2bd
00000160: 8025 3a3e 4b66 b23d 3337 923d 7afa cfbc
00000170: 1ca4 02bd 281f 523d afef 173d 6c0a 33be
00000180: cce6 75be c8df b83d 0178 b83d f267 d0bc
00000190: c764 623d 5d22 c7bc c027 18bd c0b7 0bbe
000001a0: 640c 50bd 40bb 563d 74c5 c73c c8aa 783d
000001b0: 3bb7 0ebd cfb7 0c3d 4ac3 db3d 2451 933d
000001c0: 8363 143e 49ec 033e 51f5 a6bb 5782 cb3d
000001d0: 7509 edbc 9cce 5b3d 6879 b4bc 17a8 513c
000001e0: 3f1e 9d3c 9156 09bd 0304 b5bc b54a f8bc
000001f0: 1595 20be a5bd b73d cbda 4e3c 2358 893d
00000200: 0c65 33be ac63 483d dd80 b1bd 905d 983c
00000210: 85f4 96bb 2787 72bd 63c5 1ebe 7cf3 aabd
00000220: 034d 0b3d e957 33be f349 afbc 8e0e b63d
00000230: cbcb 27bd ef33 9cbd 6335 6a3c fc93 303e
00000240: 63ed 33bd 85b6 333c 9b51 aebd 8e09 7fbd
00000250: c696 febd 0172 89bc 1b22 6bbc 5267 67be
00000260: 3988 a83c 7122 8ebc 6d0a a0bd d974 863d
00000270: 949b 0e3e 9a32 1cbc e0c6 97bd e6e4 bcbd
00000280: 4008 4abd c4c2 c33d 70b0 2ebe ae07 243d
00000290: 41fa e8bc 5f84 f3bd 247b de3d 9ddb c63c
000002a0: 93b3 053d 063b 53bd 445c 9b3d b3df c53c
000002b0: 881a 623d d5ab 873c 2072 84bd bcea a43c
000002c0: 77e8 80be efb0 7db9 7435 eb3d 6471 463e
000002d0: 9f21 50bc 0542 37bc f906 9a3d d199 c03d
000002e0: 3418 953d f084 86bd 070f 1e3d 65d2 133d
000002f0: fedc 54bc 9419 e7bd a794 9d3c ac38 f7b8
00000300: 4619 e6bd b1d9 0fbe 8641 1dbe 599b 1e3c
00000310: 8222 d3bd 52ea 403d 8dda 123e 591b 1d3d
00000320: a37c b8bd d2c6 8ebd 8bf8 08be 88dd f5bc
00000330: b558 173e 0507 7dbd 7898 6abd 8e75 f5bc
00000340: 5128 7fbc 2651 683c c16e e13b 2355 163c
00000350: d94d 3e3d 03eb 39be 7b6b 833b bac7 10be
00000360: 5ad2 573d 8174 933c 4358 0ebc 41e4 db3c
00000370: bcd9 b43b 482a edbd e84a d8bd 5981 02be
00000380: 7f32 02be 321b 98bd b7c3 843d 051f a63d
00000390: ad83 3a3d ae91 333c b0dc 673c 179c e33c
000003a0: 053f 2e3d b7cd a33d 85fc 9ebd 8b23 723c
000003b0: c3fa 09be bdf4 013d 923b 23bd 9669 07bd
000003c0: 3a16 8abd 1d0f 7e3d e3c1 863d bc4c 033e
000003d0: 5bd5 773d 767d 26bd 9ac2 933d f981 02bb
000003e0: 1c0c 5d3c a49a 39bc 3b02 babd 3f99 65bd
000003f0: aecb 25be b865 dfbd 0532 3d3b 3c55 52bd

network_body._body_endoder.seq_layers.2.bias f4 [128]
-0.013409541 0.011582286 0.020818222 0.008648883 -0.014801614 0.0147416955 0.015816025 0.0039285696
-0.016090373 0.0010763786 -0.016568845 -0.0102544995 0.018724047 -0.0059099286 0.013531572 0.008739783
0.018074866 0.0069135535 -0.00056831964 -0.015741985 -0.0038092008 -0.018081192 -0.00872132 -0.022452012
-0.0039791916 -0.013769883 -0.011994033 -0.0080910595 -0.008847271 0.013746877 0.020825904 -0.021555593
-0.019610299 -0.0059169396 0.017799862 -0.025485495 0.024842255 -0.0043095723 0.0030342175 0.018785546
0.020309739 -0.00020837718 0.01695392 0.016511753 0.03266561 -0.0064325584 -0.013691595 0.02000504
-0.017515738 0.0036273457 0.020826045 0.007771346 0.01589422 0.030724153 0.021062013 0.0006566336
-0.012622051 -0.013836359 0.021559432 0.011852613 0.0042081363 -0.016177211 -0.015997825 -0.0077132094
-0.011945371 -0.009288956 0.013602456 0.020715818 0.014313489 0.024080668 -0.009991224 0.009903348
0.018086184 0.021103777 0.018446548 0.02484463 0.01955117 -0.012729631 0.024377469 -0.0011163813
0.004469234 -0.0070468998 0.012993594 -0.017725734 -0.0022760779 0.0018730892 -0.018135967 -0.0003336686
0.023956265 0.017337406 -0.00948349 0.0024749115 -0.0043486217 -0.019324563 -0.012856443 0.016712232
-0.012918595 -0.0065755784 -0.0015239943 -0.005799369 0.019150192 0.015269256 -0.0126042 -0.008028702
0.015276892 -0.011436736 0.016126085 0.0013169756 -0.020483565 -0.004610497 0.019467372 -0.020244272
0.012586847 0.006312809 0.022271845 -0.0035940239 -0.020936672 0.00033928463 -0.0092752855 -0.008232199
-0.0022093812 0.022229701 0.020067304 -0.0016668178 -0.018629698 -0.013572804 0.01976998 -0.013070465
00000000: b1b3 5bbc a1c3 3d3c fa8a aa3c 0bb4 0d3c
00000010: 7882 72bc 2787 713c 9c90 813c 3bbb 803b
00000020: f5cf 83bc 4615 8d3a 63bb 87bc 7d02 28bc
00000030: 2c63 993c 13a8 c1bb 87b3 5d3c 4f31 0f3c
00000040: be11 943c 178b e23b 49fb 14ba 56f5 80bc
00000050: c9a3 79bb 021f 94bc dee3 0ebc 48ed b7bc
00000060: e163 82bb 139b 61bc 9f82 44bc 5d90 04bc
00000070: 25f4 10bc 953a 613c 169b aa3c 5b95 b0bc
00000080: c7a5 a0bc e3e2 c1bb 04d1 913c f5c6 d0bc
00000090: fc81 cb3c 5037 8dbb b9d9 463b 25e4 993c
000000a0: 9c60 a63c d37f 5ab9 f2e2 8a3c a843 873c
000000b0: 60cc 053d 36c8 d2bb b652 60bc 9ce1 a33c
000000c0: 2a7d 8fbc c3b8 6d3b 629b aa3c c6a6 fe3b
000000d0: 9834 823c 38b1 fb3c 3e8a ac3c ef21 2c3a
000000e0: b8cc 4ebc e5b1 62bc 689d b03c 7631 423c
000000f0: 68e4 893b 1286 84bc df0d 83bc 17bf fcbb
00000100: 84b6 43bc b530 18bc d6dc 5e3c 38b4 a93c
00000110: 2083 6a3c d244 c53c 3bb2 23bc a741 223c
00000120: 7a29 943c d4e1 ac3c 371d 973c f786 cb3c
00000130: c629 a03c f18f 50bc 42b3 c73c 8a53 92ba
00000140: a772 923b aee9 e6bb 15e3 543c 8f35 91bc
00000150: 402a 15bb 7282 f53a e191 94bc 3ef0 aeb9
00000160: ee3f c43c 2d07 8e3c a460 1bbc 2032 223b
00000170: e27e 8ebb 8c4e 9ebc d5a3 52bc 17e8 883c
00000180: 84a8 53bc f377 d7bb c3c0 c7ba a208 bebb
00000190: dde0 9c3c e72b 7a3c d981 4ebc d18a 03bc
000001a0: ee4b 7a3c 2661 3bbc da1a 843c 5e9e ac3a
000001b0: 26cd a7bc a713 97bb 0a7a 9f3c 51d7 a5bc
000001c0: 1039 4e3c aedb ce3b 7273 b63c b789 6bbb
000001d0: 6283 abbc 03e2 b139 5ef7 17bc 58e0 06bc
000001e0: 44cb 10bb 101b b63c 3064 a43c 2079 daba
000001f0: 4f9d 98bc 7760 5ebc a7f4 a13c 8125 56bc

action_model._continuous_distribution.log_sigma f4 [1, 2]
-0.11105186 -0.011923936
00000000: 286f e3bd 9d5c 43bc

action_model._continuous_distribution.mu.weight f4 [2, 128]
-0.03263908 -0.0023471464 0.052400887 0.016134769 -0.04695088 0.024113305 0.0038121385 0.025861835
-0.005225356 -0.004078147 -0.02875854 -0.026946781 0.037762407 -0.050846167 0.022033177 0.011013861
0.039141446 0.009685671 -0.026733067 -0.01811844 -0.044616565 -0.065373436 -0.034637053 -0.038349945
-0.02035327 -0.0047022877 -0.015143559 -0.05582519 -0.02951322 -0.0024226285 0.04319573 -0.023818797
-6.715208e-05 -0.02482662 0.026441399 -0.004880627 0.016032437 -0.01061221 -0.015622874 0.026785605
0.04457657 0.0008479269 0.008556666 0.025024083 0.024728162 -0.030115314 -0.031444713 0.0408494
-0.03418731 -0.009227132 0.05846358 0.020200742 0.015431927 0.015161564 0.038737137 -0.04821877
-0.0044315606 -0.058471628 0.04529501 0.01335267 0.007575133 -0.042730972 -0.038936626 -0.06454797
-0.030069713 -0.028932225 0.011858842 0.028940376 0.002132723 0.011297981 -0.023214677 -0.007939687
0.023499854 0.031340096 0.038457062 0.007770732 0.018026747 -0.032923155 0.012351071 0.010574264
-0.024295758 -0.028734246 -0.008701693 -0.044470426 -0.027523337 0.01394061 -0.02697463 -0.022473902
0.030630546 0.033408727 -0.0006359677 0.022230392 -0.033606775 -0.051997 -0.034427222 0.04841361
-0.026242932 -0.028392846 0.01235801 -0.03885739 0.025288198 0.024868866 -0.04784043 -0.0073793977
0.010093242 -0.014969699 0.01447994 0.013372126 -0.033862352 -0.0054313405 0.021680523 -0.030292831
0.011103093 0.03312731 0.06731256 -0.056346323 -0.035430603 -0.0011672513 -0.030765412 -0.042384785
-0.051136553 0.05657278 0.04174999 -0.002531309 -0.0006911665 -0.025564943 0.038642608 -0.01669009
-0.002028982 -0.05431755 0.01768372 0.030405933 -0.0006852805 0.016096907 -0.018978817 0.035966065
-0.026553374 -0.013173815 0.02144821 0.043481503 0.0059234025 -0.028051622 0.002370112 -0.031659912
0.0013314227 -0.0257402 -0.013149978 -0.016592048 0.032182597 -0.00820438 0.010183251 0.012826624
-0.0017285554 -0.029373208 0.020755645 -0.049256228 -0.0072806715 0.050414424 0.018979568 0.012005671
0.021332966 -0.049399495 -0.014980988 0.019698165 -0.032539558 -0.020982789 -0.0030537175 -0.02526283
-0.0057357764 0.010672093 -0.030182866 0.037606742 -0.07110427 -0.026662704 0.009870413 -0.007881093
0.0008778854 -0.03679424 0.025603646 0.08432681 0.057609137 -0.03713796 -0.013178134 0.009790513
-0.021104204 0.0025535529 -0.021172756 -0.011477314 0.032693025 0.015419253 0.021533664 0.016966397
0.0072975066 0.024551086 0.0013102322 -0.025771867 -0.031596873 -0.04972227 -0.013248741 -0.0528607
-0.021106174 -0.0035405303 0.0279584 -0.034426115 -0.055564832 0.020188274 0.031075701 0.040678184
-0.0060914396 -0.01696303 -0.08343463 -0.0013868726 -0.020004477 0.050036274 0.016152378 -0.041927427
-0.022354929 0.020610394 0.00036451328 0.05331517 -0.012599942 0.01424342 0.0016023923 0.028072504
0.03141696 0.066834986 0.020468907 0.009591686 -0.038193457 0.010716339 0.021904254 0.06645819
-0.042533148 0.00017859148 0.022698743 0.008668884 0.014959279 0.0011883567 -0.06739428 0.037747215
-0.020626828 0.022986863 -0.01002086 -0.023409018 0.020972775 -0.035449196 0.0049667233 -0.0020908404
0.039860778 0.0052281246 0.013217243 0.014455405 0.039503854 0.036323316 -0.034646478 0.07267871
00000000: 8eb0 05bd 95d2 19bb 50a2 563d 102d 843c
00000010: 914f 40bd 4489 c53c 12d5 793b 33dc d33c
00000020: 7739 abbb faa1 85bb 0897 ebbc 7fbf dcbc
00000030: c1ac 1a3d 1244 50bd ec7e b43c 7b73 343c
00000040: c852 203d a6b0 1e3c 4eff dabc 1f6d 94bc
00000050: dcbf 36bd 82e2 85bd 95df 0dbd d514 1dbd
00000060: e7bb a6bc a615 9abb b11c 78bc f4a8 64bd
00000070: b5c5 f1bc f6c4 1ebb 01ee 303d a31f c3bc
00000080: 00d4 8cb8 3261 cbbc a29b d83c abed 9fbb
00000090: 7556 833c d6de 2dbc 15f7 7fbc 7c6d db3c
000000a0: ec95 363d 6947 5e3a 4231 0c3c 4eff cc3c
000000b0: b792 ca3c 64b4 f6bc 2ccc 00bd b351 273d
000000c0: fe07 0cbd 662d 17bc 8277 6f3d 077c a53c
000000d0: 31d6 7c3c 3568 783c d5aa 1e3d 0c81 45bd
000000e0: a036 91bb f27f 6fbd 4387 393d 28c5 5a3c
000000f0: d238 f83b ac06 2fbd 037c 1fbd ba31 84bd
00000100: c254 f6bc 4603 edbc 974b 423c 5e14 ed3c
00000110: 28c5 0b3b 2b1b 393c b52c bebc 7615 02bc
00000120: c482 c03c 795e 003d 2785 1d3d a0a1 fe3b
00000130: d4ac 933c 6eda 06bd 265c 4a3c ae3f 2d3c
00000140: e607 c7bc 1564 ebbc 8c91 0ebc 9f26 36bd
00000150: 9f78 e1bc 2867 643c e6f9 dcbc 301b b8bc
00000160: e9ec fa3c 97d7 083d 12b7 26ba 831c b63c
00000170: 42a7 09bd cefa 54bd 8f03 0dbd 594d 463d
00000180: 6bfb d6bc 1d98 e8bc 4079 4a3c ed28 1fbd
00000190: 3229 cf3c cbb9 cb3c 54f4 43bd e0ce f1bb
000001a0: 205e 253c 7843 75bc 453d 6d3c c316 5b3c
000001b0: 40b3 0abd 63f9 b1bb 5a9b b13c ac28 f8bc
000001c0: bfe9 353c 81b0 073d 2bdb 893d 67cb 66bd
000001d0: ae1f 11bd 74fe 98ba bf07 fcbc ab9b 2dbd
000001e0: 9074 51bd dcb8 673d 0a02 2b3d 51e4 25bb
000001f0: 662f 35ba 926d d1bc b647 1e3d a8b9 88bc
00000200: abf8 04bb 147c 5ebd 73dd 903c dd15 f93c
00000210: 65a4 33ba a9dd 833c 7779 9bbc 2751 133d
00000220: 7686 d9bc fcd6 57bc 28b4 af3c a919 323d
00000230: 1a19 c23b 84cc e5bc e253 1b3b d3ad 01bd
00000240: 2283 ae3a 1ddd d2bc 0173 57bc 0cec 87bc
00000250: e6d1 033d aa6b 06bc a7d7 263c c326 523c
00000260: b290 e2ba 15a0 f0bc be07 aa3c e6c0 49bd
00000270: b392 eebb 5b7f 4e3d 0a7b 9b3c 6fb3 443c
00000280: 79c2 ae3c 2057 4abd d172 75bc 0c5e a13c
00000290: 3348 05bd 19e4 abbc e120 48bb fff3 cebc
000002a0: 2ef3 bbbb 01da 2e3c 0f42 f7bc 8709 1a3d
000002b0: 1e9f 91bd be6b dabc 83b7 213c b31f 01bc
000002c0: e421 663a 8fb5 16bd bdbe d13c 89b3 ac3d
000002d0: 8ff7 6b3d f91d 18bd 1ae9 57bc 6368 203c
000002e0: b9e2 acbc 8259 273b 7d72 adbc 580b 3cbc
000002f0: 1fe9 053d 09a1 7c3c 5e67 b03c 1dfd 8a3c
00000300: ec1f ef3b 5c1f c93c 19bc ab3a 861f d3bc
00000310: b96b 01bd 94a9 4bbd 3f11 59bc 7684 58bd
00000320: dbe6 acbc 3e08 68bb 0409 e53c 6602 0dbd
00000330: f397 63bd e161 a53c 7892 fe3c 2b9e 263d
00000340: b39a c7bb 0df6 8abc c6df aabd b9c7 b5ba
00000350: 6ee0 a3bc d6f2 4c3d fe51 843c 18bc 2bbd
00000360: af21 b7bc 21d7 a83c 251c bf39 0261 5a3d
00000370: fd6f 4ebc 3c5d 693c 5d07 d23a 4ff8 e53c
00000380: 12af 003d c8e0 883d 69ae a73c 7226 1d3c
00000390: be70 1cbd 9593 2f3c 8d70 b33c 3b1b 883d
000003a0: 3d37 2ebd 4944 3b39 b7f2 b93c ef07 0e3c
000003b0: c417 753c a2c2 9b3a 0306 8abd d39c 1a3d
000003c0: 98f9 a8bc f24e bc3c 882e 24bc 45c4 bfbc
000003d0: 19cf ab3c 2d33 11bd e5bf a23b 7b06 09bb
000003e0: 0e45 233d b050 ab3b 238d 583c 5dd6 6c3c
000003f0: cbce 213d c2c7 143d 77e9 0dbd 93d8 943d

action_model._continuous_distribution.mu.bias f4 [2]
0.022211885 -0.008702017
00000000: b3f5 b53c e892 0ebc
