results/run3/CarAgent/checkpoint.pt (torch, 749602 bytes, 36 tensors)

network_body._body_endoder.seq_layers.0.weight f4 [128, 106]
-0.00058525556 -0.13867176 -0.0858217 -0.019083042 -0.032814138 -0.04243859 0.27018636 0.052397106
-0.091600545 0.1536034 0.05505195 0.033034783 -0.0684789 0.08791316 0.07481344 -0.024955092
0.053520624 -0.18157506 -0.038861345 -0.10501153 -0.053349804 0.07047145 0.002810356 -0.08486938
-0.0051999204 -0.05141569 -0.028441938 0.032757808 -0.011567921 -0.035008445 -0.16608256 0.018061593
-0.0065854257 -0.048591353 0.21403979 0.17441371 -0.062342305 -0.07617396 0.10991959 -0.14066988
0.1159889 0.02279457 0.16109218 -0.07459563 0.14455816 0.078633636 -0.051571917 -0.083611734
0.11807631 0.03558716 -0.16657741 -0.10872765 -0.03877835 -0.028541123 -0.027474545 -0.103313684
-0.011169255 -0.23722462 0.11731979 0.0047329115 0.03481525 0.24875084 -0.048666544 -0.10046469
0.1507394 -0.06611018 0.044031877 -0.009861608 -0.012298907 -0.033730354 -0.09576833 0.19349058
-0.055007454 -0.067709975 -0.15591402 -0.020260273 0.010276406 -0.030748118 -0.009068741 0.06661521
0.09422426 -0.1642927 -0.12224093 0.0696924 0.21509497 -0.011533887 0.090738215 -0.012261066
-0.01428513 -0.024163337 -0.05482132 -0.019946953 0.0037260856 0.16218458 -0.20183842 -0.011592428
0.17485672 -0.09707615 -0.14363727 -0.1574478 -0.01914125 -0.06120666 0.072493136 0.013941495
-0.0876244 -0.07583525 -0.009527648 -0.16810068 -0.06653575 0.058877695 0.079827085 -0.04188575
0.044905096 0.11132749 0.064851485 0.14295724 0.117062345 0.024683366 -0.010595264 -0.026641155
-0.11539003 0.09852632 0.014791914 0.19704774 0.18553887 -0.022331603 0.16511947 0.08755885
-0.025816793 0.038494054 -0.10157095 0.07577645 0.17016312 0.20757438 -0.060158174 -0.011650918
-0.068916075 -0.12361678 -0.12805445 -0.013220872 -0.02382853 0.044041056 0.034998994 0.00452902
0.008807685 -0.11667329 -0.24697298 0.08087454 0.07056459 -0.09994381 0.2796164 -0.14231223
0.036340374 0.111364484 -0.2666385 0.03174377 -0.10912673 -0.08159173 0.2018535 -0.086743124
-0.07525051 -0.121340506 -0.12388821 0.03566261 -0.043930825 0.04805609 -0.1348019 -0.05067527
0.058071565 0.040797208 -0.12987176 -0.043138765 -0.21277359 0.27441388 0.05241758 -0.058161397
-0.07640605 0.058844738 0.00072752236 0.083414495 0.011663681 0.15949778 0.024755672 -0.17648764
-0.10070979 -0.09174674 -0.14531478 0.06175242 -0.03456817 0.07676257 0.00044855685 -0.051866997
-0.01210037 -0.1234703 -0.060021255 0.0011754532 0.17658411 -0.037530564 0.15250155 0.020048343
0.061490044 -0.051550776 -0.038451627 0.044737656 -0.12901111 0.0506294 -0.02448251 0.045344517
0.1758799 0.08012109 0.026873486 0.025934435 -0.039146792 0.08525155 -0.032158945 0.09007141
0.07823021 0.031801164 -0.0064971535 0.19479135 -0.20367622 -0.07632064 0.10361366 0.10910071
-0.15943545 0.18028636 0.028246498 -0.068262875 -0.04882616 0.040398154 0.003043916 -0.03211359
-0.13130145 0.22333218 0.013274703 -0.115233205 0.071106054 0.14901963 -0.08553815 0.12855376
-0.005785293 0.038998995 0.031060863 -0.18821758 -0.011492857 -0.040111367 0.17166209 -0.0016243476
0.024100332 0.04642933 -0.058872994 0.13925488 -0.0044979397 0.04531627 -0.011333217 0.001763315
00000000: d66b 19ba f8ff 0dbe 4ac3 afbd 0a54 9cbc
00000010: 1e68 06bd 16d4 2dbd de55 8a3e 599e 563d
00000020: 1199 bbbd 364a 1d3e 277e 613d 7b4f 073d
00000030: aa3e 8cbd d10b b43d ca37 993d 9f6e ccbc
00000040: 7138 5b3d d0ee 39be 132d 1fbd 4910 d7bd
00000050: 5385 5abd 5653 903d f32d 383b ffcf adbd
00000060: 1864 aabb 4299 52bd 11ff e8bc 0d2d 063d
00000070: 6187 3dbc 0465 0fbd 8c11 2abe e8f5 933c
00000080: 8eca d7bb ba07 47bd 3f2d 5b3e 8299 323e
00000090: a55a 7fbd 1801 9cbd 861d e13d c40b 10be
000000a0: 978b ed3d aebb ba3c 59f5 243e 98c5 98bd
000000b0: 0e07 143e ac0a a13d 133d 53bd a13c abbd
000000c0: fed1 f13d d8c3 113d 4593 2abe 9aac debd
000000d0: 0cd6 1ebd 13cf e9bc 4c12 e1bc 2096 d3bd
000000e0: 40ff 36bc 03eb 72be 5c45 f03d 8a16 9b3b
000000f0: 709a 0e3d 8ab8 7e3e 9256 47bd 6ec0 cdbd
00000100: 6e5b 1a3e c664 87bd c55a 343d 9592 21bc
00000110: 5b81 49bc d728 0abd 3022 c4bd 6522 463e
00000120: 7f4f 61bd 87ab 8abd eda7 1fbe dff8 a5bc
00000130: 5f5e 283c 7ae3 fbbc 0f95 14bc 8e6d 883d
00000140: a6f8 c03d 583c 28be 7459 fabd e4ba 8e3d
00000150: db41 5c3e a1f8 3cbc f5d4 b93d a3e2 48bc
00000160: 2e0c 6abc 31f2 c5bc 528c 60bd cb67 a3bc
00000170: 5831 743b b713 263e bbae 4ebe 2bee 3dbc
00000180: a40d 333e dccf c6bd a615 13be ff39 21be
00000190: 1cce 9cbc d6b3 7abd 4877 943d de6a 643c
000001a0: 6c74 b3bd 834f 9bbd da19 1cbc 9622 2cbe
000001b0: e543 88bd bd29 713d 627c a33d 6490 2bbd
000001c0: 68ee 373d abff e33d dbd0 843d 6263 123e
000001d0: 62be ef3d c534 ca3c c297 2dbc 8d3e dabc
000001e0: 9c51 ecbd 2bc8 c93d c959 723c e2c6 493e
000001f0: e7fd 3d3e c4f0 b6bc 1415 293e 0e52 b33d
00000200: bd7d d3bc f1ab 1d3d 6e04 d0bd af30 9b3d
00000210: 3e3f 2e3e 618e 543e 6b68 76bd 7ee3 3ebc
00000220: df23 8dbd cb2a fdbd b520 03be 5b9c 58bc
00000230: 0d34 c3bc 6564 343d 1b5b 0f3d 2c68 943b
00000240: 1c4e 103c 68f2 eebd 7ce6 7cbe 8da1 a53d
00000250: 2b84 903d 57af ccbd e129 8f3e 4cba 11be
00000260: a5d9 143d 1013 e43d d784 88be c105 023d
00000270: d67d dfbd 9119 a7bd afb2 4e3e 61a6 b1bd
00000280: f01c 9abd 5f81 f8bd 1ab9 fdbd f512 123d
00000290: cff0 33bd 76d6 443d 8209 0abe df90 4fbd
000002a0: 73dc 6d3d f91a 273d 1afd 04be 46b2 30bd
000002b0: 52e1 59be fa7f 8c3e d1b3 563d a53a 6ebd
000002c0: c67a 9cbd 2e07 713d 33b7 3e3a 38d5 aa3d
000002d0: 0619 3f3c 6353 233e 68cc ca3c 2db9 34be
000002e0: ef40 cebd b7e5 bbbd 66cd 14be 1bf0 7c3d
000002f0: 5a97 0dbd b235 9d3d 482c eb39 7d72 54bd
00000300: a140 46bc ffdd fcbd d9d8 75bd aa11 9a3a
00000310: 77d2 343e a6b9 19bd 5e29 1c3e 6c3c a43c
00000320: fcdc 7b3d e826 53bd 747f 1dbd d53e 373d
00000330: 7d1b 04be c660 4f3d 8b8f c8bc 2cbb 393d
00000340: dc19 343e 8716 a43d c925 dc3c 7474 d43c
00000350: 6358 20bd 5d98 ae3d 19b9 03bd 5c77 b83d
00000360: 2937 a03d f041 023d 13e6 d4bb 6277 473e
00000370: 8090 50be ff4d 9cbd 6633 d43d 3170 df3d
00000380: 0c43 23be fd9c 383e 3365 e73c 68cd 8bbd
00000390: f1fd 47bd 8978 253d 707c 473b 8a89 03bd
000003a0: e373 06be 31b1 643e 247e 593c 63ff ebbd
000003b0: 0da0 913d 9a98 183e a02e afbd 99a3 033e
000003c0: 8e92 bdbb 69bd 1f3d 5a73 fe3c 1cbc 40be
000003d0: 894c 3cbc d14b 24bd 30c8 2f3e 10e8 d4ba
000003e0: 0f6e c53c ae2c 3e3d cf24 71bd d598 0e3e
000003f0: 7463 93bb 8e9d 393d f5ae 39bc 091f e73a

network_body._body_endoder.seq_layers.0.bias f4 [128]
-0.018469343 0.014187741 0.028341996 0.030697223 -0.026403032 0.016716145 0.00084925286 0.0004969185
0.014257913 0.00398715 -0.025050707 0.03844718 -0.019729914 0.0027725028 0.010422246 0.021482522
0.02309573 0.013298572 0.0045801066 -0.0065730815 0.016145118 -0.00019102202 0.02982668 0.03298344
0.0044349656 0.0009618274 0.0021193023 0.016881999 -0.017133562 -0.0027093666 0.04699353 -0.009378754
0.0032390421 0.015116697 -0.00030883105 0.013745409 0.0037955546 -0.016386937 0.011926973 -0.015353958
-0.019152991 -0.004587137 -0.0063459575 0.048224296 -0.0044867867 0.006317681 -0.011969913 0.020872725
-0.0011438843 0.02175977 0.009642545 -0.010348399 -0.016663702 -0.029637285 -0.0018099628 0.003713882
0.022082921 -0.023723966 -0.020468023 0.009164652 -0.011074877 0.021236094 -0.008652939 -0.0069605126
-0.012624587 0.021216612 0.011697619 0.021057636 -0.028776944 0.006233454 -0.0025776033 -0.008246014
0.0057666316 0.012143235 0.022813676 -0.041531187 -0.009970912 -0.0072231623 -0.008176581 0.012121784
0.008970583 0.012918343 0.019805377 0.021494564 0.018103134 0.015839111 0.01318611 0.014804576
-0.022922304 0.006424521 -0.019749183 -0.007044932 0.00029276224 -0.027984725 -0.01963919 0.02672951
0.03349301 -0.00309423 -0.0077992403 -0.0106758075 -0.011107399 0.010939322 0.018718204 -0.022025878
0.028444989 0.026001234 -0.019384496 -0.0032226238 -0.0009037431 -0.018495953 0.008898883 0.060094967
0.016918516 0.016941685 -0.002511444 0.013986113 0.0024224021 0.021313665 0.021814262 0.012599653
0.02093611 0.0038646192 0.039872106 -0.0026846405 0.009549788 -0.0016427296 0.03002521 0.02103498
00000000: 054d 97bc b373 683c 792d e83c be78 fb3c
00000010: 2c4b d8bc 4cf0 883c 65a0 5e3a a343 023a
00000020: 069a 693c a3a6 823b 2437 cdbc ca7a 1d3d
00000030: a1a0 a1bc e1b2 353b 11c2 2a3c 1dfc af3c
00000040: 4233 bd3c 41e2 593c b814 963b 0163 d7bb
00000050: c442 843c 154d 48b9 1557 f43c a519 073d
00000060: 3053 913b 2523 7c3a fee3 0a3b 1e4c 8a3c
00000070: af5b 8cbc a18f 31bb 4a7c 403d 58a9 19bc
00000080: 1c46 543b 06ac 773c 9aea a1b9 6d34 613c
00000090: d7be 783b e63d 86bc 5a69 433c 2b8f 7bbc
000000a0: bce6 9cbc b24f 96bb c0f1 cfbb d786 453d
000000b0: e505 93bb 8d04 cf3b 741d 44bc 47fd aa3c
000000c0: 63ee 95ba 8c41 b23c c4fb 1d3c 558c 29bc
000000d0: 5182 88bc e4c9 f2bc 463c edba 9a64 733b
000000e0: 3ee7 b43c c358 c2bc 8eac a7bc 5627 163c
000000f0: 6773 35bc 51f7 ad3c 0fc5 0dbc 0315 e4bb
00000100: 5bd7 4ebc 76ce ad3c 5fa7 3f3c 1081 ac3c
00000110: a0bd ebbc 0142 cc3b 02ed 28bb 4a1a 07bc
00000120: 03f6 bc3b 6bf4 463c bfe3 ba3c 9b1c 2abd
00000130: 095d 23bc 47b0 ecbb 11f7 05bc 729a 463c
00000140: 5af9 123c 75a7 533c e33e a23c 5e15 b03c
00000150: 064d 943c 06c1 813c 8e0a 583c e48e 723c
00000160: 8ec7 bbbc ca84 d23b 0ac9 a1bc 2cd9 e6bb
00000170: e27d 9939 3940 e5bc 5ee2 a0bc d8f7 da3c
00000180: f72f 093d 91c8 4abb c590 ffbb 95e9 2ebc
00000190: cffb 35bc d83a 333c eb56 993c 9d6f b4bc
000001a0: 7705 e93c 8a00 d53c 3ccc 9ebc a832 53bb
000001b0: 2ce9 6cba d384 97bc 9fcc 113c 2426 763d
000001c0: b398 8a3c 4ac9 8a3c 0a97 24bb 0226 653c
000001d0: 2ac1 1e3b ff99 ae3c d3b3 b23c c66e 4e3c
000001e0: 3482 ab3c 8d45 7d3b ef50 233d cbf0 2fbb
000001f0: b776 1c3c dc50 d7ba 6ef7 f53c 8d51 ac3c

network_body._body_endoder.seq_layers.2.weight f4 [128, 128]
0.027904073 -0.082605354 -0.17113255 0.018313458 -0.034860283 -0.083595924 -0.04422796 -0.060540933
0.027728148 0.06407078 0.005981189 0.047216263 -0.10711791 -0.019311724 -0.19465134 -0.015326462
-0.036756914 0.014606706 -0.12501769 0.028042031 -0.0019753731 -0.07835286 -0.020392695 -0.06653808
0.2789089 0.09752495 0.099606045 0.16255628 -0.03811662 -0.036942452 -0.034314662 0.024163237
0.05485697 0.0014958555 0.0967776 -0.0050295293 0.026171194 -0.0069786743 0.015878664 0.06357382
0.005918557 -0.16062847 0.06701627 0.120770715 -0.017822262 -0.12560296 0.12185648 -0.033523347
-0.06681622 0.115536645 0.13000055 0.05158099 0.098849654 0.035723493 0.27894968 -0.059065495
-0.055367995 0.033132862 -0.06946696 0.12807173 0.19999403 -0.03337152 -0.123583905 -0.0075801094
-0.13112529 -0.12520172 -0.02256827 -0.066653036 0.042885292 0.014781655 0.053358704 -0.12723272
0.007860981 0.10372908 -0.117117636 -0.068869606 -0.00025600631 0.15459652 -0.115483604 -0.14031021
-0.0059836744 0.114806145 -0.154276 0.009650254 -0.06104962 0.031130657 -0.010707264 -0.102922946
0.18297364 0.08536353 0.07218012 -0.022097291 -0.033342317 0.050241653 0.038711872 -0.17077455
-0.24329609 0.09407871 0.09065829 -0.025433602 0.05452979 -0.023687148 -0.037797194 -0.13880354
-0.05181191 0.050644584 0.026068246 0.05937271 -0.035484403 0.033987146 0.109683946 0.066991016
0.14243011 0.13285455 -0.00032984436 0.09199428 -0.02719275 0.05569529 -0.023744248 0.017283222
0.022054281 -0.032035816 -0.027119417 -0.031201655 -0.15990262 0.09365291 0.010363555 0.06523441
-0.17341138 0.051406186 -0.08928057 0.023660205 -0.003179325 -0.058023047 -0.14995244 -0.085260734
0.03620661 -0.1706617 -0.0215331 0.089268826 -0.0425589 -0.07156168 0.015137631 0.1757214
-0.04281596 0.008698775 -0.08784708 -0.053482395 -0.12799007 -0.017469585 -0.008503265 -0.21952555
0.017911946 -0.0151217 -0.07925782 0.06763196 0.13721526 -0.009250835 -0.07776105 -0.090690404
-0.05055794 0.09863351 -0.1709693 0.04168633 -0.028344061 -0.12020174 0.11176098 0.021844722
0.03550338 -0.05243619 0.077136435 0.031987634 0.05872669 0.018660273 -0.060664847 0.02193562
-0.25379363 0.003138736 0.11729741 0.19260663 -0.013346011 -0.01041 0.076147705 0.09419193
0.07748592 -0.067814425 0.040896155 0.038348656 -0.01475614 -0.10660498 0.01982897 0.0041840156
-0.12541348 -0.13873613 -0.15259793 0.010902939 -0.10517952 0.047918916 0.13628691 0.042968094
-0.09137901 -0.073336795 -0.13301414 -0.027797291 0.14607134 -0.0627043 -0.056567837 -0.03194661
-0.012971054 0.012069232 0.009080873 0.006748014 0.048480477 -0.18753564 0.0021470336 -0.13538429
0.054495733 0.01570381 -0.011418238 0.025125952 0.006493752 -0.11435796 -0.108413965 -0.13076422
-0.12810174 -0.0746938 0.065547064 0.07898585 0.047928415 0.012060115 0.012985029 0.029133191
0.04081934 0.08197516 -0.07848921 0.015908508 -0.13525203 0.020087002 -0.041726768 -0.036382478
-0.066302575 0.0612496 0.06532376 0.12858254 0.05948136 -0.042536665 0.07513319 -0.0039946106
0.009455972 -0.014881903 -0.084805325 -0.0547363 -0.16113518 -0.11170292 0.013114447 -0.048772883
00000000: 1597 e43c ff2c a9bd 5f3d 2fbe 1b06 963c
00000010: a8c9 0ebd 5734 abbd 6128 35bd c5f9 77bd
00000020: 2426 e33c 8b37 833d dafd c33b d765 413d
00000030: a360 dbbd 9f33 9ebc ae52 47be d71b 7bbc
00000040: 6b8e 16bd f750 6f3c a304 00be 67b8 e53c
00000050: 4375 01bb 7777 a0bd 950e a7bc 1e45 88bd
00000060: 26cd 8e3e 29bb c73d 41fe cb3d 2775 263e
00000070: 2c20 1cbd f850 17bd 888d 0cbd fbf1 c53c
00000080: b4b1 603d 9510 c43a 5633 c63d c0ce a4bb
00000090: f964 d63c 5dad e4bb f913 823c fe32 823d
000000a0: 74f0 c13b ca7b 24be d33f 893d a356 f73d
000000b0: feff 91bc 109e 00be e48f f93d c74f 09bd
000000c0: f1d6 88bd 7a9e ec3d dd1e 053e 9746 533d
000000d0: b071 ca3d cc52 123d 7ed2 8e3e a9ee 71bd
000000e0: 8dc9 62bd 53b6 073d b244 8ebd 3c25 033e
000000f0: 3ccb 4c3e 93b0 08bd 8f19 fdbd 9162 f8bb
00000100: b545 06be e134 00be 18e1 b8bc 6381 88bd
00000110: 7da8 2f3d c12e 723c a88e 5a3d 4b49 02be
00000120: 58cb 003c e96f d43d 5fdb efbd 820b 8dbd
00000130: 9638 86b9 8d4e 1e3e ab82 ecbd 7bad 0fbe
00000140: b312 c4bb 7c1f eb3d 87fa 1dbe 191c 1e3c
00000150: 2b0f 7abd b805 ff3c 856d 2fbc 44c9 d2bd
00000160: 715d 3b3e 13d3 ae3d 2cd3 933d 6105 b5bc
00000170: f491 08bd 31ca 4d3d 5790 1e3d 86df 2ebe
00000180: 9c22 79be 57ac c03d 0eab b93d 215a d0bc
00000190: a15a 5f3d 8d0b c2bc 3bd1 1abd 8422 0ebe
000001a0: ba38 54bd b270 4f3d 138d d53c cc30 733d
000001b0: 1858 11bd 1b36 0b3d faa1 e03d 9632 893d
000001c0: 33d9 113e 060b 083e f6ee acb9 7f67 bc3d
000001d0: 54c3 debc bf20 643d 4c83 c2bc 8b95 8d3c
000001e0: 2eab b43c fd37 03bd 8a29 debc 9d9a ffbc
000001f0: 83bd 23be 19cd bf3d e6cb 293c 9e99 853d
00000200: c192 31be 4b8f 523d bbd8 b6bd 0cd3 c13c
00000210: 395c 50bb 93a9 6dbd 228d 19be 2e9d aebd
00000220: 624d 143d f1c1 2ebe 2f66 b0bc 93d2 b63d
00000230: 3e52 2ebd ee8e 92bd d403 783c 50f0 333e
00000240: ca5f 2fbd 4f85 0e3c 2be9 b3bd 5b10 5bbd
00000250: d40f 03be 601c 8fbc 4751 0bbc 4ecb 60be
00000260: 13bc 923c 02c1 77bc ed51 a2bd a082 8a3d
00000270: 2882 0c3e d090 17bc 2f41 9fbd e4bb b9bd
00000280: d815 4fbd 5e00 ca3d 9412 2fbe 49bf 2a3d
00000290: ce31 e8bc 542c f6bd f1e2 e43d b4f3 b23c
000002a0: fe6b 113d 55c7 56bd b5f9 9d3d 7705 033d
000002b0: 668b 703d 6edd 983c b47b 78bd 54b2 b33c
000002c0: 3df1 81be 40b3 4d3b a039 f03d ac3a 453e
000002d0: 3aa9 5abc b48e 2abc 54f3 9b3d b3e7 c03d
000002e0: f0b0 9e3d 4ae2 8abd ba82 273d 7b13 1d3d
000002f0: bdc3 71bc b653 dabd 5d70 a23c 111a 893b
00000300: 646c 00be d810 0ebe a242 1cbe 3ea2 323c
00000310: 5c68 d7bd a046 443d cc8e 0b3e 50ff 2f3d
00000320: eb24 bbbd 9a31 96bd dc34 08be 25b7 e3bc
00000330: ba93 153e 1d6b 80bd adb3 67bd 73da 02bd
00000340: 8b84 54bc 07be 453c f1c7 143c 721e dd3b
00000350: 7793 463d 5809 40be 3fb5 0c3b 2ea2 0abe
00000360: eb36 5f3d 47a5 803c 9013 3bbc f1d4 cd3c
00000370: 8ac9 d43b 8234 eabd 2408 debd 0ee7 05be
00000380: 1a2d 03be 10f9 98bd 8a3d 863d 55c3 a13d
00000390: 9650 443d ca97 453c 29bf 543c bba8 ee3c
000003a0: 2e32 273d 98e2 a73d f3be a0bd 8f52 823c
000003b0: 827f 0abe 7f8d a43c b0e9 2abd cb05 15bd
000003c0: a5c9 87bd dce0 7a3d 77c8 853d 24ab 033e
000003d0: baa2 733d ed3a 2ebd 6edf 993d 39e5 82bb
000003e0: 39ed 1a3c 3ad3 73bc 6aae adbd 2c33 60bd
000003f0: 9f00 25be 80c4 e4bd fadd 563c 13c6 47bd

network_body._body_endoder.seq_layers.2.bias f4 [128]
-0.015775222 0.0132232625 0.022508426 0.009203551 -0.015255074 0.015692862 0.016366642 0.004502012
-0.016535858 0.001609299 -0.017347781 -0.013533156 0.020530531 -0.006822475 0.015003528 0.009444721
0.01986822 0.00749365 0.0007077016 -0.016434083 -0.0013695586 -0.020281142 -0.0067490847 -0.024045115
-0.005519985 -0.014231241 -0.013887484 -0.008807331 -0.009320616 0.015075356 0.022118142 -0.02302658
-0.019986503 -0.0049544265 0.019070981 -0.027625136 0.026312415 -0.0040434618 0.00038349826 0.02065562
0.022282623 -0.00034586812 0.017639743 0.019740133 0.034041952 -0.006497643 -0.01188252 0.02149589
-0.016420113 0.005180423 0.022515854 0.009388591 0.018449824 0.03267623 0.02290787 0.0018966423
-0.013102498 -0.012863307 0.023468954 0.012541336 0.0035374647 -0.017654087 -0.016637063 -0.0076254555
-0.009786935 -0.0071027745 0.014163274 0.021623291 0.01524106 0.02569828 -0.011362879 0.011893018
0.01882921 0.022537284 0.019875875 0.026437039 0.020516714 -0.011834714 0.029260626 0.0007104722
0.0039651794 -0.008402183 0.0144621385 -0.019207815 -0.0040489244 0.0029517394 -0.01909003 -1.912766e-05
0.025617983 0.018843861 -0.010232831 0.0040878537 -0.003828534 -0.021292413 -0.012828983 0.018024888
-0.014937986 -0.005262632 -0.0004838256 -0.0031324099 0.020516073 0.016729724 -0.011463106 -0.007831409
0.015559267 -0.012603749 0.017682962 0.0026296335 -0.023333538 -0.0051856786 0.020575795 -0.021547027
0.01273905 0.0076534785 0.02421907 -0.0066470583 -0.02362339 0.00027744396 -0.008032552 -0.01005992
-0.000114456576 0.02403878 0.02192091 -0.002951962 -0.019629717 -0.015688406 0.02130067 -0.013440847
00000000: 0a3b 81bc 62a6 583c 9763 b83c 7eca 163c
00000010: 6bf0 79bc 518e 803c 5613 863c 9d85 933b
00000020: 3576 87bc 1def d23a ef1c 8ebc 2cba 5dbc
00000030: a52f a83c 128f dfbb 5cd1 753c 08be 1a3c
00000040: adc2 a23c 4b8d f53b 0d85 393a c5a0 86bc
00000050: c382 b3ba a324 a6bc 6d27 ddbb 43fa c4bc
00000060: fee0 b4bb 272a 69bc 5488 63bc a04c 10bc
00000070: 7fb5 18bc a0fe 763c 1b31 b53c 3da2 bcbc
00000080: bcba a3bc be58 a2bb bf3a 9c3c 1c4e e2bc
00000090: 228d d73c 047f 84bb 4410 c939 fa35 a93c
000000a0: 0c8a b63c a255 b5b9 3981 903c 0fb6 a13c
000000b0: 936f 0b3d 2eea d4bb e7ae 42bc 2618 b03c
000000c0: 7983 86bc 8ac0 a93b 2b73 b83c 9bd2 193c
000000d0: 1624 973c 83d7 053d 49a9 bb3c c198 f83a
000000e0: dcab 56bc 9fc0 52bc f741 c03c 2d7a 4d3c
000000f0: cfd4 673b 4e9f 90bc 734a 88bc f5de f9bb
00000100: 6159 20bc 64be e8bb 140d 683c 5423 b13c
00000110: a4b5 793c 3385 d23c 5e2b 3abc efda 423c
00000120: b73f 9a3c 1ca0 b83c bbd2 a23c 7d92 d83c
00000130: ab12 a83c 63e6 41bc fbb3 ef3c fb3e 3a3a
00000140: 56ee 813b 4fa9 09bc 9bf2 6c3c b559 9dbc
00000150: d7ac 84bb f871 413b b262 9cbc 5674 a0b7
00000160: cedc d13c 715e 9a3c 9ba7 27bc 67f3 853b
00000170: 24e8 7abb 6d6d aebc a830 52bc eea8 933c
00000180: 74be 74bc 2872 acbb f9a9 fdb9 1e49 4dbb
00000190: 5311 a83c c60c 893c c0cf 3bbc 4f4f 00bc
000001a0: 4cec 7e3c f47f 4ebc dcdb 903c ee55 2c3b
000001b0: fa25 bfbc a0ec a9bb 928e a83c 6483 b0bc
000001c0: 73b7 503c 08ca fa3b 1267 c63c 91cf d9bb
000001d0: d785 c1bc e675 9139 f79a 03bc 5dd2 24bc
000001e0: 6808 f0b8 faec c43c 7b93 b33c b475 41bb
000001f0: 80ce a0bc f984 80bc be7e ae3c 0037 5cbc

action_model._continuous_distribution.log_sigma f4 [1, 2]
-0.14132734 -0.036047548
00000000: 1db8 10be 98a6 13bd

action_model._continuous_distribution.mu.weight f4 [2, 128]
-0.033917498 -0.00076208706 0.053937294 0.015236376 -0.04922619 0.024724556 0.004058098 0.027571816
-0.0039005796 -0.0006873238 -0.030950194 -0.028361984 0.0396708 -0.052298173 0.023697557 0.0112314
0.040579423 0.01033398 -0.02882364 -0.019571895 -0.046921775 -0.064314686 -0.037467226 -0.04252639
-0.022298079 -0.0029212085 -0.016048912 -0.05722724 -0.031390436 0.00572861 0.045398585 -0.026176086
0.0013998983 -0.021404503 0.027753402 -0.0028701243 0.017170768 -0.010215952 -0.016758945 0.028177705
0.046785835 0.00037324888 0.009937666 0.02514984 0.027456021 -0.029258322 -0.033558734 0.041808575
-0.03675737 -0.009017569 0.058786586 0.027865913 0.02329206 0.017703252 0.04055051 -0.050426453
-0.0038056227 -0.06064569 0.046610937 0.012422099 0.0093346415 -0.046449933 -0.041074306 -0.06654322
-0.03244687 -0.03133131 0.010292497 0.029689094 0.0033124555 0.014241911 -0.02426061 -0.0045227823
0.022990938 0.03204498 0.04067199 0.009900625 0.019515892 -0.03494533 0.015021467 0.0111413
-0.026146263 -0.030760698 -0.005339805 -0.04818583 -0.029217979 0.014563472 -0.028883453 -0.02553344
0.031942002 0.0352543 0.0006641434 0.026391286 -0.03577364 -0.05329052 -0.036207423 0.050511383
-0.023226075 -0.030437214 0.011236318 -0.04153076 0.02657286 0.026569515 -0.050121333 0.0005737625
0.01038525 -0.015823387 0.0125092 0.014911607 -0.03488628 -0.0043339743 0.02317209 -0.028590249
0.012268316 0.028242705 0.06910152 -0.057491098 -0.036597893 -0.0012835605 -0.033062864 -0.044374045
-0.053397544 0.058577087 0.044048224 -0.0049948497 0.0017616837 -0.027622119 0.040853493 -0.012648404
-0.0017199016 -0.05845556 0.015339148 0.032758504 -0.00028369413 0.017715815 -0.018151063 0.035745
-0.026882391 -0.013392998 0.021732068 0.044051904 0.0047673704 -0.026947739 0.0021513393 -0.03276562
0.0001624018 -0.027688578 -0.0117314 -0.017996956 0.033013023 -0.006782006 0.010898883 0.015143103
-0.0012593056 -0.027739309 0.021193877 -0.048596893 -0.006724313 0.05523574 0.018981146 0.0125139365
0.023444995 -0.053534858 -0.0144721335 0.016478851 -0.036082797 -0.023188548 -0.0027930383 -0.03058667
-0.005838174 0.011392473 -0.03177594 0.04019082 -0.07517679 -0.03119094 0.010625692 -0.009006316
0.0022554814 -0.039233953 0.030862886 0.0880896 0.063411795 -0.04058627 -0.013698329 0.010396433
-0.022354493 0.00296958 -0.021055592 -0.011681726 0.03360803 0.019407606 0.02197251 0.017171955
0.008073104 0.02521537 0.0005426704 -0.024034187 -0.032780837 -0.053009808 -0.012270842 -0.05724046
-0.021588478 -0.0028173006 0.028947009 -0.038503755 -0.056534585 0.021655802 0.03336417 0.044880107
-0.00468488 -0.016409136 -0.08613271 -0.0023647049 -0.019592844 0.05072048 0.016648725 -0.042341188
-0.024254749 0.021279145 0.0009058057 0.058349572 -0.011822777 0.014306073 0.002052596 0.027768943
0.035041224 0.067603976 0.019470423 0.010027921 -0.03957313 0.011314829 0.022574192 0.06890601
-0.04328794 0.0055373767 0.024184102 0.017085442 0.014051938 -0.00045338826 -0.068272576 0.041058578
-0.018124163 0.028000994 -0.010626476 -0.022829935 0.021245882 -0.03613174 0.0054478017 -0.0017764836
0.040158246 0.0051159738 0.0135084605 0.01472161 0.041109905 0.03635294 -0.036836103 0.07661956
00000000: 13ed 0abd ccc6 47ba 5aed 5c3d fea1 793c
00000010: 67a1 49bd 278b ca3c cbf9 843b 4ade e13c
00000020: dea0 7fbb 852d 34ba 438b fdbc 6457 e8bc
00000030: d97d 223d 9c36 56bd 6121 c23c e803 383c
00000040: 9c36 263d db4f 293c 8e1f ecbc 3d55 a0bc
00000050: 0c31 40bd 6bb7 83bd 3c77 19bd 2730 2ebd
00000060: 76aa b6bc bf71 3fbb 0279 83bc 1c67 6abd
00000070: 4293 00bd 10b7 bb3b def3 393d 3b6f d6bc
00000080: cb7c b73a 7f58 afbc 1a5b e33c b218 3cbb
00000090: b6a9 8c3c cf60 27bc 0e4a 89bc eed4 e63c
000000a0: 81a2 3f3d 9eb0 c339 98d1 223c 0a07 ce3c
000000b0: 73eb e03c 26af efbc e274 09bd 783f 2b3d
000000c0: e58e 16bd 6dbe 13bc 34ca 703d 0e47 e43c
000000d0: fdce be3c 6906 913c 4b18 263d f88b 4ebd
000000e0: c167 79bb 9d67 78bd 1ceb 3e3d 0f86 4b3c
000000f0: 53f0 183c 4942 3ebd 883d 28bd d047 88bd
00000100: 02e7 04bd 4255 00bd dda1 283c 8b36 f33c
00000110: c815 593b e756 693c 30be c6bc d933 94bb
00000120: 7e57 bc3c 9941 033d ac97 263d 3b36 223c
00000130: cbdf 9f3c d622 0fbd 991c 763c 008a 363c
00000140: b030 d6bc dcfd fbbc 88f9 aebb 815e 45bd
00000150: 8b5a efbc a19b 6e3c fe9c ecbc 812b d1bc
00000160: 9ed5 023d d066 103d e919 2e3a 8a32 d83c
00000170: 6187 12bd 2947 5abd 3c4e 14bd 06e5 4e3d
00000180: 9c44 bebc 7757 f9bc 8918 383c 281c 2abd
00000190: 54af d93c 50a8 d93c 074c 4dbd 8d68 163a
000001a0: e526 2a3c 0ca0 81bc 63f3 4c3c d04f 743c
000001b0: eae4 0ebd 0304 8ebb 65d3 bd3c 1936 eabc
000001c0: 0c01 493c 3f5d e73c 1985 8d3d c97b 6bbd
000001d0: ace7 15bd 253d a8ba ed6c 07bd 8fc1 35bd
000001e0: 62b7 5abd 87ee 6f3d e96b 343d d6ab a3bb
000001f0: 4ce8 e63a c847 e2bc fe55 273d 403b 4fbc
00000200: 526e e1ba 196f 6fbd 0d51 7b3c c82d 063d
00000210: c8bc 94b9 c220 913c 8ab1 94bc 5969 123d
00000220: 7638 dcbc 4e6e 5bbc 7307 b23c c56f 343d
00000230: 9a37 9c3b 81c1 dcbc 7cfd 0c3b 3e35 06bd
00000240: 674a 2a39 28d3 e2bc 0f35 40bc 5a6e 93bc
00000250: aa38 073d 973b debb 3b91 323c c71a 783c
00000260: 490f a5ba 8c3d e3bc c89e ad3c 890d 47bd
00000270: a057 dcbb df3e 623d 597e 9b3c 4107 4d3c
00000280: b80f c03c 5e47 5bbd 871c 6dbc a8fe 863c
00000290: 8ecb 13bd e9f5 bdbc 680b 37bb e590 fabc
000002a0: 274e bfbb 7fa7 3a3c 7d27 02bd 219f 243d
000002b0: 4af6 99bd 2484 ffbc 6217 2e3c 3a8f 13bc
000002c0: b3d0 133b c8b3 20bd 2ad4 fc3c 5268 b43d
000002d0: 0bde 813d ca3d 26bd f56e 60bc cd55 2a3c
000002e0: c520 b7bc 499d 423b c77c acbc b664 3fbc
000002f0: 93a8 093d b3fc 9e3c b1ff b33c 33ac 8c3c
00000300: 0d45 043c 7790 ce3c fe41 0e3a 58e3 c4bc
00000310: 3345 06bd d020 59bd a40b 49bc f974 6abd
00000320: 52da b0bc 76a2 38bb 4722 ed3c 1db6 1dbd
00000330: cf90 67bd 8267 b13c dea8 083d 34d4 373d
00000340: 9f83 99bb 746c 86bc 5966 b0bd 2af9 1abb
00000350: 2c81 a0bc 47c0 4f3d e862 883c f46d 2dbd
00000360: e5b1 c6bc 9a51 ae3c 9773 6d3a f6ff 6e3d
00000370: 52b4 41bc 0564 6a3c d984 063b b27b e33c
00000380: 6387 0f3d f473 8a3d 7080 9f3c 264c 243c
00000390: 6f17 22bd d561 393c 83ed b83c 981e 8d3d
000003a0: b24e 31bd e272 b53b bd1d c63c c5f6 8b3c
000003b0: 1a3a 663c beb4 edb9 7ed2 8bbd 0a2d 283d
000003c0: 2079 94bc 5762 e53c ac1a 2ebc d805 bbbc
000003d0: d80b ae3c e0fe 13bd 7983 b23b e6d8 e8ba
000003e0: f97c 243d e6a3 a73b 9752 5d3c e832 713c
000003f0: dc62 283d d2e6 143d 74e1 16bd b7ea 9c3d

action_model._continuous_distribution.mu.bias f4 [2]
0.024222163 -0.009066983
00000000: 8f6d c63c af8d 14bc

exp_avg f4 [128, 106]
5.6466297e-06 0.00023522884 0.0 3.3238797e-05 5.226554e-06 0.0002356489 0.0 3.490443e-05
-3.9491038e-06 0.00024482462 0.0 3.115543e-05 2.2238048e-05 0.00021863745 0.0 3.640809e-05
2.3502023e-06 0.00023852529 0.0 3.00457e-05 3.3163637e-05 0.00020771186 0.0 3.757185e-05
2.0496365e-05 0.00022037908 0.0 2.918602e-05 1.8567442e-05 0.00022230804 0.0 3.8666025e-05
6.210245e-06 0.00023466522 0.0 2.8610435e-05 4.972991e-05 0.00019114555 0.0 3.942234e-05
1.0084032e-05 0.00023079143 0.0 2.8590268e-05 3.749565e-05 0.00020337981 0.0 3.9966835e-05
-9.600449e-06 0.00025047595 0.0 2.8105933e-05 6.207736e-05 0.00017879806 0.0 4.2320993e-05
2.7519778e-05 0.00021335568 0.0 2.8606923e-05 8.282079e-05 0.00015805468 0.0 4.4900557e-05
5.000677e-05 0.00019086867 0.0 2.918947e-05 0.000100587284 0.00014028819 0.0 4.7196674e-05
4.0738778e-05 0.0002001367 0.0 3.143085e-05 0.000115806666 0.00012506882 0.0 4.245685e-05
6.0612136e-05 0.00018026336 0.0 3.3491633e-05 7.575118e-05 0.00016512434 0.0 4.2089636e-05
0.000119539545 0.00012133594 0.0 3.680055e-05 0.00019583543 4.5040102e-05 0.0 4.6533412e-05
0.0001948793 4.599618e-05 0.0 3.6719044e-05 0.00020306953 5.4818094e-05 0.006094727 0.00012588916
0.0 -0.00017176196 -4.459346e-06 -8.149251e-05 0.0 -4.656656e-06 2.5464553e-06 -8.849824e-05
0.0 -4.404289e-06 1.6077547e-05 -0.00010202934 0.0 -4.340842e-06 -7.192241e-06 -7.875962e-05
0.0 -4.438685e-06 5.083025e-07 -8.646013e-05 0.0 -5.556954e-06 -8.040476e-06 -7.791138e-05
0.0 -3.5436735e-06 -3.604974e-05 -4.9902137e-05 0.0 -5.2770924e-06 1.6238011e-05 -0.000102189886
0.0 -1.3325056e-06 -2.9341652e-05 -5.661024e-05 0.0 -3.0409576e-06 2.9626706e-06 -8.891461e-05
0.0 1.2655508e-06 7.892168e-07 -8.674102e-05 0.0 -2.8663108e-06 5.9560436e-05 -0.00014551239
0.0 1.6332625e-06 4.394798e-05 -0.0001298999 0.0 -3.7679324e-06 2.5225956e-05 -0.00011117787
0.0 3.573022e-07 3.1482396e-05 -0.00011743427 0.0 -5.112949e-06 2.5418707e-05 -0.00011137067
0.0 -1.2726204e-06 2.3405437e-05 -0.00010935736 0.0 -5.3544786e-06 2.7606688e-05 -0.00011355864
0.0 -1.2297489e-06 8.9422485e-07 -8.684621e-05 0.0 -6.2876884e-06 8.3994826e-05 -0.00016994684
0.0 2.0114664e-06 3.6902104e-05 -0.00012285406 0.0 -6.5660747e-06 9.4777366e-05 -0.00018072937
0.0 2.2898596e-06 4.316099e-05 -0.00012911287 0.0 -5.8189985e-06 2.6782593e-06 -8.863032e-05
0.0 -3.0932872e-06 5.4520144e-05 -0.000140472 0.0 -6.241946e-06 -6.3996755e-05 -5.8594826e-05
-0.0019231566 -0.00022971818 0.0 4.4463115e-05 2.9127687e-06 0.00014422464 0.0 2.71033e-05
4.382681e-06 0.00014275472 0.0 2.8525346e-05 1.8221012e-06 0.00014531531 0.0 2.5597054e-05
1.4743324e-05 0.00013239405 0.0 2.961695e-05 4.297638e-06 0.00014283974 0.0 2.4446665e-05
1.91878e-05 0.00012794956 0.0 3.108008e-05 4.2007614e-06 0.00014293671 0.0 2.3839015e-05
1.5077439e-05 0.00013205995 0.0 3.36746e-05 2.034091e-06 0.00014510336 0.0 2.4303208e-05
3.891807e-05 0.00010821933 0.0 3.6174213e-05 1.6784039e-05 0.00013035336 0.0 2.4045949e-05
00000000: 2e78 bd36 c3a7 7639 0000 0000 e369 0b38
00000010: c25f af36 8518 7739 0000 0000 5966 1238
00000020: 8b82 84b6 ce5b 8039 0000 0000 e3ac 0238
00000030: d88b ba37 0b42 6539 0000 0000 e4b4 1838
00000040: 2bb8 1d36 a51c 7a39 0000 0000 a60a fc37
00000050: 2f19 0b38 3acd 5939 0000 0000 7796 1d38
00000060: 9cef ab37 8f15 6739 0000 0000 80d4 f437
00000070: 47c1 9b37 5c1b 6939 0000 0000 542d 2238
00000080: 9961 d036 7710 7639 0000 0000 7100 f037
00000090: 1695 5038 3e6e 4839 0000 0000 6a59 2538
000000a0: 962e 2937 9a00 7239 0000 0000 22d5 ef37
000000b0: a644 1d38 5a42 5539 0000 0000 10a2 2738
000000c0: 9d11 21b7 5052 8339 0000 0000 08c5 eb37
000000d0: 872f 8238 bd7b 3b39 0000 0000 d281 3138
000000e0: 46da e637 3bb8 5f39 0000 0000 e6f8 ef37
000000f0: 13b0 ad38 7bbb 2539 0000 0000 9b53 3c38
00000100: 5cbe 5138 eb23 4839 0000 0000 e9db f437
00000110: 63f2 d238 531a 1339 0000 0000 0bf5 4538
00000120: eede 2a38 c9db 5139 0000 0000 9ed4 0338
00000130: 3bdd f238 e824 0339 0000 0000 b213 3238
00000140: c939 7e38 1405 3d39 0000 0000 5e79 0c38
00000150: 9bdc 9e38 3a25 2d39 0000 0000 6789 3038
00000160: 4eb1 fa38 bd75 fe38 0000 0000 4a5a 1a38
00000170: 2c59 4d39 71e9 3c38 0000 0000 df2c 4338
00000180: 8458 4c39 06ec 4038 0000 0000 c602 1a38
00000190: 10ef 5439 7bec 6538 47b6 c73b 1d01 0439
000001a0: 0000 0000 001b 34b9 7ea1 95b6 f5e6 aab8
000001b0: 0000 0000 5f40 9cb6 c5e3 2a36 2198 b9b8
000001c0: 0000 0000 8ec8 93b6 45de 8637 96f8 d5b8
000001d0: 0000 0000 8da7 91b6 e154 f1b6 c02b a5b8
000001e0: 0000 0000 04f0 94b6 4872 0835 ee51 b5b8
000001f0: 0000 0000 df75 bab6 95e5 06b7 5b64 a3b8
00000200: 0000 0000 d9cf 6db6 1d34 17b8 034e 51b8
00000210: 0000 0000 e111 b1b6 dd36 8837 c74e d6b8
00000220: 0000 0000 8bd8 b2b5 b822 f6b7 c870 6db8
00000230: 0000 0000 4113 4cb6 4bd2 4636 ab77 bab8
00000240: 0000 0000 ffdb a935 91da 5335 bbe8 b5b8
00000250: 0000 0000 d85a 40b6 88d0 7938 af94 18b9
00000260: 0000 0000 7936 db35 c954 3838 bd35 08b9
00000270: 0000 0000 96dc 7cb6 549c d337 2a28 e9b8
00000280: 0000 0000 3ed3 bf34 f70b 0438 0b47 f6b8
00000290: 0000 0000 e68f abb6 423a d537 ac8f e9b8
000002a0: 0000 0000 e7ce aab5 cb56 c437 c956 e5b8
000002b0: 0000 0000 9faa b3b6 e994 e737 5526 eeb8
000002c0: 0000 0000 da0d a5b5 aa0a 7035 3421 b6b8
000002d0: 0000 0000 d5fa d2b6 6126 b038 c233 32b9
000002e0: 0000 0000 bbfc 0636 55c7 1a38 63d2 00b9
000002f0: 0000 0000 2752 dcb6 36c3 c638 2c82 3db9
00000300: 0000 0000 7dab 1936 c307 3538 7962 07b9
00000310: 0000 0000 d140 c3b6 25bc 3336 0adf b9b8
00000320: 0000 0000 4596 4fb6 8fac 6438 aa4b 13b9
00000330: 0000 0000 e871 d1b6 ff35 86b8 b7c3 75b8
00000340: 6d12 fcba 81e0 70b9 0000 0000 e87d 3a38
00000350: fc78 4336 023b 1739 0000 0000 e55b e337
00000360: f10e 9336 6eb0 1539 0000 0000 b749 ef37
00000370: ec8e f435 c85f 1839 0000 0000 41b9 d637
00000380: 185a 7737 42d3 0a39 0000 0000 ea71 f837
00000390: 6e34 9036 40c7 1539 0000 0000 d012 cd37
000003a0: 7df5 a037 332a 0639 0000 0000 fb5b 0238
000003b0: 44f4 8c36 48e1 1539 0000 0000 e5f9 c737
000003c0: 1bf5 7c37 9379 0a39 0000 0000 d43d 0d38
000003d0: 6b81 0836 e326 1839 0000 0000 bede cb37
000003e0: f63b 2338 cff3 e238 0000 0000 c4b9 1738
000003f0: 73cb 8c37 77af 0839 0000 0000 48b6 c937

exp_avg_sq f4 [128, 106]
1.8245748e-09 3.4936312e-07 0.0 1.0676587e-08 2.283795e-09 3.4413475e-07 0.0 1.0928012e-08
1.6829187e-09 3.5112274e-07 0.0 1.0589057e-08 3.2738885e-09 3.3572093e-07 0.0 1.1365283e-08
2.0363062e-09 3.467315e-07 0.0 1.0643151e-08 5.9870433e-09 3.1666457e-07 0.0 1.19139605e-08
3.1667655e-09 3.4060005e-07 0.0 1.0786081e-08 9.853811e-09 2.975065e-07 0.0 1.2503848e-08
6.573291e-09 3.2062945e-07 0.0 1.0939002e-08 1.6279214e-08 2.768096e-07 0.0 1.3168094e-08
1.4833613e-08 2.91711e-07 0.0 1.0947689e-08 2.6910476e-08 2.4630805e-07 0.0 1.3808041e-08
2.780761e-08 2.6079664e-07 0.0 1.0851599e-08 4.3531017e-08 2.1575943e-07 0.0 1.4264136e-08
4.412066e-08 2.28976e-07 0.0 1.0749381e-08 6.8397554e-08 1.8176175e-07 0.0 1.4621326e-08
6.5323775e-08 1.9993345e-07 0.0 1.0720798e-08 9.875786e-08 1.464709e-07 0.0 1.4902556e-08
8.591086e-08 1.7656194e-07 0.0 1.0828775e-08 1.3297934e-07 1.1998586e-07 0.0 1.5279786e-08
1.10631554e-07 1.4912686e-07 0.0 1.10889875e-08 1.7538436e-07 9.012842e-08 0.0 1.5622872e-08
1.4394226e-07 1.2194424e-07 0.0 1.157966e-08 2.1337362e-07 6.2140465e-08 0.0 1.6075965e-08
1.7879256e-07 8.644546e-08 0.0 1.2317816e-08 1.6526137e-07 8.648151e-09 0.00014870209 2.8165696e-08
0.0 8.6263725e-08 9.370343e-09 9.709448e-07 0.0 2.52598e-08 1.1969129e-08 9.4628973e-07
0.0 2.55606e-08 6.149828e-09 9.857082e-07 0.0 2.5246004e-08 1.578934e-08 9.14319e-07
0.0 2.6171257e-08 5.756943e-09 9.809776e-07 0.0 2.5546223e-08 2.3077975e-08 8.701111e-07
0.0 2.709077e-08 6.949658e-09 9.654672e-07 0.0 2.5946338e-08 3.2711e-08 8.2889295e-07
0.0 2.830413e-08 1.1853903e-08 9.228472e-07 0.0 2.6322986e-08 4.9505584e-08 7.722654e-07
0.0 2.9792494e-08 2.5251122e-08 8.5513926e-07 0.0 2.6521224e-08 8.028137e-08 6.7738256e-07
0.0 3.1274897e-08 4.9887625e-08 7.809348e-07 0.0 2.6633435e-08 1.2053366e-07 5.8599943e-07
0.0 3.221433e-08 7.650388e-08 7.095517e-07 0.0 2.6907463e-08 1.6784578e-07 5.1070526e-07
0.0 3.3070826e-08 1.11035284e-07 6.400322e-07 0.0 2.7509813e-08 2.3633068e-07 4.344478e-07
0.0 3.413795e-08 1.6271655e-07 5.6244977e-07 0.0 2.842257e-08 3.1692375e-07 3.5039378e-07
0.0 3.599662e-08 2.2030171e-07 4.799757e-07 0.0 2.9677425e-08 4.3686566e-07 2.560682e-07
0.0 3.7888878e-08 2.9711654e-07 3.9123094e-07 0.0 3.1500676e-08 5.3639627e-07 1.9687022e-07
0.0 3.99086e-08 4.050022e-07 3.0468175e-07 0.0 3.3980026e-08 4.408619e-07 2.4060737e-08
0.0003966445 7.776923e-08 0.0 2.3203175e-07 1.9313133e-09 5.40955e-07 0.0 1.9272138e-08
1.7786524e-09 5.332284e-07 0.0 1.9668313e-08 2.1654856e-09 5.434023e-07 0.0 1.9147798e-08
2.0963677e-09 5.2295e-07 0.0 2.037395e-08 2.758285e-09 5.3676865e-07 0.0 1.9344611e-08
4.7427493e-09 4.977658e-07 0.0 2.1369196e-08 4.4628434e-09 5.196255e-07 0.0 1.9720305e-08
1.1588563e-08 4.565609e-07 0.0 2.2451506e-08 8.944786e-09 4.802763e-07 0.0 2.0120053e-08
2.2727486e-08 4.0708875e-07 0.0 2.3514003e-08 1.9056278e-08 4.27607e-07 0.0 2.0359677e-08
00000000: 85c4 fa30 1a90 bb34 0000 0000 206c 3732
00000010: f2f0 1c31 85c1 b834 0000 0000 e8bd 3b32
00000020: 704c e730 f181 bc34 0000 0000 2aeb 3532
00000030: dbfa 6031 223d b434 0000 0000 0b41 4332
00000040: 14ef 0b31 6a26 ba34 0000 0000 13d9 3632
00000050: 97b6 cd31 0c02 aa34 0000 0000 27ae 4c32
00000060: 549e 5931 b7db b634 0000 0000 b04d 3932
00000070: 8549 2932 fbb8 9f34 0000 0000 81d0 5632
00000080: 47db e131 fa22 ac34 0000 0000 3dee 3b32
00000090: 5fd6 8b32 6c9c 9434 0000 0000 e439 6232
000000a0: ebd6 7e32 749c 9c34 0000 0000 7214 3c32
000000b0: c328 e732 523c 8434 0000 0000 6838 6d32
000000c0: 95dd ee32 9e03 8c34 0000 0000 d66d 3a32
000000d0: dcf6 3a33 80ab 6734 0000 0000 550e 7532
000000e0: 2e7f 3d33 72dc 7534 0000 0000 47ac 3832
000000f0: f4e1 9233 4a2a 4334 0000 0000 4631 7b32
00000100: 2048 8c33 4aad 5634 0000 0000 912e 3832
00000110: b514 d433 9d45 1d34 0000 0000 1103 8032
00000120: ff7d b833 fa94 3d34 0000 0000 7509 3a32
00000130: 15c9 0e34 76d5 0034 0000 0000 9b40 8332
00000140: 5794 ed33 ae1f 2034 0000 0000 e281 3e32
00000150: 4951 3c34 9f8c c133 0000 0000 0f33 8632
00000160: 8c8e 1a34 c7ef 0234 0000 0000 e2ef 4632
00000170: b21b 6534 1572 8533 0000 0000 6c17 8a32
00000180: 20fa 3f34 e5a3 b933 0000 0000 549e 5332
00000190: b372 3134 f892 1432 eaec 1b39 05f1 f132
000001a0: 0000 0000 fc3f b933 34fb 2032 6951 8235
000001b0: 0000 0000 e3fa d832 c9a0 4d32 8904 7e35
000001c0: 0000 0000 5b90 db32 764e d331 ad4c 8435
000001d0: 0000 0000 8ddc d832 20a1 8732 866f 7535
000001e0: 0000 0000 34cf e032 9bce c531 22aa 8335
000001f0: 0000 0000 bd70 db32 013d c632 9491 6935
00000200: 0000 0000 3cb5 e832 d7c9 ee31 3395 8135
00000210: 0000 0000 9ae0 de32 207e 0c33 1781 5e35
00000220: 0000 0000 7121 f332 04a6 4b32 94b9 7735
00000230: 0000 0000 dc1c e232 f79f 5433 ad4d 4f35
00000240: 0000 0000 63ea ff32 cee7 d832 b98c 6535
00000250: 0000 0000 cad0 e332 2667 ac33 60d5 3535
00000260: 0000 0000 1d53 0633 0644 5633 6ea1 5135
00000270: 0000 0000 8bc7 e432 0a6c 0134 934d 1d35
00000280: 0000 0000 085c 0a33 744a a433 0678 3e35
00000290: 0000 0000 2322 e732 1939 3434 6617 0935
000002a0: 0000 0000 c209 0e33 4b72 ee33 aece 2b35
000002b0: 0000 0000 b84e ec32 15c2 7d34 0d3e e934
000002c0: 0000 0000 139f 1233 2fb7 2e34 41fb 1635
000002d0: 0000 0000 e425 f432 ab25 aa34 c11d bc34
000002e0: 0000 0000 b49a 1a33 138c 6c34 aed7 0035
000002f0: 0000 0000 59ed fe32 5c8a ea34 bf79 8934
00000300: 0000 0000 43bb 2233 6383 9f34 5f0a d234
00000310: 0000 0000 5c4b 0733 dffc 0f35 4663 5334
00000320: 0000 0000 f867 2b33 146f d934 2493 a334
00000330: 0000 0000 6ff1 1133 99af ec34 1fae ce32
00000340: b9f4 cf39 1602 a733 0000 0000 6724 7934
00000350: 06b8 0431 2536 1135 0000 0000 e18b a532
00000360: c574 f430 2d23 0f35 0000 0000 14f3 a832
00000370: a0cf 1431 52de 1135 0000 0000 747a a432
00000380: b10f 1031 da60 0c35 0000 0000 ca02 af32
00000390: 438c 3d31 7616 1035 0000 0000 402b a632
000003a0: aaf5 a231 359e 0535 0000 0000 5c8f b732
000003b0: 9657 9931 647c 0b35 0000 0000 6965 a932
000003c0: 0a17 4732 411d f534 0000 0000 62db c032
000003d0: 96ab 1932 56ec 0035 0000 0000 77d4 ac32
000003e0: 453a c332 da8d da34 0000 0000 d7fb c932
000003f0: 33b1 a332 dc91 e534 0000 0000 67e3 ae32

exp_avg f4 [128]
0.00024087545 -8.595196e-05 0.00014713744 -2.8929842e-05 1.990111e-05 8.498499e-06 -8.2951585e-05 -1.9912748e-05
4.221017e-06 0.00019373732 -0.00010380084 -0.0002524265 1.2738671e-05 -0.00023312305 0.00032596767 0.000325946
-6.343897e-06 -8.575144e-06 1.9292163e-05 -0.0002464092 0.00020933054 1.8398536e-05 -7.63368e-05 0.00020428732
1.0306284e-05 0.0001774654 0.00038636857 6.1017945e-05 -4.185452e-06 6.0527436e-06 -4.8905313e-05 -0.00020446048
3.920744e-06 0.00012226823 6.0164407e-06 0.00027638077 7.51856e-06 0.00021230588 -0.00022703756 -2.9988947e-05
-5.325729e-05 0.00037736224 -3.7374008e-05 -3.2315274e-05 -3.2601776e-05 8.491173e-05 -0.000248652 -1.853144e-05
7.6039255e-06 -0.00021071048 0.00017344946 1.8123133e-05 -7.890692e-05 0.00018166022 -0.00031269208 0.00023655951
0.00041080985 5.6265244e-06 2.1363294e-06 -8.25577e-05 3.612985e-06 0.00010516441 -0.00022905585 -0.00019819985
8.204007e-05 0.00036558838 0.00029674495 4.2617965e-05 -1.1172257e-05 0.000114322516 -1.8383605e-05 3.715753e-05
8.328928e-06 0.00013589129 0.00023890268 -5.3361046e-06 6.5841473e-06 -1.0104893e-05 0.00018711621 -7.119546e-06
-0.00024784027 2.0529546e-05 0.00037206893 -2.2435048e-05 0.00037457095 0.00015972684 -3.886987e-06 -6.7088855e-05
-0.00022645126 1.2013226e-05 -4.105242e-05 2.0095835e-05 0.00015983268 -3.5026096e-05 7.0949805e-05 -5.3221745e-05
-1.5139316e-05 9.129719e-06 -0.00013726388 -0.00027601342 -0.00042385975 0.00016726444 3.466634e-06 -0.0002636875
2.5918915e-05 5.098525e-06 1.4375939e-05 -7.275422e-05 0.00025470863 2.7777796e-05 -6.814798e-07 -1.4215573e-05
9.8347355e-06 -9.972393e-07 -8.240518e-06 -0.0001509188 3.4357916e-05 4.1259377e-06 9.2129456e-05 1.6224907e-06
-2.9898656e-05 5.513657e-05 7.106694e-05 -0.00032713203 0.00020220935 5.354451e-06 -5.6290355e-05 2.1593346e-06
00000000: 8393 7c39 1b41 b4b8 e848 1a39 5dae f2b7
00000010: 4ff1 a637 c694 0e37 4bf6 adb8 4d0a a7b7
00000020: 43a2 8d36 f725 4b39 a7af d9b8 1c58 84b9
00000030: 2db8 5537 7e72 74b9 a4e6 aa39 bbe3 aa39
00000040: a9dd d4b6 f7dd 0fb7 9bd5 a137 7c30 81b9
00000050: bd7f 5b39 8e56 9a37 0217 a0b8 f635 5639
00000060: 27e9 2c37 0116 3a39 8391 ca39 85ed 7f38
00000070: c270 8cb6 ac18 cb36 ae1f 4db8 7164 56b9
00000080: ef8e 8336 2135 0039 d5e0 c936 33e7 9039
00000090: f047 fc36 6d9e 5e39 ee10 6eb9 c690 fbb7
000000a0: 9460 5fb8 b4d8 c539 09c2 1cb8 438a 07b8
000000b0: e4bd 08b8 a312 b238 825d 82b9 f773 9bb7
000000c0: 3925 ff36 2af2 5cb9 fcdf 3539 2207 9837
000000d0: d57a a5b8 0b7c 3e39 d2f0 a3b9 f60c 7839
000000e0: f761 d739 7acb bc36 dc5d 0f36 d422 adb8
000000f0: 9c76 7236 b68b dc38 b62e 70b9 ded3 4fb9
00000100: ed0c ac38 71ac bf39 6f94 9b39 b1c0 3238
00000110: 7a70 3bb7 6fc0 ef38 7e36 9ab7 98d9 1b38
00000120: 79bc 0b37 0a7e 0e39 f381 7a39 ca0c b3b6
00000130: 65ed dc36 2f88 29b7 a034 4439 6fe4 eeb6
00000140: 8ff0 81b9 dd36 ac37 3f12 c339 e632 bcb7
00000150: 1062 c439 597c 2739 f76c 82b6 0eb2 8cb8
00000160: 8c73 6db9 6a8c 4937 b32f 2cb8 7a93 a837
00000170: c298 2739 fce8 12b8 e3ca 9438 6a3a 5fb8
00000180: defe 7db7 d82b 1937 7eee 0fb9 e5b5 90b9
00000190: 7e39 deb9 b563 2f39 52a4 6836 8a3f 8ab9
000001a0: 726c d937 ff13 ab36 3030 7137 a093 98b8
000001b0: 6a8a 8539 5d04 e937 efee 36b5 6c7f 6eb7
000001c0: deff 2437 e2d8 85b5 c140 0ab7 f53f 1eb9
000001d0: 881b 1038 8971 8a36 a035 c138 5bc4 d935
000001e0: e0ce fab7 7142 6738 c609 9538 eb82 abb9
000001f0: 2908 5439 62aa b336 4f19 6cb8 16e9 1036

exp_avg_sq f4 [128]
3.5503436e-07 1.0081634e-06 5.4823033e-07 2.9151352e-07 1.8084675e-08 7.5724785e-08 6.7053165e-08 7.112972e-09
2.4724991e-07 3.1438364e-07 5.4976226e-07 7.8143853e-07 1.5271057e-09 7.452033e-07 8.0034897e-07 2.8100274e-06
4.344699e-09 3.3500884e-09 3.9934687e-09 2.1473022e-07 3.5370712e-07 2.2996214e-09 4.5093935e-07 2.9079342e-07
7.370456e-09 2.3024803e-07 8.1526827e-07 4.1388444e-07 3.1073666e-09 1.1576519e-09 3.247668e-08 3.0850316e-07
7.54262e-09 7.021644e-07 7.1596538e-09 1.0257287e-06 4.3870587e-09 7.4562826e-07 1.1342544e-06 5.6695313e-08
9.19226e-08 9.074165e-07 4.4764306e-08 5.0845784e-07 3.311515e-08 5.036409e-07 9.98501e-07 2.9194416e-07
1.0381147e-09 2.7653877e-07 8.0690836e-07 4.5144906e-09 7.3692505e-08 3.1323307e-07 9.1372436e-07 2.5571515e-07
1.643745e-06 1.02998264e-07 1.8034739e-07 2.800343e-07 1.3035368e-09 6.4345994e-07 4.7123245e-07 2.8192048e-07
4.525911e-08 3.6745585e-06 6.0871776e-07 1.3297173e-06 5.4764726e-09 1.9280172e-07 7.152324e-08 2.7316261e-08
5.866786e-09 1.7756152e-07 8.039852e-07 9.922054e-09 2.078877e-09 3.4000196e-09 2.2405435e-07 1.637158e-08
7.3857706e-07 3.624119e-08 2.0201799e-06 7.507331e-09 2.1304572e-06 1.212515e-07 8.040532e-09 1.1938661e-07
9.751503e-07 6.569614e-09 1.8857288e-06 9.042015e-09 2.4400842e-07 3.8269125e-08 2.1345652e-07 8.188143e-08
2.7123958e-08 4.626268e-09 1.005319e-06 1.6298346e-06 2.5415152e-06 4.862508e-07 4.059679e-09 4.639207e-07
5.0027964e-08 2.1654948e-06 5.6999117e-09 6.863752e-08 4.5133348e-07 2.4495563e-07 9.472898e-10 1.0061899e-08
4.917313e-07 1.8480525e-09 4.2824553e-09 2.672362e-07 4.7550685e-08 1.8392617e-09 2.470242e-06 1.3116594e-09
4.9450076e-08 1.1027701e-07 3.5845076e-07 6.3728805e-07 3.8315764e-07 3.732311e-09 1.08663286e-07 1.154624e-07
00000000: 8d9b be34 3b50 8735 1a2a 1335 5081 9c34
00000010: 9f58 9b32 249e a233 defe 8f33 5d66 f431
00000020: c5bd 8434 8fc8 a834 6093 1335 0cc4 5135
00000030: 41e2 d130 fb09 4835 90d7 5635 e793 3c36
00000040: 6048 9531 6137 6631 ec36 8931 9890 6634
00000050: 23e5 bd34 5e07 1e31 a218 f234 581e 9c34
00000060: 373f fd31 193a 7734 cfd8 5a35 d833 de34
00000070: 5f89 5531 411b 9f30 7d7c 0b33 5aa0 a534
00000080: cb94 0132 5f7c 3c35 fb00 f631 c5ab 8935
00000090: fabc 9631 2f27 4835 af3c 9835 2881 7333
000000a0: fc66 c533 3095 7335 e042 4033 f57c 0835
000000b0: 7e3a 0e33 f031 0735 3c04 8635 80bc 9c34
000000c0: 6aad 8e30 3377 9434 529a 5835 e11d 9b31
000000d0: e240 9e33 6d2a a834 a946 7535 3949 8934
000000e0: a69e dc35 e52f dd33 83a5 4134 9f57 9634
000000f0: 2028 b330 3bba 2c35 b2fd fc34 db5a 9734
00000100: eb62 4233 6f98 7636 c466 2335 bd78 b235
00000110: 902b bc31 ef04 4f34 5198 9933 18a5 ea32
00000120: cc94 c931 bda7 3e34 71d1 5735 a875 2a32
00000130: fedb 0e31 c7a5 6931 9793 7034 7ca1 8c32
00000140: a142 4635 9ca7 1b33 6d92 0736 97f9 0032
00000150: faf8 0e36 5c31 0234 a222 0a32 be30 0034
00000160: e9e1 8235 f0ba e131 2619 fd35 3457 1b32
00000170: 4300 8334 595d 2433 7b32 6534 cbd6 af33
00000180: 37fe e832 15f5 9e31 7fee 8635 b1c0 da35
00000190: e68e 2a36 e786 0235 507d 8b31 c710 f934
000001a0: 54de 5633 eb52 1136 f4d8 c331 e065 9333
000001b0: cd4e f234 7282 8334 cc31 8230 b3dc 2c32
000001c0: 85ff 0335 91fe fd30 e024 9331 aa78 8f34
000001d0: 883a 4c33 45c9 fc30 6fc6 2536 ea45 b430
000001e0: ef62 5433 6dd1 ec33 1971 c034 1a12 2b35
000001f0: c9b4 cd34 c13d 8031 465a e933 20f4 f733
