results/run4/CarAgent/CarAgent-32.onnx (onnx, 644027 bytes, 11 tensors)

network_body.observation_encoder.processors.0.normalizer.running_mean f4 [100]
0.0 0.0 0.0 0.0 0.0 0.0 0.0 0.0
0.0 0.0 0.0 0.0 0.0 0.0 0.0 0.0
0.0 0.0 0.0 0.0 0.0 0.0 0.0 0.0
0.0 0.0 0.0 0.0 0.0 0.0 0.0 0.0
0.0 0.0 0.0 0.0 0.0 0.0 0.0 0.0
0.0 0.0 0.0 0.0 0.0 0.0 0.0 0.0
0.0 0.0 0.0 0.0 0.0 0.0 0.0 0.0
0.0 0.0 0.0 0.0 0.0 0.0 0.0 0.0
0.0 0.0 0.0 0.0 0.0 0.0 0.0 0.0
0.0 0.0 0.0 0.0 0.0 0.0 0.0 0.0
0.0 0.0 0.0 0.0 0.0 0.0 0.0 0.0
0.0 0.0 0.0 0.0 0.0 0.0 0.0 0.0
0.0 0.0 0.0 0.0
00000000: 0000 0000 0000 0000 0000 0000 0000 0000
00000010: 0000 0000 0000 0000 0000 0000 0000 0000
00000020: 0000 0000 0000 0000 0000 0000 0000 0000
00000030: 0000 0000 0000 0000 0000 0000 0000 0000
00000040: 0000 0000 0000 0000 0000 0000 0000 0000
00000050: 0000 0000 0000 0000 0000 0000 0000 0000
00000060: 0000 0000 0000 0000 0000 0000 0000 0000
00000070: 0000 0000 0000 0000 0000 0000 0000 0000
00000080: 0000 0000 0000 0000 0000 0000 0000 0000
00000090: 0000 0000 0000 0000 0000 0000 0000 0000
000000a0: 0000 0000 0000 0000 0000 0000 0000 0000
000000b0: 0000 0000 0000 0000 0000 0000 0000 0000
000000c0: 0000 0000 0000 0000 0000 0000 0000 0000
000000d0: 0000 0000 0000 0000 0000 0000 0000 0000
000000e0: 0000 0000 0000 0000 0000 0000 0000 0000
000000f0: 0000 0000 0000 0000 0000 0000 0000 0000
00000100: 0000 0000 0000 0000 0000 0000 0000 0000
00000110: 0000 0000 0000 0000 0000 0000 0000 0000
00000120: 0000 0000 0000 0000 0000 0000 0000 0000
00000130: 0000 0000 0000 0000 0000 0000 0000 0000
00000140: 0000 0000 0000 0000 0000 0000 0000 0000
00000150: 0000 0000 0000 0000 0000 0000 0000 0000
00000160: 0000 0000 0000 0000 0000 0000 0000 0000
00000170: 0000 0000 0000 0000 0000 0000 0000 0000
00000180: 0000 0000 0000 0000 0000 0000 0000 0000

network_body.observation_encoder.processors.1.normalizer.running_mean f4 [6]
0.0 0.0 0.0 0.0 0.0 0.0
00000000: 0000 0000 0000 0000 0000 0000 0000 0000
00000010: 0000 0000 0000 0000

network_body._body_endoder.seq_layers.0.weight f4 [256, 106]
-0.03343567 -0.030118644 -0.07680793 0.045006625 0.1587318 0.07961968 0.041641414 0.020231102
-0.04396265 -0.07527175 0.08571906 0.096258 0.015586276 -0.04046592 -0.08936069 0.04899672
-0.09771369 0.010826237 -0.11538086 -0.051159255 -0.24950677 -0.006240635 0.09209231 0.034945987
0.097472146 -0.17125176 0.051774174 0.0012539913 -0.113688685 0.0062247915 -0.13417315 0.030438408
0.17420083 0.009572507 -0.10981298 -0.010975814 0.023063023 0.121426456 -0.049059957 0.0643872
-0.13304584 -0.08487596 0.0442201 0.052264847 -0.0990794 0.021815572 0.08320788 0.10830651
-0.0129368855 -0.024570264 -0.03362755 0.032864045 -0.02668873 0.16443397 0.09513213 0.01332771
-0.09810559 -0.08445396 0.17560457 0.0064409794 -0.05865482 0.0195977 -0.070976615 0.09615186
-0.134398 -0.04740173 0.23489133 0.008562756 -0.10752313 -0.16280243 -0.14215013 0.039433245
0.035731893 0.106939815 0.12226603 0.053027265 -0.03311336 0.038628437 0.038248967 -0.19139592
-0.0880756 0.061029688 -0.040169984 -0.10222934 -0.012722646 0.051771156 0.084535435 0.17152819
0.062374245 0.029050423 -0.12281303 -0.030030293 -0.061944135 0.036562715 0.00079412566 0.12064694
-0.13326858 -0.075546324 -0.110945836 -0.057464644 -0.10265463 -0.0053879577 0.033853874 -0.0073765884
-0.11074268 0.047805794 0.033499178 0.022351444 0.06505213 -0.081149966 -0.00541277 0.058578245
-0.1132354 -0.10051693 0.13218677 -0.065966815 -0.020642279 -0.038336147 -0.047384005 -0.1765285
-0.0686219 0.15813932 -0.03264037 -0.2219516 -0.08164945 0.01876223 -0.02351403 -0.104850225
0.11384405 -0.02320091 0.022972522 0.105835296 0.117604 0.07678851 -0.022577284 0.07243305
0.11494932 0.06030114 0.039099593 -0.049544495 -0.040470675 -0.08932467 0.05217744 -0.08800938
-0.18348835 0.1120675 0.048145346 0.17632374 -0.08769524 -0.0530553 0.055643152 0.17805152
0.08017233 0.029254971 0.006441175 0.09122844 0.12259385 0.0049078953 -0.05217545 -0.00042033763
-0.10494109 -0.07612304 -0.041151885 0.1317864 -0.035123758 -0.06918793 -0.023964552 -0.20039725
0.004264108 -0.2256228 0.18308987 0.03200912 0.11625699 -0.21600477 0.03722819 0.05889367
-0.022392975 0.11393514 -0.18758802 0.05214987 0.24981564 -0.032456644 0.053414673 0.08008707
-0.08425792 -0.010556126 -0.10208229 -0.19348751 -0.10512328 -0.0388379 0.12383751 0.022030987
-0.033419948 -0.02092857 -0.08602472 -0.09870681 -0.009390836 -0.05598548 0.013005111 0.16611929
-0.010781427 0.07835095 -0.10983855 0.0818055 -0.06520956 -0.130055 -0.029019097 0.01392613
-0.07920042 -0.091101974 0.07063418 0.080207534 -0.049618278 -0.04643214 -0.0077719907 -0.027153507
0.02826116 0.0513148 -0.16287649 -0.099883184 -0.17066449 0.075244896 0.07406393 0.14205535
0.14535129 -0.078092 -0.0028481872 0.16448367 0.0024860983 -0.011926225 -0.107792154 -0.019472796
0.060714565 -0.16684723 0.18171173 -0.057949077 -0.07546533 -0.19047242 -0.05180754 0.040911376
-0.15148056 -0.108198576 -0.037578862 0.0065835826 0.21456055 -0.1250759 -0.06877224 -0.2740888
0.081939004 -0.13132206 -0.08171554 0.2154901 -0.001063448 -0.24770352 0.074368276 -0.11417775
00000000: d7f3 08bd 60bb f6bc 7a4d 9dbd de58 383d
00000010: 978a 223e a50f a33d 3090 2a3d b2bb a53c
00000020: 2e12 34bd 1328 9abd 798d af3d ea22 c53d
00000030: 945d 7f3c 98bf 25bd bd02 b7bd c9b0 483d
00000040: 1d1e c8bd 8760 313c cd4c ecbd 5e8c 51bd
00000050: b47e 7fbe 3e7e ccbb e59a bc3d 8623 0f3d
00000060: 7a9f c73d 9f5c 2fbe 2811 543d f75c a43a
00000070: 9dd5 e8bd 56f9 cb3b b064 09be f859 f93c
00000080: b461 323e 01d6 1c3c a1e5 e0bd e7d3 33bc
00000090: aaee bc3c 6fae f83d 18f3 48bd 70dd 833d
000000a0: 2b3d 08be 73d3 adbd 2320 353d aa13 563d
000000b0: 24ea cabd 92b6 b23c e568 aa3d cecf dd3d
000000c0: 3bf5 53bc 9447 c9bc 0bbd 09bd 739c 063d
000000d0: 53a2 dabc 6161 283e a2d4 c23d 785c 5a3c
000000e0: 95eb c8bd 33f6 acbd afd1 333e da0e d33b
000000f0: 0940 70bd 5b8b a03c 305c 91bd 44eb c43d
00000100: a19f 09be 5128 42bd 5a87 703e cd4a 0c3c
00000110: 1635 dcbd aeb5 26be ce8f 11be c184 213d
00000120: 9b5b 123d 4303 db3d 9d66 fa3d 1e33 593d
00000130: e0a1 07bd da38 1e3d f3aa 1c3d 4bfd 43be
00000140: fb60 b4bd 44fa 793d 4889 24bd 9e5d d1bd
00000150: a572 50bc fe0d 543d ea20 ad3d 16a5 2f3e
00000160: 237c 7f3d 27fb ed3c 6685 fbbd 1702 f6bc
00000170: 22b9 7dbd c9c2 153d df2c 503a be15 f73d
00000180: 8f77 08be 08b8 9abd 9237 e3bd 0c60 6bbd
00000190: 973c d2bd 778d b0bb 5caa 0a3d 4fb7 f1bb
000001a0: 0fcd e2bd 02d0 433d 6f36 093d 601a b73c
000001b0: 0d3a 853d f431 a6bd 9b5d b1bb beef 6f3d
000001c0: f6e7 e7bd d2db cdbd f85b 073e 9c19 87bd
000001d0: ff19 a9bc 5d06 1dbd bb15 42bd e3c3 34be
000001e0: a489 8cbd 46ef 213e e9b1 05bd 4847 63be
000001f0: d437 a7bd 40b3 993c 7fa0 c0bc b7bb d6bd
00000200: 1227 e93d d60f bebc df30 bc3c 2dc0 d83d
00000210: 5eda f03d 4b43 9d3d fff3 b8bc c757 943d
00000220: 8d6a eb3d 54fe 763d e526 203d 2bef 4abd
00000230: 94c4 25bd daef b6bd 03b8 553d 433e b4bd
00000240: 5fe4 3bbe a583 e53d 0e34 453d 368e 343e
00000250: 9099 b3bd 8450 59bd 13ea 633d 2353 363e
00000260: 6431 a43d 1fa8 ef3c 7e10 d33b fad5 ba3d
00000270: 7c12 fb3d 69d2 a03b edb5 55bd c360 dcb9
00000280: 5beb d6bd 65e6 9bbd e18e 28bd 04f3 063e
00000290: eedd 0fbd 67b2 8dbd 4f51 c4bc f034 4dbe
000002a0: eeb9 8b3b aa09 67be e97b 3b3e ff1b 033d
000002b0: 2518 ee3d 5b30 5dbe 967c 183d 7d3a 713d
000002c0: 7971 b7bc d456 e93d 1317 40be 1a9b 553d
000002d0: accf 7f3e 42f1 04bd 58c9 5a3d b104 a43d
000002e0: 6b8f acbd 9af3 2cbc 8510 d1bd 9721 46be
000002f0: e04a d7bd 7d14 1fbd 859e fd3d 547a b43c
00000300: 5be3 08bd 6472 abbc ba2d b0bd cc26 cabd
00000310: 05dc 19bc 0851 65bd 6413 553c 2d1b 2a3e
00000320: 95a4 30bc 7676 a03d 09f3 e0bd a489 a73d
00000330: 978c 85bd 232d 05be 75b9 edbc 6c2a 643c
00000340: d433 a2bd ac93 babd a7a8 903d d943 a43d
00000350: 893c 4bbd a12f 3ebd 2fac febb 0871 debc
00000360: f383 e73c 782f 523d 18c9 26be 8e8f ccbd
00000370: acc2 2ebe ff19 9a3d d4ae 973d f576 113e
00000380: f8d6 143e b3ee 9fbd a7a8 3abb 686e 283e
00000390: cfed 223b 3766 43bc 22c2 dcbd 6a85 9fbc
000003a0: d6af 783d 00da 2abe a412 3a3e 035c 6dbd
000003b0: 918d 9abd 340b 43be 2534 54bd b092 273d
000003c0: b81d 1bbe 3797 ddbd 4bec 19bd 18bb d73b
000003d0: c3b5 5b3e e613 00be 76d8 8cbd 5e55 8cbe
000003e0: a3cf a73d 4a79 06be 7a5a a7bd 70a9 5c3e
000003f0: 6563 8bba fea5 7dbe 654e 983d 06d6 e9bd

network_body._body_endoder.seq_layers.0.bias f4 [256]
0.0 0.0 0.0 0.0 0.0 0.0 0.0 0.0
0.0 0.0 0.0 0.0 0.0 0.0 0.0 0.0
0.0 0.0 0.0 0.0 0.0 0.0 0.0 0.0
0.0 0.0 0.0 0.0 0.0 0.0 0.0 0.0
0.0 0.0 0.0 0.0 0.0 0.0 0.0 0.0
0.0 0.0 0.0 0.0 0.0 0.0 0.0 0.0
0.0 0.0 0.0 0.0 0.0 0.0 0.0 0.0
0.0 0.0 0.0 0.0 0.0 0.0 0.0 0.0
0.0 0.0 0.0 0.0 0.0 0.0 0.0 0.0
0.0 0.0 0.0 0.0 0.0 0.0 0.0 0.0
0.0 0.0 0.0 0.0 0.0 0.0 0.0 0.0
0.0 0.0 0.0 0.0 0.0 0.0 0.0 0.0
0.0 0.0 0.0 0.0 0.0 0.0 0.0 0.0
0.0 0.0 0.0 0.0 0.0 0.0 0.0 0.0
0.0 0.0 0.0 0.0 0.0 0.0 0.0 0.0
0.0 0.0 0.0 0.0 0.0 0.0 0.0 0.0
0.0 0.0 0.0 0.0 0.0 0.0 0.0 0.0
0.0 0.0 0.0 0.0 0.0 0.0 0.0 0.0
0.0 0.0 0.0 0.0 0.0 0.0 0.0 0.0
0.0 0.0 0.0 0.0 0.0 0.0 0.0 0.0
0.0 0.0 0.0 0.0 0.0 0.0 0.0 0.0
0.0 0.0 0.0 0.0 0.0 0.0 0.0 0.0
0.0 0.0 0.0 0.0 0.0 0.0 0.0 0.0
0.0 0.0 0.0 0.0 0.0 0.0 0.0 0.0
0.0 0.0 0.0 0.0 0.0 0.0 0.0 0.0
0.0 0.0 0.0 0.0 0.0 0.0 0.0 0.0
0.0 0.0 0.0 0.0 0.0 0.0 0.0 0.0
0.0 0.0 0.0 0.0 0.0 0.0 0.0 0.0
0.0 0.0 0.0 0.0 0.0 0.0 0.0 0.0
0.0 0.0 0.0 0.0 0.0 0.0 0.0 0.0
0.0 0.0 0.0 0.0 0.0 0.0 0.0 0.0
0.0 0.0 0.0 0.0 0.0 0.0 0.0 0.0
00000000: 0000 0000 0000 0000 0000 0000 0000 0000
00000010: 0000 0000 0000 0000 0000 0000 0000 0000
00000020: 0000 0000 0000 0000 0000 0000 0000 0000
00000030: 0000 0000 0000 0000 0000 0000 0000 0000
00000040: 0000 0000 0000 0000 0000 0000 0000 0000
00000050: 0000 0000 0000 0000 0000 0000 0000 0000
00000060: 0000 0000 0000 0000 0000 0000 0000 0000
00000070: 0000 0000 0000 0000 0000 0000 0000 0000
00000080: 0000 0000 0000 0000 0000 0000 0000 0000
00000090: 0000 0000 0000 0000 0000 0000 0000 0000
000000a0: 0000 0000 0000 0000 0000 0000 0000 0000
000000b0: 0000 0000 0000 0000 0000 0000 0000 0000
000000c0: 0000 0000 0000 0000 0000 0000 0000 0000
000000d0: 0000 0000 0000 0000 0000 0000 0000 0000
000000e0: 0000 0000 0000 0000 0000 0000 0000 0000
000000f0: 0000 0000 0000 0000 0000 0000 0000 0000
00000100: 0000 0000 0000 0000 0000 0000 0000 0000
00000110: 0000 0000 0000 0000 0000 0000 0000 0000
00000120: 0000 0000 0000 0000 0000 0000 0000 0000
00000130: 0000 0000 0000 0000 0000 0000 0000 0000
00000140: 0000 0000 0000 0000 0000 0000 0000 0000
00000150: 0000 0000 0000 0000 0000 0000 0000 0000
00000160: 0000 0000 0000 0000 0000 0000 0000 0000
00000170: 0000 0000 0000 0000 0000 0000 0000 0000
00000180: 0000 0000 0000 0000 0000 0000 0000 0000
00000190: 0000 0000 0000 0000 0000 0000 0000 0000
000001a0: 0000 0000 0000 0000 0000 0000 0000 0000
000001b0: 0000 0000 0000 0000 0000 0000 0000 0000
000001c0: 0000 0000 0000 0000 0000 0000 0000 0000
000001d0: 0000 0000 0000 0000 0000 0000 0000 0000
000001e0: 0000 0000 0000 0000 0000 0000 0000 0000
000001f0: 0000 0000 0000 0000 0000 0000 0000 0000
00000200: 0000 0000 0000 0000 0000 0000 0000 0000
00000210: 0000 0000 0000 0000 0000 0000 0000 0000
00000220: 0000 0000 0000 0000 0000 0000 0000 0000
00000230: 0000 0000 0000 0000 0000 0000 0000 0000
00000240: 0000 0000 0000 0000 0000 0000 0000 0000
00000250: 0000 0000 0000 0000 0000 0000 0000 0000
00000260: 0000 0000 0000 0000 0000 0000 0000 0000
00000270: 0000 0000 0000 0000 0000 0000 0000 0000
00000280: 0000 0000 0000 0000 0000 0000 0000 0000
00000290: 0000 0000 0000 0000 0000 0000 0000 0000
000002a0: 0000 0000 0000 0000 0000 0000 0000 0000
000002b0: 0000 0000 0000 0000 0000 0000 0000 0000
000002c0: 0000 0000 0000 0000 0000 0000 0000 0000
000002d0: 0000 0000 0000 0000 0000 0000 0000 0000
000002e0: 0000 0000 0000 0000 0000 0000 0000 0000
000002f0: 0000 0000 0000 0000 0000 0000 0000 0000
00000300: 0000 0000 0000 0000 0000 0000 0000 0000
00000310: 0000 0000 0000 0000 0000 0000 0000 0000
00000320: 0000 0000 0000 0000 0000 0000 0000 0000
00000330: 0000 0000 0000 0000 0000 0000 0000 0000
00000340: 0000 0000 0000 0000 0000 0000 0000 0000
00000350: 0000 0000 0000 0000 0000 0000 0000 0000
00000360: 0000 0000 0000 0000 0000 0000 0000 0000
00000370: 0000 0000 0000 0000 0000 0000 0000 0000
00000380: 0000 0000 0000 0000 0000 0000 0000 0000
00000390: 0000 0000 0000 0000 0000 0000 0000 0000
000003a0: 0000 0000 0000 0000 0000 0000 0000 0000
000003b0: 0000 0000 0000 0000 0000 0000 0000 0000
000003c0: 0000 0000 0000 0000 0000 0000 0000 0000
000003d0: 0000 0000 0000 0000 0000 0000 0000 0000
000003e0: 0000 0000 0000 0000 0000 0000 0000 0000
000003f0: 0000 0000 0000 0000 0000 0000 0000 0000

network_body._body_endoder.seq_layers.2.weight f4 [256, 256]
-0.050540347 -0.021673499 -0.04018032 -0.12319364 -0.08533399 0.080639556 0.096720256 0.020587217
-0.08867335 0.0063242475 -0.062134966 0.078237824 -0.013567981 0.040535048 0.01893945 -0.025282314
-0.044064555 0.020549962 -0.03679184 -0.030262714 0.043313015 0.13740675 -0.023722578 0.0892994
-0.032409403 -0.14871837 0.035232943 0.1324367 -0.1522511 0.01084135 -0.035696853 -0.06523
-0.029156998 0.0009842968 0.010924533 0.032057296 0.0035997783 -0.118619196 0.08679778 0.0050975913
-0.18123803 -0.06921653 0.04918549 -0.014823259 -0.008480673 -0.19171558 0.06661923 -0.10100925
-0.013843893 -0.008587268 -0.031773373 0.0060332827 0.05655559 -0.032388404 -0.03488216 0.0023599826
0.07016469 -0.04498239 0.062022377 -0.051954396 -0.046274707 -0.025253417 0.013537833 0.020147711
-0.051996917 0.09219168 0.11775796 -0.07848528 0.0589224 0.023899801 0.026828153 -0.11302636
-0.0251704 0.060184646 -0.057982083 -0.030832985 -0.01719293 0.044818714 -0.08560857 -0.047680914
0.07658662 0.043140434 -0.014511486 0.031946126 -0.050623458 -0.05524014 0.09820281 -0.0017599495
0.010620883 -0.013208023 -0.032928865 0.034320958 0.074460395 0.11839647 0.12558405 0.014070029
0.011319712 0.027621664 0.10690449 -0.0031422593 -0.07738354 -0.043782156 0.044719044 0.015549464
0.07457727 -0.00060532603 0.0020637691 0.008186401 -0.04436738 -0.11186354 -0.027656022 -0.01752346
0.091121264 0.009896772 0.016467394 -0.058309317 -0.14566247 -0.04987103 -0.03453372 -0.081359126
0.008712021 0.09322811 -0.024653386 -0.059635665 -0.03649392 -0.014004592 0.010836456 0.06514958
-0.022030683 0.05150387 0.034362584 -0.12881766 0.017798668 0.18443185 0.102187835 -0.019197961
-0.03866051 -0.0023793944 0.030126423 -0.029409487 0.017984841 -0.00017825235 0.050188895 0.07521413
0.06889024 0.050585143 0.034065455 0.088207826 0.10982561 0.01608506 -0.06868991 0.060839277
-0.017904768 -0.13090613 0.05389417 0.07254174 -0.04282456 -0.05262163 0.08243772 -0.020483756
-0.0030850451 -0.045114584 -0.123352036 0.039284367 0.039881513 0.02038577 0.14215428 0.12433361
0.051295906 0.07900671 0.046734273 -0.0033979623 0.06642962 -0.08428947 -0.04315707 -0.06453872
-0.0052309437 -0.047004394 -0.058341667 -0.04632605 -0.08680058 0.004403742 0.023242699 -0.07585923
-0.025051353 0.06377921 0.08222539 0.0128889885 -0.12447726 0.05225553 -0.00040717685 0.13539693
0.0001211382 -0.07512755 -0.044306565 -0.0570487 0.008002942 0.08397606 -0.046376266 -0.10369508
0.106260896 -0.030445857 -0.076306224 -0.07489707 0.003560697 -0.041899428 -0.0151825715 -0.048970237
0.1726769 0.04801383 -0.00503844 -0.009399653 -0.013496922 -0.0021171225 0.04017182 -0.015896078
0.057640694 0.04883865 0.09605325 0.020625195 -0.05223538 -0.014554341 0.053382397 0.05229636
-0.1368091 -0.14686103 -0.0092703905 -0.062403128 -0.02258171 -0.044321343 0.10185456 0.09184356
-0.010403941 0.016129617 -0.04420629 0.0063527143 -0.027090998 -0.071656756 -0.06348756 0.04995735
-0.12647328 0.065414235 -0.07391742 -0.06188855 -0.079090744 0.011941306 -0.04738307 -0.04492816
-0.004678392 0.05794288 -0.093936175 0.031585313 -0.04657005 -0.010761143 -0.10481761 -0.029702147
00000000: 6503 4fbd 9f8c b1bc 1f94 24bd f24c fcbd
00000010: 96c3 aebd 5a26 a53d 4515 c63d 86a6 a83c
00000020: 609a b5bd a23b cf3b 3c81 7ebd 273b a03d
00000030: 3d4c 5ebc 1408 263d e826 9b3c db1c cfbc
00000040: 097d 34bd 6558 a83c 0ab3 16bd 83e9 f7bc
00000050: fd68 313d 5bb4 0c3e da55 c2bc 9be2 b63d
00000060: b9bf 04bd a149 18be 6b50 103d 7c9d 073e
00000070: b6e7 1bbe eb9f 313c dd36 12bd 4e97 85bd
00000080: a8da eebc 8503 813a d0fc 323c 834e 033d
00000090: 42ea 6b3b 9fee f2bd 09c3 b13d b209 a73b
000000a0: 7696 39be 65c1 8dbd b976 493d 41dd 72bc
000000b0: 85f2 0abc 1751 44be aa6f 883d f0dd cebd
000000c0: 7fd1 62bc 9db1 0cbc cc24 02bd d8b2 c53b
000000d0: d6a6 673d b4a9 04bd 99e0 0ebd f0a9 1a3b
000000e0: 81b2 8f3d 743f 38bd 2d0b 7e3d 22ce 54bd
000000f0: 8c8a 3dbd 41e0 cebc c9cd 5d3c d00c a53c
00000100: b8fa 54bd fece bc3d 162b f13d e4bc a0bd
00000110: 9d58 713d 84c9 c33c b7c6 db3c 5d7a e7bd
00000120: 2832 cebc 2d84 763d 9f7e 6dbd 7595 fcbc
00000130: 30d8 8cbc d493 373d 8c53 afbd 104d 43bd
00000140: 72d9 9c3d 06b4 303d 95c1 6dbc f1d9 023d
00000150: 8b5a 4fbd 7c43 62bd 8e1e c93d 1bae e6ba
00000160: 3603 2e3c 7766 58bc 6be0 06bd 2294 0c3d
00000170: b17e 983d d979 f23d 1b99 003e fb85 663c
00000180: 5076 393c d446 e23c bef0 da3d 5dee 4dbb
00000190: 437b 9ebd eb54 33bd 512b 373d 2ec3 7e3c
000001a0: f8bb 983d beae 1eba 4d40 073b 4120 063c
000001b0: 92ba 35bd b618 e5bd e28e e2bc 5c8d 8fbc
000001c0: c99d ba3d 1226 223c a1e6 863c c0d5 6ebd
000001d0: 8b28 15be 9145 4cbd 3b73 0dbd 9d9f a6bd
000001e0: ddbc 0e3c 61ee be3d e6f5 c9bc 8744 74bd
000001f0: a67a 15bd 8473 65bc 648b 313c 256d 853d
00000200: b179 b4bc b9f5 523d c8bf 0c3d c7e8 03be
00000210: 83ce 913c b4db 3c3e db47 d13d 0b45 9dbc
00000220: 7c5a 1ebd 9def 1bbb b0cb f63c 2aec f0bc
00000230: f254 933c 40e9 3ab9 df92 4d3d de09 9a3d
00000240: 5316 8d3d 5e32 4f3d 3888 0b3d 4ea6 b43d
00000250: 40ec e03d d1c4 833c 4cad 8cbd 9b32 793d
00000260: 05ad 92bc 420c 06be 22c0 5c3d c490 943d
00000270: ce68 2fbd c789 57bd 1bd5 a83d 8dcd a7bc
00000280: 782e 4abb 12ca 38bd fe9f fcbd a5e8 203d
00000290: cc5a 233d 0f00 a73c e490 113e 9fa2 fe3d
000002a0: a81b 523d 45ce a13d 706c 3f3d 59b0 5ebb
000002b0: 410c 883d f59f acbd 78c5 30bd e02c 84bd
000002c0: 5668 abbb ae87 40bd acf7 6ebd 62c0 3dbd
000002d0: 81c4 b1bd 444d 903b 7967 be3c 155c 9bbd
000002e0: 7f38 cdbc ad9e 823d c965 a83d 562c 533c
000002f0: efed febd e509 563d 5a7a d5b9 7ea5 0a3e
00000300: 930b fe38 79dc 99bd cd7a 35bd e6ab 69bd
00000310: c61e 033c a4fb ab3d 0af5 3dbd 165e d4bd
00000320: 509f d93d 9769 f9bc 7046 9cbd a363 99bd
00000330: 955a 693b bc9e 2bbd 52c0 78bc 0495 48bd
00000340: 37d2 303e 26aa 443d 8019 a5bb 0101 1abc
00000350: 3222 5dbc 6cbf 0abb 358b 243d 7e38 82bc
00000360: a618 6c3d 090b 483d 91b7 c43d 2bf6 a83c
00000370: c4f4 55bd 5575 6ebc 80a7 5a3d b534 563d
00000380: af17 0cbe bd62 16be d6e2 17bc 6c9a 7fbd
00000390: 47fd b8bc 4c8a 35bd 2099 d03d 7a18 bc3d
000003a0: 4b75 2abc 4222 843c a811 35bd 6e2a d03b
000003b0: f1ed ddbc c7c0 92bd c405 82bd 14a0 4c3d
000003c0: 3682 01be e6f7 853d 0462 97bd d97e 7dbd
000003d0: 54fa a1bd 78a5 433c c014 42bd 9706 38bd
000003e0: 324d 99bb 8355 6d3d 9c61 c0bd 9a5f 013d
000003f0: 3dc0 3ebd 814f 30bc 9daa d6bd eb51 f3bc

network_body._body_endoder.seq_layers.4.weight f4 [256, 256]
0.0061084474 0.10118117 0.024270294 0.040221207 -0.055675317 0.10156425 0.04412832 -0.019513344
-0.08525371 -0.003978653 0.036087293 -0.034741007 -0.023167377 -0.025200227 -0.015511777 -0.036504485
-0.009198628 0.086015455 0.13865793 -0.026405433 0.049315766 0.040475458 -0.12246531 -0.007738516
-0.07634812 -0.054077752 0.00044057253 -0.08748137 -0.05051661 0.018417785 0.02400526 -0.019947015
0.074298665 -0.00983053 -0.13912755 0.12671849 -0.0032756503 -0.011392986 -0.11713086 -0.08452616
-0.088457964 0.029604098 -0.0473011 0.16265127 0.06246041 0.03641937 0.010242251 -0.029373921
-0.024771022 -0.045762297 -0.12523241 -0.00039334968 0.087971956 -0.02459113 0.00039301408 0.0018540242
-0.10286102 0.052524734 0.09769708 0.03807038 0.10608092 -0.04151718 -0.041192472 -0.020073242
0.07586947 -0.053058036 -0.055624332 0.0007277731 0.008445774 0.005133798 -0.039926525 0.069348514
-0.009918654 0.021439694 -0.029993901 0.09722276 -0.06600932 -0.029334122 -0.05743835 -0.062014714
-0.11453626 0.025139717 -0.14077502 0.027758153 -0.027862333 0.06390109 0.010676646 -0.0696059
-0.014837857 -0.0362252 0.096413456 -0.068782136 -0.048060276 0.015962256 0.037699398 -0.008655362
0.054377224 -0.052712355 0.004695586 0.0069778245 -0.0021645508 0.10048668 0.05077736 -0.061511107
-0.054708906 -0.0022985453 0.017476773 -0.13649216 -0.0745641 0.023760865 -0.0971084 -0.091724455
-0.11645631 -0.023078283 -0.13498105 0.027361853 -0.0009338652 -0.048444163 0.043671 -0.01725147
0.023936963 0.062912054 -0.13186002 -0.07889621 -0.015573432 0.023203682 -0.023427738 -0.024731174
-0.013048078 -0.015968116 0.014738553 -0.03857021 -0.03140579 -0.037473504 0.122549206 0.008461467
-0.02033849 -0.103309944 -0.083063915 0.010836828 0.008343303 -0.013915071 0.1029296 -0.023684856
0.027954694 0.020259269 0.10035506 0.000110986744 0.102825545 0.075603575 0.06841135 -0.08149509
-0.12243038 -0.011353644 -0.07889773 0.037970893 0.0070908023 -0.003441025 -0.000158118 -0.102175035
-0.0044256994 0.045945607 0.15903366 0.09677445 0.01504639 -0.077562764 -0.06606178 0.112814404
-0.050823424 -0.12672909 0.0086455075 -0.1510829 -0.020798799 0.07501803 0.06226362 0.024712048
-0.16552377 -0.04995657 0.049623497 -0.014423827 -0.102544025 0.0059051984 -0.07526651 0.080607206
0.049883917 -0.008271277 0.025051838 0.13059194 -0.0006199714 0.041680187 0.17342602 -0.06931167
0.047881503 0.039066315 0.020727823 0.045443337 0.0007820516 -0.038601898 -0.0053194533 -0.032762222
-0.045740824 -0.0824133 0.033663925 -0.0028663173 -0.093439005 0.06574987 -0.04580059 0.007002498
0.08955043 0.037024394 0.092089936 0.0014100767 -0.07349383 0.06945798 -0.05094341 0.084598646
0.028716985 -0.13854298 0.102718994 -0.1118505 -0.07963013 0.025252447 -0.031843215 0.0050421837
-0.019894864 0.11570031 -0.012949115 -0.030727282 0.031175425 -0.16989383 -0.1030964 -0.066328175
-0.0143362405 -0.0035035925 -0.06346833 0.043642547 -0.01916768 0.17973164 -0.08430338 -0.007040104
0.014641876 0.020277074 -0.1176589 0.018769104 -0.03468792 -0.09525852 0.02996859 -0.02245231
0.13764231 -0.025614914 0.036618758 0.0402331 -0.019987747 0.065335535 0.0788587 -0.052859757
00000000: 5f29 c83b 1338 cf3d 7fd2 c63c febe 243d
00000010: cd0b 64bd eb00 d03d e6bf 343d 73da 9fbc
00000020: 7f99 aebd 5c5f 82bb 45d0 133d 964c 0ebd
00000030: 83c9 bdbc b570 cebc 1c25 7ebc ba85 15bd
00000040: d8b5 16bc df28 b03d 58fc 0d3e 3550 d8bc
00000050: 54ff 493d 98c9 253d 18cf fabd 6193 fdbb
00000060: 675c 9cbd a280 5dbd a5fc e639 6f29 b3bd
00000070: 81ea 4ebd e5e0 963c aea6 c43c ec67 a3bc
00000080: e629 983d 3b10 21bc 7477 0ebe 7ec2 013e
00000090: 4bac 56bb a6a9 3abc 4ee2 efbd 0d1c adbd
000000a0: 7329 b5bd 4b84 f23c ccbe 41bd 0e8e 263e
000000b0: 7dd6 7f3d 7a2c 153d 1dcf 273c 94a1 f0bc
000000c0: 99ec cabc 3f71 3bbd ed3c 00be 803a ceb9
000000d0: a42a b43d 5673 c9bc 750d ce39 bb02 f33a
000000e0: cca8 d2bd 2d24 573d 6815 c83d b0ef 1b3d
000000f0: f440 d93d eb0d 2abd 70b9 28bd a470 a4bc
00000100: 7461 9b3d 6253 59bd 57d6 63bd 07c8 3e3a
00000110: 2560 0a3c 6b39 a83b ff89 23bd 9806 8e3d
00000120: da81 22bc 4ca2 af3c c5b5 f5bc ba1c c73d
00000130: e52f 87bd 1d4e f0bc 7a44 6bbd 2403 7ebd
00000140: fd91 eabd cff1 cd3c 5427 10be 1165 e33c
00000150: 8c3f e4bc 93de 823d 19ed 2e3c 8a8d 8ebd
00000160: 7c1a 73bc e060 14bd 6b74 c53d a6dd 8cbd
00000170: dada 44bd 47c3 823c af6a 1a3d 38cf 0dbc
00000180: a7ba 5e3d e9e8 57bd 6edd 993b 3ca6 e43b
00000190: 23db 0dbb f6cb cd3d ecfb 4f3d 12f3 7bbd
000001a0: 7216 60bd 31a3 16bb 732b 8f3c 9ac4 0bbe
000001b0: 10b5 98bd 25a6 c23c c5e0 c6bd 08da bbbd
000001c0: a580 eebd ab0e bdbc 7938 0abe f725 e03c
000001d0: a2ce 74ba 636d 46bd 5de0 323d f452 8dbc
000001e0: 7317 c43c 09d8 803d 5006 07be 5694 a1bd
000001f0: b527 7fbc a615 be3c 87eb bfbc 0899 cabc
00000200: 9bc7 55bc 91cf 82bc f979 713c ccfb 1dbd
00000210: 5ca3 00bd d17d 19bd 14fb fa3d f7a1 0a3c
00000220: e89c a6bc 2a94 d3bd 6a1d aabd f38c 313c
00000230: 59b2 083c 0afc 63bc c1cc d23d be06 c2bc
00000240: 3e01 e53c c4f6 a53c f486 cd3d 8ec1 e838
00000250: 3396 d23d 0cd6 9a3d 401b 8c3d e6e6 a6bd
00000260: c7bc fabd a204 3abc 2295 a1bd 5e87 1b3d
00000270: f659 e83b d282 61bb 7acc 25b9 2541 d1bd
00000280: 7505 91bb 7631 3c3d b8d9 223e af31 c63d
00000290: 2285 763c 3ad9 9ebd 664b 87bd 3d0b e73d
000002a0: 392c 50bd 45c5 01be e3a5 0d3c 7ab5 1abe
000002b0: 3e62 aabc 0ea3 993d 2308 7f3d ec70 ca3c
000002c0: 107f 29be 439f 4cbd 0242 4b3d ea51 6cbc
000002d0: 9a02 d2bd 6580 c13b 5425 9abd 6415 a53d
000002e0: 1453 4c3d 4084 07bc 8339 cd3c e5b9 053e
000002f0: 9485 22ba d8b8 2a3d 9796 313e 47f3 8dbd
00000300: 651f 443d 0004 203d 65cd a93c cb22 3a3d
00000310: 9802 4d3a 061d 1ebd cf4e aebb ae31 06bd
00000320: bb5a 3bbd 4ec8 a8bd 2fe3 093d d3d8 3bbb
00000330: f35c bfbd dea7 863d 6699 3bbd 3675 e53b
00000340: 3766 b73d e4a6 173d a699 bc3d 53d2 b83a
00000350: ef83 96bd fc3f 8e3d 09aa 50bd 0e42 ad3d
00000360: e23f eb3c 36de 0dbe 565e d23d e011 e5bd
00000370: 1f15 a3bd 38de ce3c 086e 02bd e738 a53b
00000380: 8efa a2bc 49f4 ec3d 8628 54bc c8b7 fbbc
00000390: 9b63 ff3c a6f8 2dbe 3524 d3bd 11d7 87bd
000003a0: 8de2 6abc 879c 65bb affb 81bd 87c2 323d
000003b0: 8a05 9dbc 920b 383e 40a7 acbd acb0 e6bb
000003c0: 7be4 6f3c 1b1c a63c 26f7 f0bd aac1 993c
000003d0: ec14 0ebd e616 c3bd b080 f53c e8ed b7bc
000003e0: 1bf2 0c3e 5ed6 d1bc 8dfd 153d 77cb 243d
000003f0: 58bd a3bc a3ce 853d ac80 a13d 7983 58bd

action_model._continuous_distribution.log_sigma f4 [1, 2]
0.0 0.0
00000000: 0000 0000 0000 0000

action_model._continuous_distribution.mu.weight f4 [2, 256]
0.002562064 -0.026865205 -0.0029203265 0.0286764 0.005844581 0.008415832 -0.0075070546 -0.0021821952
-0.01015048 -0.019120464 -0.025092084 0.0011201616 -0.0010029095 0.007822595 0.0067511015 0.018266778
-0.009536022 0.008478411 0.016296923 -0.009033625 -0.004516374 0.00031518334 -0.034497056 -0.009442336
0.0005708979 -0.0048177717 0.012677811 -0.0062871473 0.012516091 0.004924554 -0.018940471 0.005341117
-0.014000997 0.0023608191 0.00405903 -0.0040584574 0.010555627 0.009246433 -0.0026638207 0.0024898516
-0.008211991 0.01085009 -0.011140749 -0.016518971 0.004299641 -0.0063728928 -0.020853542 -0.010741544
0.018557454 -0.001871145 0.019516721 -0.009165201 0.005278083 0.008782004 0.006060384 -0.019745788
0.007787239 -0.007377864 0.0005170464 0.0009346555 0.014956459 0.010739903 0.01592874 -0.0049810796
0.017153602 -0.005585436 0.011258745 -0.023703903 -0.00823675 0.004469699 -0.006921433 -0.010257872
-0.00047285366 0.008124202 0.0068633393 -0.009991533 -0.013853301 -0.015499909 -0.027973322 -0.009551896
0.0072180927 0.018723417 -0.020053266 -0.017732712 -0.015009023 0.014855889 0.0054993406 0.0007481738
0.0055201626 0.008166897 -0.012675087 -0.002108262 0.0019674085 -0.013398275 -0.007911074 -0.0046925754
-0.0036058226 -0.008330951 -0.020412376 0.010788864 0.0046051503 0.012041094 -0.0069662514 0.022125954
0.003316427 0.0011814467 -0.008104556 -0.00800042 -0.015562415 0.0023601302 -0.008473615 -0.004560374
0.013647762 -0.0060485313 -0.002015248 -0.007724651 -0.009518458 0.009671175 -4.8825637e-05 0.0047619934
0.030326022 0.00063574046 0.00470497 0.008502928 0.0054653855 -0.003938777 -0.004983738 -0.00426124
0.010292397 0.0038663563 0.012125546 0.018433949 -0.014211967 -0.0063455137 -0.00012185525 -0.0067816596
0.008145787 -0.015721774 0.0031220645 -0.013338779 0.006593082 -0.0007411642 -0.010430315 0.008612483
-0.018034535 0.007255714 0.009827372 0.0030885348 -0.001688036 -0.011211294 0.014950806 -0.0006646133
-0.0026445703 0.02140909 -0.023931028 0.013038086 0.006619149 0.015277083 0.0071003586 -0.006045294
-0.019364614 0.011472811 0.009158876 -0.008526589 -0.0017473275 -0.010900771 0.016930452 0.011065148
-0.009096219 -0.0014336887 0.013080545 0.0072786175 -0.003460176 -0.014984975 0.0053687016 -0.014856036
-0.0029374256 -0.01721452 0.0067690015 0.016023017 -0.01977658 -0.0018456597 0.0022905895 0.027690813
-0.012668051 0.011142407 -0.0033711311 -0.017634246 -0.015209371 0.011159581 -0.0025548746 -0.002576222
0.0069546127 -0.007210391 0.009192621 0.0026615544 0.018935023 -0.02483295 -0.0034958278 -0.029007414
0.0010466498 0.018901292 0.010902468 0.0025131055 0.0057045515 0.0025784425 0.011168021 0.0058489633
0.013440273 0.009521991 -0.0059262896 -0.009622724 0.0024726863 0.015527953 -0.005907227 0.012526224
0.00012708074 0.004621805 -0.01928721 0.022740593 -0.03597016 0.0065939575 0.011104814 -0.016557451
0.011795863 -0.00021859363 0.019642655 0.005044037 0.002491172 -0.025285497 -0.0037612808 -0.011088607
-0.021108711 0.01415508 0.017072003 -0.010023135 0.0040913993 0.001565999 -0.0038839267 0.010328182
0.028080508 0.019590436 0.014676074 -0.004835215 -0.010851144 -0.008425185 -0.018458568 0.00015948567
-0.004282595 -0.0032613368 0.009112977 -0.0042513846 -0.009354064 -0.012718948 0.01781503 0.01467666
00000000: 4de8 273b 6b14 dcbc f362 3fbb c5ea ea3c
00000010: e683 bf3b 8fe2 093c bdfd f5bb 2903 0fbb
00000020: 334e 26bc 85a2 9cbc ea8d cdbc 63d2 923a
00000030: 0f74 83ba 572a 003c 5838 dd3b 36a4 953c
00000040: fa3c 1cbc 08e9 0a3c 2081 853c c501 14bc
00000050: 17fe 93bb 313f a539 c94c 0dbd 07b4 1abc
00000060: 4fa8 153a 66de 9dbb 98b6 4f3c 6a04 cebb
00000070: 4a10 4d3c 275e a13b 0c29 9bbc 8904 af3b
00000080: 7064 65bc f9b7 1a3b 9d01 853b cffc 84bb
00000090: 82f1 2c3c 5a7e 173c 7f93 2ebb c72c 233b
000000a0: 968b 06bc 93c4 313c b087 36bc cb52 87bc
000000b0: 01e4 8c3b b3d3 d0bb 0cd5 aabc 4dfd 2fbc
000000c0: cd05 983c 3541 f5ba 88e1 9f3c a429 16bc
000000d0: c5f3 ac3b 65e2 0f3c 3096 c63b ebc1 a1bc
000000e0: 182c ff3b 02c2 f1bb 668a 073a ab03 753a
000000f0: f00b 753c 6bf6 2f3c fd7c 823c 5338 a3bb
00000100: b685 8c3c 0806 b7bb 9976 383c b02e c2bc
00000110: 6ff3 06bc 8e76 923b 30cd e2bb a210 28bc
00000120: 58e9 f7b9 5f1b 053c dde5 e03b 87b3 23bc
00000130: f5f8 62bc 55f3 7dbc 4f28 e5bc 8e7f 1cbc
00000140: c085 ec3b da61 993c bf46 a4bc 3144 91bc
00000150: 68e8 75bc 1d66 733c d033 b43b 1821 443a
00000160: 7be2 b43b 73ce 053c 2bab 4fbc c42a 0abb
00000170: a3ef 003b 7084 5bbc 739d 01bc 2dc4 99bb
00000180: aa4f 6cbb 8b7e 08bc db37 a7bc c7c3 303c
00000190: cde6 963b 0248 453c 2745 e4bb 7d41 b53c
000001a0: 6a58 593b c6da 9a3a f9c8 04bc 3214 03bc
000001b0: 80f9 7ebc 6aac 1a3b ebd4 0abc 316f 95bb
000001c0: dd9a 5f3c c232 c6bb 4012 04bb 121f fdbb
000001d0: 4ef3 1bbc d973 1e3c 21ca 4cb8 7f0a 9c3b
000001e0: 476e f83c d2a7 263a 262c 9a3b dd4f 0b3c
000001f0: fa16 b33b db10 81bb a04e a3bb dfa1 8bbb
00000200: 71a1 283c b262 7d3b 3aaa 463c cb02 973c
00000210: 4fd9 68bc 07ee cfbb 8a8c ffb8 af38 debb
00000220: e875 053c f3ca 80bc 8d9b 4c3b e58a 5abc
00000230: c80a d83b b04a 42ba e9e3 2abc 5f1b 0d3c
00000240: 29bd 93bc 57c1 ed3b fc02 213c 0469 4a3b
00000250: 1741 ddba 93af 37bc 3af4 743c 7239 2eba
00000260: 8750 2dbb 1e62 af3c 010b c4bc b29d 553c
00000270: 72e5 d83b bb4c 7a3c 20aa e83b 9a17 c6bb
00000280: 8aa2 9ebc 75f8 3b3c 1c0f 163c 1bb3 0bbc
00000290: 9506 e5ba 2699 32bc bbb1 8a3c 984a 353c
000002a0: 4f08 15bc 9cea bbba c84f 563c 7881 ee3b
000002b0: 1fc4 62bb 8a83 75bc efeb af3b bb66 73bc
000002c0: d381 40bb 7705 8dbc 80ce dd3b b442 833c
000002d0: 7f02 a2bc 10ea f1ba b71d 163b d8d7 e23c
000002e0: a88d 4fbc a48e 363c 32ee 5cbb b275 90bc
000002f0: ba30 79bc add6 363c af6f 27bb d5d5 28bb
00000300: 85e3 e33b 2545 ecbb a69c 163c 796d 2e3b
00000310: 9f1d 9b3c 796e cbbc 421a 65bb f5a0 edbc
00000320: bd2f 893a e2d6 9a3c 44a0 323c eab2 243b
00000330: 3fed ba3b 16fb 283b 13fa 363c a9a8 bf3b
00000340: 9734 5c3c 2002 1c3c 5231 c2bb a1a8 1dbc
00000350: cb0c 223b f568 7e3c 6991 c1bb cb3a 4d3c
00000360: fa40 0539 8372 973b 3600 9ebc 7b4a ba3c
00000370: 7255 13bd 2012 d83b f7f0 353c 7ea3 87bc
00000380: 6f43 413c 4836 65b9 a2e9 a03c 7348 a53b
00000390: ee42 233b 8823 cfbc d27f 76bb fdac 35bc
000003a0: 2dec acbc b5ea 673c 96da 8b3c 1338 24bc
000003b0: 2511 863b 3542 cd3a 7a89 7ebb 8937 293c
000003c0: 1809 e63c 1f7c a03c ea73 703c b970 9ebb
000003d0: ffc8 31bc ca09 0abc 6c36 97bc 9c3b 2739
000003e0: 0355 8cbb 27bc 55bb 994e 153c 334f 8bbb
000003f0: ca41 19bc 2263 50bc d3f0 913c 6076 703c

action_model._continuous_distribution.mu.bias f4 [2]
0.0 0.0
00000000: 0000 0000 0000 0000

onnx::Div_66 f4 [100]
1.0 1.0 1.0 1.0 1.0 1.0 1.0 1.0
1.0 1.0 1.0 1.0 1.0 1.0 1.0 1.0
1.0 1.0 1.0 1.0 1.0 1.0 1.0 1.0
1.0 1.0 1.0 1.0 1.0 1.0 1.0 1.0
1.0 1.0 1.0 1.0 1.0 1.0 1.0 1.0
1.0 1.0 1.0 1.0 1.0 1.0 1.0 1.0
1.0 1.0 1.0 1.0 1.0 1.0 1.0 1.0
1.0 1.0 1.0 1.0 1.0 1.0 1.0 1.0
1.0 1.0 1.0 1.0 1.0 1.0 1.0 1.0
1.0 1.0 1.0 1.0 1.0 1.0 1.0 1.0
1.0 1.0 1.0 1.0 1.0 1.0 1.0 1.0
1.0 1.0 1.0 1.0 1.0 1.0 1.0 1.0
1.0 1.0 1.0 1.0
00000000: 0000 803f 0000 803f 0000 803f 0000 803f
00000010: 0000 803f 0000 803f 0000 803f 0000 803f
00000020: 0000 803f 0000 803f 0000 803f 0000 803f
00000030: 0000 803f 0000 803f 0000 803f 0000 803f
00000040: 0000 803f 0000 803f 0000 803f 0000 803f
00000050: 0000 803f 0000 803f 0000 803f 0000 803f
00000060: 0000 803f 0000 803f 0000 803f 0000 803f
00000070: 0000 803f 0000 803f 0000 803f 0000 803f
00000080: 0000 803f 0000 803f 0000 803f 0000 803f
00000090: 0000 803f 0000 803f 0000 803f 0000 803f
000000a0: 0000 803f 0000 803f 0000 803f 0000 803f
000000b0: 0000 803f 0000 803f 0000 803f 0000 803f
000000c0: 0000 803f 0000 803f 0000 803f 0000 803f
000000d0: 0000 803f 0000 803f 0000 803f 0000 803f
000000e0: 0000 803f 0000 803f 0000 803f 0000 803f
000000f0: 0000 803f 0000 803f 0000 803f 0000 803f
00000100: 0000 803f 0000 803f 0000 803f 0000 803f
00000110: 0000 803f 0000 803f 0000 803f 0000 803f
00000120: 0000 803f 0000 803f 0000 803f 0000 803f
00000130: 0000 803f 0000 803f 0000 803f 0000 803f
00000140: 0000 803f 0000 803f 0000 803f 0000 803f
00000150: 0000 803f 0000 803f 0000 803f 0000 803f
00000160: 0000 803f 0000 803f 0000 803f 0000 803f
00000170: 0000 803f 0000 803f 0000 803f 0000 803f
00000180: 0000 803f 0000 803f 0000 803f 0000 803f

onnx::Div_69 f4 [6]
1.0 1.0 1.0 1.0 1.0 1.0
00000000: 0000 803f 0000 803f 0000 803f 0000 803f
00000010: 0000 803f 0000 803f
